reacher_20policy_target.pth (torch, 542751 bytes, 6 tensors)

hidden_layer_1.weight f4 [400, 33]
000000 ff 26 fd bd fe c9 b0 3e 8c 30 9e 3d fa 25 a5 3f
       -0.123609535 0.34529108 0.07724103 1.2902215
000010 54 b8 35 bc 1d 68 23 be c4 83 e0 be 01 0a 5a be
       -0.0110913105 -0.15957685 -0.4385053 -0.21292879
000020 e1 67 da 3d eb 7a 57 be 6d 33 cd 3d bb a0 f5 3d
       0.106643446 -0.21042983 0.10019574 0.119935475
000030 47 51 db bd b0 c5 63 bb 07 d0 0f 3e 2b 22 fa bd
       -0.10708862 -0.0034755282 0.140442 -0.12213548
000040 50 22 9b 3f cd 62 1c 3d 44 58 00 bd 20 8b d9 3e
       1.2119846 0.03818016 -0.031334177 0.42488956
000050 a9 40 d4 bd 23 51 2a 3e 5a 1f 19 be 45 90 a8 bc
       -0.103638954 0.16632514 -0.14953366 -0.020576606
000060 be 31 18 be 63 71 1c bc 29 5a b5 bd 41 5a 8e 3e
       -0.14862725 -0.009548518 -0.08855087 0.27803233
000070 17 ea 4f 3e c9 65 4b 3d 4a 3b 90 be b7 4f ea bc
       0.20304142 0.049657617 -0.28170234 -0.028602464
000080 af bc 5d bf f8 b6 ad be 55 5d 21 bd c6 b0 17 bd
       -0.86616033 -0.33928657 -0.03939565 -0.03703382
000090 94 50 72 bf 7e 9b 19 3e 27 9e 83 bf 04 9f c2 3e
       -0.946542 0.15000722 -1.0282639 0.38011944
0000a0 4b 02 9d be 9b 2d 8d be 62 a3 90 bd 42 77 fc bc
       -0.30665812 -0.27573857 -0.07062413 -0.030818585
0000b0 3c e1 2c 3d ed 88 90 bd bb 59 08 3e a9 75 51 3e
       0.042206988 -0.070573665 0.1331548 0.2045504
0000c0 6d e6 98 3d 01 c7 38 bf 31 7f e0 3e 18 2e f5 be
       0.07465825 -0.72178656 0.4384704 -0.4788673
0000d0 37 a4 35 3f e3 c4 d3 bd 9e 2d e2 3d 23 83 1a 3d
       0.70953697 -0.103402875 0.11043857 0.037722718
0000e0 c0 cd b1 bc f1 49 ca 3c 59 b9 49 bd f4 06 8f be
       -0.021704555 0.024693461 -0.049249027 -0.27934992
0000f0 6a 23 1a 3e e6 50 bd bd c3 af 28 bd 2c 46 e0 bd
       0.15052572 -0.09243946 -0.041183244 -0.10950884
000100 ec 03 3b bc b0 02 3a 3e c6 6e e0 bd c5 57 07 be
       -0.011414509 0.18165088 -0.10958628 -0.13217075
000110 6f dd 8d 3e da 8d 65 bf 76 f6 bf be 47 b0 ad 3e
       0.27708003 -0.89669573 -0.37492722 0.3392355
000120 13 2e 09 3f 7a 73 0a bc c1 73 e8 3d b8 c0 19 be
       0.5358593 -0.008450383 0.11350203 -0.15014923
000130 8d a3 d0 3c a5 b2 83 3d 39 89 33 3d bf 15 e4 bc
       0.025468612 0.06430558 0.043832038 -0.0278424
000140 dc a3 ad ba 73 9d 03 be 64 62 5f be 24 6f d6 3d
       -0.0013247686 -0.12853031 -0.21814877 0.10470417
000150 bf d8 0a 3d 32 7a 83 3e 25 2c cf bc e0 fe cf bd
       0.03389811 0.25679165 -0.025289604 -0.101560354
000160 ad 15 40 be bd 5d 3e bd dd 7b 14 be 4e db 4c 3d
       -0.18758269 -0.046476115 -0.14500375 0.050013833
000170 fd 7f 25 3e ad 18 1b 3e c1 b8 4c bd ec d4 0b bd
       0.16162105 0.15146132 -0.049980883 -0.034138605
000180 cb 10 5a be 2b b2 3c 3d 63 08 38 3f d6 5b 78 3d
       -0.21295469 0.04606835 0.718878 0.060634457
000190 3b 8a 55 be 5f 95 a0 3d 37 da 08 bf 53 65 7e be
       -0.20853512 0.0784099 -0.5345797 -0.2484334
0001a0 62 91 a6 3e 60 b4 ae bd 8e ba 96 3d 05 c6 eb bd
       0.32532793 -0.085304976 0.07359801 -0.115123786
0001b0 9c 3a 4d bd d8 96 7c 3d 3b f5 ed 3c da b1 08 3e
       -0.050104722 0.061667293 0.029047599 0.13349095
0001c0 0d d0 eb bd 76 4a 11 3e 3b 1b de 3d 20 a9 a1 be
       -0.11514292 0.14188561 0.108450375 -0.31574345
0001d0 fa d1 1f bf c0 16 ed bd f8 31 15 3f 67 de 73 bd
       -0.62429774 -0.11576605 0.5827937 -0.05953827
0001e0 cc ce c4 bd fc 90 89 3c 1b 58 6e bc a4 cd db bb
       -0.09609756 0.016792767 -0.014547373 -0.006707864
0001f0 81 42 ef 3d 4a 40 a0 bd 5b 88 99 3d 37 f3 1a 3e
       0.116826065 -0.07824762 0.07496711 0.15131842
000200 00 58 54 b8 39 13 e9 bd 80 03 08 ba 4b 9b df 3f
       -5.0626695e-05 -0.113806196 -0.000518851 1.7469267
000210 5c 2b df bd 56 f6 93 bc 17 24 25 be 2f 15 d0 be
       -0.10896942 -0.018061798 -0.16127048 -0.40641162
000220 12 29 9a be 9b 90 f6 3e 44 66 88 be 0e 14 61 3d
       -0.3010946 0.481572 -0.26640522 0.054950766
000230 72 02 e3 3e e7 1d 43 3e f4 38 9f bd 78 5c 1f be
       0.44337803 0.19054376 -0.07774535 -0.15562618
000240 fd 49 9a bd c8 94 0a be a7 f9 87 3d a7 1e 2a 3e
       -0.075336434 -0.13533318 0.06639414 0.16613255
000250 29 90 85 3c 84 50 92 bf 66 11 37 3e 6b 47 a2 be
       0.016304092 -1.1430821 0.1787773 -0.31695113
000260 f2 be b1 bc e0 ea 76 3c b4 2a 1c 3d b7 a2 88 bd
       -0.021697495 0.015070647 0.038126662 -0.066716604
000270 eb 3c 65 bd b4 81 ec bd 75 d4 0f 3e b2 2f 88 3d
       -0.0559663 -0.115481764 0.1404589 0.06649722
000280 40 de 58 bd e0 80 1b bd 5d 49 bc bd 68 c4 19 bc
       -0.05294633 -0.0379647 -0.091936804 -0.009385206
000290 df cf 88 3d e6 73 31 3e 29 dc 15 be 59 4d 3b 3e
       0.06680273 0.17329368 -0.14634766 0.18291225
0002a0 35 ad 61 3e 7c 69 c9 bd 66 ac be 3b 16 a4 59 3e
       0.2203873 -0.09834573 0.0058188913 0.21254
0002b0 62 fc 46 bc 78 96 eb bd a8 7e a9 be 86 a9 c1 bd
       -0.012145134 -0.11503309 -0.33104444 -0.09456162
0002c0 75 cf 86 3d 2e 39 0e 3d b0 71 21 bd a2 d2 d0 3d
       0.06582538 0.0347225 -0.03941506 0.10196425
0002d0 98 76 e3 bd 3b cc 12 bf d0 63 75 3f fb 13 ec 3e
       -0.11106604 -0.5734288 0.95855427 0.46108994
0002e0 fd 06 9c 3e 3c 49 23 3d fa c5 ea bd bf 7b 5f 3d
       0.30474082 0.039864764 -0.11463542 0.054561373
0002f0 b0 38 28 3e 14 70 cd 3d 5a da 8c 3d 80 6f cb bd
       0.16427875 0.10031143 0.06877585 -0.09933376
000300 7e ee 85 3d 0d eb 3f bd 89 27 40 3d 67 0a a1 bc
       0.065396294 -0.04685502 0.046912704 -0.01965828
000310 c0 3e 71 3a aa e1 ba 3e 5a 5f d5 bd bf fe 26 3e
       0.0009202771 0.36500293 -0.104185775 0.16308115
000320 c5 59 d6 bd 55 bf 67 3f d8 bb 6f be 13 c5 36 3f
       -0.10466341 0.90526325 -0.234115 0.7139446
000330 64 b2 8e be 87 69 10 be bf 94 f5 3a db 2f 25 bd
       -0.27870476 -0.14102755 0.0018736346 -0.04032884
000340 f7 1f 28 3e 1a b0 f7 3c 4f 6a 73 3d 75 d8 dc 3d
       0.16418444 0.030235339 0.059427556 0.107834734
000350 f5 11 43 bd 7b c0 74 3d d9 02 02 bf 4c e6 92 bd
       -0.047624547 0.059753876 -0.50785595 -0.07172832
000360 4e fd 07 3f 8c f1 ce 3e fd 9d dd 3d e0 34 4b 3c
       0.5312089 0.4041866 0.108211495 0.012402743
000370 95 ec 41 bc a9 d0 22 3d dd db 76 3c a1 22 83 3c
       -0.011836191 0.039749775 0.015067068 0.016007723
000380 ae 7e d2 bc 1b a6 9e 3c 8c be 32 3e b1 70 2f bd
       -0.025695171 0.019366315 0.174555 -0.04283208
000390 63 df 24 bd ac e8 2c 3c 2b 6b 5b bf 55 d9 3d 3e
       -0.0402521 0.01055352 -0.857104 0.18539937
0003a0 37 bc 27 bd f4 e9 d7 bd 2d c8 0b 3f f6 9f d8 bc
       -0.04095098 -0.1054267 0.5460232 -0.026443463
0003b0 92 d9 1f be 6c aa 17 be 74 d7 7a bd b2 de 60 bd
       -0.1561034 -0.14811105 -0.06124063 -0.05489988
0003c0 ad b8 ef bd 36 02 7e 3d c8 f9 af bd 5c c4 09 bc
       -0.11705146 0.062013827 -0.08592564 -0.008408632
0003d0 71 b2 f7 bd 39 f4 4e bb 2c 14 50 bd 84 52 38 3d
       -0.12094582 -0.0031578674 -0.050800487 0.045000568
0003e0 52 09 1b bf a9 e0 17 3f 16 f1 3d 3f 47 79 96 bc
       -0.60561097 0.5932718 0.7419599 -0.018368376
0003f0 84 bc 52 3d dc 96 00 bd 00 0c 7b bd 25 fe be 3c
       0.051449314 -0.03139387 -0.06129074 0.023314545

hidden_layer_1.bias f4 [400]
000000 cf 08 c1 be 97 ee 4d be 80 9a 85 bc 30 f6 91 bd
       -0.37702033 -0.20110546 -0.016309023 -0.07127035
000010 61 07 4e be 49 98 4b be ca 8b 14 be d4 a0 fe bd
       -0.20120002 -0.19882311 -0.1450645 -0.12433019
000020 33 d6 a0 bc 00 eb 88 be fc 2e 5d 3e 9d 06 13 be
       -0.019633388 -0.2674179 0.21599954 -0.14357992
000030 9a 8e bd 3d 13 7f 48 be 34 d5 15 bd b7 8f 80 bd
       0.09255715 -0.19579725 -0.03658028 -0.062774114
000040 d3 d9 58 be 9c aa fb bd 9d 9c c5 be 09 30 1f be
       -0.21176843 -0.122884005 -0.3859605 -0.15545668
000050 e9 01 99 be 5f 6d 89 3b 02 64 1a be 78 db 48 be
       -0.2988427 0.0041939463 -0.15077212 -0.1961497
000060 f6 3b 00 be 39 ea d4 be 96 49 10 be 7b b0 09 be
       -0.12522873 -0.41584948 -0.14090571 -0.13446228
000070 96 36 4e 3e 7f f7 45 be b8 02 8b bb 4a da f8 bc
       0.2013801 -0.19332694 -0.0042422675 -0.030377526
000080 75 a1 a2 3d 90 3e 1e be 89 f7 22 be 0e d5 2e be
       0.07940952 -0.15453553 -0.1591474 -0.17073461
000090 3a 41 7a bd 88 87 ac 3a 95 11 c4 3d 99 7d 70 bd
       -0.06109736 0.001316295 0.09573666 -0.05871353
0000a0 e9 ab 15 be fe cb 20 3e c5 7e b4 3d 77 c9 6a bd
       -0.1461636 0.15702817 0.08813242 -0.057321038
0000b0 99 09 86 be 48 b7 e8 3d e7 dd 36 3e 5d 24 b5 3d
       -0.26179197 0.11363083 0.17858087 0.08844826
0000c0 de b0 d4 bd 5a 3a 83 be a4 55 cc 3d 32 ae dd 3d
       -0.10385297 -0.25630456 0.09977272 0.10824241
0000d0 2d 7f 1b bc 47 a3 a6 bd a5 fe 6d be b5 5b 0f bd
       -0.00949077 -0.081366114 -0.2324167 -0.034999568
0000e0 e4 39 42 3d 42 9a 11 be 70 d0 37 be 22 ba 32 3d
       0.04741849 -0.14219001 -0.17950606 0.04363454
0000f0 32 9c d7 bd c1 63 b9 be 83 5f 86 3d 1d c2 8a bd
       -0.10527839 -0.3620892 0.06561186 -0.067753054
000100 3f 9d ab be 68 10 fb bd 08 77 fe 3d 6e 7c cf be
       -0.33518407 -0.122589886 0.12425047 -0.4052462
000110 28 23 8e bd 99 fd fa bc 64 1c 11 be 92 0e 07 be
       -0.06940299 -0.030638503 -0.14170986 -0.13189152
000120 a3 ae 87 be 3d 0c 22 be 6f f1 29 3e ba 44 d1 bd
       -0.26500425 -0.15824981 0.16596006 -0.10218187
000130 22 a5 a5 be 1b 91 0a be 8b 22 ba 3b d4 e3 2e be
       -0.3235255 -0.13531916 0.0056803874 -0.17079097
000140 8b 20 9b bd 76 ba af bd d2 95 af be b1 ff ff bb
       -0.075745665 -0.085804865 -0.3429399 -0.007812463
000150 a9 a0 bb be 8f 32 1b 3d 86 97 81 be 85 57 51 3c
       -0.3664601 0.037890013 -0.25310916 0.012777214
000160 b8 ca 1a be 76 0d f2 be 54 db 1b be b6 83 7a be
       -0.15116394 -0.47275895 -0.15220386 -0.24464306
000170 3f 66 6e 3d 3d 11 ea bd e3 24 9f be ab 35 92 be
       0.05820298 -0.11429069 -0.3108283 -0.2855657
000180 61 0f b2 be fa ee 6c be 88 af 17 bd 2d f9 e6 bc
       -0.34777358 -0.23138037 -0.037032634 -0.028194988
000190 98 95 67 be 9e ff 01 bd 9c fb ca bd a8 c4 1d 3e
       -0.22615659 -0.031737916 -0.09911272 0.1540705
0001a0 db d4 a4 bd 81 3e 6c 3e 61 19 68 be bc 69 84 be
       -0.080484115 0.23070718 -0.22665931 -0.2586192
0001b0 f6 c3 62 be 6c 7d 3a be 85 98 92 bd 82 a0 54 bd
       -0.22145066 -0.18211907 -0.07157997 -0.051910885
0001c0 20 39 8b be 52 df 3b 3d 59 97 33 3c bc 3b bd 3d
       -0.2719202 0.04586727 0.010961377 0.09239909
0001d0 f9 23 9b be 9d 47 cc 3d 35 76 40 be 1a 31 4b be
       -0.30300882 0.09974597 -0.18795092 -0.1984295
0001e0 f6 83 91 be e5 03 77 be 28 87 a6 3d 12 0b be 3d
       -0.2842099 -0.2412258 0.08131248 0.09279455
0001f0 df f7 2f be 4d 8e 18 be a7 3e 34 be 43 01 76 be
       -0.17184399 -0.14898033 -0.17602025 -0.24023919
000200 40 9b c3 bc 9c 13 7e bd a0 15 8e be c1 58 13 3e
       -0.02387774 -0.06203042 -0.27750874 0.14389326
000210 b8 9a 79 3e c9 5b 7f be 5f c2 a3 bc 18 6c 22 be
       0.24375427 -0.24937357 -0.019990144 -0.15861547
000220 f7 ca bb be 5c d5 41 3e 5e c3 4a 3e ff 35 5a be
       -0.36678287 0.18929046 0.19801089 -0.2130966
000230 f3 f2 39 be 55 5e 78 be d5 ec 1d be 1a b2 c5 bd
       -0.18159084 -0.24254735 -0.15422376 -0.09653111
000240 d2 85 01 bf ac 14 e3 bd eb 48 8a be 38 92 68 be
       -0.5059482 -0.11087927 -0.27008757 -0.22712028
000250 57 3e df be 39 a1 47 3d da f5 87 be 3c 14 2c be
       -0.4360225 0.04873774 -0.26554757 -0.16804594
000260 d6 79 da 3e a3 af cf bd 45 f4 5f be 77 51 16 bf
       0.42671078 -0.10140922 -0.21870525 -0.58718055
000270 26 05 11 3e 5c 90 72 be 51 90 06 3e 0b c0 03 3d
       0.1416212 -0.23687881 0.1314099 0.03216557
000280 23 f1 e9 bd ee 0e 82 3e 24 92 06 3d 9e a1 a7 3d
       -0.11422946 0.25402015 0.032854214 0.08185123
000290 36 03 f1 3d a5 cb 98 bd 08 8f fd bc fb c9 4c be
       0.117681906 -0.07460717 -0.030951992 -0.19998924
0002a0 21 52 46 be 75 3c f9 3d 0a bc a2 be f6 80 cc be
       -0.19367267 0.121697344 -0.31784087 -0.3994214
0002b0 79 11 26 3d 5f b8 2e be b5 81 be be 30 17 9f 3e
       0.040544007 -0.1706252 -0.37208334 0.31072378
0002c0 49 b5 a4 be 3b 1c 0f be 72 d1 22 be fa 0d ec 3c
       -0.3216956 -0.13975613 -0.1590021 0.028815258
0002d0 4d 0f a0 3c cf 1c f0 bc 76 f9 0c be 24 f0 6f be
       0.019538546 -0.029310612 -0.13767037 -0.2343145
0002e0 9b 5e 33 be 81 38 5c be af 2f 03 be 4e 9e 39 3d
       -0.17516558 -0.2150593 -0.12811159 0.045316987
0002f0 39 0e 75 3b 2d 29 b9 3d 36 24 7f be 7d 75 23 be
       0.003739251 0.09041057 -0.24916157 -0.15962787
000300 27 61 50 be fc c2 42 3e 94 40 38 be ed a2 1f be
       -0.2034956 0.19019693 -0.17993385 -0.15589495
000310 f6 fd 5a be 94 02 e1 be 16 06 8b 3d 82 91 62 bd
       -0.21385941 -0.4394728 0.0678827 -0.05531455
000320 e6 8e 52 be b4 c5 85 be 94 60 0b be c8 40 9a bd
       -0.20562324 -0.26127398 -0.1361106 -0.07531887
000330 6d c4 8e bd 1e df 12 bc d4 0d 01 be 23 44 db bd
       -0.06971059 -0.008964328 -0.12602931 -0.107063554
000340 96 85 55 be 03 33 12 be 94 bb 34 be 64 3e 5b 3d
       -0.2085174 -0.14277272 -0.1764968 0.053526297
000350 84 93 c4 be f5 0f 85 be dd 67 02 be ed 9a 02 bf
       -0.38393795 -0.25988737 -0.12734933 -0.5101765
000360 66 e5 82 be ed b2 0f be ff b0 b1 bd de 06 27 3e
       -0.25565642 -0.14033099 -0.086763375 0.16311213
000370 e8 20 84 bd 6f cc d3 be d5 57 6d be cf 6e a4 be
       -0.06451589 -0.41366908 -0.23178037 -0.3211579
000380 71 ae 6b 3e 01 f3 20 bd d4 70 de bd 87 80 73 bd
       0.23015763 -0.039294247 -0.10861364 -0.059448745
000390 01 1f 71 be 6c d5 fa be 64 05 c9 bd ff 7c 90 bc
       -0.23546983 -0.48990953 -0.09815481 -0.017637728
0003a0 af 51 c8 bd f5 80 83 bc 5d ce 29 be d1 64 9a 3e
       -0.09781205 -0.016052702 -0.16582628 0.30155042
0003b0 b2 00 42 be a6 88 10 bd 2d 3f d2 be 46 01 3a be
       -0.18945578 -0.035286568 -0.41063824 -0.18164548
0003c0 a2 54 c4 3d 4d 84 4c 3c 87 a4 2d 3e ae 56 9b bd
       0.09586455 0.012482715 0.16957293 -0.07584892
0003d0 ef 8e 8e be aa 9f dd be 0d 35 0a 3e ca a7 15 3e
       -0.27843425 -0.43285877 0.134968 0.14614788
0003e0 37 fe 3c 3e 00 8b be be 0a 29 70 bd 65 d7 1b be
       0.1845635 -0.37215424 -0.058632888 -0.15218885
0003f0 5c d2 73 be 9d db 54 be eb b7 97 3c 06 1c 83 be
       -0.23810714 -0.20786901 0.018520316 -0.25607318

hidden_layer_2.weight f4 [300, 400]
000000 81 95 b8 3d 3c ca 79 3e 88 2a df 3d f3 45 79 3e
       0.090128906 0.24393553 0.10896784 0.2434309
000010 1f e7 b2 3e 51 d1 88 be 37 3e fd 3d 2d 37 08 be
       0.34941956 -0.26722196 0.12365382 -0.13302298
000020 11 e7 ea 3d 3d 30 3f be ca f0 12 3e 6a ab 76 3d
       0.11469854 -0.18670745 0.14349666 0.060222067
000030 52 9d b3 3d bb a1 9b bd 05 07 a8 be 17 94 ca 3c
       0.08770241 -0.07599207 -0.32817855 0.024728818
000040 bb 73 d8 3e 7d b6 3c be 3f c3 bb 3e ee 63 8f 3e
       0.42275795 -0.18428989 0.36672398 0.28005928
000050 f1 cd 47 3e 07 f2 d0 3a cd 2e 9d 3d e8 b6 9e bd
       0.19512154 0.001594127 0.07674942 -0.0774973
000060 59 fd 8c 3e 65 1b be bd de 59 b0 bc 3a 4a 97 be
       0.2753704 -0.09282569 -0.021527227 -0.29548818
000070 8f 3a a3 3e 86 09 c0 bc ad ea 8c 3d 29 b0 05 be
       0.31880614 -0.023442041 0.06880698 -0.13055481
000080 71 3c 1d 3e 9e 38 bc bd ba 2c af be 3f 7e 93 3c
       0.15355088 -0.09190486 -0.3421381 0.018004535
000090 00 db 20 be 18 c6 4c be a5 c0 38 be 8f cb 87 3e
       -0.15708542 -0.19997442 -0.18042238 0.2652249
0000a0 b6 a9 9f 3e 12 8a 00 3f e5 53 97 be 31 dd ce 3e
       0.31184167 0.5021068 -0.29556194 0.4040313
0000b0 d6 56 95 bd 99 ee 06 be 06 88 d3 3d a2 59 9a be
       -0.07291953 -0.13176955 0.10328679 -0.3014651
0000c0 07 8d 0e be 41 db a2 3e 0e e3 1c 3e 07 ef db 3d
       -0.13920985 0.31807902 0.1532099 0.1073895
0000d0 07 f2 21 be 30 fc 5b be 3d 89 f5 bd ee e3 a1 bd
       -0.15814982 -0.2148292 -0.11989067 -0.07904802
0000e0 94 cf 1a 3c 6b b0 94 be 90 c9 5a 3e 04 ce c9 bd
       0.009448905 -0.29040846 0.21365952 -0.098537475
0000f0 ab de c4 3d bc 17 98 bd 69 ca 42 be 7a 86 1e 3e
       0.09612783 -0.07426402 -0.19022526 0.15480986
000100 34 3c fa 3c 7f 7e 63 3c c8 12 21 be 44 82 56 3e
       0.030546285 0.0138851395 -0.1572982 0.2094813
000110 0e 83 33 3d 82 f3 c1 3d 7b 74 c0 3d e8 cf d7 3e
       0.043826155 0.094702736 0.09397217 0.42150807
000120 35 75 ab 3e 7d 2a 1e bd ba e6 0f 3e 96 1d 50 bd
       0.3348786 -0.03861474 0.14052859 -0.050809465
000130 93 3b 8c be e8 d3 00 3e 81 c1 8e 3d a6 bc 5a bd
       -0.27389202 0.12580836 0.06970502 -0.053402565
000140 56 0d 8d bd e7 09 1a 3e da f8 03 bf 54 53 be 3d
       -0.06887309 0.1504284 -0.5155159 0.09293237
000150 09 14 74 3d 98 fb 17 be f4 70 1f bd 3e 87 51 3e
       0.05958942 -0.14842069 -0.03892608 0.20461747
000160 15 06 73 3e db ff 06 be 9c ab 50 be f9 47 8d bb
       0.23732789 -0.13183539 -0.20377964 -0.0043115583
000170 97 bf 17 3d fe ff 9d 3c 79 56 a4 3d ad 50 32 3d
       0.03704795 0.019287106 0.08024306 0.04353397
000180 22 83 4f 3e 9c 8e bd 3e 8a a2 84 3e 20 da 02 be
       0.20264867 0.37022865 0.25905257 -0.1277852
000190 8a 92 88 be d8 93 81 3e e9 06 0c be 75 5a 0c bc
       -0.266743 0.25308108 -0.13674511 -0.0085664885
0001a0 5c 37 dd be 6b bd db bc 6c f3 21 be be 88 61 3e
       -0.43206298 -0.02682372 -0.15815514 0.22024819
0001b0 89 f1 af 3e a2 02 e9 bd 30 1f 3c be 15 bd aa bd
       0.34363964 -0.11377455 -0.18371272 -0.08336846
0001c0 63 c7 a5 3c 9f ea 1e bd 98 be 8a 3b 58 da 65 be
       0.020236677 -0.03879797 0.0042341463 -0.22446573
0001d0 e3 b9 58 bb 66 15 29 be 39 2e ae bd 2d fb 53 bc
       -0.0033069781 -0.16512069 -0.0850491 -0.012938303
0001e0 08 78 9e bd cb 4e 3c be 12 fe 07 3e 5d e2 06 3e
       -0.07737738 -0.18389432 0.13280514 0.13172288
0001f0 9b 7a dc 3d 76 67 b9 3d 26 6a bc 3d 66 b6 0e be
       0.10765573 0.09052937 0.09199934 -0.13936767
000200 4f ea 8d bc c7 4d 95 3c 39 a7 60 3e 89 80 b7 3d
       -0.017323641 0.018225564 0.2193879 0.08960063
000210 46 5e e1 bd bc 1d e5 3c 3e fc 6e bd ce 96 b3 be
       -0.11004309 0.02796828 -0.058346026 -0.35075992
000220 23 b3 06 3c be 29 ca 3d 2d 9c 26 3e b4 cf 62 bd
       0.00822142 0.09871243 0.16270514 -0.055373862
000230 d7 dc 23 3d 01 c3 c3 3c 7f 06 97 bd 16 6d 33 bd
       0.04000553 0.023896696 -0.07374286 -0.043805204
000240 4b ad 48 3e 9d 28 f0 3c c5 74 3c 3d 37 37 6c bd
       0.19597356 0.02931624 0.046009798 -0.057669844
000250 45 9e 94 bd 5a 79 54 3d 59 d9 d8 ba ba ab 73 be
       -0.0725675 0.051873542 -0.0016544267 -0.23795977
000260 fd ad 94 3d c9 fe a1 bd 87 f7 86 3e 13 34 0f be
       0.07259748 -0.079099245 0.26360723 -0.13984708
000270 1f a8 83 3e ed ff 03 3e 9f 34 93 bd 21 2b 85 3e
       0.25714204 0.12890597 -0.07187771 0.26009467
000280 3f 5a 50 3e 58 8f 61 be ac 91 ff 3e 7c c9 0d 3e
       0.20346926 -0.22027338 0.49915826 0.13846391
000290 73 f5 de 3d 93 92 ae 3e 9b 5d 80 3d 6a a5 99 be
       0.108866595 0.34096202 0.06267854 -0.30009013
0002a0 f0 68 8b 3e 4d 8a 9e bd c8 6c 8e be 13 48 a9 3e
       0.27228498 -0.077412225 -0.27817369 0.330628
0002b0 d4 b9 51 bd fa d7 02 be 81 de 97 3d 25 6a 70 be
       -0.05120261 -0.12777701 0.07415486 -0.23477991
0002c0 3d a9 98 bd 92 ba 33 be 5e f5 17 be 0f d1 7e bd
       -0.07454155 -0.1755164 -0.14839694 -0.062211093
0002d0 e8 70 32 3e 92 cc ff 3c c9 29 22 be 64 83 d1 3c
       0.17425883 0.031225476 -0.15836252 0.025575347
0002e0 1e 60 08 be a6 6a 6b 3e 64 a0 c7 be bf 66 62 be
       -0.13317916 0.22989902 -0.38989556 -0.22109507
0002f0 dd c3 2a 3e 50 51 7b 3c 3d 92 70 3e 2f 8a 73 3e
       0.16676278 0.015339211 0.23493285 0.23783182
000300 5d ef c6 3d 98 74 b9 3d ff 56 9e 3d 16 ea dc ba
       0.09713624 0.090554416 0.07731437 -0.0016854431
000310 8b 85 86 3e bb 3a 3c 3c 9c 10 f9 3c 71 60 09 3e
       0.2627376 0.011488612 0.030403428 0.13415696
000320 aa a4 08 3e ad 7c 3c 3d 13 4e 28 be 64 ac 88 bc
       0.13344064 0.046017338 -0.16436033 -0.016683765
000330 c8 a6 ec 3d 89 dc 9b bd ac 93 64 3d 2c f6 70 3d
       0.115552485 -0.07610423 0.055804893 0.058828518
000340 e8 d6 cf bd 2f 22 1d 3e 14 2e ac bd 7f 86 a4 bd
       -0.10148412 0.15345071 -0.08407226 -0.080334656
000350 d0 af fa bc 6b 65 9a be 95 da 84 3e 3f 01 64 3e
       -0.030601412 -0.301555 0.25948015 0.222661
000360 55 9f f7 3c 56 e8 55 3e fa 61 24 be 9a dd 9c be
       0.030227343 0.2088941 -0.16053 -0.3063782
000370 47 e3 57 be a4 a1 29 be e4 ea d8 bd 2f eb a4 3d
       -0.21082793 -0.16565567 -0.10591677 0.0805267
000380 3b 1b 7d 3c 6d d4 05 bd ee 33 59 3e a7 a8 52 3e
       0.015448387 -0.032673288 0.21211216 0.20572148
000390 c9 7a 0c bf 90 12 a1 bd 5b 0f 17 bd c4 f2 30 3d
       -0.54874855 -0.07864869 -0.03687988 0.04320027
0003a0 9e 86 0b 3e 9d f9 8d be ba 0e d8 bd 52 1b 15 3d
       0.13625571 -0.27729502 -0.10549684 0.036403008
0003b0 85 43 fc be be cb c1 3e 6a a2 4a 3e 3d da 31 3e
       -0.49270263 0.37850755 0.19788519 0.17368408
0003c0 6f fc 06 3e 72 88 ac 3d b8 db d6 3d 5e fb 92 be
       0.13182233 0.084244624 0.10491127 -0.28707403
0003d0 b2 97 48 3c f8 ca 53 3e 2d e8 57 3c a9 37 3c bc
       0.012243198 0.20682895 0.013177914 -0.01148788
0003e0 53 84 2c 3d 96 68 81 3d 81 7c d5 3d 35 78 b0 be
       0.04211838 0.06318776 0.10424138 -0.3446671
0003f0 1c 6e 96 bc 1b 09 fc bc 9d c3 be 3d f5 99 f1 3d
       -0.018363051 -0.03076606 0.09314654 0.11796943

hidden_layer_2.bias f4 [300]
000000 fd 02 ce 3c cd 52 f1 bc d6 dd 06 be ec 5f b4 3d
       0.02514791 -0.029458428 -0.13170561 0.08807358
000010 cd 08 4a 3d c8 73 85 bd 92 29 5d bb f6 53 d1 3d
       0.0493248 -0.06516224 -0.0033746702 0.102210924
000020 b4 b4 8d bd ec 9b d2 bc 67 f4 0c 3c 6d 9e c3 bd
       -0.06919232 -0.025709115 0.008603192 -0.09551702
000030 04 9f d0 3b 7b 54 bf 3b 2c c1 b6 bc 59 b8 ab bc
       0.0063666124 0.0058389283 -0.022308908 -0.020961927
000040 cd 5c b0 3d 1e 4d d6 3d 5f 77 2c 3c db 73 a2 bd
       0.0861145 0.10463928 0.010526507 -0.07932254
000050 29 71 6b 3d 2c 3a 1f bd 84 e4 63 3d 17 44 0e 3e
       0.057480965 -0.038873836 0.05563785 0.13893162
000060 ef ef 05 bd b4 c6 13 be ba f9 6b bd 61 2f 53 3d
       -0.03269952 -0.14431268 -0.057611205 0.051558856
000070 9c 52 06 bd 59 1c 3e be e1 44 b0 bc 17 51 d4 bd
       -0.032793626 -0.18565501 -0.021517219 -0.10367029
000080 55 06 46 3c bf b7 c2 bd c8 b5 d8 bc bf e7 9b 3b
       0.012086471 -0.09507703 -0.026453868 0.004757851
000090 fe 59 a4 bd 54 19 3f be 69 5e 2b bd 2d 61 00 3c
       -0.08024977 -0.18662006 -0.041838083 0.0078356685
0000a0 b4 17 50 bd c1 13 69 3d e2 9e 5b bd 96 8c 0c 3d
       -0.050803855 0.056903604 -0.05361832 0.03431376
0000b0 9c 6d 38 be fe 8a 9c bd d8 ca 0b 3d f9 87 89 bd
       -0.18010563 -0.07643698 0.034128994 -0.06715388
0000c0 b5 31 be bd 29 ac 90 bd 1b ce 3f be 70 5d ba bd
       -0.092868246 -0.07064087 -0.18730967 -0.09099853
0000d0 94 f3 01 be 95 de 24 be 0e db 25 3d 4c c5 e4 3c
       -0.12690574 -0.16100533 0.04049211 0.02792611
0000e0 6b c9 2c be f6 bf df bc d7 55 f5 bd db bf 6f be
       -0.1687371 -0.027313214 -0.11979263 -0.23413031
0000f0 9c 28 90 3d 57 5d 5b bc fb 17 a8 bd e2 7b 13 be
       0.070389956 -0.013388953 -0.08207699 -0.14402726
000100 df f7 a2 3b 05 03 a2 3c 92 a3 2a 3c 50 65 9e 3b
       0.004973396 0.01977683 0.010414975 0.0048338547
000110 41 a5 9b bd a7 8e 27 3d a7 fb 2a 3d 8c 4e 84 bd
       -0.07599879 0.04090753 0.0417439 -0.06460294
000120 fc e6 36 bd d1 0d 4f bd 10 5d ca bb 36 51 91 bc
       -0.044653878 -0.050550286 -0.0061756447 -0.01773892
000130 b3 3d 8e be 88 dc b5 3b 59 fb 61 be e4 e6 a6 be
       -0.27781448 0.005549971 -0.22068538 -0.3259803
000140 9a 2c c3 bd 59 7a b3 bd b0 3f e7 bd 64 86 46 3d
       -0.095299914 -0.0876357 -0.11291444 0.04846801
000150 a9 f4 1e bd c2 24 5f 3d ae ca bd bc 47 4f 5f bd
       -0.038807545 0.054478414 -0.023167934 -0.054518964
000160 2a 2b 37 3d f5 a5 f4 3d 1b 1b 17 bd 40 70 96 3b
       0.0447189 0.11945716 -0.036891084 0.004591018
000170 a6 2c f4 3c 90 8a 19 be 97 5f 86 be ae da 18 be
       0.029806446 -0.14994264 -0.26244804 -0.1492717
000180 ea 3b 21 3c dc c6 d9 bc cc 75 99 bd bc 87 cb 3c
       0.009840945 -0.026584081 -0.07493171 0.024844997
000190 9d 0d d0 bd b7 54 58 3d 9e 58 46 be 8d af e7 bd
       -0.101588465 0.052815165 -0.19369742 -0.113127805
0001a0 47 d9 ac bb 6e 47 5e be e5 2f 50 be 84 e8 06 be
       -0.005274925 -0.21706936 -0.2033077 -0.13174635
0001b0 da 5b ff bd d2 9e 48 bd 63 14 32 3d e6 b6 5f 3c
       -0.12468691 -0.048979588 0.043476474 0.013654446
0001c0 2a a0 83 3d 0b 14 03 be bc f0 0d 3d ef 3b d9 bd
       0.06427033 -0.12800615 0.03465341 -0.106071346
0001d0 02 b4 0d bb a8 a3 0a be 84 3c f7 bd d5 ef 68 3d
       -0.0021622186 -0.13538992 -0.12072089 0.056869347
0001e0 2a 8e d1 3c 54 c0 35 bd c4 6c c4 3d 0d 4f 46 bc
       0.025580484 -0.04437287 0.09591058 -0.012103808
0001f0 92 7a a7 bd ae 6f 70 3d 5b 59 9b 3d 09 cc 01 3d
       -0.08177675 0.058700256 0.075854026 0.031688724
000200 c4 0c 2c bd 14 e7 01 be 7a 47 e0 bd 22 17 a3 3a
       -0.04200436 -0.12685806 -0.10951133 0.0012442807
000210 43 42 b1 bd c2 2f 95 bc 54 1a c4 3c 71 b2 36 bd
       -0.086552165 -0.01821125 0.023938335 -0.04460377
000220 78 1f a6 bd e1 b6 2c 3b 7f 8d 8c bd e2 92 1b 3c
       -0.08111471 0.0026354122 -0.06862926 0.009495469
000230 03 3d 3e 3c c8 9c 9c be 5f d6 c7 bd 30 32 e5 bd
       0.011611226 -0.30588365 -0.09757685 -0.11191213
000240 03 d3 5a 3b 31 77 11 be 75 32 fc bc 81 6c f8 bd
       0.0033389933 -0.14205624 -0.030785779 -0.121300705
000250 2a 11 91 3d 02 24 8a bd f1 88 15 bc 9b 4e b6 3c
       0.07083352 -0.06745149 -0.009126888 0.022254279
000260 01 f7 87 bd 00 73 09 3e 9e d8 5b be 6a cb b9 bc
       -0.06638909 0.13422775 -0.21469352 -0.022680003
000270 85 74 2e be 18 b3 e1 bd 5a 39 42 be 04 b1 da bd
       -0.17036636 -0.110204875 -0.1896719 -0.10678294
000280 38 77 d9 bd 4d a0 85 bc 72 8e 11 be 62 a0 c6 bd
       -0.10618442 -0.016311789 -0.14214495 -0.09698559
000290 c0 20 0d bd cc 39 3f bd 8b ad 0e bd 1a 12 a4 bd
       -0.03445506 -0.04668598 -0.034833472 -0.08011265
0002a0 70 55 90 bd c1 c2 74 3d b2 14 d6 bc 05 03 a2 be
       -0.07047546 0.059756044 -0.026132915 -0.3164293
0002b0 7c e6 03 be b9 b8 37 bd 56 3d 93 3d 7f 3a 08 be
       -0.12880892 -0.0448539 0.07189433 -0.13303564
0002c0 ea d3 f6 bd 5b 84 26 bd b1 97 06 bc c9 bb ee bd
       -0.12052138 -0.040653568 -0.008214877 -0.11656911
0002d0 54 73 32 bd 0f 57 11 bd 07 8f 5b bc 75 c9 2b be
       -0.043567017 -0.035483416 -0.0134008 -0.16776069
0002e0 5f 7b 29 be 13 d9 3d 3c 25 ea 32 3d bd 5f 9e bc
       -0.16550969 0.011587399 0.04368033 -0.019332761
0002f0 5a 25 cc 3d b5 0a ab bc b0 9c 33 bd ab e0 22 be
       0.09968062 -0.020879129 -0.0438506 -0.15906017
000300 29 51 30 bd ca 29 36 be 87 8c 84 bd 0f e0 ef bc
       -0.04304615 -0.17789379 -0.06472116 -0.029281644
000310 de a8 d3 bd ed b0 3d bd 35 03 51 be 4e 3c 10 be
       -0.10334943 -0.046311308 -0.2041138 -0.14085504
000320 1b a6 7b 3d 88 f3 fd bd 4b 69 2f be 72 d1 ac bc
       0.061437707 -0.123999655 -0.1713001 -0.021095965
000330 35 1f 24 3c 17 a2 46 bc 16 d4 d2 3d b0 6e 77 bc
       0.010017206 -0.012123606 0.102943584 -0.015102074
000340 11 96 e0 bd b2 3b ba bb 69 88 2f bd 25 71 69 3d
       -0.10966123 -0.0056833858 -0.0428547 0.05699267
000350 ae 4a ef bc 89 22 df bd 2d 7d d5 bc 01 6f 95 bc
       -0.029210415 -0.10895259 -0.026060665 -0.018241407
000360 fd ac aa bc 27 69 35 be 72 12 bc 3c 77 09 98 3d
       -0.02083444 -0.17715894 0.022958014 0.0742368
000370 02 90 5a be 4b 7a 9e be b5 a9 0e bd 31 b9 3c be
       -0.21343997 -0.30952677 -0.034829814 -0.1843002
000380 c5 f5 22 be ea 83 98 bc db d3 7e 3d 5d c0 5b 3d
       -0.15914066 -0.018617589 0.06221376 0.05365025
000390 d0 23 b3 bd aa 06 e9 bd 44 a2 3b bc 7a 24 32 bd
       -0.08747065 -0.11378224 -0.011452261 -0.043491818
0003a0 b6 b6 14 3a 0c d9 e8 3d c1 a9 28 be a1 7c 1f be
       0.0005672978 0.113695234 -0.16471006 -0.15574886
0003b0 c8 e0 e4 bc d6 02 d1 3d da 26 02 be 37 e7 77 be
       -0.027939215 0.10205619 -0.12710133 -0.24209295
0003c0 f4 6e 64 bc 09 e1 25 bd 32 54 32 3d 37 29 90 3c
       -0.013942469 -0.040497813 0.043537326 0.017597778
0003d0 58 3b 8c bd 35 e4 63 be 9e e0 c8 bd 4d d1 f2 3c
       -0.068472564 -0.22255023 -0.09808467 0.029640818
0003e0 84 15 ae 3d e0 a3 0d bd e9 31 d2 3c 94 c8 e6 bd
       0.085001975 -0.03458011 0.025658565 -0.11268726
0003f0 a3 25 26 3c 13 4d 79 bc f8 f9 71 bd eb d3 9b bd
       0.010140809 -0.01521613 -0.05907628 -0.076087795

output.weight f4 [4, 300]
000000 21 6a 40 bf f9 06 69 bf 91 aa a6 bf ae 91 ed bd
       -0.7516194 -0.91026264 -1.3020803 -0.11600052
000010 5c 33 81 3f f4 02 56 3f 16 fd d6 be b9 16 69 be
       1.0093799 0.83598256 -0.41989964 -0.22762574
000020 46 5d ae 3f 5f 0b 73 3f c3 a9 d3 be ba d9 0a bf
       1.3622215 0.94939226 -0.41340455 -0.54238474
000030 7c e7 c9 3e f1 fc 88 bf cd f4 6b 3f cf 8d 5f bf
       0.3943442 -1.0702192 0.9217041 -0.8732576
000040 69 2d c1 bf bd 03 db 3d 92 b4 d2 bf 99 4b 88 3c
       -1.5091983 0.106940724 -1.6461356 0.01663761
000050 61 69 d5 be c5 db 0a 3f 3f 45 4a bf 1f 45 b3 3f
       -0.4168196 0.5424159 -0.7901191 1.4005469
000060 b8 1b 18 3d 90 d6 d2 be 8e 19 bf 3f 27 16 d2 3e
       0.03713581 -0.41179323 1.4929674 0.41032526
000070 10 55 71 3f 20 80 99 bf 86 f7 b0 3d 98 4f 8c 3f
       0.9427042 -1.1992226 0.08640961 1.096179
000080 23 82 24 3f fa 94 8b bf 19 14 e7 3e 79 d7 69 3f
       0.6426107 -1.0904839 0.4513252 0.9134441
000090 9a be 3d bf 7b e6 82 be 13 6c 43 bf cc dc 0b be
       -0.7411896 -0.25566468 -0.76336783 -0.13658446
0000a0 e4 5c 87 bd 3b a7 01 3f 1f a8 94 3f eb c1 e8 3c
       -0.06609514 0.506458 1.1613806 0.02841278
0000b0 6f 2e 9e 3f b1 8b f8 3d 45 44 25 3e 02 69 7f 3f
       1.235792 0.12136019 0.16139324 0.99769604
0000c0 b3 75 a0 3e 2e 50 77 3f 8d 7e 40 bf be 79 61 bf
       0.31339797 0.9660672 -0.751931 -0.8807639
0000d0 0a 7d d8 be 08 46 18 bc 22 c6 28 bc d7 55 ff 3e
       -0.42282897 -0.0092940405 -0.010301145 0.49870178
0000e0 31 78 d0 bd 0e f6 b7 3e c3 a9 86 be ba a3 d3 3e
       -0.10179175 0.35929912 -0.26301393 0.4133585
0000f0 fe ab b7 be 66 0a 24 bf 40 e6 bf 3f 91 c3 1d bf
       -0.35873407 -0.64078367 1.4992142 -0.61626536
000100 d0 b5 06 3e 5f 59 25 bc 11 76 32 bf d6 c3 fb be
       0.13155293 -0.0100921085 -0.69711405 -0.49172848
000110 22 b8 8b 3e bf db 14 bf 6b c7 44 bf f3 a8 48 3e
       0.2728892 -0.58147806 -0.7686679 0.19595699
000120 68 11 bd be 4c c7 7e 3e b1 95 4c 3f 84 ed bf 3d
       -0.36927342 0.24880713 0.7991591 0.093714744
000130 d9 08 b4 3f 39 7b 41 bf 13 bb 3c bf 7f 97 2c be
       1.40652 -0.7557865 -0.7372295 -0.16854666
000140 ce 0a be bd a6 52 6a 3e ee 63 6f 3e 0f 41 67 3c
       -0.092794046 0.2288309 0.23377964 0.014114632
000150 01 23 40 3f 3d 92 88 be e3 73 e8 3e 84 e9 92 3f
       0.7505341 -0.2667407 0.45400915 1.1477513
000160 32 26 90 be 59 4b 11 be 65 e8 4d bf 6d 9d 3e bf
       -0.2815414 -0.14188899 -0.8043273 -0.7445896
000170 85 bc 03 bf fd 59 01 3f e4 0d d6 be c3 f5 65 bf
       -0.5145953 0.50527936 -0.41807473 -0.8982813
000180 d0 01 d3 be 8c 90 11 3f b4 38 37 bf 6b 6b b1 3d
       -0.4121232 0.56861186 -0.715709 0.086630665
000190 47 07 a6 be 5e af 82 bf b1 1c 69 bf a1 58 6d bf
       -0.32427427 -1.0209768 -0.91059405 -0.9271336
0001a0 71 22 d9 3d 38 c1 95 be 22 c5 cf 3e a8 58 55 bd
       0.10602272 -0.29248977 0.40580088 -0.052086502
0001b0 8c ae be 3e a5 85 dc 3c 66 72 f6 bc 9b e4 91 bd
       0.37242544 0.026919195 -0.030083846 -0.07123681
0001c0 f0 e6 69 bf bc 61 18 3f 87 79 ea bc e0 76 02 bf
       -0.9136801 0.5952413 -0.028622402 -0.5096264
0001d0 56 c1 99 bf 7f 16 8b 3e ad 50 a3 3d 1c 8e 13 bf
       -1.2012126 0.271656 0.07974372 -0.57638717
0001e0 bc 0b ef 3c c2 0e 04 bf 3c 74 06 be bb 3f 98 3e
       0.0291804 -0.5158502 -0.13130277 0.29736122
0001f0 0e 8a 05 bf 7f ef 16 3f bd 39 8b bd e1 ae a8 3e
       -0.5216378 0.5895919 -0.06798122 0.32945922
000200 37 0a 3a 3f ea 5a 36 3f 2f aa 9d bf 2f 23 da 3e
       0.72671837 0.71232474 -1.2317561 0.42604968
000210 03 f9 91 bf 75 73 03 bf 34 e5 ba be 2b 30 45 3f
       -1.1404117 -0.5134805 -0.36502993 0.77026623
000220 f0 38 45 3f 77 35 69 bf 21 da b2 bf d6 f8 a8 bf
       0.77040005 -0.91097206 -1.3972818 -1.3200939
000230 3a 6d b7 3d 63 ce a6 3d 48 2e 9c bc b0 fc 29 bd
       0.0895638 0.08144834 -0.019065037 -0.041500747
000240 e8 63 44 3f 43 b1 75 3d a8 b8 31 3e ec e0 b0 3e
       0.76714945 0.059983503 0.17355597 0.34546602
000250 d1 c5 15 3f cf 89 47 bf 0e c2 67 3e ea ec 8e 3f
       0.5850497 -0.77944654 0.2263262 1.116605
000260 be 7e 81 3f 55 ea 8c 3f 85 e9 0b bc 61 6f 15 3f
       1.0116804 1.1009012 -0.008539562 0.58373076
000270 cf b0 9b 3f 9f 79 41 bf 9f 05 59 be a1 90 65 bd
       1.2163333 -0.75576204 -0.2119355 -0.056046132
000280 cd c4 61 bf 60 47 48 3d 58 e9 c0 bd fe a6 56 be
       -0.8819092 0.048896194 -0.09419507 -0.2096214
000290 3f 6a cb 3f 03 97 35 3e 37 a9 56 bf c2 88 85 3e
       1.5891799 0.17733388 -0.8385195 0.260809
0002a0 73 92 9d be e7 e2 04 be d9 66 71 bf ea 60 e4 be
       -0.30775794 -0.12977181 -0.9429756 -0.4460519
0002b0 88 48 0d 3f 56 12 10 3d ad fc 53 bf a5 de 08 3f
       0.551888 0.035173737 -0.8280743 0.5346473
0002c0 6d 31 73 3e 12 21 46 3d 2b 7a 1f bf c6 f6 3b bf
       0.23749323 0.048371382 -0.6229579 -0.7342342
0002d0 0a b2 37 3f b0 07 6b 3f 16 8f cd be d0 c4 29 3e
       0.7175604 0.91808605 -0.40148228 0.16578984
0002e0 52 e6 e1 be a9 57 32 bf ea 7c 60 3f 22 00 c6 3e
       -0.44121033 -0.6966501 0.87690604 0.38671976
0002f0 8d 2a f6 be 45 e8 3c 3e 13 f0 00 3e 6a 7d e4 be
       -0.4807934 0.18447979 0.12591581 -0.44626933
000300 f5 80 17 3e 62 45 66 3f e7 4f f8 be d2 90 9e bf
       0.14795287 0.8994962 -0.4849846 -1.2387946
000310 53 b6 e1 3b 18 ab 1d bf ed ca 04 bf a6 30 2c bf
       0.00688819 -0.61589193 -0.5187214 -0.6726173
000320 32 1b 97 3e 5f e6 f6 be 92 e7 d2 be ec 28 67 be
       0.29512936 -0.48222634 -0.411923 -0.22574204
000330 7b 7c a9 3f f3 8b 74 3e f0 02 86 be f5 0c 80 be
       1.3241113 0.23881511 -0.26174116 -0.25009885
000340 7e c5 2a bf ee fb 1a 3f 20 9b 8a 3d 04 7e ff be
       -0.667076 0.60540664 0.06767869 -0.4990083
000350 2e eb 6b bd ea ed 1d bf a4 a5 b3 3f 1d 4c a9 3e
       -0.05759733 -0.61691153 1.4034925 0.33065882
000360 8c 61 1f bf 84 1f 88 bf 3a 0f 18 3f fc e8 46 3e
       -0.6225822 -1.0634618 0.59398234 0.19424814
000370 75 83 b5 bf 56 89 a7 bf 11 dc 60 3f 16 88 88 bf
       -1.4180743 -1.3088787 0.87835795 -1.066653
000380 e8 ba 2f 3f 50 51 d3 be 5c e3 47 bf de ea d0 3f
       0.6864457 -0.41272974 -0.780813 1.6321676
000390 5a 24 55 3f cf 45 da bf 58 e2 21 3f d6 09 aa bf
       0.83258593 -1.7052554 0.63236 -1.3284252
0003a0 ab d6 8f 3f 13 f7 d2 3e 2c ec 3b 3f ba a2 d3 be
       1.1237386 0.41204128 0.73407245 -0.41335088
0003b0 29 4e 82 bf fc 6b 55 3f b3 07 9e 3f 91 6c bf 3e
       -1.0180103 0.83367896 1.23461 0.37387517
0003c0 1a dd 99 3f b8 9e 80 3f 29 81 08 bf 3b cc 2d 3e
       1.20206 1.0048437 -0.5332208 0.16972439
0003d0 12 6d ac bd 44 09 c3 3f dc bd d6 bf ee f6 da 3f
       -0.08419241 1.5237203 -1.677669 1.7106607
0003e0 66 1f cc 3e 4f 2d 72 3f a7 0d 02 bf 8d 43 ce be
       0.39867705 0.94600385 -0.5080208 -0.40285912
0003f0 c6 02 30 be a4 9f ff be 07 d6 b6 3e 0b 7d 4d bf
       -0.17188558 -0.49926484 0.35710165 -0.80268925

output.bias f4 [4]
000000 17 bc 14 bd 31 2f 56 bd ea 33 8c 3d 3a 83 af bc
       -0.03631219 -0.0522911 0.06845839 -0.021424878
