reacher_20_originalqvalue_local.pth (torch, 543903 bytes, 5 tensors)

hidden_layer_1.weight f4 [400, 33]
-0.26948515 0.018682536 -0.084297225 0.30121732 0.30902743 0.08808642 0.3458805 0.002637718
-0.03604974 -0.08980744 -0.19731188 0.095978476 -0.076392815 0.058233965 0.07289305 -0.051272284
-0.7154589 -0.108975604 0.25022188 0.38085958 0.009548032 -0.07161769 0.07821565 -0.008426346
-0.051718894 -0.06932742 0.1516258 0.34123936 0.015887223 0.018859606 -0.34941146 0.015230153
-1.2851367 0.04284303 -0.16450839 -0.09790776 -0.6836588 -0.6872019 0.50651056 -0.06843017
0.05217881 0.34133804 -0.21445343 0.07816473 0.051042747 -0.053854655 -0.13228978 0.17331432
0.018597513 1.1919086 -0.00037723797 -0.683386 0.29151928 -0.056227293 0.017925136 -0.12658618
-0.0068636322 -0.041639924 0.07339651 0.064371936 -0.041986257 -0.061435644 -0.022063881 0.013657005
0.04709514 0.10927944 -0.08846624 0.22762871 0.14920534 0.13251911 0.13594444 0.022598032
0.20626444 0.2562155 0.10623838 -0.0034048662 0.015883585 0.09234882 -0.073861584 -0.056758534
-0.20513535 -0.08073021 0.16734582 -0.5698206 -0.4480237 0.8320283 -0.15994778 0.00910759
-0.21745111 -0.026797082 -0.0010566561 0.14561984 -0.004020922 0.45737466 -0.08913881 0.009961344
-0.41522846 -0.03622645 -0.30421445 -0.09318286 -0.056323744 0.07963074 -0.06305996 0.30559295
0.9986839 0.13125016 -0.044809677 -0.16395408 -0.06531378 -0.022120988 -0.018234082 0.044137515
-0.056666058 0.06915616 0.0009827138 0.10345304 0.6204848 -0.85671157 -0.13288543 -0.0025090335
0.022353081 0.05806798 0.093311094 0.013571844 0.026098082 -0.13358596 0.060243078 0.0055736457
-0.016846754 0.007457058 -0.011744641 -1.1698267 -0.116883084 0.13858815 -0.019837731 -0.7403985
0.08345201 -0.13714626 0.25132766 0.011960547 0.16902958 0.0843126 -0.018403416 0.022342414
-0.051525723 -0.08859439 -0.028845351 -0.089898996 -0.25581217 -0.06853621 0.16401964 0.37300238
0.009195947 0.0073631 -0.10525852 0.007732607 -0.05167865 -0.040897384 0.22400118 -0.015407424
0.15707949 0.008769434 -0.023593396 -0.017129146 1.7893094 -0.08777393 0.058146194 -0.09929521
-0.35637605 0.016125735 0.0470767 0.22202793 -0.16543786 -0.050542653 0.03461517 -0.011135336
0.15029834 0.027940977 0.1277891 -0.05594143 0.07716143 0.18795326 -0.41237637 -0.47922763
-0.5671864 0.09933374 0.08150088 0.00020334238 0.11369186 -0.013744417 0.08314478 -0.16341375
0.4066635 -0.024172623 0.038334835 -0.37214878 0.03429221 -0.24093027 -0.31089467 0.065297395
0.029526867 -0.6036252 -0.68533593 -0.5023064 0.41154453 -0.14873289 -0.1854978 0.0023413077
-0.1960789 0.0029664065 -0.06906585 -0.011522701 0.071406126 0.04507198 0.04729429 -0.19558223
-0.14283575 -0.119504444 0.1917436 0.05833475 -3.803581e-06 0.12933223 -0.15442239 0.085095674
0.076363325 0.4426788 -0.18535948 0.01482043 -0.3719538 -0.027319385 0.62757283 0.06398239
0.08353043 0.03982438 0.65628684 0.41785565 0.51952344 0.31460407 -0.030455142 0.010422012
0.29190996 -0.11343857 -0.00014687153 0.027388794 -0.058872353 -0.01094001 -0.09173805 -0.29654542
-0.22908194 0.35787612 -1.1319405 0.07351777 -0.10439624 0.0634736 -0.032016452 0.051270746
00000000: f5f9 89be 1e0c 993c 06a4 acbd 2839 9a3e
00000010: d838 9e3e a766 b43d 4017 b13e 91dd 2c3b
00000020: e4a8 13bd f7ec b7bd 200c 4abe 5d90 c43d
00000030: d673 9cbd bd86 6e3d f448 953d e302 52bd
00000040: 5128 37bf 9a2e dfbd 151d 803e 0700 c33e
00000050: 596f 1c3c 4cac 92bd 872f a03d a80e 0abc
00000060: 31d7 53bd 89fb 8dbd cb43 1b3e edb6 ae3e
00000070: ec25 823c 767f 9a3c 0fe6 b2be e487 793c
00000080: 5c7f a4bf 2c7c 2f3d e374 28be dd83 c8bd
00000090: 4304 2fbf 77ec 2fbf adaa 013f 1e25 8cbd
000000a0: 73b9 553d dcc3 ae3e ae99 5bbe d414 a03d
000000b0: 3312 513d b396 5cbd f976 07be 4f79 313e
000000c0: d059 983c 7690 983f 06c8 c5b9 63f2 2ebf
000000d0: 0442 953e 974e 66bd bcd7 923c cf9f 01be
000000e0: 52e8 e0bb a08e 2abd e950 963d 6fd5 833d
000000f0: c8f9 2bbd f1a3 7bbd 50bf b4bc a1c1 5f3c
00000100: d5e6 403d e6cd df3d ca2d b5bd 8017 693e
00000110: 49c9 183e 17b3 073e 0535 0b3e 821f b93c
00000120: fc36 533e ae2e 833e 8293 d93d 2d24 5fbb
00000130: 4b1e 823c 6121 bd3d be44 97bd a37b 68bd
00000140: 000f 52be e155 a5bd b45c 2b3e c3df 11bf
00000150: 5d63 e5be cfff 543f 5ac9 23be 0038 153c
00000160: 81ab 5ebe 8e85 dbbc 7f7f 8aba 5e1d 153e
00000170: f0c1 83bb 032d ea3e 698e b6bd e834 233c
00000180: d398 d4be 3062 14bd ffc1 9bbe a8d6 bebd
00000190: bab3 66bd 7115 a33d 9525 81bd ae76 9c3e
000001a0: c0a9 7f3f 7166 063e 5a8a 37bd 94e3 27be
000001b0: 3bc3 85bd 1337 b5bc a45f 95bc 8ac9 343d
000001c0: ab1a 68bd bfa1 8d3d 67ce 803a 30df d33d
000001d0: 18d8 1e3f 7351 5bbf 1e13 08be 996e 24bb
000001e0: cf1d b73c b1d8 6d3d e319 bf3d 715c 5e3c
000001f0: a5cb d53c c2ca 08be 72c1 763d 21a3 b63b
00000200: 3402 8abc 565a f43b 986c 40bc e2bc 95bf
00000210: 6660 efbd 0dea 0d3e bd82 a2bc c28a 3dbf
00000220: e3e8 aa3d 1270 0cbe 05ae 803e 2cf6 433c
00000230: 1716 2d3e 16ac ac3d c3c2 96bc 7007 b73c
00000240: a30c 53bd fa70 b5bd 164d ecbc f71c b8bd
00000250: d0f9 82be b65c 8cbd c4f4 273e 2bfa be3e
00000260: 99aa 163c 2946 f13b c791 d7bd cf61 fd3b
00000270: feac 53bd 0484 27bd 9160 653e 6c6f 7cbc
00000280: 72d9 203e acad 0f3c f046 c1bc 6c52 8cbc
00000290: 1708 e53f d1c2 b3bd b42a 6e3d 495b cbbd
000002a0: ec76 b6be 1e1a 843c 7fd3 403d 4a5b 633e
000002b0: 8b68 29be d005 4fbd a3c8 0d3d fc70 36bc
000002c0: cfe7 193e 7ae4 e43c 25db 023e d722 65bd
000002d0: d006 9e3d d276 403e ff22 d3be 535d f5be
000002e0: 2133 11bf 7d6f cb3d efe9 a63d 4e38 5539
000002f0: 47d7 e83d 4330 61bc cf47 aa3d ef55 27be
00000300: 3336 d03e aa05 c6bc fd04 1d3d 498a bebe
00000310: fd75 0c3d 6db6 76be 962d 9fbe a4ba 853d
00000320: 54e2 f13c 2e87 1abf 2d72 2fbf 2797 00bf
00000330: f7b5 d23e 6f4d 18be 23f3 3dbe a070 193b
00000340: e8c8 48be 0b68 423b 6572 8dbd b6c9 3cbc
00000350: 603d 923d 669d 383d a8b7 413d b546 48be
00000360: 8943 12be bfbe f4bd 6f58 443e 6bf0 6e3d
00000370: 0641 7fb6 ab6f 043e e720 1ebe a446 ae3d
00000380: 6064 9c3d cca6 e23e e0ce 3dbe 64d1 723c
00000390: ba70 bebe e7cc dfbc 9da8 203f 3309 833d
000003a0: 0112 ab3d e41e 233d 6a02 283f 2df1 d53e
000003b0: 7dff 043f c913 a13e 107d f9bc 16c1 2a3c
000003c0: 3975 953e 7b52 e8bd 8701 1ab9 775e e03c
000003d0: 2324 71bd ba3d 33bc 29e1 bbbd cdd4 97be
000003e0: 7594 6abe 8a3b b73e 6de3 90bf 7c90 963d
000003f0: b2cd d5bd 72fe 813d af23 03bd 4601 523d

hidden_layer_1.bias f4 [400]
-0.39522892 -0.041924693 -0.27439523 -0.01120719 -0.1612235 -0.52155924 -0.5441113 -0.22525413
-0.16490762 -0.17974767 -0.21904679 -0.26366186 -0.2595732 -0.08247968 -0.37825954 0.05006465
-0.06768326 -0.18471634 -0.2639596 -0.26741087 -0.33545086 -0.30162984 -0.24592601 0.47880608
-0.3069171 -0.22125985 -0.09518613 0.035517793 -0.15018724 -0.12082107 -0.24754623 0.027315577
-0.15901351 -0.5848159 -0.16604199 -0.2940022 -0.2061654 0.15994026 -0.2189262 -0.26366442
0.7233217 -0.0779741 0.04772064 0.038694028 -0.10208832 -0.20459254 -0.15020205 -0.12507437
0.0961341 -0.40375888 -0.48792022 -0.40355465 0.012825365 -0.07246807 -0.26096064 -0.026931958
-0.22142328 -0.0987017 -0.25975817 -0.14383848 -0.31886962 -0.43954724 0.21362253 -0.44773808
-0.28295437 -0.31609765 -0.25634518 -0.32032073 -0.1014505 -0.3033763 -0.031008508 -0.23092239
-0.10922291 -0.45578483 -0.2910513 -0.008781165 -0.11191062 -0.16348775 -0.15998445 -0.13753513
-0.47286478 -0.44160956 -0.52502215 -0.23120776 -0.18387073 0.0302007 0.0634366 -0.27497563
-0.002050828 -0.19013073 -0.06614331 -0.18160918 -0.3775425 -0.03951246 -0.19642207 -0.13046016
-0.447843 -0.35036737 -0.2865339 -0.1003002 -0.45109773 0.075546786 -0.0020440805 0.01717938
-0.27381 -0.334354 -0.11060234 0.011107579 -0.24151538 -0.47124127 -0.24223946 -0.19775382
-0.15016656 -0.55879575 -0.38468084 0.1457956 -0.31349897 -0.44629973 -0.55851907 -0.24713786
-0.28893843 -0.27693716 -0.42742434 0.04557171 -0.4307306 -0.1433375 -0.1625195 -0.008654714
-0.24290201 -0.2293735 -0.23277797 -0.090863146 -0.2643973 -0.16600388 -0.33437324 -0.007554266
-0.51736647 -0.10761861 -0.18931498 -0.15714575 -0.29186055 -0.3241971 -0.32228285 -0.40598193
-0.3052631 -0.25706908 -0.13426562 -0.31973127 -0.08904132 -0.49548742 -0.19287784 -0.09757566
-0.40203786 0.035331417 -0.34101015 -0.18310326 -0.17328803 -0.28553483 -0.05196804 -0.05635994
0.33107325 -0.028885562 -0.30627757 -0.21756737 -0.38329503 -0.101244815 -0.16794194 -0.12711154
-0.20076267 -0.19317256 -0.15931286 -0.4314474 -0.45186073 -0.35468227 -0.3588433 0.11815677
-0.013319789 -0.115791306 -0.17564233 0.06906916 -0.17041187 -0.20581292 -0.29472002 -0.46188092
-0.12306655 -0.27358082 -0.22747928 -0.23449923 -0.061602786 -0.10993566 -0.28491384 -0.13419355
-0.31461784 0.032054603 -0.013520853 -0.3400319 -0.32905427 -0.39131743 -0.120591655 -0.30385795
-0.18103215 -0.33944616 -0.3153028 -0.38746357 -0.13790305 0.070022516 -0.019847332 -0.2897116
0.19210805 -0.07388183 -0.21299265 -0.32031503 -0.25358647 -0.22309467 -0.21747562 -0.27833745
-0.39086446 -0.15387857 -0.14577684 -0.19818698 -0.33366102 -0.45289707 -0.4562623 -0.13159989
0.056867007 -0.44479558 -0.3511847 -0.14742778 0.104198866 -0.15124832 -0.20766926 -0.13355245
-0.27778313 -0.34960148 -0.30136123 -0.2183709 -0.22396214 -0.4293329 -0.27242446 -0.3329006
-0.39735425 -0.31864434 -0.07046989 -0.10000453 -0.27417555 -0.55942374 0.7118315 -0.09762013
-0.39929473 -0.35693213 -0.1915779 -0.079067506 -0.09484603 -0.3155385 0.048936695 -0.35318768
00000000: 725b cabe 3ab9 2bbd 887d 8cbe 5d9e 37bc
00000010: c617 25be e884 05bf e14a 0bbf 05a9 66be
00000020: 8bdd 28be c60f 38be cd4d 60be b0fe 86be
00000030: c7e6 84be 1beb a8bd 3cab c1be 9710 4d3d
00000040: 859d 8abd 4826 3dbe b625 87be 14ea 88be
00000050: 37c0 abbe 3a6f 9abe 07d4 7bbe 1226 f53e
00000060: 3d24 9dbe f191 62be f2f0 c2bd 1b7b 113d
00000070: afca 19be 0a71 f7bd c27c 7dbe ebc4 df3c
00000080: 70d4 22be 7fb6 15bf e906 2abe 7587 96be
00000090: 061d 53be 61c7 233e 312e 60be 06ff 86be
000000a0: 9c2b 393f e3b0 9fbd b876 433d a17d 1e3d
000000b0: ae13 d1bd b580 51be 91ce 19be 7f13 00be
000000c0: f4e1 c43d 7cb9 cebe aed0 f9be b79e cebe
000000d0: 7b21 523c 246a 94bd a29c 85be 69a0 dcbc
000000e0: c9bc 62be 1e24 cabd 06ff 84be 654a 13be
000000f0: e142 a3be 560c e1be ddbf 5a3e ed3d e5be
00000100: 65df 90be 8dd7 a1be ad3f 83be 1401 a4be
00000110: 48c5 cfbd 2354 9bbe 8e05 febc eb76 6cbe
00000120: 43b0 dfbd a15c e9be ad04 95be e0de 0fbc
00000130: 6531 e5bd 5569 27be f7d2 23be 02d6 0cbe
00000140: 551b f2be a61a e2be da67 06bf bac1 6cbe
00000150: 9c48 3cbe 7567 f73c 0ceb 813d 9bc9 8cbe
00000160: 2f67 06bb a1b1 42be 2576 87bd c2f7 39be
00000170: 404d c1be d1d7 21bd de22 49be 5997 05be
00000180: ad4b e5be 5a63 b3be 92b4 92be 316a cdbd
00000190: 48f6 e6be 46b8 9a3d fbf5 05bb c5bb 8c3c
000001a0: d330 8cbe 7330 abbe 7b83 e2bd 90fc 353c
000001b0: cf4f 77be 8946 f1be 9f0d 78be fa7f 4abe
000001c0: 43c5 19be 3d0d 0fbf e3f4 c4be 714b 153e
000001d0: f082 a0be 6681 e4be 1bfb 0ebf b511 7dbe
000001e0: bdef 93be b5ca 8dbe 5dd7 dabe 67a9 3a3d
000001f0: b988 dcbe 11c7 12be 836b 26be 80cc 0dbc
00000200: 4ebb 78be e3e0 6abe 595d 6ebe 7516 babd
00000210: 155f 87be ecfc 29be f832 abbe c789 f7bb
00000220: 2172 04bf 2567 dcbd c9db 41be d1ea 20be
00000230: bf6e 95be 2afd a5be 4202 a5be dddc cfbe
00000240: 724b 9cbe 8f9e 83be ed7c 09be d1b3 a3be
00000250: 4c5b b6bd 87b0 fdbe c581 45be bfd5 c7bd
00000260: e8d7 cdbe adb7 103d e298 aebe 6c7f 3bbe
00000270: 6b72 31be 9f31 92be 71dc 54bd aed9 66bd
00000280: 6f82 a93e 6aa1 ecbc 6ad0 9cbe fbc9 5ebe
00000290: 3f3f c4be 7159 cfbd f9f8 2bbe 8729 02be
000002a0: bb94 4dbe 07cf 45be e922 23be ace6 dcbe
000002b0: 4a5a e7be ea98 b5be 4fba b7be 2dfc f13d
000002c0: 3f3b 5abc fe23 edbd 95db 33be 2274 8d3d
000002d0: 7380 2ebe 9fc0 52be 8be5 96be a87b ecbe
000002e0: 510a fcbd c912 8cbe 54f0 68be 9120 70be
000002f0: 3453 7cbd f325 e1bd 3ae0 91be 096a 09be
00000300: 9715 a1be b04b 033d 9186 5dbc a918 aebe
00000310: cd79 a8be c25a c8be c2f8 f6bd 4593 9bbe
00000320: 7e60 39be e3cb adbe 5e6f a1be a061 c6be
00000330: 7536 0dbe f767 8f3d df96 a2bc 1455 94be
00000340: f9b7 443e 5b4f 97bd bf1a 5abe 5500 a4be
00000350: 16d6 81be ee72 64be eeb1 5ebe 3f82 8ebe
00000360: 631f c8be 5892 1dbe 8646 15be 87f1 4abe
00000370: 9ed5 aabe 20e2 e7be 369b e9be 1fc2 06be
00000380: 61ed 683d 3fbc e3be 7bce b3be 4ff7 16be
00000390: 3766 d53d d7e0 1abe 40a7 54be f9c1 08be
000003a0: 9739 8ebe f7fe b2be 054c 9abe 9f9c 5fbe
000003b0: 5556 65be 86d1 dbbe 387b 8bbe f371 aabe
000003c0: 0472 cbbe 5a25 a3be 8552 90bd 2dcf ccbd
000003d0: bd60 8cbe 6536 0fbf 973a 363f 10ed c7bd
000003e0: 5c70 ccbe cfbf b6be ff2c 44be 25ee a1bd
000003f0: a33e c2bd 438e a1be d871 483d 04d5 b4be

hidden_layer_2.weight f4 [300, 404]
-0.45230234 0.14600295 0.07376835 -0.1295403 -0.20424362 -0.085382186 -0.041359477 0.015895257
0.022134064 -0.0021942712 0.012847569 -0.3438157 -0.20516543 -0.32660177 0.2698363 0.042224582
-0.08136334 0.114960805 0.006294214 0.1503434 -0.09935304 -0.27470812 -0.0172712 0.033338618
-0.26594624 -0.33476502 -0.2278762 -0.072573505 -0.1712454 -0.016470373 -0.004076018 0.03426485
-0.33486417 -0.22121763 -0.40458897 0.04762908 0.13698435 -0.009935483 -0.4685415 0.030679705
-0.019749774 -0.15297925 -0.10846253 -0.18438655 0.012821771 0.11276052 -0.04661907 -0.035655525
0.010307302 -0.011241407 -0.55216366 -0.23664907 -0.10686851 -0.27258795 0.06801072 -0.1678785
-0.1329428 0.20404391 0.10305973 -0.14161627 -0.18901114 -0.429269 -0.015816687 0.2318552
-0.07124888 0.06812971 -0.08778674 0.045935396 0.08349382 -0.35612422 -0.025196787 -0.066902265
-0.04243459 -0.089778855 -0.3597178 -0.04286585 0.03836997 -0.15511937 -0.19673043 -0.17116809
0.056972593 -0.16448522 -0.15360932 -0.15762721 0.014130222 -0.1532113 -0.18662268 0.06598021
-0.16857384 -0.4119188 -0.1328503 0.06800786 -0.021013109 -0.10411654 -0.23915163 0.12260742
-0.038593814 -0.16072915 -0.2595132 0.0007964425 -0.30989715 -0.047164056 -0.17905827 -0.2361187
-0.18309592 -0.16885392 0.03371142 -0.07839581 -0.18945716 -0.2374443 0.21793504 0.13381068
0.017886866 -0.3823101 -0.12339702 0.32879984 -0.09050928 0.058087613 -0.11082559 0.06642687
0.18413253 -0.18603264 -0.37960273 0.014932694 -0.06364084 0.07219574 0.121333 -0.300947
-0.16885275 -0.29359812 -0.021424742 -0.11876011 -0.21649201 -0.23157139 -0.073427066 -0.035150327
-0.20452 -0.100999646 -0.09925203 -0.035558246 0.0075722835 -0.078908876 -0.19401985 -0.2980849
-0.094990484 -0.18457282 -0.2521602 -0.16498342 0.12529942 -0.36665505 0.24910957 -0.54139274
-0.20210043 -0.040436983 -0.028923567 0.14193095 -0.110105336 0.0073594926 -0.27684608 -0.23320775
-0.0005704059 -0.10917036 -0.11014856 0.041883953 -0.24413037 0.030742513 -0.08170651 -0.46785247
0.037531383 0.22646402 0.14071038 -0.094752744 -0.061401643 -0.16781108 0.044341873 -0.2995541
0.16884889 -0.21304981 -0.07717831 0.040583543 -0.26987493 0.096709795 0.1252244 -0.2547236
0.09723307 -0.34654433 -0.25889617 -0.25019506 -0.019587955 -0.4084151 -0.11775477 -0.30582598
-0.009150292 0.100546695 -0.13567379 0.071028836 -0.040578146 -0.17167692 -0.086818345 -0.04158566
0.038460936 0.08171236 0.04904632 -0.09929057 0.19701615 0.24522264 -0.26047507 -0.07891887
0.031136146 -0.0120219905 -0.065276414 -0.266553 0.2862887 -0.15304549 0.03410333 0.005258765
-0.023994066 -0.050420538 -0.34048375 0.05453146 -0.13627271 -0.3708343 -0.009672819 -0.238356
-0.36913764 -0.009945149 0.03989481 0.14135313 -0.45815256 -0.07904294 -0.11303807 -0.10066922
0.0131385205 -0.017627457 -0.108765475 0.046866875 -0.04630734 -0.06410186 -0.55454326 -0.111127585
0.061972767 -0.21519157 -0.024643937 0.031739827 -0.28505874 -0.15138334 0.053532492 -0.22213411
-0.26761934 -0.40263256 0.47280297 -0.15905619 -0.054296404 -0.3761611 -0.15673417 -0.2278177
00000000: 2c94 e7be cc81 153e dc13 973d 36a6 04be
00000010: 3d25 51be dbdc aebd 8e68 29bd c536 823c
00000020: 7f52 b53c c3cd 0fbb 9c7e 523c 9d08 b0be
00000030: e316 52be 5938 a7be fc27 8a3e aff3 2c3d
00000040: d3a1 a6bd 9270 eb3d b23f ce3b 9ff3 193e
00000050: 9b79 cbbd 8ba6 8cbe 557c 8dbc 138e 083d
00000060: 1b2a 88be 5266 abbe 6158 69be 6ba1 94bd
00000070: f45a 2fbe e0ec 86bc 1e90 85bb 4d59 0c3d
00000080: 5173 abbe e086 62be 4926 cfbe b616 433d
00000090: a045 0c3e 70c8 22bc ace4 efbe 0154 fb3c
000000a0: 47ca a1bc 98a6 1cbe 9a21 debd d4cf 3cbe
000000b0: 6812 523c fdee e63d a3f3 3ebd 870b 12bd
000000c0: f5df 283c e12d 38bc 995a 0dbf 2254 72be
000000d0: e1dd dabd a690 8bbe 3449 8b3d 57e8 2bbe
000000e0: 2822 08be e3f0 503e fb10 d33d db03 11be
000000f0: 238c 41be 25c9 dbbe ff91 81bc 736b 6d3e
00000100: efea 91bd 9787 8b3d 89c9 b3bd c126 3c3d
00000110: cffe aa3d ea55 b6be 7e69 cebc 0e04 89bd
00000120: e5cf 2dbd fadd b7bd ee2c b8be 1a94 2fbd
00000130: d429 1d3d 9dd7 1ebe b473 49be b046 2fbe
00000140: 185c 693d d06e 28be c34b 1dbe 0769 21be
00000150: 7282 673c 6ce3 1cbe 041a 3fbe a220 873d
00000160: 9f9e 2cbe 05e7 d2be e909 08be b447 8b3d
00000170: af23 acbc 0d3b d5bd 2ae4 74be 9919 fb3d
00000180: 8c14 1ebd 2f96 24be eade 84be 5ac8 503a
00000190: d7aa 9ebe 192f 41bd 0d5b 37be 1ac9 71be
000001a0: 7f7d 3bbe 0be8 2cbe fc14 0a3d fc8d a0bd
000001b0: 0f01 42be 9924 73be 5d2a 5f3e ab05 093e
000001c0: 7a87 923c 26be c3be 94b7 fcbd 7458 a83e
000001d0: ee5c b9bd 47ed 6d3d 87f8 e2bd d00a 883d
000001e0: 3d8d 3c3e 577f 3ebe 4a5b c2be 42a8 743c
000001f0: 2156 82bd 5cdb 933d 707d f83d ba15 9abe
00000200: bce7 2cbe 7e52 96be f182 afbc 8038 f3bd
00000210: 15b0 5dbe 0d21 6dbe ee60 96bd caf9 0fbd
00000220: b16d 51be e7d8 cebd a644 cbbd 86a5 11bd
00000230: eb20 f83b fa9a a1bd 24ad 46be 969e 98be
00000240: 5f8a c2bd a800 3dbe 241b 81be 6af1 28be
00000250: 7e4e 003e 36ba bbbe 9416 7f3e b798 0abf
00000260: 6af3 4ebe 40a1 25bd 1ef1 ecbc 5956 113e
00000270: e87e e1bd e627 f13b c5be 8dbe 03ce 6ebe
00000280: 4b87 15ba b694 dfbd 9195 e1bd 828e 2b3d
00000290: 50fd 79be b9d7 fb3c be55 a7bd 5c8a efbe
000002a0: 82ba 193d 2fe6 673e 6216 103e ba0d c2bd
000002b0: 4a80 7bbd abd6 2bbe d39f 353d 285f 99be
000002c0: b9e6 2c3e bb29 5abe a90f 9ebd ee3a 263d
000002d0: 0c2d 8abe c90f c63d d33a 003e 226b 82be
000002e0: 2222 c73d 426e b1be 0a8e 84be 9119 80be
000002f0: eb76 a0bc c91b d1be 6a29 f1bd 3995 9cbe
00000300: 1beb 15bc 6deb cd3d 12ee 0abe 9177 913d
00000310: 4535 26bd 13cc 2fbe d1cd b1bd ba55 2abd
00000320: 3789 1d3d cf58 a73d cbe4 483d db58 cbbd
00000330: 9abe 493e a51b 7b3e fd5c 85be 37a0 a1bd
00000340: 3b11 ff3c e2f7 44bc a4af 85bd a379 88be
00000350: 6f94 923e f5b7 1cbe efaf 0b3d b851 ac3b
00000360: 348f c4bc c485 4ebd e353 aebe 615c 5f3d
00000370: 138b 0bbe fedd bdbe be7a 1ebc 9813 74be
00000380: 9cff bcbe faf0 22bc be68 233d e0be 103e
00000390: f992 eabe 44e1 a1bd 8180 e7bd aa2b cebd
000003a0: f342 573c 7567 90bc 6fc0 debd 7bf7 3f3d
000003b0: c4ac 3dbd d647 83bd 8cf6 0dbf dc96 e3bd
000003c0: 28d7 7d3d 2e5b 5cbe 15e2 c9bc 9f01 023d
000003d0: 38f3 91be 3c04 1bbe e344 5b3d 2077 63be
000003e0: 6705 89be db25 cebe 3b13 f23e a0df 22be
000003f0: e865 5ebd 3098 c0be ec7e 20be 0b49 69be

hidden_layer_2.bias f4 [300]
-0.02458756 0.588059 -0.07359724 0.52161676 -0.10780723 0.045643393 0.3980063 -0.07758917
-0.057069317 0.0025499805 -0.068421766 0.4865345 -0.01738732 0.46591336 -0.069076985 0.19091594
-0.07035512 0.32311913 -0.14931887 -0.13349423 -0.019320037 -0.045173425 -0.025860941 0.26468325
-0.17318472 -0.0076765474 -0.5150435 -0.08522774 0.5427073 -0.032015406 0.5501459 0.22889455
0.47563604 0.38914543 -0.041781377 0.8059065 0.40592334 0.6324599 1.0652645 -0.06937513
-0.08130738 0.55445904 -0.027496666 0.512077 -0.14729668 0.4123616 0.38456324 0.57777864
0.047983997 0.42239776 0.42130396 0.29185808 0.51924485 0.47760582 0.4262984 1.0017556
-0.029540183 1.2244153 -0.0842057 0.32953212 0.20757182 -0.12849198 -0.026006747 0.1993247
0.5364367 0.43426567 -0.061773386 0.2155053 0.5434736 -0.0900527 0.24209413 -0.61114216
-0.10663546 0.42580274 0.27359807 0.28604722 -0.16377077 0.32705316 -0.12096442 0.6020736
0.37645343 -0.10394401 -0.07437684 0.39620015 -0.058023535 0.44502255 -0.090381585 0.45354268
0.4393799 0.24518144 -0.117609724 0.6476443 -0.031034667 0.28754815 0.16538563 -0.004466646
0.31630495 0.5727688 0.22081435 -0.16334091 -0.061094698 -0.5895092 -0.064478815 -0.036063697
0.28511205 -0.17477608 -0.010282233 0.35487968 -0.19700974 0.43489614 0.0090913 -0.028504865
-0.108548194 -0.037918095 0.023809817 -0.061515138 -0.07092873 -0.08813648 0.48231348 0.6558993
-0.06824983 -0.08019546 0.46358433 -0.08110661 0.48400387 0.5299683 0.010572759 0.4179592
0.16317642 -0.20192415 -0.06567345 -0.014451191 0.19220975 0.31954363 0.3955455 -0.12891848
-0.065939225 -0.048441995 0.20710681 0.3853018 0.719478 -0.048139937 -0.17302792 0.414955
0.2900735 0.74422234 0.7259001 0.0029482231 -0.08019708 -0.08592932 0.4078957 -0.7284313
-0.0070632016 -0.04874461 0.24644332 0.21045399 0.20580181 -0.056306105 0.61397207 0.085936025
0.48009786 0.13909566 0.51023585 0.21750268 -0.0033736269 -0.13057077 -0.4988569 0.20866403
0.37772873 0.02220361 0.3172286 0.007437238 0.46451005 -0.107525684 -0.03612764 0.2630285
0.5111305 -0.008841154 0.47104454 0.039003976 -0.11125582 -0.098031245 -0.10057576 0.0792326
0.313206 0.37057412 -0.0103475535 0.41174412 0.27810368 -0.09479139 0.345852 0.24716693
0.39550677 -0.082128145 0.32535702 0.34949607 0.38865042 0.42184922 -0.14673518 0.1429307
-0.092929944 0.15382254 -0.13609388 -0.3187579 0.5760881 0.6253529 0.20678967 0.8439949
0.34700084 0.352108 0.21561112 0.51158357 0.27289164 0.6374506 0.33461475 -0.07434866
-0.0004835108 0.311524 -0.015962556 0.80675894 -0.15037961 -0.12795413 -0.40331802 -0.05279023
0.05008135 0.35915917 0.48033354 -0.5148799 0.6193602 0.06110809 -0.0010292337 0.30676422
0.38458198 0.34817213 0.51875985 -0.032807186 0.4928602 -0.12945028 0.03246205 -0.062617496
-0.076180704 0.49117863 0.5734861 -0.1381484 -0.09096837 0.4030773 -0.74617594 -0.70966953
-0.12930846 0.5251872 -0.19110312 -0.26148233 0.36503482 0.07458467 -0.055310875 0.30204353
00000000: da6b c9bc 098b 163f 26ba 96bd ad88 053f
00000010: 09ca dcbd 91f4 3a3d 7bc7 cb3e 12e7 9ebd
00000020: 84c1 69bd 931d 273b b620 8cbd 0d1b f93e
00000030: da6f 8ebc 328c ee3e 3c78 8dbd 787f 433e
00000040: 5816 90bd df6f a53e 0ce7 18be b6b2 08be
00000050: 0e45 9ebc c507 39bd 53da d3bc 9084 873e
00000060: 5657 31be 8c8b fbbb e4d9 03bf e28b aebd
00000070: deee 0a3f 9622 03bd 5dd6 0c3f 5563 6a3e
00000080: 9186 f33e 123e c73e f322 2bbd e34f 4e3f
00000090: 2fd5 cf3e e4e8 213f 965a 883f 8c14 8ebd
000000a0: 7c84 a6bd 07f1 0d3f b040 e1bc 7a17 033f
000000b0: f1d4 16be 0f21 d33e 79e5 c43e 4de9 133f
000000c0: de8a 443d 8544 d83e 27b5 d73e 6c6e 953e
000000d0: 3bed 043f c088 f43e c943 da3e 8739 803f
000000e0: 41fe f1bc a4b9 9c3f 0a74 acbd 6fb8 a83e
000000f0: b58d 543e 6793 03be 1a0c d5bc c61b 4c3e
00000100: ea53 093f 1258 de3e 1706 7dbd 6cad 5c3e
00000110: 1621 0b3f 8d6d b8bd 86e7 773e d073 1cbf
00000120: b163 dabd d102 da3e 0c15 8c3e c874 923e
00000130: 86b3 27be 8373 a73e 32bc f7bd 7f21 1a3f
00000140: 81be c03e 99e0 d4bd e252 98bd bfda ca3e
00000150: 16aa 6dbd ffd9 e33e fb19 b9bd bf36 e83e
00000160: 67f6 e03e d810 7b3e 5edd f0bd 04cc 253f
00000170: 6a3c febc 8339 933e da5a 293e f15c 92bb
00000180: b9f2 a13e faa0 123f 281d 623e d742 27be
00000190: 6f3e 7abd 13ea 16bf 780d 84bd 87b7 13bd
000001a0: 35fa 913e 80f8 32be d076 28bc cab2 b53e
000001b0: ecbc 49be b5aa de3e adf3 143c 0983 e9bc
000001c0: 844e debd 0150 1bbd ce0c c33c 4cf7 7bbd
000001d0: 1543 91bd e680 b4bd cbf1 f63e 04e9 273f
000001e0: 91c6 8bbd 843d a4bd ed5a ed3e 391b a6bd
000001f0: 5bcf f73e 01ac 073f 5e39 2d3c c0fe d53e
00000200: b817 273e 34c5 4ebe cd7f 86bd b0c4 6cbc
00000210: a2d2 443e 399b a33e f184 ca3e 3503 04be
00000220: 250b 87bd 1d6b 46bd cf13 543e 4746 c53e
00000230: b62f 383f 622e 45bd 3b2e 31be fb74 d43e
00000240: 8484 943e 5b85 3e3f 97d4 393f fa36 413b
00000250: 5e3e a4bd b6fb afbd b5d7 d03e 797a 3abf
00000260: 6e72 e7bb 6ea8 47bd a35b 7c3e 4081 573e
00000270: b6bd 523e 3ba1 66bd 462d 1d3f 3aff af3d
00000280: 63cf f53e 186f 0e3e d19e 023f 06b9 5e3e
00000290: 1118 5dbb 58b4 05be 2c6a ffbe 06ac 553e
000002a0: a965 c13e 58e4 b53c c96b a23e 13b4 f33b
000002b0: 43d4 ed3e 6d36 dcbd 94fa 13bd acab 863e
000002c0: 73d9 023f 7dda 10bc c02c f13e a2c2 1f3d
000002d0: 17da e3bd 9bc4 c8bd aafa cdbd b444 a23d
000002e0: 895c a03e e4bb bd3e c988 29bc 20d0 d23e
000002f0: 9b63 8e3e fd21 c2bd 8313 b13e 5419 7d3e
00000300: dd7f ca3e cd32 a8bd 3295 a63e 26f1 b23e
00000310: 30fd c63e 9ffc d73e bf41 16be 6d5c 123e
00000320: 0e52 bebd a883 1d3e 325c 0bbe 3c34 a3be
00000330: 827a 133f 2117 203f acc0 533e 0d10 583f
00000340: 18aa b13e 8047 b43e 29c9 5c3e 24f7 023f
00000350: 74b8 8b3e f62f 233f a052 ab3e 1c44 98bd
00000360: b97f fdb9 1380 9f3e e8c3 82bc c187 4e3f
00000370: 1dfd 19be 6806 03be b37f cebe 913a 58bd
00000380: 1a22 4d3d b6e3 b73e 47ee f53e 2bcf 03bf
00000390: 648e 1e3f 7a4c 7a3d 5ae7 86ba 3310 9d3e
000003a0: eee7 c43e 9e43 b23e 72cd 043f d460 06bd
000003b0: 2c58 fc3e 9d8e 04be edf6 043d 9a3d 80bd
000003c0: a104 9cbd c47b fb3e fccf 123f c676 0dbe
000003d0: a04d babd 2660 ce3e 6305 3fbf e7ac 35bf
000003e0: 7069 04be ab72 063f 89b0 43be 03e1 85be
000003f0: d8e5 ba3e d9bf 983d a88d 62bd 73a5 9a3e

output.weight f4 [1, 300]
-0.6406518 0.13917615 -0.018927969 0.089248136 -0.6026042 -0.571259 0.08784592 -0.7350705
-0.6342193 -0.49232107 -0.89572614 0.22457959 -0.5499307 0.08444838 -0.71663004 0.047762938
-0.6356706 0.11194247 -0.6504761 -0.49011332 -0.68653476 -0.7242274 -0.52609986 0.08770366
-0.6465918 -0.021371191 -0.03206227 -0.66248184 0.11608869 -0.2902813 0.026746 0.05201275
0.0919628 0.07316024 -0.65883476 0.08074271 0.104154155 0.05970324 0.15200792 -0.57684535
-0.745646 0.11852436 -0.6505847 0.06965975 -0.41114095 0.09681085 0.1363574 0.08225848
-0.7097457 0.13744217 0.11195862 0.11383078 0.055085037 0.27645245 0.17023252 0.116483666
-0.51556283 0.13543667 -0.81994855 0.12851004 0.060196873 -0.50761294 -0.60190916 0.31667912
0.09240048 0.093210354 -0.6758594 0.233955 0.22157553 -0.6237186 0.11282199 -0.51535904
-0.5381483 0.089895256 0.14887679 0.30170143 -0.41073495 0.024661217 -0.40162018 0.10272433
0.2968808 -0.6513134 -0.6396819 0.07684777 -0.5182882 0.08017577 -0.8583982 0.0593536
0.13517118 0.035883956 -0.58805215 0.036564644 -0.68406314 0.069365926 0.16598286 -0.76770866
0.08073737 0.0839177 0.14258543 -0.9799448 -0.5919911 -0.13944441 -0.6573396 -0.7005081
0.10109899 -0.6415376 -0.697578 0.087918825 -0.45218658 0.10584925 -0.7646396 -0.7959981
-0.5323651 -0.6084439 -0.80392545 -0.7104783 -0.75644535 -0.5703151 0.18073839 0.22168787
-0.71176416 -0.7181561 0.06126242 -0.7264203 0.10511435 0.01894332 -0.5918656 0.2559005
0.6101871 -0.39729404 -0.6265219 -0.7345017 0.13160995 0.041693255 0.13811527 -0.7989417
-0.91965455 -0.5109891 0.059440766 0.07601462 0.11344735 -0.6736496 -0.71943253 0.07201301
0.29777437 0.15106682 0.06034075 -0.4755641 -0.41702992 -0.6824774 0.1411289 -0.28505084
-0.5969759 -0.633714 0.090354875 0.05711652 0.16050114 -0.67864996 0.19057247 -0.032604396
0.05783501 0.08677707 0.06934193 0.20942615 -0.5593301 -0.5678013 -0.13742323 0.08136982
0.091196656 -0.9501152 0.07006451 -0.70759064 0.16663687 -0.87776285 -0.78901005 0.08724503
0.04425704 -0.5614618 0.21973822 -0.51465464 -0.5681002 -0.69809157 -0.5597074 0.6945598
0.0751276 0.06907971 -0.570471 0.14524306 0.106947474 -0.58747613 0.23787919 0.07164303
0.02245129 -0.2953647 0.046723302 0.06593271 0.13552535 0.05537172 -0.52582586 0.5806015
-0.6962302 0.21320726 -0.63571376 -0.4802566 0.08811978 0.120770745 0.20530117 0.110131234
0.07735165 0.08173842 0.16956766 0.08447309 0.15857354 0.06081592 0.09837746 -0.4553116
-0.7012108 0.08608903 -0.7314853 0.12513433 -0.67693377 -0.53677726 -0.71319693 -0.4953462
-0.81372786 0.13476841 0.089441754 -0.1252111 0.09106531 -0.63101506 -0.5729785 0.09780599
0.2811046 0.069974065 0.044943698 -0.67085093 0.09387604 -0.5998913 -0.49130777 -0.609167
-0.84221524 0.13026834 0.11458801 -0.8030301 -0.7310549 0.056761913 -0.07053011 -0.10520226
-0.5302714 0.25776094 -0.6663424 -0.5870306 0.11115043 -0.3850078 -0.61316997 0.08823967
00000000: c201 24bf 3184 0e3e d40e 9bbc bac7 b63d
00000010: 4544 1abf 083e 12bf 90e8 b33d 952d 3cbf
00000020: 325c 22bf 8211 fcbe 4f4e 65bf 31f8 653e
00000030: 42c8 0cbf 46f3 ac3d 1175 37bf 12a3 433d
00000040: 4fbb 22bf 1842 e53d 9a85 26bf 22f0 fabe
00000050: bec0 2fbf f866 39bf 7bae 06bf fa9d b33d
00000060: 0a87 25bf a312 afbc ba53 03bd 6998 29bf
00000070: e8bf ed3d c09f 94be 6d1a db3c 520b 553d
00000080: fe56 bc3d 09d5 953d 65a9 28bf 6f5c a53d
00000090: c64e d53d 628b 743d f7a7 1b3e 23ac 13bf
000000a0: a8e2 3ebf e6bc f23d b88c 26bf c5a9 8e3d
000000b0: 1181 d2be c444 c63d 46a1 0b3e 2277 a83d
000000c0: e5b1 35bf a4bd 0c3e 904a e53d 1d20 e93d
000000d0: d9a0 613d 2d8b 8d3e 6f51 2e3e fd8e ee3d
000000e0: edfb 03bf e9af 0a3e 26e8 51bf 2398 033e
000000f0: ff90 763d ecf2 01bf b816 1abf c423 a23e
00000100: 763c bd3d 12e5 be3d 1f05 2dbf e691 6f3e
00000110: b2e4 623e 06ac 1fbf 370f e73d 92ee 03bf
00000120: 16c4 09bf 011b b83d 2873 183e 9c78 9a3e
00000130: da4b d2be 5206 ca3c 29a1 cdbe 2261 d23d
00000140: c300 983e 7abc 26bf 31c2 23bf 5d62 9d3d
00000150: 89ae 04bf 3233 a43d fcbf 5bbf c31c 733d
00000160: 506a 0a3e 0efb 123d 968a 16bf cfc4 153d
00000170: c31e 2fbf b90f 8e3d 69f7 293e 8e88 44bf
00000180: a259 a53d 0bdd ab3d ea01 123e aadd 7abf
00000190: bb8c 17bf 84ca 0ebe 6847 28bf 8054 33bf
000001a0: fd0c cf3d cf3b 24bf 7994 32bf c90e b43d
000001b0: 0085 e7be 7ec7 d83d 6cbf 43bf 88c6 4bbf
000001c0: 1449 08bf fbc2 1bbf 0fce 4dbf e8e1 35bf
000001d0: 67a6 41bf 2c00 12bf 7c13 393e 2502 633e
000001e0: 2d36 36bf 14d9 37bf 4eee 7a3d aef6 39bf
000001f0: 3146 d73d 052f 9b3c 8184 17bf 6405 833e
00000200: 3935 1c3f 206a cbbe bd63 20bf 4e08 3cbf
00000210: c2c4 063e 8cc6 2a3d 176e 0d3e 7187 4cbf
00000220: 7b6e 6bbf 2fd0 02bf 2978 733d 8ead 9b3d
00000230: 1657 e83d 4d74 2cbf bb2c 38bf 8f7b 933d
00000240: e275 983e 43b1 1a3e dd27 773d 237d f3be
00000250: f284 d5be d7b6 2ebf 1884 103e 2ff2 91be
00000260: 6ad3 18bf 153b 22bf fa0b b93d 03f3 693d
00000270: 695a 243e 01bc 2dbf 6e25 433e 308c 05bd
00000280: 67e4 6c3d 2db8 b13d 2403 8e3d cf73 563e
00000290: 4230 0fbf 6d5b 11bf adb8 0cbe 38a5 a63d
000002a0: 50c5 ba3d c03a 73bf fb7d 8f3d a924 35bf
000002b0: dba2 2a3e 11b5 60bf 90fc 49bf 86ad b23d
000002c0: df46 353d f6bb 0fbf 0e03 613e 68c0 03bf
000002d0: 046f 11bf 21b6 32bf fc48 0fbf acce 313f
000002e0: 80dc 993d aa79 8d3d 630a 12bf 99ba 143e
000002f0: 4707 db3d d664 16bf 9a96 733e 95b9 923d
00000300: c5eb b73c 0b3a 97be ef60 3f3d bb07 873d
00000310: 28c7 0a3e 75cd 623d 869c 06bf 4da2 143f
00000320: 243c 32bf 0153 5a3e 23be 22bf 31e4 f5be
00000330: 2578 b43d a756 f73d 783a 523e 7c8c e13d
00000340: 8b6a 9e3d 7966 a73d 25a3 2d3e 3a00 ad3d
00000350: 1a61 223e 1d1a 793d 1f7a c93d 9a1e e9be
00000360: 8d82 33bf 724f b03d 9f42 3bbf 3723 003e
00000370: 884b 2dbf 3c6a 09bf 1394 36bf 049e fdbe
00000380: 7850 50bf bb00 0a3e 3d2d b73d 5737 00be
00000390: 7380 ba3d 348a 21bf b8ae 12bf 824e c83d
000003a0: f1ec 8f3e 904e 8f3d e216 383d e3bc 2bbf
000003b0: 1542 c03d 7a92 19bf b18c fbbe 5ef2 1bbf
000003c0: 6b9b 57bf 1065 053e 1ead ea3d 6193 4dbf
000003d0: 6a26 3bbf 2e7f 683d 1772 90bd 4874 d7bd
000003e0: debf 07bf 3ef9 833e 6a95 2abf a347 16bf
000003f0: d6a2 e33d be1f c5be b5f8 1cbf 00b7 b43d
