reacher_20_2_tmp_qvalue_local.pth (torch, 543903 bytes, 5 tensors)

hidden_layer_1.weight f4 [400, 33]
000000 45 de bb be 6b 7d 84 bd 65 42 e9 bd ae e5 d7 3e
       -0.36693016 -0.06469234 -0.11389617 0.4216742
000010 b9 0c b0 3e ae 1d 2e 3e d4 6c 9e 3e 8b 32 da bc
       0.34384707 0.1700351 0.30942404 -0.026635429
000020 c0 cf 44 3e e1 02 3c bc 85 98 db bd c7 bc 9f bc
       0.19219875 -0.011475296 -0.1072245 -0.019499196
000030 1e c2 cf bc c4 c5 62 3d b9 6d ae 3c e8 18 89 3d
       -0.025361117 0.055364385 0.021292554 0.066942036
000040 ce 95 e9 be 33 29 91 3d cd a1 4c 3e ae c2 c9 3e
       -0.45622104 0.07087936 0.19983597 0.3940634
000050 7e 81 03 bd 35 ab 06 bc e2 31 7a 3d bf a8 ff 3d
       -0.032105915 -0.00821953 0.06108273 0.12483358
000060 0c 4c 91 3d e3 68 04 3e 40 ea 0a 3e 0e b7 7f 3e
       0.07094583 0.12930636 0.13565922 0.24972174
000070 65 c0 13 3e 76 7f 9a 3c 81 0a 84 be e4 87 79 3c
       0.14428861 0.018859606 -0.25789264 0.015230153
000080 55 76 7e bf 4b 4e 1e 3e 69 79 c5 bd 51 1b f8 bd
       -0.9939931 0.15459554 -0.09642298 -0.12114585
000090 f2 71 06 bf 0c 04 f1 be 79 b1 4f 3e 91 cc 6a 3d
       -0.52517617 -0.470734 0.20282544 0.057323996
0000a0 61 ea 2c 3d 51 94 79 3d e8 9b 2d be f4 d5 a1 3c
       0.04221571 0.06093246 -0.16954005 0.019755341
0000b0 79 39 39 3c a5 ec 49 3d 62 72 64 bd 47 1d bb 3c
       0.011305206 0.049297947 -0.055773146 0.022841109
0000c0 d6 73 11 3e ee c0 89 3f 81 7f 9d 3e ef f4 83 bf
       0.14204344 1.0762002 0.3076134 -1.0309123
0000d0 e7 37 64 bc 14 4e 5f 3d fe 0c 04 bd f2 84 af 3b
       -0.013929344 0.05451782 -0.032238953 0.0053564245
0000e0 80 2f 25 3d 9d 38 54 bd 4f 8b 7e 3d 11 3c c0 3d
       0.040328503 -0.051811803 0.062144574 0.09386457
0000f0 3e 44 5e bc 89 b6 aa bd 50 bf b4 bc d2 df 71 bc
       -0.013566075 -0.08335597 -0.022063881 -0.014762836
000100 d5 e6 40 3d b3 2f 21 3e 69 8b 30 bd 9e 9e 69 3e
       0.04709514 0.15740852 -0.043101702 0.22814414
000110 40 12 d2 3d c8 bc 83 3e 3f 9f 5b 3e 20 b0 83 3e
       0.10257387 0.25729966 0.21447466 0.2572031
000120 60 69 42 3e f3 ae 9a 3c c3 d3 a2 3d 1c b0 de 3c
       0.1898551 0.01888225 0.079505466 0.027183585
000130 75 c2 a1 3d 89 ce 5c 3d ec b2 83 3d c9 69 a0 bd
       0.07898418 0.053907905 0.06430611 -0.07832677
000140 71 91 ee bd b5 f5 e4 3d de 9d 97 3e 0d 1b 58 bf
       -0.116488345 0.111796774 0.2961263 -0.84416276
000150 28 7d 14 bf b0 e1 85 3f 59 af 3f bd e3 80 ab 3d
       -0.58003473 1.0459499 -0.046798084 0.083741926
000160 ff a0 e9 bd 95 5b 1f bd 06 97 4a bd 30 c4 a1 3d
       -0.11407661 -0.0389057 -0.049460433 0.07898748
000170 e3 13 96 3d 2d 9d aa 3e e6 44 25 be e8 34 23 3c
       0.07328012 0.3332304 -0.16139564 0.009961344
000180 fd 08 95 be 30 62 14 bd 02 94 17 be ee 97 26 be
       -0.2910842 -0.03622645 -0.14802554 -0.16268894
000190 d2 b4 df 3c a1 49 e3 bb 28 cc 80 be 8f 85 37 3e
       0.027307902 -0.0069362675 -0.2515576 0.17922042
0001a0 47 b5 39 3f 24 90 d2 3c 01 8d b0 3a d4 ec 7c 3d
       0.7254223 0.025703497 0.0013469757 0.061749294
0001b0 08 e4 2e bd 31 fe c5 bd ad 45 db bc 44 52 27 bd
       -0.042697936 -0.09667624 -0.026766622 -0.04084994
0001c0 fd 01 26 3d 0e 4e a9 3d 54 9b 87 bd 93 38 ec bc
       0.04052924 0.08266841 -0.06621423 -0.02883557
0001d0 98 45 0b 3f ae fd 03 bf 6a ed 48 be 53 6b 5e bc
       0.54403067 -0.5155896 -0.19621816 -0.013575393
0001e0 a6 c6 7c 3d 51 fd 7a 3d ce fc c3 3d 7e 68 02 be
       0.061712883 0.061276738 0.09569703 -0.12735173
0001f0 12 dd c4 bd 7e 68 5b bd 97 41 3d 3e c0 19 f3 3b
       -0.09612478 -0.05356645 0.18482052 0.007418841
000200 34 02 8a bc 20 dd ef bd 98 6c 40 bc a9 14 93 bf
       -0.016846754 -0.11712098 -0.011744641 -1.149068
000210 5d 18 45 bd a4 bb d3 3d cf 69 b6 3c 2b 2c 56 bf
       -0.048118938 0.10338524 0.02226725 -0.83661145
000220 32 a5 e1 3d b8 3a 4c bd 3d 2a ef 3e bc 77 a6 bd
       0.11017837 -0.049860686 0.46711913 -0.08128306
000230 c7 ee df bd 3c 32 d7 bd 2a c2 51 bb d5 47 3e bd
       -0.10934215 -0.10507628 -0.00320066 -0.046455223
000240 19 3d 8e bc 5d 48 ba 3c 18 6e f7 3b ee 76 fa bc
       -0.017363118 0.022739584 0.007550966 -0.030574288
000250 62 43 ac bd d9 26 3f be 74 a3 9a 3e 35 ba a0 3e
       -0.0841129 -0.18667163 0.3020283 0.31392065
000260 71 5a 7a 3d 33 47 e4 bc cc a3 9b bb 18 8e 2f 3d
       0.061121408 -0.027865982 -0.0047497507 0.04286012
000270 40 da 8b 3c 3a f8 52 bd 9c 74 44 3e 9a 4d 1a 3d
       0.017071843 -0.05150626 0.19185108 0.037671663
000280 f5 e9 16 be ac ad 0f 3c 83 04 9d bd 6c 52 8c bc
       -0.14737685 0.008769434 -0.07666876 -0.017129146
000290 0e e6 c5 3f 9b 47 8e be 3e fb 86 3d b1 aa 48 3d
       1.5460832 -0.27789006 0.065908894 0.04899091
0002a0 3d 15 1d bf cc 76 90 be 40 40 a5 be 0a 29 4a 3d
       -0.6136053 -0.28215635 -0.3227558 0.049355544
0002b0 08 d1 10 3b 57 ef a0 3d d5 f6 34 bd e7 c7 3b bd
       0.0022097249 0.078581505 -0.04418071 -0.04584494
0002c0 ec 09 42 bc 64 9f 18 bd 07 ea 12 3e 52 f4 ee bd
       -0.011843186 -0.03726138 0.14347087 -0.11667694
0002d0 71 91 48 bd 48 d7 33 3e b3 f0 2b 3e 4f 6f 0f bf
       -0.04896683 0.17562592 0.16791038 -0.5602922
0002e0 e0 a3 18 bf 29 4e 89 bc 32 93 8f 3d e5 f2 bd bd
       -0.59625053 -0.016760902 0.07010497 -0.09274844
0002f0 7a d0 27 3c d7 35 99 3c 1b 99 32 bd cc fc 29 be
       0.010242576 0.01870243 -0.043603044 -0.1660034
000300 76 cd ec 3e b5 11 eb bd fd 04 1d 3d 8c 21 db be
       0.46250504 -0.11477987 0.038334835 -0.42799032
000310 fd 75 0c 3d 8b 4c c8 3d 4a 3b 44 be bc b0 ea 3c
       0.03429221 0.097802244 -0.19163242 0.028648727
000320 58 b7 56 3c ce 3b e6 be 6c 6b 5e bd 00 7a d3 bd
       0.013105236 -0.44967502 -0.054301664 -0.10326004
000330 f5 4f 53 3e 24 88 0e be 63 f7 a8 be 10 87 f3 bd
       0.2063597 -0.13919121 -0.3300124 -0.118909955
000340 0a 6c 1c be a6 1a 02 3e ea e0 21 be 51 ff 1b 3e
       -0.15275589 0.12705478 -0.15808454 0.15234114
000350 05 6b 2a 3c 8c 84 5d 3e 08 41 86 bd 8d 75 21 be
       0.010401492 0.21632594 -0.065553725 -0.15767498
000360 fc ea 38 be 56 f0 1f be a9 c1 0b 3e 1d c7 a9 3d
       -0.1805839 -0.15619025 0.13648094 0.08289931
000370 58 6e e8 bd b0 58 dd 3d 9f 0c 25 3d 71 6a 26 3e
       -0.113491714 0.108079314 0.04029524 0.16251542
000380 32 93 77 bd 5a 33 e8 3e b0 39 5b be 64 d1 72 3c
       -0.06044311 0.45351678 -0.21408725 0.01482043
000390 1a fd c3 be e7 cc df bc bd d2 30 3f aa 30 d6 bd
       -0.3827904 -0.027319385 0.6907156 -0.10458501
0003a0 44 cf 95 3d e0 b0 dd 3d a7 20 3f 3f d3 cc 14 3f
       0.073149234 0.10824752 0.746592 0.58125037
0003b0 ce e2 c3 3e 78 76 c1 3e 40 b8 82 bd 23 6e ad bb
       0.38258976 0.37785697 -0.06382799 -0.0052926703
0003c0 67 4b f4 3c 7d fc ce bd 1c fe 20 bd 65 3d da bc
       0.02982111 -0.10106752 -0.039304838 -0.026640603
0003d0 86 87 90 bd 11 9e 67 bd d1 6e 28 bc a4 2a 1b be
       -0.07057099 -0.05654723 -0.010280327 -0.15152985
0003e0 cc b1 d5 be 7b 08 1c 3e 35 27 95 bf 67 45 fb bc
       -0.4173721 0.1523761 -1.165259 -0.030672742
0003f0 9c ca 05 be cc 6f 61 3d 33 8c 1c bc a5 22 53 3c
       -0.1306557 0.05503826 -0.0095549105 0.012886678

hidden_layer_1.bias f4 [400]
000000 23 80 9b be db 0f 90 bd a3 da 19 be 39 0b 0b be
       -0.30371198 -0.07034274 -0.1502481 -0.135785
000010 be 71 5b be 89 ce 13 bf 31 12 0e bf b2 46 64 be
       -0.21430108 -0.5773702 -0.5549651 -0.22292593
000020 d3 b6 4f be 42 b7 c3 bd 6f ab 94 be a4 b3 94 be
       -0.20284586 -0.09556438 -0.29037043 -0.29043305
000030 bb 52 85 be d3 3d 7e bd 85 00 d5 be 0e e1 18 bd
       -0.2603968 -0.06207068 -0.4160196 -0.037324004
000040 0b 3c 28 3d 17 90 33 be 40 e6 75 be d5 4f d6 bd
       0.041072886 -0.17535435 -0.24013615 -0.104644455
000050 0c 95 97 be c8 9a c0 be ab 44 b1 be 6b ca e7 3e
       -0.296059 -0.3761809 -0.34622702 0.4527162
000060 66 98 45 be 2b 56 48 be d5 4f 87 be 9b 3e 57 bd
       -0.19296417 -0.1956412 -0.26428095 -0.05254994
000070 bc 7b 36 bd b9 e9 26 be d2 25 6e be cb 0f 5c 3d
       -0.044551596 -0.16300096 -0.23256615 0.053726
000080 5f 7c af be e8 6f c1 be b4 e2 a3 bd 3c 75 89 be
       -0.34274575 -0.3778069 -0.080022246 -0.26847255
000090 13 45 b6 be 36 22 0b 3e 85 2a b1 be d4 ac 18 be
       -0.35599574 0.13587269 -0.34602752 -0.14909679
0000a0 75 90 32 3f 2a a3 03 be ab 9e 9f 3d e2 9b 14 3e
       0.69751674 -0.12855211 0.077939354 0.1451259
0000b0 46 fe e6 bd 47 de ee bd 5b 20 44 be 41 e3 80 be
       -0.112789676 -0.1166349 -0.19152968 -0.2517338
0000c0 93 46 6f bc 26 19 f9 be 65 29 d6 be 3c 92 71 be
       -0.014604229 -0.48652 -0.41828457 -0.2359094
0000d0 26 20 3b bb c2 94 96 3d 77 5d a1 be b1 00 31 bd
       -0.0028553098 0.07352592 -0.3151662 -0.04321355
0000e0 56 bc 8b be e6 5e cb be 50 ed c0 be f0 b6 61 be
       -0.27292126 -0.3972084 -0.37681055 -0.22042441
0000f0 1e 58 c0 be 97 da c2 be eb 7c 65 3e 39 7f d4 be
       -0.37567228 -0.38057396 0.22410934 -0.41503313
000100 fb 35 a7 be c3 be ce be b1 94 3e be 76 c0 bd be
       -0.3265837 -0.40379915 -0.18611409 -0.370609
000110 ea 73 bb bb d7 ae 39 be 70 a3 fa bd ee 17 a6 be
       -0.005720605 -0.18133102 -0.122382045 -0.32440132
000120 28 b8 84 bd de 54 0e bf 0f 4f 91 bc 6a d4 52 bd
       -0.064804375 -0.5559825 -0.017737893 -0.051472105
000130 99 65 b9 bd d1 89 4f be be b4 0b be 09 ec 43 be
       -0.09052581 -0.20267417 -0.13643166 -0.19133009
000140 2d fb a1 be 69 81 b8 be 34 7b f4 be 58 90 3f be
       -0.31636944 -0.36036232 -0.47750247 -0.18707407
000150 15 3a 0e be c7 ef ec 3d 4e 44 e4 3d 74 28 08 bc
       -0.13889344 0.115691714 0.111458406 -0.008310426
000160 5c 6f 1b 3d d2 40 94 be f5 d6 09 be dc e6 53 be
       0.037947997 -0.28955704 -0.13460906 -0.20693535
000170 9f 4b 60 be 93 9b 64 bd a2 73 a2 be 4c 62 1a be
       -0.21903847 -0.05581243 -0.31728846 -0.1507656
000180 4a 60 ba be 8e 5d 82 be 0f aa b4 be 90 f0 06 be
       -0.36401588 -0.25462002 -0.35285994 -0.13177705
000190 e1 3a 97 be 8d 0b 49 3d 3d 3e fb bc 97 25 cf 3d
       -0.2953711 0.04908328 -0.030669326 0.101145916
0001a0 46 66 0e be 65 6a b8 bd b2 e3 1c be df 8a 76 bd
       -0.13906202 -0.09004668 -0.15321234 -0.06019103
0001b0 83 8d 93 be 9a 9f f0 be f4 af b4 bd 8e 9c 86 be
       -0.28818902 -0.46996766 -0.08822623 -0.26291317
0001c0 02 69 24 be 74 0b e4 be 91 c8 c2 be a1 d1 59 3e
       -0.16055682 -0.44539988 -0.38043645 0.21271373
0001d0 03 c4 cc be fc fd 07 bf c6 ba 0c bf 02 fb a5 be
       -0.39993295 -0.53121924 -0.54972494 -0.32418066
0001e0 3b 91 9e be 30 35 84 be f2 fa cb be 9c ea a8 3d
       -0.30970177 -0.2582183 -0.39839894 0.08247873
0001f0 44 23 f2 be 2a e7 ef bd 78 f7 40 be 5e 08 91 bd
       -0.4729253 -0.11714013 -0.18844402 -0.07081674
000200 5c 84 9b be a2 91 d5 bd 63 e8 b8 bd 3e 8e 34 be
       -0.3037442 -0.10428168 -0.09028699 -0.17632386
000210 d5 6f 1b be 63 34 6c be 6d f8 a0 be 66 f4 a7 39
       -0.1517938 -0.23066859 -0.31439534 0.00032034813
000220 63 a9 8f be b5 93 98 bd 64 11 07 be 39 b7 27 be
       -0.2805892 -0.07450048 -0.13190228 -0.16378488
000230 67 7a 5e be 72 21 d7 be 1c ca 9d be db 20 b5 be
       -0.2172638 -0.42017704 -0.3081826 -0.3537663
000240 cf ed 61 be 7c 5d ca bd c9 81 21 be 39 05 bd be
       -0.22063373 -0.09881112 -0.15772165 -0.36918047
000250 c4 a6 14 be 12 78 e8 be 0d ff d3 bd e3 72 51 bb
       -0.14516741 -0.45404106 -0.103513815 -0.0031959347
000260 97 3a 7c be 81 65 bd bd 3b 58 a2 be ed 83 ac be
       -0.24631725 -0.09247876 -0.3170794 -0.336944
000270 29 ef 58 be e1 fb 8e be 0b 65 34 be c6 49 2a be
       -0.21184982 -0.27926543 -0.1761667 -0.16629705
000280 b8 ad a0 3e a6 83 d8 bd 5f c6 73 be 8e ab 3b be
       0.31382537 -0.10571985 -0.23806141 -0.18327162
000290 13 4a 17 be 18 ec 92 bd bb a2 81 be b6 98 3e be
       -0.14774351 -0.071739376 -0.25319466 -0.18612942
0002a0 bb 6a 34 be f0 11 1b be b7 78 65 be 6b 09 ac be
       -0.1761884 -0.15143561 -0.2240933 -0.33600935
0002b0 d1 75 db be 97 a6 90 be 4b a3 b7 be 6c a6 83 3d
       -0.42863324 -0.28252098 -0.3586677 0.06428227
0002c0 e4 40 d6 bd 40 e2 1f be 95 f9 04 be 0a f8 dd 3c
       -0.10461596 -0.15613651 -0.12985833 0.027095813
0002d0 b4 fa 51 be 43 aa 99 bd 0e 3e ad be d9 78 22 bf
       -0.20505792 -0.07503178 -0.33836406 -0.6346565
0002e0 87 d0 36 be 7d 81 74 be 94 43 8c be ae cc a2 be
       -0.17852984 -0.23877521 -0.27395308 -0.31796783
0002f0 5b 00 47 bd da 14 9b bd 32 bc 29 be 1a 64 e3 bd
       -0.048584323 -0.075723365 -0.16575697 -0.11103077
000300 8d d8 d4 be 8e be ff bc bb 91 46 bd 30 53 9b be
       -0.41571465 -0.031218793 -0.048478823 -0.30336905
000310 47 7b 9c be 2a b8 9a be d7 08 92 bd 56 69 8c be
       -0.30562803 -0.3021863 -0.07130592 -0.27424115
000320 46 48 ab be 9f dc 20 be 28 63 ae be f5 f7 c3 be
       -0.33453578 -0.1570916 -0.34060025 -0.38275114
000330 45 2e 86 be 1d 18 c9 bc a9 e9 95 bd 55 08 05 bd
       -0.26207176 -0.02454763 -0.07319958 -0.03247865
000340 70 78 b2 3b 06 38 00 be dd 2b 23 be ca 5e b8 bd
       0.005446486 -0.12521371 -0.15934701 -0.090024546
000350 0a 87 89 be 53 9a 59 be 51 6c 01 be 13 51 aa be
       -0.2686084 -0.21250276 -0.12638976 -0.3326498
000360 61 02 ae be 0e 7e 04 be 53 88 0f be 96 86 13 be
       -0.3398619 -0.12938711 -0.14016847 -0.14406809
000370 0f 59 9b be fa 1a ce be 23 3e 96 be 30 54 6c bd
       -0.30341384 -0.40254956 -0.29344282 -0.057697475
000380 66 35 f0 bd e3 42 a6 be cf 9a 1f be 01 f9 3d be
       -0.11728935 -0.32472906 -0.15586399 -0.18552019
000390 b5 59 ed ba bb b7 32 be 4e 8a 2c be c1 03 cc 3c
       -0.00181084 -0.174529 -0.16849634 0.024904134
0003a0 ed 6b 74 be ef f7 bd be c5 92 c6 be 68 4c 40 be
       -0.23869295 -0.3710322 -0.3878385 -0.18779147
0003b0 f8 ba 19 be 77 3c 96 be 2e 2b 5a be 6e 3b a9 be
       -0.15012729 -0.29343006 -0.21305534 -0.33053154
0003c0 42 8f b4 be 10 51 c8 be 7c 3e 22 3d d1 15 d1 bd
       -0.35265547 -0.39124346 0.03961037 -0.10209239
0003d0 ab d1 92 be fd 93 c5 be 74 1c 2f 3f c7 70 8b bd
       -0.2867559 -0.3858947 0.6840279 -0.0680862
0003e0 a0 16 ba be 8f bf bd be 43 3c 52 bd 3b 53 ea bd
       -0.36345387 -0.3706021 -0.051327 -0.11441656
0003f0 4d a1 0d be ab 9d 94 be 2e 2e d5 3d a5 f3 6a be
       -0.13831063 -0.2902654 0.10409199 -0.22944506

hidden_layer_2.weight f4 [300, 404]
000000 29 70 f0 be c8 f1 13 3e dc 13 97 3d 36 a6 04 be
       -0.4696057 0.14447701 0.07376835 -0.1295403
000010 17 49 49 be db dc ae bd 8e 68 29 bd 88 a0 8a 3c
       -0.19656788 -0.085382186 -0.041359477 0.01692225
000020 cb a5 02 3d 90 e8 86 3c 9c 7e 52 3c c8 3d a3 be
       0.031896394 0.016468316 0.012847569 -0.31883073
000030 e3 16 52 be 59 38 a7 be fc 27 8a 3e 6d cd d4 3c
       -0.20516543 -0.32660177 0.2698363 0.02597686
000040 bc f3 8b bd 92 70 eb 3d b2 3f ce 3b 9f f3 19 3e
       -0.06833598 0.114960805 0.006294214 0.1503434
000050 9b 79 cb bd 8b a6 8c be ec c5 ea 3b b1 40 1e 3d
       -0.09935304 -0.27470812 0.0071647074 0.038635913
000060 1b 2a 88 be 52 66 ab be 25 9f 55 be 6b a1 94 bd
       -0.26594624 -0.33476502 -0.2086149 -0.072573505
000070 f4 5a 2f be e0 ec 86 bc 84 8f 9f 3b 6a 54 c2 3c
       -0.1712454 -0.016470373 0.0048694033 0.023721892
000080 14 a0 a8 be e0 86 62 be 49 26 cf be b6 16 43 3d
       -0.3293463 -0.22121763 -0.40458897 0.04762908
000090 a0 45 0c 3e 2c 61 56 bc ac e4 ef be 8e bb 2e 3d
       0.13698435 -0.013084691 -0.4685415 0.042659335
0000a0 9c 6a 66 bc 6d 51 14 be 28 c9 e9 bd d4 cf 3c be
       -0.014063504 -0.14484186 -0.11415321 -0.18438655
0000b0 68 12 52 3c e4 43 0e 3e 70 c4 e4 bc 87 0b 12 bd
       0.012821771 0.13893086 -0.0279257 -0.035655525
0000c0 66 1d be 3c 28 33 a0 bc e0 83 09 bf 22 54 72 be
       0.023207378 -0.019555643 -0.5371685 -0.23664907
0000d0 e1 dd da bd a6 90 8b be 34 49 8b 3d 33 03 2e be
       -0.10686851 -0.27258795 0.06801072 -0.16993408
0000e0 c4 28 e6 bd e3 f0 50 3e fb 10 d3 3d db 03 11 be
       -0.11238244 0.20404391 0.10305973 -0.14161627
0000f0 8a 4e 42 be 25 c9 db be ff 91 81 bc 2e 63 5e 3e
       -0.18975273 -0.429269 -0.015816687 0.21717522
000100 ef ea 91 bd 97 87 8b 3d 89 c9 b3 bd 87 8b 1b 3d
       -0.07124888 0.06812971 -0.08778674 0.03797486
000110 cf fe aa 3d 97 4f b6 be 7e 69 ce bc 0e 04 89 bd
       0.08349382 -0.35607597 -0.025196787 -0.066902265
000120 e2 90 13 bd 2f 66 7c bd c0 80 bb be ea 94 22 bd
       -0.036026843 -0.061620887 -0.36621666 -0.039692797
000130 08 c4 5a 3d df 50 14 be 8b a8 6f be b0 46 2f be
       0.053409606 -0.14483975 -0.23404138 -0.17116809
000140 ad 1b 91 3d d8 32 25 be c3 4b 1d be 07 69 21 be
       0.07085357 -0.16132677 -0.15360932 -0.15762721
000150 a8 3d df 3c 2b 47 13 be 06 e0 35 be dc ee a8 3d
       0.02725108 -0.14382617 -0.1776124 0.08248684
000160 9f 9e 2c be 05 e7 d2 be 4d c3 c5 bd e2 f0 08 3d
       -0.16857384 -0.4119188 -0.09656391 0.03343285
000170 af 23 ac bc 0d 3b d5 bd 2a e4 74 be 8e a8 14 3e
       -0.021013109 -0.10411654 -0.23915163 0.14517424
000180 5f 8d 01 bd 2f 96 24 be ad d1 75 be 5a c8 50 3a
       -0.031628963 -0.16072915 -0.24005766 0.0007964425
000190 f4 1f 88 be 19 2f 41 bd be 9d 3b be 17 45 69 be
       -0.26586878 -0.047164056 -0.18321893 -0.22780262
0001a0 7f 7d 3b be 27 75 2d be fc 14 0a 3d 7e 87 82 bd
       -0.18309592 -0.16939221 0.03371142 -0.06373499
0001b0 ad 55 2e be f4 e8 70 be eb 86 55 3e 85 ef 0c 3e
       -0.1702487 -0.23526365 0.20852248 0.13763244
0001c0 01 8c ce 3c 26 be c3 be e7 50 04 be 2c 16 aa 3e
       0.025213243 -0.3823101 -0.12921487 0.3322004
0001d0 da 22 b3 bd 47 ed 6d 3d 87 f8 e2 bd 47 33 9d 3d
       -0.08746882 0.058087613 -0.11082559 0.07675796
0001e0 da 67 42 3e 57 7f 3e be 4a 5b c2 be be 6c f0 3c
       0.18984929 -0.18603264 -0.37960273 0.029348727
0001f0 21 56 82 bd 23 6f 8e 3d 70 7d f8 3d de e7 9b be
       -0.06364084 0.069547914 0.121333 -0.30450338
000200 70 46 25 be 7e 52 96 be f1 82 af bc cb 05 c2 bd
       -0.16140151 -0.29359812 -0.021424742 -0.09473761
000210 15 b0 5d be 63 e5 5e be 55 17 96 bd ca f9 0f bd
       -0.21649201 -0.21767192 -0.07328669 -0.035150327
000220 b1 6d 51 be f0 f3 94 bd a6 44 cb bd 25 69 a5 bc
       -0.20452 -0.0727309 -0.09925203 -0.020191738
000230 eb 20 f8 3b 57 4d be bd 24 ad 46 be 96 9e 98 be
       0.0075722835 -0.09292095 -0.19401985 -0.2980849
000240 3d f0 9e bd cf c5 2e be b6 4a 80 be 51 06 20 be
       -0.077606656 -0.17067645 -0.25057 -0.1562741
000250 94 ca f5 3d 36 ba bb be 94 16 7f 3e 0b 59 0c bf
       0.12001529 -0.36665505 0.24910957 -0.5482337
000260 6a f3 4e be ca 30 34 bd 1e f1 ec bc 2d b4 08 3e
       -0.20210043 -0.04399184 -0.028923567 0.13349982
000270 e8 7e e1 bd e6 27 f1 3b 6c 99 8e be f6 25 67 be
       -0.110105336 0.0073594926 -0.27851427 -0.22573075
000280 60 49 ea 3b ac db ae bd 91 95 e1 bd a7 ea c5 3d
       0.0071498603 -0.08537993 -0.11014856 0.09663897
000290 d2 c0 76 be 57 59 22 3d be 55 a7 bd 5c 8a ef be
       -0.24096993 0.039635982 -0.08170651 -0.46785247
0002a0 c5 35 2f 3d 2f e6 67 3e 62 16 10 3e b4 6a bc bd
       0.042775888 0.22646402 0.14071038 -0.092000395
0002b0 4a 80 7b bd 1d 10 5b be d3 9f 35 3d 28 5f 99 be
       -0.061401643 -0.21392865 0.044341873 -0.2995541
0002c0 41 fa 34 3e c6 15 4e be a9 0f 9e bd ba 7f 3a 3d
       0.1767359 -0.20125493 -0.07717831 0.045531966
0002d0 ae 37 8b be c3 23 cc 3d d3 3a 00 3e 22 6b 82 be
       -0.27190918 0.099677585 0.1252244 -0.2547236
0002e0 d5 e2 ce 3d 42 6e b1 be bc 26 7f be 91 19 80 be
       0.101018585 -0.34654433 -0.2491712 -0.25019506
0002f0 8f 50 83 bb 2d fd c2 be 07 79 ed bd 84 e2 95 be
       -0.004007406 -0.38083783 -0.1159535 -0.2927438
000300 52 f0 32 bb 74 8a cc 3d 6d 72 10 be 91 77 91 3d
       -0.0027303887 0.09987345 -0.1410615 0.071028836
000310 a4 b4 d1 bc e3 5f 20 be d1 cd b1 bd b5 a8 06 bc
       -0.025598831 -0.15661578 -0.086818345 -0.008218934
000320 f8 5a f6 3c cf 58 a7 3d 9b 14 63 3d db 58 cb bd
       0.030072674 0.08171236 0.055439573 -0.09929057
000330 d6 dd 5f 3e a5 1b 7b 3e fd 5c 85 be 37 a0 a1 bd
       0.21861967 0.24522264 -0.26047507 -0.07891887
000340 09 1d 12 3d ea 61 83 bb 1f ac 61 bd a3 79 88 be
       0.03567222 -0.004009475 -0.055095788 -0.266553
000350 6f 94 92 3e e9 4d 06 be ef af 0b 3d b8 51 ac 3b
       0.2862887 -0.13115658 0.03410333 0.005258765
000360 34 8f c4 bc 19 68 3e bd 7f f8 a9 be 48 9c 6d 3d
       -0.023994066 -0.046485994 -0.331974 0.05801037
000370 7a fa 08 be fe dd bd be e6 52 94 3b 2d 87 8d be
       -0.13376799 -0.3708343 0.004526484 -0.27642193
000380 24 7d b7 be 29 56 36 3b 02 ec 5d 3d d3 ac 22 3e
       -0.35837662 0.0027822352 0.054180153 0.1588624
000390 0a 31 e8 be 44 e1 a1 bd 36 c4 df bd 48 96 a1 bd
       -0.45349914 -0.07904294 -0.10926096 -0.07889992
0003a0 22 d0 38 3d 75 67 90 bc 24 8e c6 bd 96 52 65 3d
       0.045120366 -0.017627457 -0.0969508 0.055986963
0003b0 c7 a7 3f bc 0a ba 99 bd 8c f6 0d bf d1 f6 d8 bd
       -0.011697716 -0.07506187 -0.55454326 -0.105939515
0003c0 44 9a a3 3d 92 b0 5b be 6e da 94 bc 5c 50 4b 3d
       0.07988408 -0.21454075 -0.018170562 0.049637184
0003d0 38 f3 91 be 3c 04 1b be eb 5a 79 3d d8 1b 65 be
       -0.28505874 -0.15138334 0.06087772 -0.22373903
0003e0 4b 99 8e be b4 22 c2 be 3b 13 f2 3e a0 df 22 be
       -0.27851328 -0.379171 0.47280297 -0.15905619
0003f0 0a 71 51 bd 6f 34 c6 be 33 cb 0b be 0b 49 69 be
       -0.051133193 -0.3871188 -0.13651733 -0.2278177

hidden_layer_2.bias f4 [300]
000000 42 39 93 bc c5 f7 1b 3f 7b 1e cd bd 43 e4 ec 3e
       -0.017971639 0.6092494 -0.10015579 0.462679
000010 5a 2f d1 bd 91 f4 3a 3d a1 ca de 3e 56 21 ba bd
       -0.1021411 0.045643393 0.4351397 -0.090883896
000020 84 c1 69 bd f4 d1 91 3c b6 20 8c bd 0e bb 05 3f
       -0.057069317 0.017800309 -0.068421766 0.5223855
000030 da 6f 8e bc a0 f2 ed 3e aa 72 69 bd d3 74 3b 3e
       -0.01738732 0.4647417 -0.056994118 0.18306284
000040 b4 38 83 bd 7a 4b ab 3e 0c e7 18 be b6 b2 08 be
       -0.064073 0.33456022 -0.14931887 -0.13349423
000050 0e 45 9e bc c5 07 39 bd 6f f2 8c bc 9f dd 6f 3e
       -0.019320037 -0.045173425 -0.017205445 0.23424385
000060 0a 57 31 be 58 8c ee bd b3 b3 e6 be e2 8b ae bd
       -0.17318359 -0.11647862 -0.45058975 -0.08522774
000070 a2 4a 16 3f 61 a6 0c bd 72 30 d0 3e ea a4 5d 3e
       0.5870763 -0.03433836 0.4066196 0.21644941
000080 77 90 f9 3e 05 4a ae 3e f3 22 2b bd 93 e4 3f 3f
       0.4874303 0.34040847 -0.041781377 0.7495815
000090 5b b5 ce 3e 3d 05 0f 3f 9c a9 79 3f 8c 14 8e bd
       0.40372738 0.5586737 0.9752443 -0.06937513
0000a0 7c 84 a6 bd d5 9f 13 3f b0 40 e1 bc 04 3c ee 3e
       -0.08130738 0.5766576 -0.027496666 0.46530163
0000b0 d1 20 1e be 24 db e7 3e 65 11 c2 3e 15 ab 08 3f
       -0.15442206 0.4528438 0.37903896 0.5338605
0000c0 de 8a 44 3d 94 c1 d3 3e 8e bb b2 3e 07 6d 8b 3e
       0.047983997 0.41358626 0.34908718 0.2723162
0000d0 66 42 fd 3e 8d 07 ed 3e ba 25 dd 3e ef 76 6f 3f
       0.4946472 0.46294823 0.43192846 0.93540853
0000e0 da f0 89 bc a3 0b 94 3f b2 7c a4 bd 2f a2 7f 3e
       -0.01683848 1.1566051 -0.08031596 0.24964212
0000f0 c3 05 f0 3d 4a f2 ec bd 1a 0c d5 bc af 89 77 3e
       0.11719849 -0.115696505 -0.026006747 0.24173616
000100 06 11 05 3f 2a 2c d0 3e e4 ac 86 bd ed fe 58 3e
       0.519791 0.40658695 -0.06575945 0.21190996
000110 d0 c4 0d 3f 8d 6d b8 bd c9 00 70 3e ec f8 13 bf
       0.5537844 -0.0900527 0.234378 -0.578017
000120 b1 63 da bd 0f 54 cd 3e 7e 6b 73 3e 13 17 8f 3e
       -0.10663546 0.40103194 0.23771474 0.27947292
000130 85 7d 1d be 80 f4 5e 3e e0 60 ec bd 33 a6 12 3f
       -0.15379913 0.21772957 -0.11541915 0.5728485
000140 ce fd c4 3e 99 e0 d4 bd e2 52 98 bd d6 3a d0 3e
       0.38474888 -0.10394401 -0.07437684 0.40669888
000150 51 cb 3f bd 98 f0 c7 3e 66 6f d2 bd 12 bb f4 3e
       -0.046824757 0.39050746 -0.10275154 0.47798973
000160 54 73 e2 3e d2 e4 63 3e 5e dd f0 bd 84 81 1b 3f
       0.44228613 0.22255257 -0.117609724 0.607445
000170 6a 3c fe bc fd 8f 79 3e 23 51 30 3e f1 5c 92 bb
       -0.031034667 0.24371333 0.17218451 -0.004466646
000180 ca 24 99 3e fe 54 02 3f 82 9a 8a 3e d7 42 27 be
       0.2991088 0.5091094 0.27071005 -0.16334091
000190 3f 18 4e bd 72 9d 0d bf 52 af 73 bd 87 b7 13 bd
       -0.05031609 -0.5531837 -0.05949337 -0.036063697
0001a0 66 7c 87 3e 80 f8 32 be d0 76 28 bc 01 f9 c1 3e
       0.26462096 -0.17477608 -0.010282233 0.37885287
0001b0 ec bc 49 be 3b 61 d6 3e ad f3 14 3c d3 b7 b4 bc
       -0.19700974 0.41871056 0.0090913 -0.02206031
0001c0 3d 08 de bd 01 50 1b bd ce 0c c3 3c a4 fb 6e bd
       -0.10841415 -0.037918095 0.023809817 -0.058345452
0001d0 3a c2 8a bd 9e 38 1d bd dd 59 eb 3e c0 9d 34 3f
       -0.06775327 -0.038384072 0.45966998 0.7055321
0001e0 91 c6 8b bd 84 3d a4 bd 23 c8 cf 3e 39 1b a6 bd
       -0.06824983 -0.08019546 0.4058238 -0.08110661
0001f0 f1 00 df 3e 82 1b f0 3e 42 32 a8 3c ed 9e de 3e
       0.43555406 0.46895987 0.020531777 0.43480626
000200 b8 17 27 3e 7c 56 4b be cd 7f 86 bd b0 c4 6c bc
       0.16317642 -0.1985721 -0.06567345 -0.014451191
000210 46 88 8d 3e 8a a0 a3 3e ef 92 b1 3e 35 03 04 be
       0.2764303 0.3195842 0.34682414 -0.12891848
000220 25 0b 87 bd b2 a1 81 bd 41 1e 03 3e e6 27 b2 3e
       -0.065939225 -0.06329669 0.1280451 0.34796065
000230 b8 e6 37 3f 62 2e 45 bd 3b 2e 31 be ee 8b c9 3e
       0.71836424 -0.048139937 -0.17302792 0.3936457
000240 25 23 9b 3e f3 b5 2d 3f ba ba 38 3f 5c 62 68 3c
       0.3030025 0.6785576 0.7215992 0.014183607
000250 5e 3e a4 bd b6 fb af bd 5d d0 b1 3e 63 cf 28 bf
       -0.08019708 -0.08592932 0.3472928 -0.65941447
000260 51 94 e2 bb 6e a8 47 bd 44 ec 96 3e 93 2e 27 3e
       -0.0069146533 -0.04874461 0.2947713 0.1632636
000270 f6 64 af 3e a5 60 10 bd 15 ae 10 3f f7 40 cb 3d
       0.34256715 -0.035248417 0.5651563 0.099245004
000280 50 c1 ca 3e 4b c1 db 3d 4b bd f0 3e db f3 ea 3d
       0.3960061 0.10730227 0.4701942 0.11472293
000290 f2 37 ee 3b 58 b4 05 be 94 fa 28 bf 67 90 5e 3e
       0.007269853 -0.13057077 -0.6600735 0.21734773
0002a0 fc a8 c0 3e 58 e4 b5 3c 27 85 a1 3e 13 b4 f3 3b
       0.37628925 0.02220361 0.315469 0.007437238
0002b0 4c a9 d9 3e 6d 36 dc bd 36 12 09 bd cf bb 8f 3e
       0.42511976 -0.107525684 -0.033464633 0.28072974
0002c0 8c 6e d2 3e 7a 88 08 3b c7 8a de 3e a2 c2 1f 3d
       0.41099966 0.00208333 0.43465254 0.039003976
0002d0 97 1f d6 bd 39 c2 bb bd aa fa cd bd c6 c5 a8 3d
       -0.10455244 -0.091679044 -0.10057576 0.08240847
0002e0 2a e9 91 3e 6f e9 c3 3e c9 88 29 bc ee ae c1 3e
       0.28498203 0.38264033 -0.0103475535 0.37828773
0002f0 35 3c 84 3e 06 a1 bb bd df 66 92 3e e9 6e 61 3e
       0.25827184 -0.09161572 0.2859411 0.22014965
000300 67 f1 ab 3e 31 ef ec bd 83 9c 99 3e cf 45 a6 3e
       0.33582613 -0.1156906 0.3000222 0.32475135
000310 a2 8e ab 3e 78 a7 c3 3e bf 41 16 be 28 de 4d 3e
       0.33507258 0.38213706 -0.14673518 0.20104277
000320 0e 52 be bd a5 ad 77 3e 0d a0 ff bd 3c 34 a3 be
       -0.092929944 0.24187334 -0.12481699 -0.3187579
000330 55 2f 16 3f cc 56 2d 3f b3 1f 92 3e 22 6c 4f 3f
       0.5866597 0.67710567 0.2853981 0.8102437
000340 0a 7a 9a 3e c4 b0 a4 3e 4c db 5b 3e c1 c6 f9 3e
       0.30171233 0.3216611 0.21470374 0.4878445
000350 79 1a 95 3e fa d1 1e 3f 27 af ad 3e 1c 44 98 bd
       0.2912176 0.6203915 0.33922693 -0.07434866
000360 b9 7f fd b9 60 73 96 3e e8 c3 82 bc 33 6f 5f 3f
       -0.0004835108 0.293849 -0.015962556 0.8727905
000370 1d fd 19 be 68 06 03 be 9d df cc be e8 09 2c bd
       -0.15037961 -0.12795413 -0.40014353 -0.042001635
000380 1a 22 4d 3d b4 ea 97 3e bc e2 f0 3e 4a 65 05 bf
       0.05008135 0.29671252 0.47047985 -0.5210768
000390 6e 9a 05 3f 7a 4c 7a 3d 5a e7 86 ba 9b 75 9d 3e
       0.52188766 0.06110809 -0.0010292337 0.30753788
0003a0 15 cb c8 3e 46 3d ac 3e 38 0d 04 3f d4 60 06 bd
       0.3921744 0.33640498 0.5158267 -0.032807186
0003b0 23 9f f2 3e 87 57 01 be ed f6 04 3d 11 c6 1e bd
       0.47387037 -0.12631045 0.03246205 -0.03876311
0003c0 a1 04 9c bd cc df f5 3e 2b cf 05 3f c6 76 0d be
       -0.076180704 0.48022306 0.5226924 -0.1381484
0003d0 62 01 a7 bd b6 7e 9f 3e ac 8d 45 bf 08 80 32 bf
       -0.081545606 0.3115136 -0.771693 -0.6972661
0003e0 70 69 04 be ef c1 07 3f f3 2b 36 be 03 e1 85 be
       -0.12930846 0.53030294 -0.17790203 -0.26148233
0003f0 33 bf cd 3e 08 81 a1 3d a8 8d 62 bd a0 42 b5 3e
       0.40184936 0.07885939 -0.055310875 0.35402393

output.weight f4 [1, 300]
000000 7a 5a 23 bf d8 86 9d 3e 97 23 34 bd e2 04 51 3e
       -0.6380993 0.3076694 -0.043979254 0.20412019
000010 28 26 19 bf 08 3e 12 bf b9 d0 3a 3e 82 09 2f bf
       -0.59823847 -0.571259 0.18243684 -0.6837388
000020 32 5c 22 bf 6d b7 f4 be 4f 4e 65 bf 03 a3 58 3e
       -0.6342193 -0.47796193 -0.89572614 0.21155934
000030 42 c8 0c bf ca 2a 53 3e fe 05 3c bf 9d 78 0c 3e
       -0.5499307 0.20621791 -0.73446643 0.13717885
000040 c7 3e 24 bf f9 e1 85 3e 9a 85 26 bf 22 f0 fa be
       -0.6415829 0.26148966 -0.6504761 -0.49011332
000050 be c0 2f bf f8 66 39 bf 54 45 02 bf d0 3f 64 3e
       -0.68653476 -0.7242274 -0.50887036 0.22289968
000060 f0 79 25 bf 94 75 88 bd 2b 19 d5 bd 69 98 29 bf
       -0.64639187 -0.06663051 -0.10405191 -0.66248184
000070 66 fc 47 3e 90 c6 04 bf 1b b7 07 3e 5f 39 14 3e
       0.19529876 -0.5186548 0.13253443 0.1447501
000080 c6 c1 fd 3d 3a 1d b9 3e 65 a9 28 bf dc 20 11 3e
       0.12390475 0.3615511 -0.65883476 0.14172691
000090 8c 98 3c 3e 16 5b 41 3e 59 c5 52 3e 23 ac 13 bf
       0.18417567 0.18882403 0.20583095 -0.57684535
0000a0 a8 e2 3e bf 20 65 8e 3e b8 8c 26 bf 25 a3 77 3e
       -0.745646 0.27811527 -0.6505847 0.24183328
0000b0 ce a6 e3 be 01 55 2f 3e 39 4f 82 3e 73 36 fc 3d
       -0.444632 0.1712227 0.25451067 0.12315073
0000c0 e5 b1 35 bf 89 4b 10 3e 6b 7e 6d 3e 76 a9 28 3e
       -0.7097457 0.14091314 0.23192756 0.16470894
0000d0 3d bd 2f 3e 26 91 0b 3e c6 ab fb 3d 69 de 3b 3e
       0.17162032 0.13629588 0.122886226 0.18346561
0000e0 de 39 07 bf 8f 28 3c 3e fb ad 55 bf 5e e8 3b 3e
       -0.52822673 0.18374847 -0.834686 0.1835036
0000f0 35 1b 8a 3e 96 6f 05 bf b8 16 1a bf b0 a5 dc 3e
       0.26973882 -0.5212339 -0.60190916 0.4309516
000100 fd 47 65 3e 57 ee 67 3e 08 f5 2d bf 4c 0b 97 3e
       0.22390743 0.22649513 -0.67952013 0.29500806
000110 ed f7 10 3e 06 ac 1f bf 38 18 12 3e e4 b0 7a be
       0.14157076 -0.6237186 0.14267051 -0.24481541
000120 16 c4 09 bf 47 1b 70 3e de e3 e3 3d 91 18 a7 3e
       -0.5381483 0.23447905 0.111274466 0.3263593
000130 0b 7a d6 be 32 d5 09 3e 7a 65 df be 08 48 2e 3e
       -0.41889986 0.13460234 -0.43632108 0.17019665
000140 a6 64 b6 3e 7a bc 26 bf 31 c2 23 bf 02 d5 55 3e
       0.35623664 -0.6513134 -0.6396819 0.20882037
000150 23 51 01 bf dc b2 7f 3e 21 27 4f bf 79 50 fa 3d
       -0.5051443 0.24970573 -0.8091908 0.1222238
000160 10 45 57 3e d9 d5 e0 3d 96 8a 16 bf 4b b8 e2 3d
       0.21022439 0.10978288 -0.58805215 0.11070307
000170 c3 1e 2f bf df ae 77 3e 89 bd 92 3e 8e 88 44 bf
       -0.68406314 0.24187802 0.2866023 -0.76770866
000180 51 46 26 3e e6 79 1c 3e 38 ec 29 3e aa dd 7a bf
       0.16237761 0.15280876 0.16594017 -0.9799448
000190 33 01 27 bf 0b 1a 7b be 0e 82 2a bf 80 54 33 bf
       -0.65236205 -0.24521653 -0.666047 -0.7005081
0001a0 40 47 0e 3e cf 3b 24 bf 79 94 32 bf 47 96 19 3e
       0.13894367 -0.6415376 -0.697578 0.14998733
0001b0 00 85 e7 be 47 5e 20 3e 6c bf 43 bf 31 6b 4e bf
       -0.45218658 0.15660964 -0.7646396 -0.8063231
0001c0 51 72 08 bf fb c2 1b bf 0f ce 4d bf ea ad 36 bf
       -0.53299433 -0.6084439 -0.80392545 -0.7135912
0001d0 b9 75 42 bf b9 19 2d bf 45 36 5a 3e 97 ea 2d 3e
       -0.7596088 -0.67617375 0.21309765 0.1698402
0001e0 2d 36 36 bf 14 d9 37 bf 61 c5 e2 3d ae f6 39 bf
       -0.71176416 -0.7181561 0.11072803 -0.7264203
0001f0 e6 72 cb 3d 0a b8 33 3d 75 9f 19 bf 4a 0a 90 3e
       0.099340245 0.043876685 -0.6000894 0.2813285
000200 39 35 1c 3f df ad cc be bd 63 20 bf 4e 08 3c bf
       0.6101871 -0.39976403 -0.6265219 -0.7345017
000210 59 d8 26 3e e9 19 19 3e b6 35 ad 3e 71 87 4c bf
       0.16293468 0.1495129 0.3383004 -0.7989417
000220 7b 6e 6b bf 41 3d 05 bf 9c c0 75 3e e1 b0 e9 3d
       -0.91965455 -0.5204659 0.23999256 0.1141069
000230 e6 2a 1b 3e 4d 74 2c bf bb 2c 38 bf d3 9e e8 3d
       0.15153083 -0.6736496 -0.71943253 0.11358418
000240 de 7b af 3e 6c d0 6f 3e ad 60 5b 3e c0 79 5b bf
       0.3427419 0.2341935 0.21423598 -0.8573265
000250 f2 84 d5 be d7 b6 2e bf 62 0d b4 3e 7d ca 75 be
       -0.41702992 -0.6824774 0.3516646 -0.24003024
000260 95 70 19 bf 15 3b 22 bf c4 2f 1d 3e b3 4d a3 3e
       -0.5993741 -0.633714 0.15350252 0.31895217
000270 cb 62 98 3e 5a 2c 3a bf 14 db 4d 3e 22 31 67 bd
       0.29762873 -0.72723925 0.20103103 -0.05644334
000280 6b d1 52 3e 31 5c 6f 3e 41 3a 14 3e 46 45 c4 3e
       0.20587699 0.23375012 0.14475347 0.383341
000290 3e 45 12 bf 6d 5b 11 bf c5 3c b6 be 43 f6 d2 3d
       -0.57136905 -0.5678013 -0.35593238 0.10300877
0002a0 91 db 00 3e c0 3a 73 bf 17 df 26 3e a9 24 35 bf
       0.12583758 -0.9501152 0.1629604 -0.70759064
0002b0 dd fb 88 3e 11 b5 60 bf c3 2c 4a bf 55 17 0c 3e
       0.26754656 -0.87776285 -0.7897455 0.13680775
0002c0 a7 9e f7 3d 3e 75 16 bf 1e 71 5f 3e 68 c0 03 bf
       0.120908074 -0.5877265 0.21820495 -0.51465464
0002d0 6a 4d 14 bf fd 55 34 bf fc 48 0f bf 2d 9e 32 3f
       -0.57930624 -0.7044371 -0.5597074 0.6977261
0002e0 2b 76 41 3e a5 ab 51 3e 63 0a 12 bf 83 36 d6 3e
       0.18892734 0.20475633 -0.570471 0.41838464
0002f0 1d 03 00 3e c4 32 17 bf d8 fe d7 3e da 4c fa 3d
       0.12501188 -0.5906184 0.42186618 0.122216895
000300 fd 36 c8 3d 18 16 c1 be c2 b3 0f 3e fc ad d2 3d
       0.09776113 -0.3771217 0.14033416 0.10287091
000310 ec 28 6b 3e 9a 24 12 3e 86 9c 06 bf 11 27 3a 3e
       0.22964829 0.14271775 -0.52582586 0.18178965
000320 24 3c 32 bf a9 02 8c 3e 45 07 27 bf 31 e4 f5 be
       -0.6962302 0.2734578 -0.6524547 -0.4802566
000330 ba d6 0f 3e cb a6 61 3e 9e d9 dd 3e 30 bc 5c 3e
       0.14046755 0.22036283 0.4333009 0.21556163
000340 9b 10 35 3e fd 4f 27 3e bc c7 57 3e 50 8c 35 3e
       0.17682116 0.16339107 0.21072286 0.17729306
000350 c3 60 6c 3e 9a f2 11 3e 2d 83 34 3e 9a 1e e9 be
       0.23083787 0.14252701 0.17628165 -0.4553116
000360 8d 82 33 bf 54 56 5d 3e 9f 42 3b bf ee 7b 71 3e
       -0.7012108 0.21614963 -0.7314853 0.23582432
000370 88 4b 2d bf 3c 6a 09 bf f1 5f 37 bf 99 cd 4b be
       -0.67693377 -0.53677726 -0.7163077 -0.19902648
000380 78 50 50 bf 8d d4 88 3e d9 1c 05 3e ef a9 54 be
       -0.81372786 0.26724663 0.12999286 -0.2076795
000390 77 e3 80 3e 34 8a 21 bf b8 ae 12 bf ba 04 03 3e
       0.25173542 -0.63101506 -0.5729785 0.12794772
0003a0 11 64 34 3e b3 64 ca 3d 71 0a c2 3d e3 bc 2b bf
       0.17616297 0.09882488 0.09474648 -0.67085093
0003b0 15 ac 5e 3e 74 19 1a bf b1 8c fb be fc 1c 35 bf
       0.21745332 -0.6019509 -0.49130777 -0.7074735
0003c0 6b 9b 57 bf 66 26 38 3e 49 5f 52 3e 61 93 4d bf
       -0.84221524 0.17983398 0.20544161 -0.8030301
0003d0 55 c3 42 bf 17 d5 4f 3e 9a 48 5e be f9 33 d4 bd
       -0.76079303 0.20296131 -0.21707383 -0.103614755
0003e0 de bf 07 bf 93 04 86 3e a6 7c 2d bf a3 47 16 bf
       -0.5302714 0.26175365 -0.67768323 -0.5870306
0003f0 a0 ab fc 3d fc 20 cc be b5 f8 1c bf 8e 43 28 3e
       0.12337422 -0.39868915 -0.61316997 0.1643202
