reacher_20_2_tmp_policy_target.pth (torch, 542751 bytes, 6 tensors)

hidden_layer_1.weight f4 [400, 33]
-0.114748314 0.30492574 0.19203262 1.2475185 -0.059550144 -0.3177607 -0.22090527 -0.101875074
0.10461217 -0.33644953 -0.0046229805 0.10246107 -0.017138638 -0.07994366 -0.012385409 -0.10867683
0.80539787 -0.04202452 -0.42633364 0.041845493 -0.013021623 -0.032925345 -0.20286189 -0.08074369
-0.009514747 0.09797809 -0.08449335 0.38073456 0.24534814 0.049657617 -0.38440442 -0.028602464
-0.945834 -0.40841207 -0.123729125 -0.06868749 -0.9107465 -0.026272966 -0.94144326 0.39027554
-0.029081086 -0.22442962 -4.26007e-05 -0.048942126 -0.02041628 0.047397874 0.24579225 0.2501295
0.019550884 -0.63588566 0.5979684 -0.78428125 0.7584124 0.08940758 -0.0039939224 -0.121155985
0.07343122 0.14495161 -0.09872629 -0.14594914 0.17421567 -0.22471428 -0.041183244 -0.13320033
-0.011414509 0.23671453 0.008246527 -0.17801741 0.02398252 -0.8196711 -0.3282806 0.3063865
0.4076819 -0.11146341 0.25921312 -0.13811758 0.022541529 -0.0063982187 -0.0540473 -0.015509976
0.19674498 -0.09072212 -0.08335609 -0.035273924 0.10545014 0.1768473 0.02724739 0.19185753
0.034339767 0.1275577 0.04551122 0.08447642 0.24026862 0.10576179 0.12696584 -0.034138605
-0.16725191 0.04606835 0.33863083 0.1160903 -0.18488745 -3.9688424e-05 -0.57635623 -0.26182503
0.74956197 -0.09886523 0.071783915 -0.119558014 -0.09979539 -0.009212453 0.121175036 0.07988055
0.024159918 0.13946083 -0.07298226 -0.54645187 -0.66093886 -0.13650298 0.6242349 -0.040853035
0.013988117 0.005538004 0.018700143 -0.04318492 -0.08897027 -0.08917418 0.079791196 0.020224119
-5.0626695e-05 -0.11862632 -0.000518851 1.8326793 0.07991543 -0.066544406 -0.23949897 -0.46313807
-0.21097788 0.19070731 -0.2564816 0.07664877 0.44352907 0.18741183 -0.09102334 0.005067292
-0.06200148 -0.08818953 0.016737904 0.2905161 0.4814852 -1.1080261 -0.07285987 -0.19619218
0.02329729 -0.019179186 -0.0066539836 0.14036751 -0.025194477 0.13933927 0.115847155 0.13702103
0.08145529 -0.0379647 -0.16246146 -0.009385206 -0.12298189 0.20950155 -0.10474169 0.2803187
0.12771623 0.06094479 0.08948625 0.29751414 0.06386217 -0.2470496 -0.12681064 0.06173777
0.09206744 0.008465741 -0.031859145 0.123308696 -0.19503178 -0.1606867 0.69764596 0.50216144
0.4984023 0.0671714 -0.07358094 0.033179473 0.06283842 0.06359019 -0.1397303 0.017103232
0.10872691 -0.107790716 0.046912704 -0.06298855 0.0009202771 0.56039554 -0.061344393 0.1493288
-0.08570397 0.7543675 -0.19628008 0.31160963 -0.26273537 -0.05504778 0.16534205 0.050002065
0.11473967 -0.0856921 -0.13463663 0.15790817 -0.009997656 0.03343601 -0.61267287 0.34210393
0.73551327 0.257169 -0.020796847 -0.03223551 0.05451475 0.13101235 0.064453594 0.04522097
-0.101082966 0.18211085 0.12608103 -0.04283208 -0.20299505 0.01055352 -1.0622582 0.17502168
0.04794234 0.047728993 0.4576605 -0.1630594 -0.43744087 0.00398338 -0.115690716 0.12244281
-0.23518915 0.089305386 0.013843877 -0.04877094 -0.17654735 0.14270985 -0.058143094 -0.42465404
-0.4927445 0.5211751 0.85793096 -0.10619994 0.04127586 -0.06508534 -0.059395686 -0.03993731
00000000: 2a01 ebbd 3a1f 9c3e 33a4 443e b0ae 9f3f
00000010: daea 73bd 88b1 a2be fe34 62be e1a3 d0bd
00000020: e83e d63d 1d43 acbe 5f7c 97bb 1cd7 d13d
00000030: 5466 8cbc 80b9 a3bd 2cec 4abc f591 debd
00000040: 8e2e 4e3f e721 2cbd 6748 dabe 2e66 2b3d
00000050: a558 55bc badc 06bd 07bb 4fbe f35c a5bd
00000060: bee3 1bbc bda8 c83d d90a adbd a4ef c23e
00000070: 8b3c 7b3e c965 4b3d a8d0 c4be b74f eabc
00000080: 2d22 72bf 631b d1be b265 fdbd 07ac 8cbd
00000090: af26 69bf 673a d7bc 6d02 71bf 32d2 c73e
000000a0: 753b eebc e1d0 65be 27ae 32b8 8a77 48bd
000000b0: 0b40 a7bc 4624 423d f7b0 7b3e f910 803e
000000c0: 2d29 a03c 67c9 22bf 7514 193f a8c6 48bf
000000d0: 5127 423f 521b b73d 73df 82bb a120 f8bd
000000e0: 1c63 963d 326e 143e 0231 cabd b173 15be
000000f0: 9865 323e 801b 66be c3af 28bd ab65 08be
00000100: ec03 3bbc 4b65 723e 711c 073c 324a 36be
00000110: fd76 c43c f7d5 51bf 6514 a8be b1de 9c3e
00000120: afbb d03e ee46 e4bd 95b7 843e b26e 0dbe
00000130: 03a9 b83c 26a8 d1bb b460 5dbd 8e1d 7ebc
00000140: 8477 493e 85cc b9bd 99b6 aabd 647b 10bd
00000150: 3ef6 d73d 7517 353e eb35 df3c 4d76 443e
00000160: dba7 0c3d 7c9e 023e f969 3a3d f901 ad3d
00000170: fa08 763e a399 d83d 5503 023e ecd4 0bbd
00000180: 1644 2bbe 2bb2 3c3d 0561 ad3e c0c0 ed3d
00000190: 2353 3dbe 1f77 26b8 158c 13bf ee0d 86be
000001a0: 4be3 3f3f db79 cabd 7203 933d d5da f4bd
000001b0: 8761 ccbd d4ef 16bc 9e2a f83d 6a98 a33d
000001c0: 05eb c53c d2ce 0e3e b977 95bd 45e4 0bbf
000001d0: 4a33 29bf 70c7 0bbe dccd 1f3f 8355 27bd
000001e0: 6a2e 653c 2578 b53b 0b31 993c ace2 30bd
000001f0: 0b36 b6bd f4a0 b6bd 9169 a33d 0dad a53c
00000200: 0058 54b8 5bf2 f2bd 8003 08ba 3c95 ea3f
00000210: b3aa a33d 6f48 88bd 383f 75be 6f20 edbe
00000220: 960a 58be c748 433e 8e51 83be 08fa 9c3d
00000230: 3e16 e33e e3e8 3f3e 726a babd 870b a63b
00000240: 44f5 7dbd b69c b4bd ee1d 893c 87be 943e
00000250: 3a85 f63e cdd3 8dbf 8e37 95bd 9ae6 48be
00000260: f5d9 be3c ab1d 9dbc a909 dabb 80bc 0f3e
00000270: a664 cebc f4ae 0e3e 4641 ed3d 3e4f 0c3e
00000280: 08d2 a63d e080 1bbd 4c5c 26be 68c4 19bc
00000290: eedd fbbd 9387 563e d082 d6bd ef85 8f3e
000002a0: 0bc8 023e 3ea1 793d 9144 b73d c653 983e
000002b0: 2bca 823d 92fa 7cbe a6da 01be bee0 7c3d
000002c0: db8d bc3d e4b3 0a3c bc7e 02bd 4589 fc3d
000002d0: 69b6 47be 0e8b 24be ed98 323f a78d 003f
000002e0: 962e ff3e 2991 893d 9bb1 96bd 33e7 073d
000002f0: 6eb1 803d 933b 823d 7615 0fbe 141c 8c3c
00000300: 37ac de3d 61c1 dcbd 8927 403d 2400 81bd
00000310: c03e 713a 1576 0f3f 4244 7bbd a6e9 183e
00000320: 9085 afbd 3a1e 413f a5fd 48be 4c8b 9f3e
00000330: 4085 86be c879 61bd 6d4f 293e f7ce 4c3d
00000340: a2fc ea3d 577f afbd 2fde 09be aeb2 213e
00000350: 35cd 23bc 33f4 083d 21d8 1cbf 3f28 af3e
00000360: 994a 3c3f a8ab 833e 265e aabc 6209 04bd
00000370: dc4a 5f3d 1a28 063e 3f00 843d a039 393d
00000380: 9604 cfbd 447b 3a3e 631b 013e b170 2fbd
00000390: efdd 4fbe ace8 2c3c 14f8 87bf e238 333e
000003a0: 305f 443d 7a7f 433d 7a52 ea3e 0bf9 26be
000003b0: 40f8 dfbe 0387 823b 41ef ecbd 4cc3 fa3d
000003c0: 6dd5 70be bee5 b63d 6ed1 623c 0ac4 47bd
000003d0: d4c8 34be 8822 123e 7427 6ebd 416c d9be
000003e0: 0249 fcbe bb6b 053f 5da1 5b3f 5b7f d9bd
000003f0: e010 293d 764b 85bd e448 73bd 4e95 23bd

hidden_layer_1.bias f4 [400]
-0.47972402 -0.22480378 0.029397462 -0.07609533 -0.27171314 -0.24215205 -0.30781072 -0.25764966
-0.10797338 -0.18523334 0.03301712 -0.18022248 -0.15222916 -0.2664945 -0.08706861 0.06166408
-0.37858763 -0.2236526 -0.41198346 -0.25846478 -0.34409636 -0.05269551 -0.28994343 -0.37216407
-0.16141514 -0.3887227 -0.28134912 -0.09013435 0.21983507 -0.34029895 -0.13322423 -0.022457842
0.16059983 -0.05417674 -0.39469063 -0.2963696 -0.044048216 -0.19847588 0.2356246 -0.06826652
-0.1799407 0.28325814 0.124469936 -0.20159885 -0.30441186 0.115116835 0.042738058 -0.007874107
-0.24562639 -0.22482008 0.05913937 -0.01771434 -0.07627739 -0.091332175 -0.3552615 -0.04391625
-0.09272121 -0.2020586 -0.26120463 -0.19962469 -0.032624044 -0.38179842 -0.17329863 -0.28084314
-0.2033055 -0.21258187 -0.059300315 -0.43132907 -0.16958359 -0.08181566 -0.11091447 -0.28493404
-0.16756721 -0.1502697 -0.09450101 -0.059676733 -0.26409355 -0.24625328 -0.15928558 -0.19797769
-0.034724705 -0.14111923 -0.37313744 -0.030206002 -0.5204312 0.040289186 -0.34223092 -0.06811532
-0.2785743 -0.60281533 -0.15982282 -0.3474199 0.06671498 -0.11066791 -0.2835 -0.36804307
-0.39265555 -0.25237325 -0.09787964 0.020537216 -0.3168599 -0.13637924 -0.05248519 0.05749551
-0.13248026 -0.014847448 -0.18174125 -0.33910546 -0.13866913 -0.25622284 -0.21551077 -0.18477672
-0.3539619 -0.041613307 -0.029295731 -0.010598864 -0.31960386 -0.14811553 -0.28393742 -0.10447129
-0.36108127 -0.37828833 -0.16255401 -0.035622098 -0.24517228 -0.14647298 -0.33960536 -0.30982536
-0.061535347 -0.1705603 -0.30409935 -0.014604073 0.062267818 -0.05164557 0.018824307 -0.14835611
-0.35093656 0.11837222 -0.007356504 -0.26189095 -0.18789946 -0.36865962 -0.10954354 -0.01195667
-0.58014566 -0.1321779 -0.31127957 -0.5588907 -0.45530522 -0.067830056 -0.3861532 -0.1823818
0.50761825 -0.16919006 -0.40269482 -0.6212231 0.15628523 -0.34256732 0.100063585 -0.056163505
-0.20976458 0.23168144 0.066257335 -0.057379562 -0.011959525 -0.18058914 -0.16592474 -0.22923353
-0.08095504 0.010007838 -0.47782877 -0.56187797 -0.27307105 -0.26331717 -0.49030468 0.30177042
-0.4276567 -0.34264135 -0.14786768 -0.11660717 0.03931666 -0.21543707 -0.19986914 -0.28326407
-0.23044144 -0.3252307 -0.1188699 0.010513826 0.09185123 0.003558936 -0.31947774 -0.15103954
-0.12951422 0.0898001 -0.2528954 -0.16887873 -0.30651215 -0.4783955 0.045550063 0.017294372
-0.3202059 -0.21177962 -0.23488833 -0.16611557 -0.24604902 0.02016719 -0.20967938 -0.109183386
-0.11501052 -0.32613268 -0.25303015 0.00047019607 -0.2850788 -0.25228825 -0.16166958 -0.52163523
-0.38346303 -0.033551563 -0.24113056 0.116686925 -0.17790964 -0.44465297 -0.35914284 -0.5165467
0.14766346 -0.13417067 -0.11121192 -0.00326806 -0.15592192 -0.4909817 -0.14495555 -0.12564418
0.0077202884 -0.19978592 -0.14252593 0.27713478 -0.19247177 -0.072968975 -0.53139585 0.0016657254
0.08646262 -0.012039098 0.27789617 0.0042971866 -0.27703103 -0.47947675 0.11293048 0.16684881
0.16274758 -0.40149927 -0.2355757 -0.23681815 -0.2728229 -0.61683536 0.019365937 -0.25962567
00000000: 639e f5be f632 66be f2d2 f03c ded7 9bbd
00000010: fc1d 8bbe b5f6 77be 5e99 9dbe a8ea 83be
00000020: 2621 ddbd cfad 3dbe f63c 073d 3e8c 38be
00000030: f6e1 1bbe f871 88be 0751 b2bd 7993 7c3d
00000040: 3dd6 c1be 3005 65be 7fef d2be 7f55 84be
00000050: 662d b0be 3fd7 57bd 7773 94be 4a8c bebe
00000060: 034a 25be a906 c7be fe0c 90be 5c98 b8bd
00000070: 721c 613e aa3b aebe ef6b 08be 82f9 b7bc
00000080: 4874 243e 6ee8 5dbd e414 cabe c2bd 97be
00000090: e76b 34bd 433d 4bbe 9347 713e 51cf 8bbd
000000a0: 6042 38be 3607 913e 18ea fe3d ee6f 4ebe
000000b0: dfdb 9bbe 60c2 eb3d 1a0e 2f3d 6602 01bc
000000c0: 7c85 7bbe 3c37 66be 203c 723d aa1d 91bc
000000d0: 5237 9cbd 5d0c bbbd d6e4 b5be 87e1 33bd
000000e0: 9ee4 bdbd 73e8 4ebe 9dbc 85be 6a6a 4cbe
000000f0: caa0 05bd 157b c3be 3275 31be acca 8fbe
00000100: 512f 50be 10af 59be e3e4 72bd 2ad7 dcbe
00000110: 52a7 2dbe f88e a7bd 2027 e3bd e0e2 91be
00000120: bd96 2bbe 4de0 19be bf89 c1bd 976f 74bd
00000130: 4537 87be d229 7cbe c21b 23be aaba 4abe
00000140: 7e3b 0ebd 8f81 10be df0b bfbe 9472 f7bc
00000150: fb3a 05bf 4606 253d e438 afbe 0b80 8bbd
00000160: 4aa1 8ebe 1b52 1abf 98a8 23be 05e1 b1be
00000170: dda1 883d dba5 e2bd e926 91be 2470 bcbe
00000180: 260a c9be 1137 81be 1f75 c8bd aa3d a83c
00000190: 763b a2be 00a7 0bbe b6fa 56bd 6980 6b3d
000001a0: e8a8 07be b642 73bc 611a 3abe 3b9f adbe
000001b0: 48ff 0dbe a42f 83be dbae 5cbe 1c36 3dbe
000001c0: 7f3a b5be b772 2abd 9afd efbc dca6 2dbc
000001d0: 1ea3 a3be 99ab 17be 3f60 91be 0bf5 d5bd
000001e0: a5df b8be 02af c1be 8f74 26be 7ae8 11bd
000001f0: 710e 7bbe 03fd 15be c1e0 adbe 6ea1 9ebe
00000200: 7d0c 7cbd 5ca7 2ebe e9b2 9bbe ec45 6fbc
00000210: 8a0c 7f3d 4e8a 53bd 6f35 9a3c aaea 17be
00000220: f5ad b3be 226d f23d d40e f1bb 9216 86be
00000230: b768 40be f4c0 bcbe 5d58 e0bd e9e5 43bc
00000240: 6d84 14bf a559 07be 0960 9fbe 7613 0fbf
00000250: c41d e9be 7cea 8abd dfb5 c5be 4bc2 3abe
00000260: 45f3 013f 2940 2dbe 042e cebe 7a08 1fbf
00000270: 3c09 203e fc64 afbe 23ee cc3d b40b 66bd
00000280: 87cc 56be e63d 6d3e edb1 873d d506 6bbd
00000290: e2f1 43bc 5cec 38be 2de8 29be 32bc 6abe
000002a0: c2cb a5bd eaf7 233c f9a5 f4be 3cd7 0fbf
000002b0: f8cf 8bbe 82d1 86be 3709 fbbe a781 9a3e
000002c0: d2f5 dabe b06e afbe a06a 17be bdcf eebd
000002d0: 820a 213d 899b 5cbe 7faa 4cbe fd07 91be
000002e0: d7f8 6bbe a384 a6be 1072 f3bd 2f42 2c3c
000002f0: 7f1c bc3d 0a3d 693b 9692 a3be 1caa 1abe
00000300: 609f 04be 1de9 b73d 827b 81be 8cee 2cbe
00000310: 29ef 9cbe 41f0 f4be b492 3a3d edac 8d3c
00000320: 07f2 a3be c2dc 58be 9186 70be 331a 2abe
00000330: 46f4 7bbe aa35 a53c 31b6 56be 8a9b dfbd
00000340: a38a ebbd ddfa a6be 2b8d 81be a684 f639
00000350: d9f5 91be ed2b 81be b68c 25be e389 05bf
00000360: 4455 c4be 5d6d 09bd eeea 76be 8ef9 ee3d
00000370: f22d 36be 8ea9 e3be 92e1 b7be 683c 04bf
00000380: 1735 173e 0964 09be 13c3 e3bd f32c 56bb
00000390: ffa9 1fbe f461 fbbe 3a6f 14be dea8 00be
000003a0: 79fa fc3b ae94 4cbe 51f2 11be 9ce4 8d3e
000003b0: 5217 45be c270 95bd 8f09 08bf 7854 da3a
000003c0: 5013 b13d a33f 45bc 6848 8e3e 6acf 8c3b
000003d0: 03d7 8dbe fa7d f5be 1848 e73d 6ada 2a3e
000003e0: 4da7 263e 5091 cdbe c23a 71be 7580 72be
000003f0: 71af 8bbe ece8 1dbf 50a5 9e3c a8ed 84be

hidden_layer_2.weight f4 [300, 400]
0.13211924 0.0053213183 0.14108376 0.25119996 -0.044440437 -0.34729654 0.27756482 0.23833726
0.29717255 -0.016926736 0.21572624 -0.11707236 0.1249653 -0.13913837 -0.40934217 -0.14786564
0.29629672 -0.38742 0.0043461206 0.23632932 -0.21176809 0.02609349 -0.008267642 -0.098734625
0.13286155 -0.009342771 0.0423368 -0.21592891 0.1997846 -0.18853424 0.30357078 -0.20950516
-0.0038042553 -0.120718956 -0.55437285 0.24791217 -0.36355072 -0.45527938 -0.30291134 0.1967969
0.3666435 0.12273325 -0.15856141 -0.12188241 0.119309664 -0.41046306 0.05778961 -0.62462527
-0.12761918 -0.01979371 0.077351235 0.12520188 -0.20005843 -0.23698737 -0.29197744 -0.13157384
0.082273275 0.051109295 0.3377962 -0.37109995 -0.013279652 0.03372739 -0.4119917 -0.38713357
-0.013317966 -0.44976544 -0.2524075 -0.012789973 -0.02737138 -0.15202995 0.3274743 0.45952266
0.033806425 0.07472007 0.2552645 -0.116422825 -0.52019393 -0.079753496 0.093178965 -0.006330176
-0.336057 -0.044607244 -0.25336573 0.16381633 0.17301701 -0.090949036 -0.26888704 0.23382117
0.45523563 -0.23807307 -0.022427065 0.019906016 0.17323707 0.06766646 -0.043157663 0.29497135
0.016258394 0.38001534 0.049894094 -0.22354913 0.02398997 0.38478127 -0.107690915 -0.035123173
-0.15087792 -0.009157301 -0.10264275 0.28041172 0.3395733 0.07448449 -0.15509558 -0.4523504
0.018045146 0.0027827453 0.21851434 0.0978709 -0.19505079 0.074172005 0.22643177 -0.06719553
-0.028912324 -0.19667454 -0.19908781 -0.09521398 0.10791431 -0.119023584 0.09662473 -0.10455376
0.37401378 -0.11815885 0.4467971 -0.14292918 -0.2834192 -0.13646393 -0.032675263 -0.32488802
-0.17343171 0.045623865 0.06772353 0.25782633 -0.02687179 0.25376952 0.36457926 0.33774975
0.29740888 -0.020471385 -0.087636046 0.133572 -0.17745446 -0.0037560838 0.08917876 -0.11231634
-0.2828748 -0.31636095 0.39813355 0.15779135 0.08578357 0.10214519 -0.06778601 0.028242774
0.07046355 -0.3536138 0.24622512 0.2905622 0.20036748 0.24009107 0.15861657 -0.24569045
0.06749258 -0.25189665 -0.07896271 0.20068632 0.11879602 -0.10567654 0.5127941 -0.05600092
0.041669194 0.09847976 0.31913826 0.03375401 0.36796644 0.12792802 -0.18032084 -0.19114487
-0.031165175 -0.17133014 -0.67879194 -0.007786594 -0.26905575 -0.1057648 -0.084320985 -0.120633684
-0.020623589 -0.19992006 0.17013988 -0.018897582 0.15376748 -0.19869441 -0.24664712 0.12787859
0.3190301 0.18252492 -0.10690702 0.00063962414 0.28025156 -0.0642782 0.22439681 0.3109805
-0.13118073 0.13552059 -0.20196128 0.010147205 0.17936236 -0.14020838 0.4078168 0.014650074
0.015703583 0.10038098 -0.50358695 -0.08230886 -0.16063939 -0.042255662 0.16777578 0.39415413
-0.4400009 -0.17976269 0.5041446 -0.0016453151 -0.26671228 -0.14439516 0.12832937 0.14278387
0.26989397 0.17205651 -0.15625228 0.2580685 -0.47583884 0.3682538 0.2537804 0.25377762
-0.04153787 -0.19707333 0.21798874 -0.31195062 0.109985135 0.47818837 -0.14074121 -0.26081377
0.026332611 -0.38758332 -0.19279534 -0.3553433 0.020096174 0.08944223 -0.07668992 0.10260677
00000000: 444a 073e 745e ae3b 4378 103e 489d 803e
00000010: 2d07 36bd dad0 b1be fa1c 8e3e af0e 743e
00000020: 0027 983e f0a9 8abc 57e7 5c3e a2c3 efbd
00000030: cfed ff3d 4a7a 0ebe 4c95 d1be 176a 17be
00000040: 34b4 973e ea5b c6be e769 8e3b 5000 723e
00000050: bcd9 58be 04c2 d53c 0175 07bc 6135 cabd
00000060: dc0c 083e 6c12 19bc 5a69 2d3d 781c 5dbe
00000070: 5694 4c3e 1f0f 41be a16d 9b3e 8588 56be
00000080: d050 79bb 803b f7bd 61eb 0dbf b0dc 7d3e
00000090: 5223 babe 611a e9be 3217 9bbe 2085 493e
000000a0: b2b8 bb3e 925b fb3d ec5d 22be 7c9d f9bd
000000b0: a058 f43d 3728 d2be ccb4 6c3d 71e7 1fbf
000000c0: 9aae 02be 6b26 a2bc 536a 9e3d ec34 003e
000000d0: 1edc 4cbe d1ac 72be 117e 95be 4bbb 06be
000000e0: e47e a83d fb57 513d a0f3 ac3e d000 bebe
000000f0: e692 59bc bb25 0a3d 93f0 d2be 5f36 c6be
00000100: 9933 5abc a847 e6be 8e3b 81be 098d 51bc
00000110: f239 e0bc bdad 1bbe b6aa a73e 8e46 eb3e
00000120: 9b78 0a3d d606 993d 07b2 823e 176f eebd
00000130: 6e2b 05bf cd55 a3bd 9dd4 be3d 5d6d cfbb
00000140: aa0f acbe 16b6 36bd 27b9 81be 78bf 273e
00000150: 5f2b 313e 7d43 babd 90ab 89be d16e 6f3e
00000160: a514 e93e 6dc9 73be f7b8 b7bc f111 a33c
00000170: 0f65 313e b794 8a3d 17c6 30bd 7c06 973e
00000180: 5330 853c 5f91 c23e c05d 4c3d 10ea 64be
00000190: 9d86 c43c 0d02 c53e 0e8d dcbd 51dd 0fbd
000001a0: be7f 1abe 8108 16bc 5d36 d2bd 2092 8f3e
000001b0: 8ddc ad3e 538b 983d 60d1 1ebe 799a e7be
000001c0: 6ad3 933c b85e 363b 39c2 5f3e 8a70 c83d
000001d0: 65bb 47be 7ee7 973d bbdd 673e cf9d 89bd
000001e0: 8ad9 ecbc 0d65 49be addd 4bbe 8cff c2bd
000001f0: 2e02 dd3d a3c2 f3bd 30e3 c53d 4820 d6bd
00000200: bc7e bf3e 44fd f1bd 97c2 e43e 075c 12be
00000210: 521c 91be 33bd 0bbe 7fd6 05bd b957 a6be
00000220: 1598 31be 17e0 3a3d a2b2 8a3d d001 843e
00000230: 3a22 dcbc 14ee 813e 22aa ba3e 89ed ac3e
00000240: fa45 983e 9bb3 a7bc 877a b3bd 19c7 083e
00000250: 9fb6 35be a128 76bb 5ba3 b63d 1c06 e6bd
00000260: f7d4 90be 10fa a1be 29d8 cb3e 0e94 213e
00000270: 4caf af3d 7f31 d13d 64d3 8abd 645d e73c
00000280: 324f 903d de0c b5be 7022 7c3e 92c4 943e
00000290: 222d 4d3e 6fda 753e 626c 223e 4796 7bbe
000002a0: 8d39 8a3d 99f8 80be 34b7 a1bd b780 4d3e
000002b0: 544b f33d f16c d8bd 7946 033f 3861 65bd
000002c0: 51ad 2a3d c2af c93d 1766 a33e a541 0a3d
000002d0: 1966 bc3e 90ff 023e 07a6 38be 7bbb 43be
000002e0: 1c4e ffbc 2b71 2fbe 4fc5 2dbf af26 ffbb
000002f0: adc1 89be 379b d8bd 7bb0 acbd cb0e f7bd
00000300: cdf2 a8bc d8b7 4cbe 2639 2e3e 1acf 9abc
00000310: 3975 1d3e 8c76 4bbe 1091 7cbe 9bf2 023e
00000320: ea57 a33e d0e7 3a3e 11f2 dabd 73ac 273a
00000330: 227d 8f3e 4aa4 83bd 47c8 653e d638 9f3e
00000340: 3e54 06be e9c5 0a3e f0ce 4ebe 7640 263c
00000350: c4aa 373e c992 0fbe 5dcd d03e dd06 703c
00000360: cda4 803c 8b94 cd3d 13eb 00bf 8c91 a8bd
00000370: a77e 24be 4614 2dbd 6acd 2b3e 92ce c93e
00000380: cc47 e1be b613 38be 9f0f 013f 9da7 d7ba
00000390: 838e 88be 53dc 13be c668 033e ef35 123e
000003a0: 8b2f 8a3e 952f 303e 9900 20be 8e21 843e
000003b0: 26a1 f3be c38b bc3e 81ef 813e 24ef 813e
000003c0: 9d23 2abd 97cd 49be 7138 5f3e feb7 9fbe
000003d0: e33f e13d 1bd5 f43e 771e 10be 6289 85be
000003e0: 7db7 d73c 5271 c6be 246c 45be 8fef b5be
000003f0: bba0 a43c 7d2d b73d 9b0f 9dbd 8023 d23d

hidden_layer_2.bias f4 [300]
-0.044570096 -0.059102193 -0.114028886 0.04116385 0.042553157 0.06105906 0.021799948 0.08684508
-0.0021330053 0.03832182 -0.023932293 -0.010755202 0.059911147 -0.062887356 -0.08986325 -0.052899852
0.025851695 0.20600572 -0.13135594 -0.030262142 0.09563085 -0.049903274 0.17449947 0.08149308
0.007873875 -0.1316672 -0.045009173 0.19642952 -0.11648688 -0.2902951 -0.17471577 -0.12548403
-0.09815555 -0.18608952 0.08289086 -0.21393928 -0.14595057 -0.19940445 -0.052386772 0.069578186
-0.075254686 -0.05509554 -0.010717909 0.041323565 -0.14641231 -0.09872287 0.0039244224 -0.06117397
-0.16963811 -0.13933133 -0.11241457 -0.05011421 -0.2543867 -0.12793148 3.0837607e-05 0.015136978
-0.31191614 -0.09324431 -0.25777557 -0.2722238 0.03391707 -0.09269702 -0.045324508 -0.21873641
0.024928927 0.035576627 -0.020004245 -0.043727927 0.019993648 -0.064338036 -0.009589032 -0.18382226
-0.03490048 -0.051931538 0.07430465 -0.054978568 -0.3475901 0.080338374 -0.14535424 -0.25897625
-0.12687613 -0.14799722 -0.10735644 0.053797513 -0.075368285 -0.089754745 -0.06543455 0.02786716
-0.004103626 0.060080614 0.011715293 -0.05929034 -0.003759649 -0.24520493 -0.311483 -0.21517098
0.040564943 0.019019738 -0.109253 -0.03844224 -0.20403478 0.05697693 -0.2720171 -0.009637115
-0.031020934 -0.3255041 -0.18033484 -0.13890113 -0.119124755 -0.10724877 -0.006224065 0.031449705
0.0057894094 -0.21633038 0.12820424 -0.07761351 -0.033971004 -0.011547966 -0.09693834 0.054981437
-0.061834056 -0.07695006 0.050355777 -0.069116205 -0.10524206 0.015773855 -0.06702011 0.007393173
0.012299259 0.039784748 -0.018843457 -0.011150154 -0.1013998 -0.08911022 -0.03919643 -0.025597664
-0.03505201 -0.11399238 -0.058677256 0.0071751676 -0.02739865 -0.17131677 -0.16478065 -0.1552106
0.011898494 -0.11256109 0.09984339 -0.14807683 0.13075595 -0.05812639 -0.001597982 -0.037228234
0.033619642 0.19791599 -0.51137084 -0.14103386 -0.2648726 -0.05209437 -0.31939828 -0.118080154
-0.09180537 -0.04337516 -0.1505517 -0.087405436 -0.047560215 -0.20729543 0.028788673 -0.11079407
-0.15232585 -0.021973085 -0.008124978 -0.33407345 -0.31339037 -0.20524324 -0.04615446 -0.2127192
-0.1564821 -0.081463836 -0.04859276 -0.15529417 -0.050621238 -0.0005633494 -0.037919525 -0.15557258
-0.12804784 -0.07592368 -0.020320134 0.056167103 0.22170278 -0.028484313 -0.017009802 -0.21195938
0.040736176 -0.24190034 0.061370596 0.07471353 -0.104775205 -0.14533563 -0.3541025 -0.053851053
0.042538684 -0.15704873 -0.18919225 0.05893384 -0.09246184 0.040406577 0.14944372 -0.08871824
-0.08056206 -0.03136994 -0.15733689 -0.05722501 -0.12971011 -0.15918618 -0.09798911 -0.062443607
-0.0205062 -0.17827159 0.040504757 0.020679692 -0.2751286 -0.40310854 -0.014382974 -0.2078478
-0.29115212 0.07818595 0.048358347 0.06548676 -0.09927348 -0.035538528 0.026318977 -0.15325217
-0.019710638 0.034125518 -0.11076743 -0.19413236 -0.1606063 0.0021841938 -0.20456944 -0.20148961
-0.017469492 0.0021172396 0.024812674 0.02418431 -0.23777343 -0.28579307 -0.23078322 0.131033
0.10333852 -0.036475334 0.076795556 -0.2582141 -0.051943507 -0.04906382 -0.13550201 -0.15443766
00000000: 228f 36bd 2415 72bd fa87 e9bd 6d9b 283d
00000010: 384c 2e3d 1119 7a3d ce95 b23c d5db b13d
00000020: e4c9 0bbb 57f7 1c3d a80d c4bc 9636 30bc
00000030: 6465 753d 16cb 80bd 390a b8bd 84ad 58bd
00000040: efc6 d33c 2af3 523e 2c82 06be 50e8 f7bc
00000050: 1bda c33d 6067 4cbd fdaf 323e d8e5 a63d
00000060: 6d01 013c c4d3 06be 8a5b 38bd d224 493e
00000070: ac90 eebd 8fa1 94be b1e8 32be e37e 00be
00000080: c705 c9bd 408e 3ebe afc2 a93d e612 5bbe
00000090: 1174 15be ae30 4cbe 8393 56bd 027f 8e3d
000000a0: 211f 9abd dcab 61bd 2b9a 2fbc e642 293d
000000b0: 1ced 15be 372f cabd 7198 803b 8f91 7abd
000000c0: 9db5 2dbe dfac 0ebe 9c39 e6bd 8f44 4dbd
000000d0: f93e 82be 7800 03be a157 0138 1601 783c
000000e0: 79b3 9fbe dff6 bebd 29fb 83be eb60 8bbe
000000f0: a0ec 0a3d efd7 bdbd 31a6 39bd 70fc 5fbe
00000100: c037 cc3c ccb8 113d f1df a3bc 0e1c 33bd
00000110: b8c9 a33c a9c3 83bd 511b 1dbc e73b 3cbe
00000120: cef3 0ebd 2ab6 54bd 092d 983d 3531 61bd
00000130: 54f7 b1be 7288 a43d bed7 14be 8998 84be
00000140: d1eb 01be 958c 17be b1dd dbbd c85a 5c3d
00000150: b05a 9abd 56d1 b7bd 8d02 86bd ac49 e43c
00000160: b677 86bb 1717 763d 80f1 3f3c 6dda 72bd
00000170: 7164 76bb 0017 7bbe b37a 9fbe c855 5cbe
00000180: 6d27 263d 48cf 9b3c 09c0 dfbd 9c75 1dbd
00000190: 7eee 50be a460 693d d345 8bbe fde4 1dbc
000001a0: 9d1f febc 79a8 a6be b2a9 38be 193c 0ebe
000001b0: aef7 f3bd 3ea5 dbbd 3ef3 cbbb 68d1 003d
000001c0: 16b5 bd3b b685 5dbe f947 033e d5f3 9ebd
000001d0: 2e25 0bbd ae33 3dbc 9c87 c6bd 3734 613d
000001e0: b545 7dbd fe97 9dbd dc41 4e3d cc8c 8dbd
000001f0: 2689 d7bd 2c38 813c d741 89bd 6e42 f23b
00000200: d582 493c 55f5 223d 985d 9abc 23af 36bc
00000210: b3aa cfbd 6b7f b6bd 708c 20bd 31b2 d1bc
00000220: b292 0fbd d674 e9bd 9057 70bd ab1d eb3b
00000230: 2273 e0bc aa6d 2fbe 42bc 28be 87ef 1ebe
00000240: e7f1 423c 6e86 e6bd b17a cc3d 74a1 17be
00000250: e3e4 053e f015 6ebd 6173 d1ba a27c 18bd
00000260: c0b4 093d 7daa 4a3e 33e9 02bf 2e6b 10be
00000270: 629d 87be e860 55bd 2c88 a3be 02d4 f1bd
00000280: 7404 bcbd 27aa 31bd 3a2a 1abe 9f01 b3bd
00000290: 80ce 42bd 4145 54be 39d6 eb3c 00e8 e2bd
000002a0: 4ffb 1bbe e600 b4bc a11e 05bc ad0b abbe
000002b0: b474 a0be 492b 52be 760c 3dbd 10d3 59be
000002c0: d83c 20be 83d6 a6bd 3409 47bd 6f05 1fbe
000002d0: 3758 4fbd bdad 13ba 8151 1bbd 6b4e 1fbe
000002e0: f91e 03be e07d 9bbd 6976 a6bc 7a0f 663d
000002f0: 0e06 633e ef57 e9bc 2458 8bbc e10b 59be
00000300: fada 263d b9b4 77be bc5f 7b3d 6803 993d
00000310: 6294 d6bd ddd2 14be ec4c b5be ec92 5cbd
00000320: 0b3d 2e3d 62d1 20be 9dbb 41be 9c64 713d
00000330: a25c bdbd 5e81 253d c607 193e e9b1 b5bd
00000340: b9fd a4bd c47d 00bd ec1c 21be c664 6abd
00000350: bad2 04be b401 23be 84ae c8bd dec4 7fbd
00000360: 9efc a7bc d48c 36be 51e8 253d 7568 a93c
00000370: a8dd 8cbe 3e64 cebe 91a6 6bbc 0ed6 54be
00000380: e411 95be f51f a03d 6713 463d ec1d 863d
00000390: e54f cbbd d990 11bd e59a d73c 23ee 1cbe
000003a0: 3478 a1bc 33c7 0b3d 09da e2bd a2ca 46be
000003b0: fa75 24be b124 0f3b a77a 51be 4b53 4ebe
000003c0: 2e1c 8fbc 63c1 0a3b f343 cb3c 2d1e c63c
000003d0: e17a 73be 7853 92be 7052 6cbe 842d 063e
000003e0: 25a3 d33d 2967 15bd fd46 9d3d a334 84be
000003f0: b7c2 54bd 25f7 48bd 0ac1 0abe e824 1ebe

output.weight f4 [4, 300]
-0.955715 -1.2873545 -1.38672 -0.055668496 1.6248574 1.1661446 -0.70227855 -0.5304771
1.3388822 1.6509042 -0.5226201 -0.48019794 0.40110824 -1.4836428 1.1533583 -1.045366
-1.8675892 0.16451296 -1.7208153 1.3481706 -0.8826478 0.48441336 -0.66453534 1.6960753
0.24918953 -0.419771 1.4483165 0.46481606 1.7304913 -1.5707194 0.08771921 1.2511344
0.83149713 -1.0166975 0.5559532 1.6932622 -0.76069474 0.6847873 -1.1015867 -0.19419044
-0.48816714 0.4264083 0.97221655 0.054055452 1.0817528 0.09609638 0.2984716 1.7949432
1.4337438 1.3806293 -0.84863836 -0.24457748 -1.3043588 0.09737974 -0.12691197 0.33107522
0.09585995 0.6766631 -1.2923468 0.50770444 -0.14349115 0.010850926 2.5316973 -0.6595065
-0.15237676 -0.09571299 -1.5205556 -0.33940908 -0.7347005 -0.64266676 -1.2088847 -0.57264364
-0.54431874 0.50013065 0.8912218 0.10498376 1.8027109 -0.9260841 -1.0852572 -0.36531892
-0.1097526 0.4722623 0.119690284 -1.1589888 1.139421 -0.31709167 1.3553028 1.6414424
-0.19491675 -0.62393636 -0.7983314 -0.66646886 -1.1379163 0.79172564 -0.4560261 -0.9321219
-0.7071431 0.5734716 -0.66623944 0.1962628 -1.0025816 -1.4296157 -1.1274363 -0.62736267
0.06614908 -0.824727 0.30125833 0.44410348 1.0759785 0.20223372 -0.0462774 0.07074394
-1.1365489 0.9254038 0.034823295 -0.5032872 -1.7438565 0.538541 0.5989286 -0.8952122
0.46408486 -0.4066271 -0.564447 0.26057994 -1.1365805 0.5862988 -0.2364497 0.2583486
0.7491937 0.66071475 -1.2109416 0.46462885 -1.6791261 -0.46984527 -0.5588081 0.9125783
1.0062354 -1.0407228 -1.4472396 -1.2702545 0.5264965 1.1156465 -0.4643156 0.2841789
0.88168675 0.40494874 0.23738824 1.6519731 0.6932569 -0.94078064 0.25669885 1.3758861
1.0694336 1.2258773 -0.6075744 0.9152113 2.1307633 -0.82354176 0.69270813 0.6723937
-0.98791647 0.31243095 -0.3470533 0.19913475 2.3557315 0.50649697 -0.2636961 -0.42913166
0.70172054 -0.18840635 -1.161734 -0.27574953 1.0815401 -0.3842705 -1.06924 -0.12455334
0.13540028 -0.39549458 -0.5368653 -0.7714472 1.2014358 0.8758608 -0.20390937 0.39298856
-1.1686082 -1.0206409 0.8166403 0.29649106 -0.46892348 0.5106891 0.25275838 -0.3320516
-0.3734719 1.7429543 -0.0022073293 -1.9416925 0.2783641 -1.0805161 -1.3697702 0.39788967
0.40329304 -0.4801503 -0.3885976 -0.21487816 1.2195926 0.87757397 -0.3170805 -0.33804446
-0.79679924 1.1662952 -0.004695663 -0.44252455 -1.0041448 -0.95332545 2.769674 0.18674746
-1.1634517 -1.3722968 0.7752643 -0.06873065 -1.8563172 -1.3698819 1.017836 -1.1066259
0.53486913 -1.1383444 -1.156326 1.6046932 1.3069993 -1.6443515 0.6353887 -1.4977671
1.5374106 1.0606183 1.0744593 -1.5327685 -1.1441405 1.0644813 2.0402527 0.39796257
1.4645106 1.039808 -0.38720158 0.24521947 -0.11395437 1.5502771 -1.8571613 1.4232312
0.45104387 0.69160664 -0.7195548 -0.34128922 0.25165844 -0.6804308 0.069585584 -0.7541756
00000000: bda9 74bf 08c8 a4bf 0a80 b1bf a604 64bd
00000010: 54fb cf3f 3a44 953f 87c8 33bf 59cd 07bf
00000020: 7e60 ab3f d450 d33f 6eca 05bf 81dc f5be
00000030: 0f5e cd3e 02e8 bdbf 3fa1 933f 8ece 85bf
00000040: 2a0d efbf 1676 283e ad43 dcbf db90 ac3f
00000050: 35f5 61bf 0705 f83e fd1e 2abf ff18 d93f
00000060: 8a2b 7f3e 39ec d6be 6f62 b93f 5ffc ed3e
00000070: bd80 dd3f 550d c9bf 21a6 b33d 2c25 a03f
00000080: ffdc 543f 2523 82bf f352 0e3f d1bc d83f
00000090: e4bc 42bf 384e 2f3f cb00 8dbf dcd9 46be
000000a0: 0bf1 f9be 3052 da3e 2fe3 783f 4069 5d3d
000000b0: e076 8a3f 2ece c43d 45d1 983e b3c0 e53f
000000c0: eb84 b73f 76b8 b03f 5d40 59bf 8572 7abe
000000d0: 3bf5 a6bf 076f c73d 36f5 01be b182 a93e
000000e0: 3952 c43d cb39 2d3f 9f6b a5bf ebf8 013f
000000f0: 58ef 12be 15c8 313c 5407 2240 6bd5 28bf
00000100: a708 1cbe 2c05 c4bd 91a1 c2bf 07c7 adbe
00000110: 5515 3cbf cf85 24bf bcbc 9abf c698 12bf
00000120: 7958 0bbf 9008 003f 1d27 643f ba01 d73d
00000130: 3bbf e63f d913 6dbf b5e9 8abf 150b bbbe
00000140: f9c5 e0bd 5dcc f13e 2e20 f53d bf59 94bf
00000150: 8cd8 913f d759 a2be 907a ad3f c91a d23f
00000160: 4298 47be 4bba 1fbf 725f 4cbf b49d 2abf
00000170: 3ea7 91bf 88ae 4a3f 417c e9be 8a9f 6ebf
00000180: 5507 35bf 09cf 123f ab8e 2abf 1ef9 483e
00000190: 9854 80bf a6fd b6bf d54f 90bf d79a 20bf
000001a0: 2b79 873d 4f21 53bf 883e 9a3e 8861 e33e
000001b0: aab9 893f 5b16 4f3e 5f8d 3dbd 33e2 903d
000001c0: 6f7a 91bf 43e7 6c3f dfa2 0e3d 6ed7 00bf
000001d0: b136 dfbf d3dd 093f 6253 193f a02c 65bf
000001e0: 889c ed3e 6d31 d0be 997f 10bf bc6a 853e
000001f0: 787b 91bf ae17 163f df1f 72be 4546 843e
00000200: 29cb 3f3f 9a24 293f 2200 9bbf d5e3 ed3e
00000210: 9bed d6bf 8f8f f0be 0c0e 0fbf bb9e 693f
00000220: 52cc 803f 6836 85bf 263f b9bf b397 a2bf
00000230: 7ac8 063f 81cd 8e3f c6ba edbe e67f 913e
00000240: 39b6 613f 7155 cf3e e715 733e db73 d33f
00000250: 4979 313f 00d7 70bf 086e 833e 091d b03f
00000260: 33e3 883f 8ce9 9c3f ff89 1bbf 4a4b 6a3f
00000270: 6d5e 0840 a2d3 52bf 5255 313f fe21 2c3f
00000280: 18e8 7cbf f3f6 9f3e f8b0 b1be fbe9 4b3e
00000290: 4ec4 1640 c9a9 013f 2d03 87be 25b7 dbbe
000002a0: f5a3 333f 98ed 40be b3b3 94bf 0b2f 8dbe
000002b0: e86f 8a3f 1abf c4be dbdc 88bf d215 ffbd
000002c0: 5fa6 0a3e 447e cabe 0170 09bf 907d 45bf
000002d0: a6c8 993f 6a38 603f 9ecd 50be cc35 c93e
000002e0: f494 95bf 5ca4 82bf 570f 513f adcd 973e
000002f0: bd16 f0be 85bc 023f 8c69 813e ab02 aabe
00000300: b537 bfbe 2019 df3f d7a8 10bb 6189 f8bf
00000310: bd85 8e3e 5a4e 8abf a154 afbf 32b8 cb3e
00000320: 6d7c ce3e 43d6 f5be 44f6 c6be 0509 5cbe
00000330: 9c1b 9c3f b0a8 603f 6058 a2be 2a14 adbe
00000340: 09fb 4bbf 2949 953f 14de 99bb 9492 e2be
00000350: d187 80bf 230d 74bf 5742 3140 ba3a 3f3e
00000360: fceb 94bf 6ca7 afbf b977 463f a8c2 8cbd
00000370: cd9b edbf 4a58 afbf 7348 823f eba5 8dbf
00000380: 2fed 083f 45b5 91bf 7e02 94bf 9666 cd3f
00000390: c14b a73f 1c7a d2bf d5a8 223f d5b6 bfbf
000003a0: dfc9 c43f 57c2 873f e287 893f c231 c4bf
000003b0: 3273 92bf ec40 883f 8093 0240 c0c1 cb3e
000003c0: 1575 bb3f 6e18 853f 493f c6be d01a 7b3e
000003d0: e960 e9bd 7b6f c63f 76b7 edbf 712c b63f
000003e0: 39ef e63e 220d 313f be34 38bf 76bd aebe
000003f0: 60d9 803e b730 2ebf e382 8e3d a711 41bf

output.bias f4 [4]
0.02565846 -0.04400275 0.021915961 -0.05638297
00000000: b131 d23c 3a3c 34bd 1a89 b33c d4f1 66bd
