reacher_20_9qvalue_target.pth (torch, 543903 bytes, 5 tensors)

hidden_layer_1.weight f4 [400, 33]
0	0xbe113d79	-0.14183606
1	0x3c8c07af	0.017093508
2	0xbd24d211	-0.040239397
3	0xbf64f082	-0.89429486
4	0x3e8df116	0.27722996
5	0xbeb089dc	-0.34480178
6	0xbe821712	-0.25408226
7	0x3d323a60	0.043512702
8	0xbcdc90b4	-0.026924469
9	0x3ecbedc1	0.3982983
10	0xbd9193d8	-0.07108277
11	0xbb86b219	-0.0041105864
12	0xbc3d7a38	-0.011564784
13	0x3d837ad7	0.06419914
14	0x3daaa269	0.083317585
15	0x3d908e01	0.07058335
16	0x3f47f109	0.78102165
17	0x3e81ab03	0.25325784
18	0x3e414cce	0.18876955
19	0x3ec02e70	0.3753543
20	0xbd1a8d06	-0.037732147
21	0x3d386f3b	0.045027953
22	0x3ce4d37b	0.027932873
23	0x3d9f5514	0.07779899
24	0xbcc405ea	-0.023928601
25	0xbcb914ce	-0.022592928
26	0xbd3fe292	-0.046846934
27	0xbc1f4ce7	-0.009722925
28	0xbe719ef3	-0.2359579
29	0x3c9a7f76	0.018859606
30	0x3acb7ad3	0.0015524275
31	0x3c7987e4	0.015230153
32	0x3f1e79c2	0.6190454
33	0x3d443f5f	0.047911998
34	0xbd2a9fb8	-0.041656226
35	0xbd844240	-0.06457949
36	0x3e80776f	0.2509112
37	0xbeb9f44a	-0.3631919
38	0xbf0909c4	-0.53530526
39	0x3e842181	0.2580681
40	0xbd59714e	-0.05308657
41	0x3e206924	0.15665108
42	0xbe44db0a	-0.19224182
43	0x3d9b6c8f	0.07589065
44	0xbc163e13	-0.009170073
45	0x3c3de29a	0.011589671
46	0xbd86f855	-0.06590334
47	0x3d8c9b9f	0.0686562
48	0x3dabe81b	0.0839388
49	0xbe494645	-0.19655712
50	0x3f0f0564	0.558676
51	0x3e67fba7	0.22654592
52	0xbe68aade	-0.2272143
53	0xbd143f99	-0.036193464
54	0x3d56470f	0.05231386
55	0xbc56d868	-0.013113119
56	0xbdb09ced	-0.08623681
57	0x3c4c6d53	0.012477237
58	0x3d92f189	0.071749754
59	0x3d9498b8	0.07255691
60	0x3e0f0935	0.13968356
61	0xbe293a12	-0.16526058
62	0xbcb4bf50	-0.022063881
63	0xbe2c0a3c	-0.16800779
64	0x3d40e6d5	0.04709514
65	0x3f55e654	0.8355458
66	0x3dc65112	0.09683432
67	0x3ae8db5c	0.001776557
68	0xbcdf81f4	-0.027283646
69	0xbc125dcd	-0.008933497
70	0x3eb7f77c	0.35931003
71	0x3f0b24aa	0.5435282
72	0xbe1153c6	-0.14192113
73	0xbd5178c9	-0.05114058
74	0x3e183f16	0.14867815
75	0xbe3aa4ba	-0.182269
76	0x3d851205	0.064975776
77	0xbd45db9e	-0.048305146
78	0xbc1fa99c	-0.009745028
79	0xbd0d119a	-0.034440614
80	0x3c88d9d5	0.016705433
81	0x3ba99109	0.0051747602
82	0x3e2002f4	0.15626127
83	0x3e01e5ff	0.12685393
84	0xbe022964	-0.12711102
85	0xbe43693b	-0.19083111
86	0xbc659bf3	-0.014014232
87	0x3b31ce62	0.002713107
88	0xbc43afa5	-0.011943732
89	0xbcd7a630	-0.026324362
90	0xbcfcc825	-0.030857155
91	0xbd96bb39	-0.07359929
92	0xbdd0a955	-0.101885475
93	0x3ea87d27	0.32907984
94	0xbdc51791	-0.096236356
95	0x3c2334e8	0.009961344
96	0xbe92e92c	-0.2869352
97	0xbd146230	-0.03622645
98	0x3fb6f548	1.4293604
99	0xbd50965f	-0.050924655
100	0xbc4608c0	-0.012087047
101	0xbdd8eb8d	-0.10591803
102	0x3e971057	0.29504654
103	0x3eb209de	0.34773153
104	0xbf027174	-0.50954366
105	0x3e0fec73	0.14055042
106	0x3ce8ca21	0.028416695
107	0x3e8a5f32	0.27025753
108	0xbe5f42ee	-0.21802875
109	0xbd2f023b	-0.042726737
110	0xbd68b012	-0.05680854
111	0x3bf282e4	0.0074008573
112	0xbd6301ba	-0.05542157
113	0xbd23558d	-0.03987651
114	0xbc63646b	-0.013878922
115	0x3df7587b	0.12077423
116	0x3f008a84	0.5021136
117	0x3c38edbb	0.011287148
118	0xbf2002f8	-0.6250453
119	0xbd0ea95c	-0.034829482
120	0x3d08f747	0.033438947
121	0x3db5349f	0.08847927
122	0x3d43e85f	0.04782903
123	0xbd2e56b1	-0.042563144
124	0x3d9f36ff	0.077741615
125	0x3d96c86a	0.07362445
126	0x3e04d137	0.12970434
127	0x3da2fdcb	0.079585634
128	0xbc8a0289	-0.016846912
129	0xbd7df2fd	-0.06199931
130	0xbc406c98	-0.011744641
131	0x3f85cab0	1.045248
132	0xbc663854	-0.014051516
133	0xbda4b623	-0.08042552
134	0xbda48574	-0.08033267
135	0xbe2e87b2	-0.17043951
136	0x3d48b977	0.049004998
137	0xbe5f8f1b	-0.21831934
138	0x3e93b98f	0.28852507
139	0xbdb5b596	-0.088725254
140	0xbdb98383	-0.09058287
141	0x3e19e2ba	0.15027896
142	0x3d38add2	0.045087643
143	0xbdad4167	-0.0845974
144	0x3dae8d50	0.08523047
145	0x3da81aad	0.08208213
146	0x3db7cb76	0.08974354
147	0x3e1ea041	0.1549082
148	0x3e2fde2f	0.171746
149	0xbf22d69a	-0.63608706
150	0xbef25cae	-0.47336334
151	0xbeb79111	-0.35852864
152	0xbb4448b2	-0.0029950556
153	0xbd902b7d	-0.07039545
154	0x3da2229b	0.07916757
155	0x3cd81f11	0.026382001
156	0x3c66a250	0.014076784
157	0x3d64184b	0.05568723
158	0xbe0d803a	-0.13818446
159	0x3d9072e6	0.07053165
160	0xbc4cf678	-0.012509935
161	0x3c0fadac	0.008769434
162	0xbde050d6	-0.10952918
163	0xbc8c526c	-0.017129146
164	0x3f2d8b5c	0.6779077
165	0xbd416110	-0.047211707
166	0x3d7222b6	0.059115134
167	0x3e37e9f9	0.17960347
168	0x3c8dc38d	0.01730516
169	0x3d12c6be	0.035834067
170	0x3f30a4e6	0.69001615
171	0xbe1b3bac	-0.15159482
172	0x3d72de9f	0.05929434
173	0xbe5af1ff	-0.21381377
174	0x3e817af8	0.2528913
175	0xbe1d9f58	-0.15392816
176	0xbb7c3dc7	-0.003848897
177	0x3c99945f	0.018747507
178	0x3e1055d4	0.14095241
179	0x3da47e47	0.08031898
180	0xbd42b031	-0.04753131
181	0x3f165c0b	0.58734196
182	0xbf82968c	-1.0202193
183	0xbe6eb349	-0.2331058
184	0x3efb028f	0.4902539
185	0xbc214ce5	-0.009844993
186	0xbd956019	-0.0729372
187	0x3d26fd98	0.04076919
188	0xbdb1e2f8	-0.08685869
189	0x3dd7cd7f	0.10537242
190	0x3db1e468	0.08686143
191	0xbcbec6cc	-0.023288153
192	0x3e8113f1	0.25210527
193	0xbc8a2bc1	-0.016866567
194	0x3d1d04fd	0.038334835
195	0xbe5ecefa	-0.21758643
196	0x3d0c75fd	0.03429221
197	0xbf166aa6	-0.5875648
198	0xbe0c4e47	-0.13701735
199	0x3e114582	0.14186671
200	0x3b141164	0.0022593373
201	0xbe5a039e	-0.21290442
202	0x3e5046fa	0.20339575
203	0x3e99be00	0.3002777
204	0x3e8833e6	0.26602095
205	0xbd8b09a2	-0.06788947
206	0x3d0e5de6	0.034757517
207	0xbe18b727	-0.14913617
208	0xbbe68669	-0.007035066
209	0x3de8b131	0.113619216
210	0xbdd436bf	-0.103620045
211	0x3d1a0187	0.037599113
212	0x3d32051d	0.043461908
213	0xbc99856d	-0.01874038
214	0xbe4a2737	-0.19741522
215	0xbf23a4d5	-0.6392339
216	0x3ef3874f	0.4756417
217	0xbeb0d367	-0.34536287
218	0x3d1fbd8f	0.038999137
219	0xbc9e338c	-0.019311689
220	0xbc91375c	-0.017726593
221	0xbd97eccf	-0.074182145
222	0x3debeb49	0.115194865
223	0xbc65ca29	-0.0140252495
224	0x3bd457f0	0.0064802095
225	0x3eb238e8	0.3480904
226	0x3e113fda	0.14184514
227	0x3c72d164	0.01482043
228	0xbe8e0279	-0.2773626
229	0xbcdfcce7	-0.027319385
230	0xbf157d10	-0.58393955
231	0x3dbeb57c	0.09311959
232	0x3d8d4408	0.068977416
233	0x3e56fced	0.20994921
234	0x3e87cbe3	0.2652274
235	0x3eaca2de	0.33718008
236	0xbb42c31d	-0.0029718347
237	0xbf08b204	-0.5339663
238	0x3cbe5e24	0.02323825
239	0xbeef82c4	-0.46779454
240	0xbd184a9e	-0.037180535
241	0x3d35b58f	0.0443626
242	0x3da100e5	0.07861499
243	0x3e023a5a	0.12717572
244	0x3bd54dc3	0.006509514
245	0x3e8e7116	0.27820653
246	0x3e44d7e3	0.19222979
247	0xbe938a23	-0.28816327
248	0xbf356844	-0.7086222
249	0xbd339f21	-0.04385293
250	0xbe3d1b47	-0.18467437
251	0xbca96edd	-0.020682747
252	0x3d5225ec	0.051305696
253	0x3d644933	0.05573387
254	0xbde845ee	-0.11341463
255	0xbcec23d4	-0.028825678

hidden_layer_1.bias f4 [400]
0	0xbd3550c1	-0.044266466
1	0xbe64f524	-0.22359139
2	0xbe15a135	-0.14612277
3	0xbda52f27	-0.08065634
4	0xbe7d1640	-0.24715519
5	0xbebbe3d1	-0.36697248
6	0xbee628ec	-0.44953096
7	0xbea2da17	-0.31807014
8	0xbe2c1e30	-0.1680839
9	0xbe8b8388	-0.27248788
10	0xbd5734af	-0.052540477
11	0xbeace32a	-0.33767062
12	0xbe79a8b3	-0.2438076
13	0xbe9b7431	-0.30362085
14	0xbec6f9bb	-0.38862404
15	0xbe619304	-0.22028738
16	0xbdfb4203	-0.1226845
17	0xbeb4ce81	-0.353138
18	0xbe81326c	-0.2523378
19	0x3e3702ce	0.17872164
20	0xbe8ca4c7	-0.27469465
21	0xbf120c42	-0.57049954
22	0xbe0be0ce	-0.13659975
23	0x3eb1503c	0.34631526
24	0xbeb64417	-0.35598823
25	0xbe883b0a	-0.26607543
26	0xbea0c16f	-0.31397578
27	0x3c5486ab	0.0129715605
28	0x3e4d536e	0.20051357
29	0xbe7fb617	-0.24971806
30	0xbe25705d	-0.16156144
31	0xbe62ab63	-0.22135691
32	0xbddc2f3f	-0.10751199
33	0xbeb578c7	-0.35443708
34	0xbe411486	-0.18855485
35	0xbcf7599a	-0.030194093
36	0xbe64781f	-0.22311448
37	0xbd123c8f	-0.035702284
38	0xbddc18da	-0.107469276
39	0xbdd20ea7	-0.10256701
40	0x3de116fa	0.109907106
41	0xbd36fd67	-0.044675257
42	0x3a332b50	0.0006834762
43	0xbe56f01c	-0.20990032
44	0xbe8290bb	-0.25501046
45	0x3e1ce634	0.1532219
46	0xbd20cb23	-0.039256226
47	0xbe88cbba	-0.2671793
48	0x3c200284	0.009766225
49	0xbe312ac1	-0.17301466
50	0xbd0fb2e7	-0.035082724
51	0xbbbe8208	-0.005813841
52	0xbdb32e3a	-0.087490514
53	0xbe20f96d	-0.15720148
54	0xbe0f019c	-0.13965458
55	0xbe2de9e9	-0.16983761
56	0xbe08f232	-0.1337364
57	0xbe97b043	-0.29626665
58	0x3d505d30	0.05087012
59	0xbe92f2bb	-0.28700814
60	0xbe83c227	-0.25734064
61	0xbe35065a	-0.17678204
62	0xbd2e9ff7	-0.042633023
63	0xbe060e70	-0.13091445
64	0xbe7ab1d4	-0.24481899
65	0xbec9fa2d	-0.3944868
66	0xbe3304fc	-0.1748237
67	0xbf0b1122	-0.5432302
68	0x3d533175	0.051560838
69	0xbd613aa0	-0.05498755
70	0xbd950cf2	-0.0727786
71	0xbe1f2bfd	-0.15544124
72	0xbe76b804	-0.24093634
73	0x3c2ca5af	0.010537549
74	0xbe5a44f5	-0.21315368
75	0xbda0f3ee	-0.07859026
76	0xbec4dd22	-0.3844996
77	0xbe65810e	-0.22412512
78	0x3cd9ea81	0.026601078
79	0xbe8a3c9f	-0.26999375
80	0xbece9980	-0.40351486
81	0xbea38f9f	-0.31945512
82	0xbe87e034	-0.2653824
83	0xbe6c84b4	-0.23097497
84	0xbd7c30f2	-0.061570115
85	0xbe0fcbdd	-0.14042611
86	0xbe8a718c	-0.27039754
87	0x3ceea8bd	0.029133195
88	0x3c91c44c	0.017793797
89	0xbe80012e	-0.250009
90	0xbe7eb8ab	-0.24875133
91	0xbe9ed60c	-0.3102268
92	0xbe157615	-0.14595826
93	0xbda9f5d4	-0.08298841
94	0xbe7c726a	-0.2465302
95	0xbe76f138	-0.24115455
96	0xbead8815	-0.33892885
97	0xbe60b93c	-0.21945661
98	0xbe4fa525	-0.20277841
99	0xbd9aac5c	-0.07552406
100	0xbe9d117e	-0.30677408
101	0xbdcfda8b	-0.10149106
102	0xbed56354	-0.41677344
103	0xbe947c38	-0.2900102
104	0xbd99fcfc	-0.07518956
105	0x3df7cff2	0.12100209
106	0xbe05e7c9	-0.130767
107	0xbea19e17	-0.31565925
108	0xbe975d57	-0.295634
109	0xbdd64df4	-0.10464087
110	0xbd2dec6e	-0.042461805
111	0xbe18e94f	-0.1493275
112	0xbefafaf2	-0.4901958
113	0xbe7a4ca2	-0.24443296
114	0x3bb19436	0.0054192794
115	0xbdda8674	-0.10670176
116	0xbea121af	-0.3147101
117	0xbec3c934	-0.38239443
118	0xbeb41d37	-0.3517854
119	0xbf0ac868	-0.54212046
120	0xbebc37cf	-0.3676133
121	0xbea369ef	-0.31916758
122	0xbebb93a3	-0.36636075
123	0xbd2c62e4	-0.042086497
124	0xbe096821	-0.13418628
125	0xbeab8a9d	-0.3350419
126	0xbd8ad1e3	-0.06778314
127	0xbe385ae9	-0.1800343
128	0xbe9b5799	-0.3034027
129	0xbd7ead0a	-0.06217674
130	0xbeeee7de	-0.46661276
131	0xbe1f8645	-0.15578564
132	0xbd9e17e1	-0.07719398
133	0xbdb9352a	-0.09043343
134	0xbe6d4fbd	-0.23174949
135	0xbd287852	-0.04113037
136	0xbe866d3e	-0.2625522
137	0xbd2f7169	-0.042832766
138	0x3f000bb0	0.50017834
139	0xbe367cb0	-0.17821002
140	0x3d064aed	0.0327863
141	0xbe31a0ef	-0.17346548
142	0xbec0f5bc	-0.3768748
143	0xbe007468	-0.12544405
144	0xbea358d1	-0.319037
145	0xbe0432a0	-0.12909937
146	0xbe2fc766	-0.17165908
147	0xbec90231	-0.39259484
148	0xbec868ef	-0.39142558
149	0xbe776977	-0.24161325
150	0xbee57e17	-0.4482276
151	0x3ce2f6db	0.0277056
152	0xbe671583	-0.225668
153	0xbf09093c	-0.53529716
154	0xbed51a67	-0.41621706
155	0xbee9e207	-0.45680258
156	0xbc9d457f	-0.019198177
157	0xbf01e182	-0.5073472
158	0xbe0d05ec	-0.1377179
159	0xbea27ffb	-0.31738266
160	0x3e97bf6a	0.29638225
161	0xbdf4bdde	-0.11950277
162	0xbe92f88d	-0.28705254
163	0xbdb6c814	-0.089248806
164	0xbc805e5b	-0.015669992
165	0xbddfb107	-0.10922437
166	0x3d4f8b91	0.05067021
167	0xbe9de0b8	-0.3083551
168	0xbe495e02	-0.19664767
169	0xbe4f1ad4	-0.20225078
170	0xbd4d0520	-0.050053716
171	0xbea9d13b	-0.33167443
172	0x3dedfd5f	0.11620592
173	0xbe50a803	-0.20376591
174	0xbe3b6153	-0.18298845
175	0xbe191f31	-0.14953305
176	0xbf1cea5b	-0.612951
177	0xbe4c025b	-0.19922774
178	0x3d8bd705	0.06828121
179	0xbdf133e4	-0.117774755
180	0xbd81b751	-0.06333793
181	0x3ebe3731	0.37151483
182	0xbedee0b8	-0.43530822
183	0xbec381de	-0.38185018
184	0xbe904746	-0.28179377
185	0xbf0d3897	-0.55164474
186	0xbef17329	-0.47158173
187	0xbea91664	-0.33024895
188	0x3e4e8b5c	0.20170349
189	0x3cd4632f	0.0259262
190	0x3c81145a	0.015756775
191	0xbe5d992f	-0.21640466
192	0xbe84d21b	-0.25941548
193	0xbe0f48db	-0.13992636
194	0xbe18358b	-0.14864175
195	0xbd31dd47	-0.043423917
196	0xbe28cdd4	-0.16484767
197	0xbedb1388	-0.4278834
198	0xbe748295	-0.23877938
199	0xbeab0b91	-0.33407262
200	0xbe5bb1d9	-0.21454562
201	0xbe9a91b5	-0.3018929
202	0xbe4bfd9e	-0.19920966
203	0xbe2c5e56	-0.16832861
204	0xbe09355a	-0.13399258
205	0xbb605cc7	-0.0034234987
206	0xbe241d8b	-0.16026895
207	0xbc8746ee	-0.016513314
208	0x3dbd8146	0.092531726
209	0xbddf2c18	-0.10897082
210	0xbe3a7e21	-0.18212177
211	0xbe7ace71	-0.24492814
212	0xbe59eae4	-0.2128101
213	0xbe70916a	-0.23492971
214	0x3c7aa0c9	0.015297123
215	0xbe2f4671	-0.17116715
216	0xbe91e678	-0.28496146
217	0xbe88a2b7	-0.26686642
218	0xbe11f3dc	-0.14253181
219	0xbe4b4faf	-0.19854616
220	0xbeb8a21c	-0.3606118
221	0xbea57a0c	-0.32319677
222	0xbe4cde67	-0.20006715
223	0xbe23baa9	-0.15989174
224	0xbded5115	-0.11587731
225	0xbd994ef1	-0.0748576
226	0xbe80d0a9	-0.25159195
227	0xbe82554c	-0.254557
228	0xbd6d7183	-0.05796958
229	0xbe9bbf11	-0.3041921
230	0xbead8ce1	-0.33896545
231	0x3cd07da1	0.02545053
232	0xbe1b7d97	-0.15184627
233	0xbe69b69b	-0.22823565
234	0xbe422287	-0.18958484
235	0x3d8693c8	0.06571156
236	0xbdc8ec30	-0.09810674
237	0xbe841a8c	-0.25801504
238	0xbe6fbfcb	-0.23413007
239	0xbe530a7e	-0.20609471
240	0x3d2cab12	0.042155333
241	0xbee35d4e	-0.44407123
242	0xbd972604	-0.07380298
243	0xbe3a97d9	-0.18221988
244	0xbefe9019	-0.49719313
245	0xbe0f6439	-0.14003076
246	0x3d7a59f4	0.061120942
247	0xbe56d880	-0.20981026
248	0xbed917df	-0.42401025
249	0xbe496a78	-0.19669521
250	0xbd994997	-0.07484739
251	0xbeba54f7	-0.36392948
252	0xbe96666a	-0.2937501
253	0xbea6892d	-0.32526532
254	0xbcc45ccb	-0.023970028
255	0xbd8c06bc	-0.06837222

hidden_layer_2.weight f4 [300, 404]
0	0x3eb3c9fb	0.35115036
1	0xbeaa5414	-0.33267272
2	0x3de6dc5e	0.112725005
3	0x3dcbe9d8	0.099567115
4	0xbc3ad2ca	-0.011402795
5	0xbdefa27f	-0.117009155
6	0xbddb5336	-0.107092306
7	0x3de08b29	0.10964043
8	0x3dc12fb7	0.09432929
9	0x3d29ea9b	0.041483503
10	0xbc7d13f2	-0.01544665
11	0xbe88b298	-0.26698756
12	0x3d0ea224	0.034822598
13	0x3e62022a	0.22071138
14	0xbeba6952	-0.36408478
15	0xbe558ea0	-0.20855188
16	0x3e906745	0.28203788
17	0xbec3e70a	-0.38262206
18	0xbd1754bc	-0.036946043
19	0xbdc8b586	-0.09800248
20	0xbf17e545	-0.5933421
21	0xbdfcd95a	-0.12346144
22	0xbdc99047	-0.09841972
23	0xbe06aef6	-0.1315268
24	0x3ca10154	0.019653954
25	0xbe9ec31a	-0.31008226
26	0xbe280e09	-0.16411604
27	0xbd011d28	-0.031521946
28	0x3d9a90de	0.075471625
29	0xbd1d28f1	-0.038369123
30	0x3e0e8e9c	0.13921589
31	0x3d96eb44	0.07369092
32	0xbe2b55e5	-0.16731985
33	0xbe5d04cf	-0.21583866
34	0x3cb34913	0.02188543
35	0x3ed5213f	0.41626927
36	0x3e3037e8	0.17208827
37	0xbd036eeb	-0.0320882
38	0x3d6ffc57	0.05859026
39	0xbd54a828	-0.05191818
40	0xbdcad480	-0.099038124
41	0x3d1dfbe1	0.03857029
42	0x3ddbd035	0.10733072
43	0xbedc223e	-0.42994875
44	0xbd725db9	-0.059171412
45	0xbe80e679	-0.25175837
46	0xbd99585d	-0.07487557
47	0xbe846cd4	-0.2586428
48	0x3e5f9510	0.21834207
49	0xbc7c0a51	-0.015383319
50	0x3d58de4b	0.05294637
51	0x3d8543ac	0.06507048
52	0xbe99f886	-0.3007242
53	0xbe68cc79	-0.2273425
54	0xbdd1393d	-0.102159955
55	0xbe5c705e	-0.2152724
56	0xbd9001b6	-0.07031576
57	0x3e3957e1	0.1809993
58	0xbea0c6bc	-0.31401622
59	0x3c4127e6	0.011789298
60	0x3e1a46a6	0.15066013
61	0xbe2840d2	-0.16430977
62	0x3dba9c19	0.091118045
63	0xbe8a77b9	-0.27044466
64	0xbee8fb59	-0.45504263
65	0xbdeddd5d	-0.11614487
66	0xbf0d755c	-0.552572
67	0xbdb57f7d	-0.08862207
68	0x3e65de75	0.22448142
69	0x3cfa164f	0.030528216
70	0x3d543eaf	0.051817592
71	0xbde3986c	-0.111130565
72	0x3d1341c0	0.035951376
73	0xbdf1fc11	-0.11815656
74	0xbefb9eee	-0.4914469
75	0x3ebe0b04	0.3711778
76	0x3d6de52c	0.058079883
77	0xbe814c0a	-0.25253326
78	0x3c9ba637	0.019000156
79	0xbdfbcbd1	-0.12294734
80	0xbe3cbefc	-0.1843223
81	0x3d41d3c7	0.047321107
82	0xbcfbb848	-0.03072752
83	0xbe02ea1b	-0.12784617
84	0xbe40ca27	-0.18827115
85	0xbe652eae	-0.22381088
86	0xbe685360	-0.22688055
87	0x3d839213	0.06424346
88	0x3d2ce83d	0.042213667
89	0xbd901156	-0.070345566
90	0x3d751cda	0.059841968
91	0x3c2a4473	0.010392296
92	0xbed6f219	-0.4198158
93	0xbc970a84	-0.018437631
94	0xbe3540fd	-0.17700572
95	0x3cd5e878	0.026111826
96	0x3d57403a	0.052551486
97	0xbe47bf6d	-0.19506617
98	0xbe684f79	-0.22686566
99	0x3d84bedc	0.06481716
100	0x3d98103d	0.07424972
101	0xbe2bafbd	-0.16766258
102	0xbe930729	-0.287164
103	0xbe8b1012	-0.27160698
104	0xbe349135	-0.17633517
105	0xbc944b62	-0.018102352
106	0xbe384288	-0.1799413
107	0xbe6d1625	-0.23152979
108	0xbd8dfe14	-0.06933227
109	0xbdeccbec	-0.115623325
110	0xbe902cae	-0.28159088
111	0x3c361fa5	0.011115943
112	0x3d6672e6	0.05626192
113	0xbe2e0d37	-0.16997229
114	0xbc021341	-0.007939161
115	0xbc80abe1	-0.015706958
116	0xbe789396	-0.2427505
117	0x3c8c7772	0.0171468
118	0xbb396f51	-0.002829511
119	0xbf1bcd48	-0.6086011
120	0xbe8ad57a	-0.27115995
121	0xbe14283a	-0.1446847
122	0xbdc3cbb2	-0.09560336
123	0x3e0b8929	0.13626541
124	0xbe7f5de3	-0.24938159
125	0xbeca8276	-0.3955266
126	0x3ce53e4d	0.027983809
127	0xbe8a5879	-0.27020624
128	0xbd9a46a6	-0.07533006
129	0xbe596704	-0.21230704
130	0xbdac5b9e	-0.08415912
131	0x3d78f156	0.06077703
132	0xbc8da054	-0.017288364
133	0x3c69ce49	0.014270374
134	0xbe9d0d99	-0.30674437
135	0x3d50105b	0.050796848
136	0xbc46f834	-0.012144137
137	0x3e4eb89b	0.20187609
138	0xbe100d6e	-0.14067623
139	0xbe0d1b84	-0.13780028
140	0x3e8737ae	0.26409668
141	0xbd42068f	-0.047369536
142	0xbc82654b	-0.01591744
143	0x3df616db	0.12016078
144	0x3e34087b	0.1758136
145	0xbea54718	-0.32280803
146	0xbd6c859c	-0.057744607
147	0xbe2d8097	-0.16943584
148	0xbd9b7f28	-0.075926125
149	0x3c996fce	0.01873007
150	0x3e4638cb	0.19357602
151	0xbe0ccd63	-0.13750224
152	0x3c0fb77d	0.008771774
153	0xbd0f9455	-0.03505357
154	0xbe400abf	-0.187541
155	0x3ead3a46	0.33833522
156	0xbef66ccc	-0.4812988
157	0x3d21dffc	0.03952025
158	0xbe0d69a4	-0.1380983
159	0x3e824609	0.25444058
160	0x3d5878ba	0.05284951
161	0x3e093b4f	0.1340153
162	0x3e455252	0.19269684
163	0xbe7cf0ca	-0.24701229
164	0x3e4c3029	0.19940247
165	0xbca406c7	-0.020022763
166	0x3c12575f	0.008931964
167	0xbdae24a7	-0.08503085
168	0xbdde1640	-0.108440876
169	0x3dc38178	0.095461786
170	0xbd548500	-0.05188465
171	0x39491345	0.00019176032
172	0x3dfe0a0a	0.124042585
173	0x3c56e661	0.01311645
174	0x3d593053	0.0530246
175	0xbee1cb7b	-0.44100556
176	0xbe157c13	-0.14598112
177	0xbb6699f7	-0.0035186985
178	0x3c8c4c7a	0.01712631
179	0x3e3b3089	0.18280233
180	0xbe1acb76	-0.15116677
181	0xbe1c3aa8	-0.1525675
182	0xbdda8045	-0.10668997
183	0xbec221e8	-0.37916493
184	0x3e32917a	0.17438307
185	0xbeef19c6	-0.4669935
186	0xbe0f4e05	-0.13994606
187	0xbf0e5bd5	-0.55608875
188	0xbd5ed1c1	-0.054399256
189	0xbed19314	-0.40932524
190	0xbebb53b3	-0.36587295
191	0xbe0543ad	-0.13014098
192	0x3da0883b	0.07838484
193	0xbac30091	-0.0014877488
194	0xbe086478	-0.13319576
195	0xbddee931	-0.108843215
196	0x3db3cde3	0.08779504
197	0xbdd98643	-0.106213115
198	0xbe9f6343	-0.31130418
199	0x3e382348	0.17982209
200	0xbede7bcf	-0.43453833
201	0xbe95c263	-0.29249868
202	0x3dd5501f	0.104156725
203	0xbe6113e1	-0.2198024
204	0xbe8f983e	-0.2804584
205	0x3e0e1583	0.13875394
206	0xbd9cfdf8	-0.07665628
207	0x3e450fea	0.19244352
208	0xbd98c3ed	-0.07459245
209	0x3e40128e	0.18757078
210	0x3c9fc4eb	0.019503077
211	0xbeb22032	-0.34790188
212	0xbdcf06bb	-0.101087056
213	0xbceccbec	-0.028905831
214	0x3da7df29	0.08196861
215	0x3e33c22b	0.17554538
216	0xbcbb2ca2	-0.022848431
217	0x3d41433f	0.04718327
218	0xbd7e7b53	-0.06212933
219	0x3ddab30c	0.10678682
220	0xbc927e70	-0.017882556
221	0xbe415ab0	-0.18882251
222	0xbe3ba1d3	-0.1832345
223	0xbde3abf5	-0.111167826
224	0x3e9be89f	0.30450913
225	0xbdd4cb50	-0.10390341
226	0xbe114dbe	-0.14189813
227	0xbe977014	-0.29577696
228	0x3e6e0854	0.23245364
229	0xbdbd6ec4	-0.092496425
230	0x3e10e82f	0.14151071
231	0xbe2fc2b9	-0.17164125
232	0xbe2a86db	-0.16653006
233	0xbd300521	-0.04297364
234	0x3cf6a37c	0.030107252
235	0xbe10c11e	-0.14136168
236	0xbe65943e	-0.22419831
237	0x3e1ccb30	0.15311885
238	0xbe389878	-0.18026912
239	0x3c8518b4	0.01624713
240	0x3d1a17c7	0.037620332
241	0xbe8f8c86	-0.28036898
242	0xbc0e09cc	-0.008669328
243	0x3c95fcfa	0.018309105
244	0x3d96c04b	0.07360896
245	0xbdc031ce	-0.093844995
246	0xbe790caf	-0.24321245
247	0xbd959382	-0.073035255
248	0xbed603d0	-0.41799784
249	0xbe04fd5c	-0.12987274
250	0x3dc2c9e0	0.09511161
251	0x3d8a8370	0.06763351
252	0xbe51f0d6	-0.20502028
253	0xbe510675	-0.2041262
254	0x3ecfca0b	0.40583834
255	0xbe76e1fd	-0.24109645

hidden_layer_2.bias f4 [300]
0	0xbe7c48d1	-0.24637152
1	0x3ec27284	0.37977993
2	0xbe00afc9	-0.12567057
3	0x3e479230	0.1948936
4	0xbd9c1780	-0.0762167
5	0x3f053907	0.5204014
6	0x3eafc9e9	0.34333733
7	0xbde3b7ad	-0.11119018
8	0xbd03c4dc	-0.03217016
9	0xbd2e2cc1	-0.04252315
10	0xbb7915f5	-0.0038007472
11	0x3eed597b	0.4635733
12	0x3bb22032	0.005435967
13	0x3ecedcb6	0.40402764
14	0x3db5f972	0.088854685
15	0x3e9076cf	0.28215644
16	0xbea16acd	-0.31526795
17	0x3e91c62d	0.2847151
18	0xbd22f16e	-0.039781027
19	0xbe21053c	-0.15724653
20	0x3d67f214	0.056627348
21	0x3eec18a7	0.46112558
22	0xbcfcb13a	-0.030846227
23	0x3e83f621	0.2577372
24	0x3ce3c950	0.027805954
25	0xbd3d8634	-0.046270564
26	0xbd109df7	-0.035306897
27	0xbdce9ef8	-0.10088915
28	0x3f03ffe5	0.5156234
29	0xbcebbe63	-0.028777307
30	0xbe025be1	-0.12730362
31	0x3efd8c93	0.49521312
32	0xbe0d5cfc	-0.13805002
33	0x3f29567e	0.661476
34	0xbe3163eb	-0.17323272
35	0x3eb7fff0	0.35937452
36	0xbe2c0162	-0.16797403
37	0x3ee2c2f1	0.44289353
38	0x3e70f27d	0.23530002
39	0xb989d3a9	-0.00026288375
40	0xbdabf60e	-0.083965406
41	0x3f034a77	0.512855
42	0xbddaa3d6	-0.106757805
43	0x3e919b7f	0.28438947
44	0xbe302461	-0.17201377
45	0x3e960544	0.29300892
46	0xbf00feaa	-0.50388587
47	0x3f06a89a	0.52601016
48	0xbb86755d	-0.0041033463
49	0x3e4d3130	0.20038295
50	0x3f401b05	0.7504123
51	0x3e9c38e9	0.3051217
52	0x3f51e993	0.8199703
53	0x3ed1244d	0.40848008
54	0x3ee5a50e	0.4485249
55	0x3efef239	0.49794176
56	0x3a7dda14	0.000968368
57	0x3f041331	0.51591784
58	0x3ecc309e	0.39880842
59	0x3ede967e	0.4347419
60	0x3e814868	0.25250554
61	0xbce5ee17	-0.028067632
62	0xbd6bce02	-0.05756951
63	0x3f2d1829	0.6761499
64	0x3eae3438	0.34024215
65	0x3ec4dc31	0.38449243
66	0xbe0ec54d	-0.13942452
67	0x3eda8b49	0.4268439
68	0x3f4fb851	0.8114062
69	0xbe250c5f	-0.16118
70	0x3e9ca5f3	0.3059536
71	0xbdddcf94	-0.10830608
72	0xbd98f613	-0.0746881
73	0x3f1648ff	0.58705133
74	0x3eb69333	0.3565918
75	0x3ea20d8a	0.31650954
76	0xbe32dee6	-0.17467842
77	0xb8570f98	-5.1274517e-05
78	0xbd833814	-0.064071804
79	0x3eea7e45	0.4579946
80	0x3f0c1762	0.5472318
81	0x3ea053eb	0.31314024
82	0xbcc2ed09	-0.023794668
83	0x3f4bbe32	0.7958709
84	0xbd857a5d	-0.065174796
85	0x3ed99a5a	0.42500573
86	0xbf02ee2e	-0.51144683
87	0x3ee51408	0.44741845
88	0x3ebff766	0.37493438
89	0x3eab6226	0.3347332
90	0xbee78b53	-0.45223483
91	0xbd940511	-0.07227529
92	0xbda629a9	-0.08113415
93	0x3e99c51e	0.300332
94	0x3ea98f5c	0.33117187
95	0x3e409df6	0.18810257
96	0x3eac57dd	0.33660784
97	0x3eda764f	0.42668387
98	0xbe355c56	-0.17711005
99	0xbf1f26fa	-0.6216885
100	0xbd9df517	-0.07712763
101	0xbd689d2c	-0.056790516
102	0xbd255e88	-0.040373355
103	0xbdff13ac	-0.12454924
104	0x3ec7a43f	0.38992497
105	0xbed481b8	-0.41505218
106	0xbc104bee	-0.008807166
107	0x3e868542	0.26273543
108	0xbab0b36d	-0.0013481207
109	0x3eae5a20	0.34053135
110	0x3ca29795	0.01984767
111	0x3e8fe250	0.2810235
112	0xbecaf356	-0.39638776
113	0xbea0ca52	-0.31404358
114	0xbda769fa	-0.0817451
115	0xbeaf5940	-0.3424778
116	0x3ee082f0	0.43849897
117	0x3dc5de6c	0.09661564
118	0x3d31da94	0.043421343
119	0x3ee81f66	0.45336455
120	0xbd007149	-0.031358037
121	0xbd8b62f3	-0.068059824
122	0x3f3f3bdd	0.7470072
123	0xbec3e8ab	-0.3826345
124	0x3eb8d671	0.36101106
125	0x3eb47e0b	0.35252413
126	0x3eb6cc96	0.35702962
127	0xbdca018f	-0.098635785
128	0x3e9eb29d	0.30995646
129	0xbda3c077	-0.07995694
130	0xbe0105b9	-0.1259984
131	0xbf129568	-0.57259226
132	0x3ec4ef26	0.38463706
133	0x3e86d666	0.26335448
134	0xbc688a8f	-0.014193191
135	0xbd5897fb	-0.052879315
136	0xbd826632	-0.063671485
137	0xbe142069	-0.14465488
138	0x3e95c554	0.29252112
139	0xbe8dafe3	-0.27673253
140	0x3efc7e9f	0.49315354
141	0xbcf2ea03	-0.029652601
142	0xbd616203	-0.055025112
143	0x3e72ceee	0.2371175
144	0x3ed4a674	0.41533244
145	0x3ef32d6a	0.47495586
146	0x3eeedf52	0.46654755
147	0xbe166c3a	-0.14689723
148	0x3e6b7f0f	0.22997688
149	0xbde0aa6a	-0.10970004
150	0x3f2a5cd7	0.6654791
151	0xbd5ba610	-0.053625166
152	0x3f09a5db	0.537687
153	0x3e8e1767	0.2775223
154	0x3ebc45c3	0.36771974
155	0x3ef7b8eb	0.4838327
156	0x3ea41850	0.320498
157	0xbdce2f96	-0.1006767
158	0x3e186873	0.14883594
159	0xbdde4cf0	-0.108545184
160	0x3e8dd0e1	0.27698424
161	0x3ecb5e72	0.39720494
162	0x3ec32903	0.38117227
163	0x3ecd7d1e	0.4013452
164	0xbe260e51	-0.16216399
165	0xbd29fe24	-0.041502133
166	0xbdf8e653	-0.12153306
167	0x3f48e6af	0.78476995
168	0x3eb6f0e1	0.3573065
169	0x3effc071	0.4995151
170	0x3e897c38	0.26852584
171	0xbe9c1f50	-0.3049264
172	0xbeb79621	-0.35856727
173	0xbe089408	-0.1333772
174	0x3ce7e258	0.028306171
175	0x3f10e22e	0.5659512
176	0xbd5a8be9	-0.053356085
177	0x3cc125f5	0.02357767
178	0x3eea1743	0.45720872
179	0x3df89323	0.12137439
180	0xbe03dd94	-0.12877494
181	0xbe59c0dc	-0.21264976
182	0xbdc53313	-0.09628882
183	0x3efdb354	0.4955088
184	0xbc55b093	-0.013042587
185	0x3f359ba1	0.70940596
186	0x3c9201ce	0.017823126
187	0x3ee1136b	0.43960127
188	0x3d9e4929	0.07728798
189	0x3cbd824b	0.023133418
190	0xbcadd687	-0.021220459
191	0x3c2748ad	0.010210198
192	0x3e9774af	0.2958121
193	0x3d22f16d	0.039781023
194	0xbdab553d	-0.08365867
195	0x3f0ab00a	0.54174864
196	0x3e2225bb	0.15834706
197	0x3e8e60cb	0.27808222
198	0xbe89d3cd	-0.26919404
199	0x3ecbdc8b	0.39816698
200	0xbe623f2c	-0.2209441
201	0x3f0af026	0.5427269
202	0xbd561759	-0.05226836
203	0xbd2e8650	-0.04260856
204	0x3e9535ec	0.29142702
205	0x3f3a1978	0.7269511
206	0xbe02fc3d	-0.12791534
207	0x3e93f051	0.28894284
208	0x3a996be5	0.0011705129
209	0x3e456608	0.19277203
210	0x3e397649	0.18111528
211	0x3e82b4a5	0.25528446
212	0x3de0deb3	0.109799765
213	0x3e5d8e7c	0.21636385
214	0xbdd4b49d	-0.10386012
215	0xbdee75b6	-0.11643545
216	0xbe31ff7e	-0.17382619
217	0x3f560de8	0.8361497
218	0x3d8f228e	0.06989013
219	0x3ea4e0dd	0.32202807
220	0xbe9576fd	-0.29192343
221	0xbda29e37	-0.07940333
222	0x3e28f3df	0.1649928
223	0xbe1fccbb	-0.15605442
224	0x3e83a25b	0.25709805
225	0x3e9a443a	0.30130178
226	0x3ebc0378	0.36721396
227	0xbdb5027d	-0.08838365
228	0x3f416958	0.75551367
229	0x3eb97203	0.36219797
230	0xbee43011	-0.44567922
231	0x3f1e84d4	0.6192143
232	0x3f505af4	0.81388783
233	0xbe370440	-0.17872715
234	0x3e3c391a	0.18381158
235	0xbbeed75e	-0.0072888574
236	0x3f24af9f	0.64330477
237	0xbed78245	-0.42091575
238	0x3cb00cf0	0.021490544
239	0x3f2032cc	0.6257751
240	0x3eb72eea	0.3577798
241	0x3edc2278	0.42995048
242	0x3eed7fb6	0.46386498
243	0x3c39c928	0.011339463
244	0xbf07bca6	-0.5302223
245	0x3e386444	0.18006998
246	0xbdb669de	-0.08906911
247	0xbcad0b67	-0.021123601
248	0xbe3ff173	-0.1874445
249	0x3f00aeb3	0.5026657
250	0xbe2b9c35	-0.16758807
251	0xbe935545	-0.28775993
252	0x3f0a3999	0.5399414
253	0x3e807004	0.2508546
254	0xbdffdaef	-0.1249293
255	0x3c21154d	0.009831739

output.weight f4 [1, 300]
0	0xbf2bcb14	-0.6710675
1	0x3ed91874	0.4240147
2	0xbf62969b	-0.88511056
3	0x3f117110	0.56813145
4	0xbf3c2e72	-0.7350837
5	0x3e853f9e	0.260251
6	0x3ec79ea3	0.38988218
7	0xbf3521bc	-0.707546
8	0xbf9a98ae	-1.2077844
9	0xbf3ca107	-0.7368321
10	0xbf545b9e	-0.82952297
11	0x3eadf85d	0.3397855
12	0xbf785ce5	-0.97016746
13	0x3e88f868	0.2675202
14	0x3f43d86d	0.76502115
15	0x3f40939f	0.7522525
16	0xbf161c3a	-0.5863682
17	0x3e1cfda6	0.15331134
18	0xbf6bfce3	-0.9218275
19	0xbf8c7772	-1.0973952
20	0xbf4aa3f8	-0.79156446
21	0x3dce4771	0.1007222
22	0xbf5b8242	-0.8574563
23	0x3e660616	0.22463259
24	0xbf5fe398	-0.87456656
25	0xbf828872	-1.019789
26	0xbf559288	-0.83426714
27	0xbf7961bf	-0.97414774
28	0x3ef960d0	0.48706675
29	0xbf8b5a49	-1.0886928
30	0xbf14380c	-0.5789802
31	0x3e9db168	0.30799413
32	0xbf6830e8	-0.90699625
33	0x3e58344e	0.21113703
34	0xbf0b68fc	-0.5445707
35	0x3e489ad7	0.19590317
36	0xbf272183	-0.6528551
37	0x3e785a22	0.24253133
38	0x3f0b45b5	0.5440324
39	0xbf7d0c21	-0.9884663
40	0xbf6a7641	-0.9158669
41	0x3e5d83ef	0.2163236
42	0xbf079375	-0.52959377
43	0x3e88262d	0.26591626
44	0xbf50cfc4	-0.81567025
45	0x3e850e26	0.25987357
46	0xbdc4a4c6	-0.096017405
47	0x3e80987d	0.2511634
48	0xbf1b26e3	-0.6060621
49	0x3f02bf0e	0.51072776
50	0x3e6c43b5	0.23072703
51	0x3f0cf04c	0.55054164
52	0x3e4c162e	0.19930336
53	0x3eb9e30b	0.36306033
54	0x3e8ffab4	0.2812096
55	0x3ea3b52b	0.31974158
56	0xbf56fada	-0.8397652
57	0x3e3c4883	0.18387036
58	0x3e2e04d4	0.1699403
59	0x3edebba3	0.4350253
60	0x3e3edb08	0.18638241
61	0xbf6ea0ad	-0.9321392
62	0xbf5f1fe1	-0.8715802
63	0x3e0429d0	0.12906575
64	0x3eb9d819	0.36297682
65	0x3e6d5e0c	0.23180407
66	0xbf6866e8	-0.9078202
67	0x3e0ccbcc	0.13749617
68	0x3e21de65	0.15807493
69	0xbe3d46de	-0.18484065
70	0x3ee9c32b	0.45656714
71	0xbf3a7b16	-0.72844064
72	0xbeff20a0	-0.49829578
73	0x3e1e50ef	0.15460561
74	0x3e57a8f6	0.21060547
75	0x3f244d2b	0.6418025
76	0xbf3e6ca4	-0.7438452
77	0xbf380f30	-0.71898174
78	0xbed0bd78	-0.40769553
79	0x3e32727d	0.17426486
80	0x3e8e132b	0.27749
81	0x3f224bbd	0.6339682
82	0xbf3fdbdd	-0.7494486
83	0x3e70fe44	0.23534495
84	0xbf6cf2fb	-0.9255826
85	0x3ed796f9	0.4210737
86	0xbe7c9254	-0.24665195
87	0x3e93fa10	0.2890172
88	0x3ee36ca5	0.44418827
89	0x3e7559ce	0.23960039
90	0xbdecc721	-0.11561418
91	0xbf4b6507	-0.7945103
92	0xbf5c35c5	-0.86019546
93	0x3eb2462d	0.34819165
94	0x3ede77cf	0.43450782
95	0x3ee99e28	0.45628476
96	0x3e7fd090	0.24981904
97	0x3e71cf09	0.23614134
98	0xbf446409	-0.7671514
99	0xbe1c23f8	-0.15248096
100	0xbf615445	-0.8801921
101	0xbf51aea5	-0.8190711
102	0xbf5ce1a6	-0.8628181
103	0xbf16e75b	-0.5894677
104	0x3e9d67a8	0.30743146
105	0xbe8bc088	-0.27295327
106	0xbf7697c4	-0.96325326
107	0x3eef63dd	0.46755877
108	0xbf8fe6c8	-1.1242304
109	0x3f0f5484	0.55988336
110	0xbf465fdb	-0.77490014
111	0x3e2b36b9	0.16720094
112	0xbec0ed76	-0.37681168
113	0xbe81e71b	-0.25371632
114	0xbf55213f	-0.83253855
115	0xbf45757a	-0.7713238
116	0x3e2c5cea	0.16832319
117	0x3f1345dc	0.5752847
118	0xbf30bba3	-0.6903631
119	0x3e8a3d85	0.2700006
120	0xbf6dd974	-0.9290993
121	0xbf427bd2	-0.75970185
122	0x3e13ffd3	0.14453058
123	0xbe94ed17	-0.29087135
124	0x3e64bef9	0.22338475
125	0x3e0e1bbb	0.13877766
126	0x3e8b1330	0.27163076
127	0xbf5b33f4	-0.8562615
128	0x3eba39aa	0.3637212
129	0xbf2ab1d4	-0.66677594
130	0xbf724a30	-0.9464445
131	0xbdfeb797	-0.12437361
132	0x3ea64d9f	0.32481095
133	0x3e31a749	0.1734897
134	0xbf09c99e	-0.5382327
135	0xbf838272	-1.0274184
136	0xbf5449f8	-0.8292537
137	0xbf6c9153	-0.9240925
138	0x3eb664bb	0.35623726
139	0xbe9aa9c8	-0.30207658
140	0x3ebbdccd	0.36691895
141	0xbf881cc2	-1.0633776
142	0xbf834bc2	-1.0257494
143	0x3eb5b0fb	0.35486588
144	0x3e2faf87	0.17156802
145	0x3e726b60	0.23673773
146	0x3e6f30c2	0.23358443
147	0xbeb85d68	-0.36008763
148	0x3e768eda	0.24077931
149	0xbf4d87e9	-0.8028551
150	0x3e76c71b	0.2409939
151	0xbf06c931	-0.52650744
152	0x3e07bccc	0.13255614
153	0x3e8c9d17	0.274636
154	0x3ddc88be	0.10768269
155	0x3dce1160	0.10061908
156	0x3e821085	0.25403228
157	0xbf0f88bd	-0.5606802
158	0x3eb23c94	0.34811842
159	0xbf629e6b	-0.88522977
160	0x3f12c5d8	0.57333136
161	0x3e3e8d1f	0.18608521
162	0x3e60b39e	0.21943519
163	0x3e1f8444	0.15577799
164	0xbf624492	-0.8838588
165	0xbf6a9969	-0.91640335
166	0xbece6b0c	-0.40316045
167	0x3e636ddb	0.22209875
168	0x3e0beb03	0.13663869
169	0x3e4c2e62	0.19939569
170	0x3ec0da9a	0.3766678
171	0xbf3a9061	-0.72876555
172	0xbe3ec993	-0.18631582
173	0xbf205b9c	-0.62639785
174	0xbeebd5cd	-0.46061555
175	0x3e512e7a	0.20427886
176	0xbf3bc513	-0.73347586
177	0xbf04f084	-0.519295
178	0x3eaf01c4	0.34181035
179	0xbf09f4a5	-0.5388892
180	0xbf62e710	-0.88633823
181	0xbf80c738	-1.0060797
182	0xbf5cf146	-0.86305654
183	0x3e2f7155	0.17133076
184	0xbf18e330	-0.5972166
185	0x3e248c65	0.16069181
186	0xbeaca9f1	-0.33723405
187	0x3e9f08e7	0.3106148
188	0x3e94314b	0.28943858
189	0xbf8c63ea	-1.0967991
190	0xbf6388cb	-0.88880605
191	0xbf1fd265	-0.6243041
192	0x3e0f0ac6	0.13968953
193	0xbf6e910d	-0.9319008
194	0xbf5d40ef	-0.86427206
195	0x3e5a69da	0.21329442
196	0x3f03755f	0.5135097
197	0x3ee8cff1	0.45471147
198	0xbf674f9d	-0.90355855
199	0x3e15a5aa	0.14613977
200	0xbe2a0786	-0.16604432
201	0x3e214a01	0.15750886
202	0xbf84a383	-1.03624
203	0xbf62581a	-0.8841568
204	0x3f1903a3	0.59771174
205	0x3e2926d9	0.16518725
206	0xbf421dff	-0.7582702
207	0x3ea0aa12	0.31379753
208	0xbf8a1610	-1.0787983
209	0x3ea47575	0.32120863
210	0x3e3cb874	0.18429738
211	0x3f07c924	0.5304129
212	0xbf0d0343	-0.550831
213	0x3ed4558c	0.41471517
214	0xbf16e514	-0.58943295
215	0xbf726d58	-0.94698095
216	0xbf253b6c	-0.64543796
217	0x3e6e843b	0.2329263
218	0xbe9c4f51	-0.30529264
219	0x3f18f5d0	0.5975008
220	0xbeb6a104	-0.3566972
221	0xbf4488b3	-0.76771086
222	0x3ebcebd0	0.3689866
223	0xbf48fbd5	-0.78509265
224	0x3e83f0d9	0.2576969
225	0x3ed184bd	0.40921584
226	0x3e9ab208	0.30213952
227	0xbf6be95b	-0.9215295
228	0x3e7057b1	0.23470952
229	0x3ed45de9	0.41477898
230	0xbe126c86	-0.14299211
231	0x3e2b8356	0.1674932
232	0x3e0ed4e6	0.13948402
233	0xbe92f20d	-0.28700295
234	0x3eab1403	0.33413705
235	0xbf89b850	-1.0759373
236	0x3e33d7af	0.17562746
237	0xbe2d86aa	-0.16945902
238	0xbf8b0c29	-1.0863086
239	0x3e0da4f9	0.13832463
240	0x3e0a3d3b	0.1349992
241	0x3e967f59	0.29394034
242	0x3e80471d	0.25054255
243	0xbf4ecc22	-0.8078023
244	0xbf2c595f	-0.6732387
245	0x3eaac3b8	0.33352447
246	0xbf7cd189	-0.98757225
247	0xbf5b6aa5	-0.857096
248	0xbf0b7a3c	-0.5448339
249	0x3e3beb52	0.18351486
250	0xbf4c7e48	-0.7988019
251	0xbef88275	-0.4853703
252	0x3e4562c0	0.19275951
253	0x3efb0fc9	0.4903548
254	0xbf51a201	-0.81887823
255	0xbf832877	-1.0246724
