reacher_20_2_tmp_qvalue_target.pth (torch, 543903 bytes, 5 tensors)

hidden_layer_1.weight f4 [400, 33]
00000000: 3d2a bcbe 94d0 85bd dec2 eabd 1fff d73e
00000010: 84c7 af3e fd1f 2f3e 2b6e 9d3e da9b ccbc
00000020: fffc 443e cf65 31bc 0f00 dabd c462 8dbc
00000030: 622e d7bc f2a9 5e3d 4113 a63c bdf0 873d
00000040: a618 e8be 6642 8b3d 3eaf 4b3e 9441 c93e
00000050: 5c6b f5bc 922d 02bc c2bc 823d 4d90 023e
00000060: 4e44 8e3d 0e95 023e 60ae 093e a286 7f3e
00000070: a731 143e 767f 9a3c 43f2 83be e487 793c
00000080: f7a4 7ebf 8866 1d3e 6f55 c6bd 07a7 f6bd
00000090: c0a7 06bf 839a f1be 8f62 4b3e 0561 6f3d
000000a0: c13c 2d3d bb00 7e3d 372f 2fbe 7125 a63c
000000b0: 684f 1c3c 6974 4b3d bc2a 62bd f816 b53c
000000c0: 4f1c 123e 0790 893f 30d8 9c3e 3825 84bf
000000d0: cfac 70bc d8f5 563d 490a 03bd 691c 253c
000000e0: 31a8 1e3d 20f7 5dbd de98 803d f819 bf3d
000000f0: 9959 4ebc a2b5 acbd 50bf b4bc f9e5 80bc
00000100: d5e6 403d 8602 223e e4a7 2dbd 0476 673e
00000110: 9cf3 d13d d201 853e 1cb5 5c3e 043f 843e
00000120: 4deb 423e d0ee 963c 2ddd a23d 4007 ed3c
00000130: ca8b a33d 4aa3 5a3d e43a 823d b9b5 a0bd
00000140: 53b4 f2bd 2f3b e63d ab55 973e f18f 58bf
00000150: 32b6 14bf b81a 863f a18c 3abd 6f9f a93d
00000160: 8003 f2bd a158 10bd d176 4cbd 5c1f a03d
00000170: 3f9a 973d 4242 a93e b289 24be e834 233c
00000180: 03ae 93be 3062 14bd dd60 16be 11a8 28be
00000190: d414 dd3c 2275 cfbb af1c 82be cae2 373e
000001a0: 92bf 383f 3bc1 e13c c692 c3ba febb 843d
000001b0: e212 36bd 003e c8bd f71c dfbc 0bbf 19bd
000001c0: 72c1 1f3d 9488 a73d 7c83 87bd a6ae e3bc
000001d0: 6913 0a3f 956c 04bf 8e29 45be 30a4 7dbc
000001e0: a2c0 7b3d fcdc 793d d01f c33d d724 03be
000001f0: ee86 c4bd 28f1 5ebd 99fd 3f3e ba6d 0a3c
00000200: 8902 8abc ab54 f5bd 986c 40bc 537c 92bf
00000210: c762 46bd 5ea2 d43d cbff b43c e32a 56bf
00000220: a072 e13d 5b08 41bd c1e2 ee3e 8e8a a9bd
00000230: 529b e6bd c182 d0bd 4e91 82ba 60ec 36bd
00000240: dea3 89bc 301b bc3c 5215 033c be68 fcbc
00000250: e1db b1bd b880 41be 921d 983e 3a99 a03e
00000260: c326 733d 2850 dcbc 1044 cbbb 7742 323d
00000270: 0ca8 913c bcdf 55bd 4940 443e 5e99 193d
00000280: 2b65 18be acad 0f3c abaa 9cbd 6c52 8cbc
00000290: 89ca c53f 013a 8dbe 0e15 8a3d e0b3 463d
000002a0: 718a 1dbf ab25 8fbe a5cf a4be c0ff 4a3d
000002b0: b819 413b cbb0 9d3d 11d3 3abd 606c 3ebd
000002c0: 9755 4cbc eacd 1cbd 2355 133e 18b9 eabd
000002d0: 4b25 4ebd 7a9b 323e 1a8a 2c3e 52c7 0fbf
000002e0: 2771 18bf 2a06 86bc f858 8f3d 6879 c0bd
000002f0: ca73 233c 7f98 a23c c5c8 34bd dfa0 28be
00000300: 7e9d ed3e cc91 e8bd fd04 1d3d 8bf1 dbbe
00000310: fd75 0c3d 4997 c43d 63c7 45be 71cf f13c
00000320: 6e49 493c 4a5a e6be 74c9 69bd 0f42 d5bd
00000330: fb3e 533e a75f 0cbe c88a a8be b8e0 efbd
00000340: bcbc 1bbe ec82 fe3d 575a 23be 2673 1a3e
00000350: 1881 2d3c ae67 5c3e 6cb0 82bd 2e4c 22be
00000360: 6587 3bbe ee04 21be 97e9 0c3e 168c a53d
00000370: 1518 eabd 3182 de3d a2f4 253d 7493 273e
00000380: daf9 71bd d183 e83e c3de 5abe 64d1 723c
00000390: 664d c4be e7cc dfbc 27b0 303f b494 d8bd
000003a0: db30 973d 4f3b e03d a4d7 3e3f 769f 143f
000003b0: 99c1 c33e 4491 c23e 98f5 7bbd 2410 a7bb
000003c0: 5fb7 e73c 78bf cfbd 2bb9 22bd 218a e1bc
000003d0: 2ee8 92bd cc2b 68bd 22f1 17bc 94f9 18be
000003e0: 821e d6be ee94 1c3e bfee 94bf 4c6d f4bc
000003f0: 10fe 06be 7e3c 593d e314 10bc 1f42 5a3c
-0.36750975 -0.06533924 -0.11462949 0.4218683 0.34331906 0.17102046 0.30748114 -0.02497666
0.19237135 -0.010827496 -0.106445424 -0.01725901 -0.026267234 0.05436129 0.020272853 0.06637714
-0.45331305 0.06799774 0.19891068 0.39307845 -0.02995842 -0.007945435 0.06383659 0.12750359
0.06946622 0.12752172 0.13445425 0.24953702 0.14472066 0.018859606 -0.2577077 0.015230153
-0.99470466 0.15371144 -0.09684264 -0.12043577 -0.52599716 -0.47188196 0.19861816 0.058442134
0.042294268 0.062012415 -0.17107855 0.020281525 0.009540416 0.049671564 -0.055216536 0.022105679
0.14268611 1.0747079 0.30633688 -1.0323858 -0.014689638 0.05248055 -0.03199223 0.010077574
0.03873462 -0.054190755 0.06279157 0.09331125 -0.012594604 -0.08433081 -0.022063881 -0.01573466
0.04709514 0.15821275 -0.04239644 0.22603613 0.10251543 0.2597795 0.21553463 0.25829327
0.19035073 0.018424422 0.07952342 0.028934121 0.07985647 0.05337838 0.06358889 -0.07847161
-0.118508 0.11241757 0.29557547 -0.8459464 -0.5809051 1.0476904 -0.04554427 0.08282363
-0.11817074 -0.035240773 -0.049918 0.07818481 0.07402467 0.33058363 -0.16068152 0.009961344
-0.28843698 -0.03622645 -0.14685388 -0.16470362 0.02698747 -0.006331102 -0.2541251 0.17957607
0.72167313 0.02755796 -0.0014921061 0.06481169 -0.0444516 -0.097774506 -0.027235491 -0.03753571
0.039002843 0.08180347 -0.066168755 -0.02779324 0.5393587 -0.51728183 -0.19254133 -0.01548104
0.061463006 0.061001763 0.09527552 -0.12807022 -0.09596048 -0.054429203 0.18749084 0.008449012
-0.016846912 -0.1197904 -0.011744641 -1.1444191 -0.048434045 0.103825316 0.022094628 -0.8365919
0.11008191 -0.04712711 0.46657375 -0.0827838 -0.11260094 -0.10181189 -0.0009961517 -0.04465902
-0.01680177 0.022962183 0.008000689 -0.030811664 -0.08684517 -0.18896759 0.2971006 0.31366903
0.059363138 -0.02689369 -0.006203182 0.043520417 0.017780326 -0.052215323 0.19165148 0.037499778
-0.14882343 0.008769434 -0.0764974 -0.017129146 1.5452434 -0.27583316 0.06742297 0.048511386
-0.6153937 -0.27958426 -0.3218967 0.04956031 0.0029464792 0.07699736 -0.045611445 -0.046490073
-0.012471578 -0.038282312 0.14387946 -0.11461085 -0.050328534 0.17442122 0.16849557 -0.56163514
-0.59547657 -0.016360361 0.06999391 -0.093981564 0.009976337 0.019848106 -0.04413678 -0.16467617
0.4640922 -0.113559335 0.038334835 -0.4295772 0.03429221 0.09599168 -0.19314341 0.029517861
0.012285573 -0.4499076 -0.057076886 -0.1041299 0.20629494 -0.13708363 -0.32918382 -0.117127836
-0.15208715 0.12427315 -0.1595243 0.15082988 0.01058986 0.21523926 -0.06381306 -0.15849373
-0.18313368 -0.15724537 0.13760982 0.0808336 -0.114303745 0.10864676 0.040516503 0.16364843
-0.059076168 0.45413068 -0.2137404 0.01482043 -0.383403 -0.027319385 0.6901879 -0.10575238
0.07382365 0.10948812 0.7454779 0.5805582 0.3823364 0.38001454 -0.061513513 -0.0050983597
0.02828568 -0.10143942 -0.03972737 -0.027531685 -0.07173191 -0.056682393 -0.009273799 -0.14938956
-0.4182015 0.15291187 -1.163536 -0.029837273 -0.13182855 0.053036205 -0.008794042 0.013321429

hidden_layer_1.bias f4 [400]
00000000: ed67 9bbe c40d 92bd 4a24 17be f6c6 0dbe
00000010: 5945 5bbe 9b36 14bf 913a 0ebf d026 65be
00000020: 54b3 4fbe 0d07 c6bd 64bd 93be d7fe 94be
00000030: 7341 86be 39ab 80bd f5b3 d5be 808d 12bd
00000040: a4b5 293d 83aa 33be afab 73be 42ef d5bd
00000050: 2578 97be 9743 c0be 432f b1be 84c4 e73e
00000060: c5b8 44be 6cfe 48be 4531 88be 0b1e 58bd
00000070: b3f0 36bd 48b9 27be 6218 6dbe b846 5d3d
00000080: eb44 afbe 6c7b c1be 9439 a3bd a915 89be
00000090: c6f3 b5be 0a78 0a3e f2c7 b0be c925 1abe
000000a0: da8c 323f 1218 04be 5d22 9f3d 5fc9 143e
000000b0: 1015 e9bd c726 f0bd 0de5 44be c04d 81be
000000c0: 9a4d 70bc a2fd f8be aede d5be 316e 71be
000000d0: cfd7 56bb b03e 943d 114e a1be 41a3 2bbd
000000e0: 3c15 8bbe 80b6 cabe e180 c0be 56b5 62be
000000f0: 9752 c0be 8271 c3be b0f2 643e b806 d4be
00000100: e072 a7be a844 cfbe 25fc 3dbe 3726 bdbe
00000110: b8c4 04bc e8ba 39be f1de fabd 6ecd a6be
00000120: cc26 86bd 6f5a 0ebf c47c 95bc 63bb 52bd
00000130: 9142 babd a5ad 4fbe 5330 0bbe 6d89 44be
00000140: cb21 a2be 706b b8be ab3e f4be a459 41be
00000150: c51c 0fbe b55d ed3d 8da2 e53d ddd7 08bc
00000160: cb03 1c3d 5fcb 94be 22d2 09be a27d 53be
00000170: 3338 61be 9404 65bd 2158 a2be 86e8 1abe
00000180: ff29 b9be 4c16 82be 3080 b4be 1e43 06be
00000190: 123f 97be 437e 433d 8833 ffbc 2929 d03d
000001a0: 559f 0dbe c514 bebd ba75 1cbe 194a 7dbd
000001b0: 68df 93be 2f2c f1be 12f1 b4bd 447e 86be
000001c0: 24d5 23be 598c e3be 1468 c2be 0abc 5a3e
000001d0: 762f cdbe 952d 08bf 1194 0cbf b332 a6be
000001e0: cd9e 9ebe 4197 83be fe21 ccbe b406 a83d
000001f0: 3ab5 f2be 9254 f0bd f126 42be f629 93bd
00000200: 724a 9bbe fe61 d1bd 690f bcbd 2cf9 33be
00000210: 31f3 1bbe f996 6cbe b8c6 a0be 599a 14ba
00000220: 9bbc 8fbe c053 99bd fb8c 06be a9fe 27be
00000230: a311 5ebe dcc9 d6be bb8d 9dbe 72d7 b4be
00000240: 3aea 61be 0916 cabd 70ed 21be 1451 bcbe
00000250: 19fa 13be fa19 e9be 7045 d6bd ee2e 56bb
00000260: 5228 7cbe b76b bdbd dcfe a1be fe91 adbe
00000270: d4a3 59be a8b3 8ebe a13b 33be 9952 2bbe
00000280: 44a6 a03e c4fa d6bd 831d 75be c103 3cbe
00000290: af58 17be e93d 94bd 2f4c 81be df06 3fbe
000002a0: 3df4 33be 11d2 1abe 1cdc 64be e268 acbe
000002b0: 3917 dbbe 1b04 90be 7439 b7be 7e11 843d
000002c0: 9ce8 d7bd 4161 20be a5d1 03be 50e7 d73c
000002d0: 3b50 51be 0304 97bd 8abe acbe 0d9f 22bf
000002e0: 8536 36be 1b21 75be 4b43 8cbe 6e60 a2be
000002f0: c82d 49bd 1b3e 9dbd f805 2abe df3e e1bd
00000300: 9f79 d5be 2c65 01bd 60df 48bd ec5e 9bbe
00000310: e32a 9cbe 42f7 99be f85a 90bd 3b02 8cbe
00000320: 6e87 abbe df42 20be 35d3 aebe 45bf c3be
00000330: d05e 86be cca8 d3bc 40fb 94bd c3a7 03bd
00000340: 3b18 a13b 442b 00be 0e7d 23be c1bd b3bd
00000350: 1594 89be fef7 57be e5da 00be 522c abbe
00000360: db83 aebe aade 02be 57e9 0ebe 1253 15be
00000370: 3b35 9bbe 6cc5 cdbe ee09 97be 70cc 6ebd
00000380: 8809 f4bd ced0 a6be e21f 1ebe 1862 3dbe
00000390: c4f7 74ba 1103 33be cc8e 2bbe e32d cc3c
000003a0: 5ad6 72be faf8 bebe 17bc c6be eb17 41be
000003b0: dc0f 1cbe 30b0 96be 1d94 59be 573a a9be
000003c0: c193 b4be 02bc c8be c1c6 2a3d 80ff d5bd
000003d0: 0828 93be fc87 c6be 1915 2f3f 3da3 8bbd
000003e0: b73f babe 3f56 bdbe 41bf 53bd bf7a e8bd
000003f0: 2987 0ebe f019 94be d7e9 d33d 555c 69be
-0.30352727 -0.07131532 -0.14759937 -0.13845429 -0.21413173 -0.5789582 -0.55558115 -0.22378087
-0.20283252 -0.096693136 -0.2885543 -0.29100677 -0.2622181 -0.06282658 -0.4173886 -0.035779476
0.04143299 -0.17545514 -0.23795961 -0.104460254 -0.2958385 -0.37551567 -0.3460637 0.45267117
-0.19211109 -0.19628304 -0.2660009 -0.052763026 -0.044663142 -0.16379273 -0.23153833 0.05402252
-0.34232268 -0.37789476 -0.079699665 -0.26774338 -0.35537547 0.13522354 -0.34527546 -0.15053476
0.6974617 -0.12899807 0.07770226 0.14529942 -0.113809705 -0.11726146 -0.19228001 -0.2525463
-0.014666939 -0.48631006 -0.41771454 -0.23577191 -0.003278244 0.07238519 -0.31504872 -0.041903738
-0.27164638 -0.3959236 -0.37598327 -0.22139487 -0.3756301 -0.38172537 0.22358203 -0.41411376
-0.3270483 -0.40482068 -0.18553217 -0.36943218 -0.008103542 -0.18137705 -0.12249554 -0.32578605
-0.06550369 -0.5560674 -0.01824797 -0.051448237 -0.09094728 -0.20281084 -0.13592653 -0.19193049
-0.31666407 -0.36019468 -0.47704062 -0.18881851 -0.13975818 0.11590139 0.11212645 -0.008352247
0.038089555 -0.2906141 -0.13459066 -0.20653394 -0.21994095 -0.05591257 -0.31707862 -0.15127763
-0.36164853 -0.25407636 -0.3525405 -0.1311154 -0.29540306 0.047727834 -0.031152502 0.10164101
-0.13830312 -0.09281305 -0.15279284 -0.061838243 -0.28881383 -0.47104022 -0.08835043 -0.26268208
-0.15999275 -0.44443014 -0.3797003 0.21360794 -0.40075272 -0.5319455 -0.5491343 -0.32460555
-0.3098053 -0.25701335 -0.39869684 0.082044035 -0.4740389 -0.117348805 -0.18960167 -0.07185738
-0.30330235 -0.10223769 -0.09182627 -0.1757552 -0.15229489 -0.23104466 -0.3140161 -0.00056687515
-0.28073582 -0.07486677 -0.13139717 -0.16405739 -0.21686415 -0.4195088 -0.30772194 -0.35320622
-0.22062007 -0.09867484 -0.15813231 -0.36780608 -0.14450873 -0.4552763 -0.10462463 -0.003268178
-0.24624756 -0.092490606 -0.31639755 -0.33900446 -0.21253902 -0.27871442 -0.17503215 -0.16730727
0.3137685 -0.104970485 -0.23937039 -0.18360807 -0.14779924 -0.07238371 -0.25253436 -0.18654965
-0.17573638 -0.15119196 -0.2234959 -0.3367377 -0.42791155 -0.28128132 -0.3578602 0.06448649
-0.105424136 -0.156621 -0.12872942 0.026355416 -0.20440762 -0.07373812 -0.3373912 -0.6352394
-0.17794235 -0.2393841 -0.2739509 -0.31714195 -0.049115926 -0.07677861 -0.1660384 -0.1099832
-0.41694352 -0.031590626 -0.049041152 -0.30345857 -0.3050147 -0.30071455 -0.07048601 -0.27345452
-0.33501762 -0.1565051 -0.34145513 -0.38231865 -0.2624421 -0.025837325 -0.07274485 -0.032142412
0.0049162186 -0.12516505 -0.15965673 -0.08776427 -0.2687079 -0.21090695 -0.12583502 -0.3343225
-0.34084973 -0.12780252 -0.139562 -0.1458247 -0.3031405 -0.40189683 -0.29499763 -0.058300436
-0.119158804 -0.3258118 -0.1544185 -0.18494451 -0.0009344781 -0.17481638 -0.16753691 0.024924224
-0.23714581 -0.3729933 -0.38815376 -0.1885678 -0.15240425 -0.29431295 -0.21247907 -0.33052322
-0.35268977 -0.3920594 0.041693453 -0.104491234 -0.2874148 -0.38775623 0.6839157 -0.068182446
-0.36376736 -0.36979863 -0.051696066 -0.11351537 -0.13918747 -0.2892604 0.10347336 -0.22789128

hidden_layer_2.weight f4 [300, 404]
00000000: 9f6d f0be 70f5 133e 3b16 973d 6ba7 04be
00000010: 0e46 49be 27e0 aebd cb65 29bd c99e 8a3c
00000020: cba3 023d a6e5 863c 5d81 523c 8d3f a3be
00000030: fe13 52be 3237 a7be b125 8a3e 37cf d43c
00000040: 8af6 8bbd 2a74 eb3d 6a43 ce3b 9df4 193e
00000050: 777c cbbd 3aaa 8cbe 4ac8 ea3b 3142 1e3d
00000060: df29 88be 8565 abbe 28a2 55be 52a1 94bd
00000070: 4059 2fbe 8ee9 86bc 6f94 9f3b 7c53 c23c
00000080: 7aa2 a8be fc86 62be fb25 cfbe 1914 433d
00000090: 9248 0c3e 9161 56bc cee8 efbe ffbc 2e3d
000000a0: 176b 66bc 4a4f 14be 7ac6 e9bd 9cce 3cbe
000000b0: fd13 523c 7d40 0e3e 4ec1 e4bc 4009 12bd
000000c0: 761f be3c 4c32 a0bc 8885 09bf e855 72be
000000d0: 05de dabd fa90 8bbe a94a 8b3d 6605 2ebe
000000e0: af28 e6bd ecf2 503e e611 d33d 8703 11be
000000f0: e04c 42be 66c8 dbbe 5a92 81bc 7860 5e3e
00000100: 00ea 91bd 4285 8b3d fcc9 b3bd c78e 1b3d
00000110: 0dfc aa3d 864e b6be 9366 cebc b800 89bd
00000120: c893 13bd 1068 7cbd ab7e bbbe ae93 22bd
00000130: 94c6 5a3d 4a4f 14be 67a6 6fbe 9f49 2fbe
00000140: de1e 913d a82f 25be 194c 1dbe e566 21be
00000150: 393b df3c 9049 13be 3edd 35be 9af0 a83d
00000160: eda1 2cbe d5ea d2be 9bc3 c5bd fff4 083d
00000170: 0621 acbc b038 d5bd 43e2 74be 21a9 143e
00000180: 718e 01bd 6793 24be 8cd0 75be f5c7 503a
00000190: 0e22 88be b82f 41bd eb9d 3bbe 9145 69be
000001a0: c37a 3bbe df74 2dbe 1016 0a3d 8b84 82bd
000001b0: 8853 2ebe b8e6 70be b88a 553e 8af0 0c3e
000001c0: a28d ce3c f9bf c3be 7b51 04be 7b19 aa3e
000001d0: 0422 b3bd e4f0 6d3d 2bfc e2bd a834 9d3d
000001e0: 206c 423e 4d7c 3ebe 7f5c c2be b769 f03c
000001f0: aa55 82bd 4473 8e3d 267c f83d 9fe8 9bbe
00000200: 3043 25be eb52 96be 5180 afbc 8f06 c2bd
00000210: b0b0 5dbe 49e5 5ebe 5218 96bd e6f9 0fbd
00000220: 056c 51be 5af3 94bd e041 cbbd 5866 a5bc
00000230: 4d22 f83b 6d4d bebd 14aa 46be dd9c 98be
00000240: 13ee 9ebd d0c4 2ebe 394a 80be 5307 20be
00000250: a3cc f53d 43b9 bbbe 9317 7f3e 3358 0cbf
00000260: 33f3 4ebe 8d2f 34bd 14ef ecbc 7fb6 083e
00000270: 5b7d e1bd f02b f13b 2598 8ebe 9826 67be
00000280: 494b ea3b 40dc aebd b298 e1bd abea c53d
00000290: d5be 76be fc5c 223d 8a52 a7bd 0f8b efbe
000002a0: ff39 2f3d e7e9 673e 2519 103e 0b69 bcbd
000002b0: b17d 7bbd b414 5bbe a5a2 353d 2d60 99be
000002c0: 94fe 343e 8a14 4ebe 6a0f 9ebd c180 3a3d
000002d0: 2237 8bbe 5828 cc3d 803e 003e 3369 82be
000002e0: 92e3 ce3d 826c b1be 3427 7fbe 6b18 80be
000002f0: ab4f 83bb 9000 c3be b47b edbd a3e1 95be
00000300: 22f3 32bb e88d cc3d 166f 10be b678 913d
00000310: 55b2 d1bc 2b61 20be 2bce b1bd 4da5 06bc
00000320: 2b5d f63c 595a a73d 9c13 633d 5059 cbbd
00000330: 61db 5f3e ef1f 7b3e 045f 85be 959d a1bd
00000340: af20 123d 3263 83bb 3bac 61bd e77b 88be
00000350: df95 923e 4e4d 06be 21b4 0b3d e64f ac3b
00000360: 028f c4bc dd64 3ebd 54f6 a9be f59a 6d3d
00000370: e8f8 08be 25dc bdbe 3253 943b e388 8dbe
00000380: 367f b7be 3d5a 363b 48eb 5d3d 1eab 223e
00000390: 1f34 e8be fddf a1bd f1c3 dfbd ac99 a1bd
000003a0: 0fd3 383d 4667 90bc bc8e c6bd d651 653d
000003b0: 2ea5 3fbc 06ba 99bd 44f6 0dbf a3f9 d8bd
000003c0: 6799 a33d f6b0 5bbe 02d8 94bc 7f51 4b3d
000003d0: d0f1 91be 0e06 1bbe b65e 793d 261b 65be
000003e0: 549a 8ebe e821 c2be 6817 f23e cde1 22be
000003f0: ed6f 51bd cb38 c6be 92cb 0bbe 7949 69be
-0.46958634 0.14449096 0.07377287 -0.1295449 -0.1965563 -0.085388474 -0.041356843 0.016921418
0.031894486 0.016466927 0.012848225 -0.31884423 -0.20515439 -0.32659298 0.2698188 0.025977714
-0.06834133 0.11496766 0.0062946575 0.15034719 -0.09935849 -0.27473623 0.0071649896 0.038637344
-0.26594445 -0.3347589 -0.20862639 -0.07257332 -0.1712389 -0.01646879 0.0048699896 0.02372145
-0.3293646 -0.22121805 -0.40458664 0.04762659 0.13699558 -0.013084785 -0.46857303 0.04266071
-0.014063618 -0.14483371 -0.114148095 -0.1843819 0.012822148 0.13891788 -0.027924206 -0.035653353
0.023208361 -0.019555233 -0.5371938 -0.23665583 -0.10686878 -0.27259046 0.0680135 -0.16994247
-0.112382285 0.20405167 0.10306148 -0.14161502 -0.18974638 -0.4292633 -0.015816856 0.21716487
-0.0712471 0.06812526 -0.0877876 0.03797796 0.08348856 -0.35606784 -0.025195396 -0.0668959
-0.036029607 -0.06162268 -0.36620077 -0.03969162 0.053412035 -0.14483371 -0.23403321 -0.17117928
0.070859656 -0.1613146 -0.1536106 -0.15761907 0.02724992 -0.1438353 -0.17760178 0.08249016
-0.16858645 -0.41194788 -0.096564494 0.03343677 -0.02101184 -0.10411203 -0.23914437 0.14517643
-0.031629983 -0.16071855 -0.24005336 0.0007964366 -0.26588482 -0.04716465 -0.1832196 -0.22780444
-0.18308549 -0.16939114 0.033712447 -0.06372937 -0.17024052 -0.23525512 0.20853698 0.13763633
0.02521402 -0.382324 -0.12921707 0.33222565 -0.08746722 0.05809106 -0.110832535 0.07676059
0.18986559 -0.18602104 -0.37961194 0.029347284 -0.063639954 0.06955579 0.121330544 -0.30450913
-0.16138911 -0.29360136 -0.02142349 -0.09473907 -0.21649432 -0.21767153 -0.073288575 -0.03515043
-0.20451362 -0.07272978 -0.09924674 -0.020190403 0.0075724483 -0.092921115 -0.19400817 -0.29807177
-0.07760253 -0.17067266 -0.25056627 -0.15627794 0.12001922 -0.3666478 0.24911337 -0.5482208
-0.2020996 -0.04399066 -0.028922595 0.13350867 -0.11010238 0.007359974 -0.27850452 -0.22573316
0.007150088 -0.08538103 -0.110154524 0.096639 -0.24096234 0.039639458 -0.0817004 -0.4678578
0.04277992 0.2264782 0.14072092 -0.09199723 -0.061399166 -0.21394616 0.044344563 -0.2995619
0.17675239 -0.20125023 -0.07717784 0.045532946 -0.271905 0.099686325 0.12523842 -0.25470886
0.10101999 -0.34653097 -0.24917299 -0.2501863 -0.0040073 -0.38086367 -0.1159586 -0.2927371
-0.0027305563 0.09988004 -0.14104876 0.07103102 -0.02559773 -0.15662067 -0.086819015 -0.008218122
0.030073723 0.08171529 0.055438623 -0.099291444 0.2186103 0.245239 -0.26049054 -0.078913845
0.0356757 -0.0040096277 -0.055095892 -0.2665703 0.28629968 -0.13115427 0.03410733 0.005258548
-0.023993973 -0.04648291 -0.33195746 0.058009107 -0.133762 -0.3708202 0.004526519 -0.276435
-0.35839242 0.0027824782 0.05417946 0.15885589 -0.45352265 -0.079040505 -0.10926045 -0.07890639
0.045123156 -0.01762737 -0.09695193 0.055986248 -0.011697097 -0.07506184 -0.55453897 -0.105944894
0.079882436 -0.21454224 -0.018169407 0.049638268 -0.285048 -0.15139028 0.06088134 -0.22373638
-0.27852118 -0.37916493 0.47283483 -0.15906449 -0.05113213 -0.38715205 -0.13651875 -0.22781934

hidden_layer_2.bias f4 [300]
00000000: 0936 93bc 37c0 1b3f ce7b cebd aea2 ec3e
00000010: 852d d1bd f1f5 3a3d 24f2 de3e 1a1f babd
00000020: aabe 69bd 9c49 8f3c 9b1d 8cbd caab 053f
00000030: 5d6f 8ebc 5eca ed3e 8970 69bd accf 3d3e
00000040: 3b38 83bd 1ffa aa3e 16e7 18be 98b2 08be
00000050: 3242 9ebc d905 39bd 8bf0 8cbc ed3b 6f3e
00000060: 1255 31be f864 efbd 9da4 e6be 388a aebd
00000070: cd83 163f 4e9c 0dbd 55d5 cf3e 5f95 5d3e
00000080: 3f7e f93e 8c3f ae3e 1d23 2bbd d7df 3f3f
00000090: 5892 ce3e 81f4 0e3f b0ac 793f 9c11 8ebd
000000a0: 8183 a6bd e1b6 133f db3e e1bc 9609 ee3e
000000b0: 0a1f 1ebe 99a4 e73e aaac c13e 74da 083f
000000c0: 018f 443d 1313 d43e 5f5a b23e 2d65 8b3e
000000d0: f459 fd3e 24f8 ec3e 8d27 dd3e 8a6c 6f3f
000000e0: 01ef 89bc 6709 943f f77b a4bd 3e53 803e
000000f0: e0b5 ef3d 958b ecbd d009 d5bc 8075 773e
00000100: 80b8 043f 6bda cf3e 0eab 86bd bf4d 593e
00000110: a1bf 0d3f 806d b8bd cb4a 6f3e 20c4 13bf
00000120: 0561 dabd 1a8b cd3e 162c 733e b27d 8f3e
00000130: f97a 1dbe 2ac4 5e3e 8c5e ecbd aea0 123f
00000140: 20ea c43e d8de d4bd a552 98bd 1b96 d03e
00000150: 56c8 3fbd b5b6 c73e d66d d2bd dd91 f43e
00000160: 796e e23e 60d9 633e 00db f0bd 4650 1b3f
00000170: d33c febc 0e3a 793e 086d 2f3e 485b 92bb
00000180: bd31 993e d13c 023f 6a71 8a3e ea42 27be
00000190: 7218 4ebd b3b0 0dbf c62e 71bd f1b6 13bd
000001a0: cdbf 873e 0cf7 32be 9b73 28bc 0ce5 c13e
000001b0: 3fbb 49be 9071 d63e 41f7 143c 45b8 b4bc
000001c0: a006 debd 4850 1bbd 3010 c33c 86fa 6ebd
000001d0: f2c1 8abd df59 1cbd 9c66 eb3e 2878 343f
000001e0: c2c3 8bbd 773d a4bd b47a cf3e 091a a6bd
000001f0: 591f df3e 7cf0 ef3e 1935 a83c a428 df3e
00000200: d81b 273e 6855 4bbe 1680 86bd 1cc4 6cbc
00000210: b4ad 8d3e ea72 a33e 63a0 b13e 5c03 04be
00000220: ce08 87bd faa1 81bd 66df 023e 1a74 b23e
00000230: b4d1 373f 432b 45bd 022e 31be e874 c93e
00000240: 7f05 9c3e 0dcb 2d3f 35b0 383f e866 683c
00000250: 773d a4bd 69f9 afbd 37b7 b13e 5bd0 28bf
00000260: b492 e2bb fda7 47bd 389d 963e 4669 273e
00000270: 6a88 af3e 765f 10bd 5d8b 103f a7f2 c83d
00000280: 68c8 ca3e c288 db3d 9a67 f03e b73c ea3d
00000290: 1d3b ee3b 0db1 05be 73e3 28bf b603 5e3e
000002a0: d77c c03e 0de5 b53c 5a76 a13e 79b5 f33b
000002b0: ac20 d93e c635 dcbd 5810 09bd fa1e 903e
000002c0: 1cc2 d23e 878b 083b 7fa8 de3e eac4 1f3d
000002d0: 5d2e d9bd 13c1 bbbd 32f9 cdbd 8ac9 a83d
000002e0: 4dfa 913e 29d7 c33e f488 29bc b3ec c13e
000002f0: 2d0e 843e eb9d bbbd e38b 923e 6abd 613e
00000300: bbb9 ab3e 74e6 eabd c1a4 993e 382e a63e
00000310: 2ce4 ab3e fe77 c33e 633f 16be 118a 4f3e
00000320: 5551 bebd b99c 783e 4ca0 ffbd d633 a3be
00000330: 2b29 163f 365d 2d3f 03be 913e 8f5d 4f3f
00000340: 0677 9a3e e5a0 a43e 6610 5c3e 37b2 f93e
00000350: 3d2b 953e 3a08 1f3f d802 ae3e 0543 98bd
00000360: 6a7d fdb9 c483 963e 0bc3 82bc 845f 5f3f
00000370: 6efc 19be 7305 03be abdf ccbe 76f4 2cbd
00000380: 4126 4d3d f4ea 973e b6d1 f03e 765f 05bf
00000390: e5e4 053f e750 7a3d a6e5 86ba f8ab 9d3e
000003a0: 2bec c83e 1cd0 ab3e 73f2 033f d660 06bd
000003b0: 2fae f23e c257 01be 74f9 043d 1ac3 1ebd
000003c0: f803 9cbd 6427 f63e 67a0 053f 5c75 0dbe
000003d0: 8100 a7bd 27e9 9f3e 7598 45bf cabc 32bf
000003e0: ec68 04be 0dda 073f 5e2b 36be eddf 85be
000003f0: 6245 ce3e 3c82 a13d e48a 62bd c911 b53e
-0.017970102 0.6084017 -0.100822076 0.46217865 -0.1021376 0.045644704 0.43544114 -0.090879634
-0.057066597 0.017491154 -0.06841584 0.52215254 -0.017387087 0.46443456 -0.056992088 0.18536252
-0.064072095 0.33393952 -0.14931902 -0.13349378 -0.019318674 -0.045171592 -0.017204544 0.23362704
-0.17317608 -0.1168918 -0.45047465 -0.08522457 0.5879486 -0.034572892 0.40592447 0.21639012
0.4872913 0.34032857 -0.041781534 0.7495093 0.40346026 0.55841833 0.97529125 -0.069369525
-0.08130551 0.57700926 -0.027495792 0.46491688 -0.15441528 0.45242766 0.37827045 0.53458333
0.04798794 0.41420802 0.34834573 0.27225628 0.4948269 0.46283066 0.43194237 0.9352499
-0.016837599 1.1565369 -0.08031457 0.2506351 0.11704612 -0.11550061 -0.026005656 0.24165916
0.51844025 0.40596327 -0.06575595 0.21221064 0.5537053 -0.090052605 0.23368375 -0.5772114
-0.10663036 0.4014519 0.23747286 0.28025585 -0.15378942 0.21754518 -0.11541471 0.5727643
0.38459873 -0.103940666 -0.07437638 0.4073952 -0.046821915 0.39006582 -0.10274856 0.47767535
0.4422491 0.2225089 -0.11760521 0.6066936 -0.031034863 0.24338552 0.17131436 -0.004466448
0.2992076 0.5087405 0.27039653 -0.1633412 -0.05031628 -0.55347747 -0.058882497 -0.03606314
0.2651352 -0.17477053 -0.010281469 0.3787006 -0.19700335 0.41883516 0.009092153 -0.022060523
-0.10841107 -0.03791836 0.02381143 -0.058344387 -0.067752734 -0.038171645 0.45976722 0.70495844
-0.06824447 -0.08019536 0.40523303 -0.081104346 0.43578604 0.46863163 0.020533131 0.43585694
0.16319215 -0.19856799 -0.06567399 -0.014451053 0.27671587 0.3192361 0.34692678 -0.12891906
-0.06593476 -0.06329723 0.12780532 0.34854203 0.71804357 -0.04813696 -0.17302707 0.39347005
0.30472943 0.67887956 0.7214387 0.014184691 -0.08019536 -0.08592493 0.34710094 -0.65942925
-0.006914461 -0.04874419 0.29416823 0.16348752 0.34283763 -0.03524729 0.5646265 0.09811907
0.39606023 0.10719444 0.46954042 0.11437362 0.0072702304 -0.13055821 -0.6597206 0.21681103
0.37595245 0.022203946 0.31535608 0.0074374047 0.4240774 -0.10752444 -0.033462852 0.28148633
0.4116372 0.0020835118 0.43487927 0.03900615 -0.10604546 -0.09167685 -0.10057296 0.082415655
0.28511277 0.38250092 -0.010347594 0.378759 0.25792065 -0.0916098 0.2862235 0.22044912
0.3354014 -0.11469737 0.3000851 0.32457137 0.3357252 0.38177484 -0.14672618 0.20267512
-0.092928566 0.24278535 -0.12481746 -0.31875485 0.5865657 0.67720354 0.2846528 0.81002134
0.30168933 0.32154003 0.2149063 0.4876878 0.2913455 0.6212193 0.33986545 -0.07434658
-0.0004834936 0.29397404 -0.015962144 0.8725512 -0.150377 -0.12795047 -0.40014395 -0.042225324
0.05008531 0.29671443 0.47034997 -0.52098787 0.5230239 0.06111231 -0.0010291829 0.30795264
0.39242682 0.33557212 0.51541823 -0.032807194 0.47398517 -0.12631133 0.03246446 -0.038760282
-0.076179445 0.48076928 0.5219788 -0.138143 -0.08154393 0.3123257 -0.77185756 -0.6981932
-0.1293065 0.53067094 -0.17789981 -0.26147404 0.4028731 0.07886168 -0.055308238 0.35365131

output.weight f4 [1, 300]
00000000: e65a 23bf 223e 9d3e 5f25 3bbd c81d 513e
00000010: 7d29 19bf ef3f 12bf 3fab 3b3e 1f0b 2fbf
00000020: fc5c 22bf ec7e f5be d551 65bf 1c07 583e
00000030: 7ac9 0cbf df21 533e 6207 3cbf 70a3 0c3e
00000040: 5e41 24bf ba41 853e 6887 26bf 0ff1 fabe
00000050: b8c2 2fbf 686b 39bf 0946 02bf 1bc7 613e
00000060: c77d 25bf 794c 88bd a39b d6bd 7b9c 29bf
00000070: 796d 473e 7e9f 05bf 6d45 063e 7d04 153e
00000080: 4535 ff3d d846 b93e 4aaa 28bf 1866 113e
00000090: c561 3f3e 7ed9 403e 8fe3 523e 20af 13bf
000000a0: c5e5 3ebf 8649 8e3e 388f 26bf fbfc 773e
000000b0: 0ca8 e3be ee65 2e3e b0cc 823e c8ca fc3d
000000c0: 2db6 35bf 0d0e 103e 86bc 6c3e f155 283e
000000d0: 8a91 303e a774 0b3e fedd fc3d 7502 3c3e
000000e0: 963b 07bf 1a3e 3c3e c8b1 55bf 1910 3d3e
000000f0: 04a6 893e 9b4a 05bf c617 1abf c858 dd3e
00000100: 3772 633e 28d7 663e c6f5 2dbf 4560 973e
00000110: 380a 123e 7aad 1fbf 4d46 133e b443 78be
00000120: f0c7 09bf 4cd8 6f3e 53ca e13d 0186 a93e
00000130: e87c d6be a6b8 093e 186a dfbe feb0 2d3e
00000140: 0299 b53e 18be 26bf 5ec4 23bf 947c 553e
00000150: d953 01bf 0bf5 803e e229 4fbf 11dc fb3d
00000160: 32e8 573e 19dc e03d 838d 16bf 42f9 e73d
00000170: 8f22 2fbf cda8 793e 2ffe 923e 198b 44bf
00000180: 66ea 263e 1dd6 1b3e bb19 2a3e 6fe1 7abf
00000190: 6804 27bf e62b 7bbe 825f 2abf b358 33bf
000001a0: 6a87 0f3e 763d 24bf 6295 32bf cf97 1a3e
000001b0: 3f88 e7be 3485 203e fabf 43bf 626e 4ebf
000001c0: 3070 08bf 77c5 1bbf 21d2 4dbf 2eb0 36bf
000001d0: d877 42bf 76f2 2dbf 1820 5b3e d857 2d3e
000001e0: 1537 36bf f7dc 37bf 3aa0 e33d 08f8 39bf
000001f0: 8f3f cb3d a297 343d 95a2 19bf 3846 903e
00000200: bf36 1c3f 10b1 ccbe 1365 20bf 4a0b 3cbf
00000210: 23e1 243e 1a2a 183e abb2 ad3e 008a 4cbf
00000220: 4270 6bbf c43f 05bf d98e 793e 78c3 e83d
00000230: 3042 1c3e f576 2cbf ff2e 38bf fc6c e93d
00000240: d58f af3e 65e5 6f3e 1a70 5b3e 2d7e 5bbf
00000250: d086 d5be 17b9 2ebf dd76 b43e 4152 77be
00000260: b573 19bf bc3d 22bf 77d6 1d3e c592 a43e
00000270: cca3 963e b92e 3abf e33a 4e3e 4a8f 68bd
00000280: e400 533e 5ab7 6e3e 2460 133e 64af c33e
00000290: bf47 12bf 5e5d 11bf febf b5be 54c1 d23d
000002a0: df85 013e 613c 73bf 6be5 253e a425 35bf
000002b0: f764 883e 21b6 60bf 6e30 4abf 9ee8 093e
000002c0: 18dc fa3d 1276 16bf 7193 5f3e f3c0 03bf
000002d0: 17cd 13bf 9c56 34bf 1c4a 0fbf 1aa1 323f
000002e0: d7df 413e f79d 533e 270d 12bf 6e75 d63e
000002f0: fad5 003e 7b35 17bf 8958 d63e 4262 fd3d
00000300: c8f4 c63d 4c3b c1be 052c 103e 9fd2 d23d
00000310: 6882 6b3e cdef 113e 559f 06bf 119b 373e
00000320: 723f 32bf 31aa 8c3e 5008 27bf fbe7 f5be
00000330: 04f7 0f3e 5ddf 613e a1ac de3e c3df 5c3e
00000340: abeb 343e b861 273e ca99 543e 3aa7 353e
00000350: f042 6c3e e496 113e 399d 353e 6822 e9be
00000360: ab83 33bf 8b76 5d3e 1244 3bbf f1d2 713e
00000370: ce4d 2dbf 176e 09bf de63 37bf 2d76 4bbe
00000380: c352 50bf 1afd 893e a651 043e 9c8b 54be
00000390: 2ac8 803e f48d 21bf 37b1 12bf 31d9 023e
000003a0: ccfb 343e 0734 cb3d 31d9 c13d 5cbf 2bbf
000003b0: 18c2 5e3e ae1b 1abf 3891 fbbe d41d 35bf
000003c0: f99d 57bf 4ee9 393e fd13 533e 8997 4dbf
000003d0: f8c5 42bf 9500 4d3e 5266 5dbe 9ea9 d5bd
000003e0: 66c0 07bf 7296 853e 9680 2dbf 1a4b 16bf
000003f0: 2603 003e 7024 ccbe 10fa 1cbf a8b6 293e
-0.63810575 0.30711466 -0.045689937 0.20421517 -0.5982893 -0.57128805 0.18327044 -0.68376344
-0.6342313 -0.47948396 -0.8957799 0.21096462 -0.5499493 0.2061839 -0.73448765 0.13734221
-0.6416224 0.26026708 -0.65050364 -0.49012038 -0.6865649 -0.72429514 -0.50888115 0.22048609
-0.64645046 -0.06655211 -0.10478904 -0.66254395 0.19475354 -0.5219649 0.13112421 0.14552493
0.12461332 0.36186862 -0.6588484 0.14199102 0.1868964 0.18832967 0.20594619 -0.57689095
-0.7456935 0.2779047 -0.65062284 0.24217598 -0.44464147 0.1703107 0.2554679 0.12343365
-0.70981103 0.1406786 0.23118791 0.16439034 0.17243019 0.13618718 0.12347029 0.18360312
-0.52825296 0.18383065 -0.834744 0.18463172 0.26884472 -0.52066964 -0.60192525 0.43231797
0.22211538 0.22543013 -0.67953146 0.29565635 0.1426171 -0.6237408 0.14382286 -0.24244577
-0.53820705 0.23422354 0.110249184 0.3311005 -0.4189217 0.13449344 -0.4363563 0.16962048
0.35468298 -0.6513381 -0.6397151 0.20848304 -0.50518566 0.25186953 -0.80923283 0.12297834
0.21084669 0.1097948 -0.5880968 0.11326839 -0.6841211 0.24380799 0.28709552 -0.76774746
0.16300353 0.15218396 0.16611378 -0.98000234 -0.652411 -0.24528465 -0.66551983 -0.7005722
0.140165 -0.6415628 -0.6975919 0.15096973 -0.45221135 0.15675813 -0.7646481 -0.8063718
-0.53296185 -0.6084818 -0.80398756 -0.7136258 -0.7596412 -0.6794809 0.21398962 0.16928041
-0.711778 -0.7182154 0.11114545 -0.7264409 0.09924232 0.04408992 -0.60013705 0.28178573
0.61021036 -0.39978838 -0.62654227 -0.73454726 0.16101508 0.1485981 0.33925375 -0.7989807
-0.91968167 -0.52050424 0.24370898 0.11365408 0.15259624 -0.67369014 -0.7194671 0.1139774
0.34289423 0.23427351 0.21429482 -0.85739404 -0.41704416 -0.68251175 0.35246935 -0.24152471
-0.5994218 -0.6337545 0.15413843 0.32143226 0.29421842 -0.72727543 0.20139651 -0.056777276
0.20605808 0.2331213 0.14392143 0.3821975 -0.57140726 -0.5678309 -0.3549804 0.10290781
0.12648724 -0.95014006 0.16200797 -0.7076056 0.2663953 -0.87777907 -0.7898015 0.13467643
0.12249011 -0.5877391 0.21833588 -0.5146629 -0.5773482 -0.70444655 -0.55972457 0.6977707
0.18933044 0.20665728 -0.5705132 0.41886467 0.12581626 -0.5906598 0.41864422 0.12372257
0.09714657 -0.37740552 0.14079292 0.10294079 0.22998965 0.14251633 -0.5258687 0.17930247
-0.6962806 0.27473596 -0.6524706 -0.4802855 0.14059073 0.22057863 0.4349108 0.21569733
0.17668025 0.1634587 0.20761791 0.17739573 0.2307241 0.14217716 0.17735757 -0.45534062
-0.70122784 0.21627252 -0.7315074 0.23615624 -0.67696846 -0.5368361 -0.7163676 -0.19869299
-0.81376284 0.26950914 0.12921771 -0.20756382 0.25152713 -0.6310723 -0.5730166 0.12778164
0.17674178 0.09922033 0.09465254 -0.67088866 0.21753728 -0.60198486 -0.4913423 -0.7074864
-0.8422542 0.18155405 0.20613094 -0.8030935 -0.76083326 0.20019753 -0.21621063 -0.104327425
-0.5302795 0.26091343 -0.6777433 -0.58708346 0.12501201 -0.3987155 -0.61319065 0.16573584
