Neural_networks/reacher_20_2_tmp_policy_local.pth (torch, 542751 bytes, 6 tensors)

hidden_layer_1.weight f4 [400, 33]
-0.11823102 0.30236584 0.19201098 1.2501252 -0.06298604 -0.31629837 -0.22073668 -0.09945245
0.106740065 -0.3391689 -0.00773115 0.101174265 -0.017366063 -0.08393479 -0.014827992 -0.107422814
0.8089732 -0.045923572 -0.4247043 0.04287025 -0.011009366 -0.03719346 -0.19798566 -0.082397975
-0.010633256 0.0964451 -0.08614199 0.3781055 0.24633475 0.049657617 -0.3817751 -0.028602464
-0.9436198 -0.40570852 -0.123197794 -0.06969959 -0.909991 -0.023645818 -0.9399266 0.38844147
-0.024462363 -0.22560795 6.305168e-05 -0.048488803 -0.01771956 0.04551566 0.24690749 0.25194204
0.017627971 -0.6378839 0.60166335 -0.7789773 0.7595969 0.09161861 -0.003436993 -0.12073602
0.073766574 0.14689481 -0.09460059 -0.14660826 0.17347047 -0.22604321 -0.041183244 -0.1324557
-0.011414509 0.23445018 0.008128658 -0.17844042 0.025309449 -0.8199248 -0.32798767 0.30642745
0.40889248 -0.11052587 0.25817224 -0.13694213 0.022954324 -0.0053463494 -0.054968614 -0.015668234
0.19430305 -0.08729965 -0.08312234 -0.03465178 0.1061049 0.17699386 0.026572345 0.19139323
0.03369689 0.12784037 0.043426998 0.08402307 0.24033356 0.10644696 0.12934177 -0.034138605
-0.16793634 0.04606835 0.33935124 0.11904853 -0.18501449 -0.003306002 -0.5752081 -0.2591534
0.75169164 -0.102344364 0.07158302 -0.11992265 -0.09749899 -0.0059326286 0.11838264 0.07864654
0.027305923 0.14139108 -0.07690597 -0.5510088 -0.66117543 -0.13704488 0.6265697 -0.04015882
0.016765302 0.008485745 0.017723965 -0.042970896 -0.08984894 -0.088111505 0.078374706 0.017394058
-5.0626695e-05 -0.11720925 -0.000518851 1.8308574 0.08013072 -0.06712941 -0.23832147 -0.46244854
-0.21068808 0.18791495 -0.25466934 0.07656699 0.45114514 0.18936175 -0.08921184 0.003012127
-0.06407082 -0.090025604 0.017235797 0.29205 0.48243308 -1.1077626 -0.07010027 -0.19402531
0.02394946 -0.020790549 -0.00988172 0.141406 -0.023552503 0.13525568 0.114828736 0.13638951
0.08139694 -0.0379647 -0.16182925 -0.009385206 -0.12058644 0.20866823 -0.10476617 0.27938905
0.1279179 0.059395537 0.085722536 0.29766992 0.06203581 -0.24736881 -0.123763375 0.06340364
0.092368625 0.010656145 -0.03272701 0.12352625 -0.19561584 -0.16188422 0.6998017 0.5031984
0.50059694 0.06465768 -0.07265333 0.03217804 0.065969504 0.06417661 -0.14164749 0.015327985
0.1082322 -0.10849434 0.046912704 -0.06249427 0.0009202771 0.56083876 -0.059774373 0.14759977
-0.08686627 0.75562793 -0.19487363 0.31366336 -0.26338485 -0.0556408 0.1633158 0.048999175
0.11306898 -0.089541376 -0.13198873 0.16017503 -0.010963792 0.0330069 -0.6165687 0.34677413
0.7360444 0.2544428 -0.022070235 -0.033849314 0.048581135 0.13148722 0.060053803 0.045231547
-0.09870318 0.18091491 0.12545757 -0.042831894 -0.20179853 0.01055352 -1.0644855 0.17375723
0.05034514 0.04684422 0.45445162 -0.16608824 -0.4392773 0.0024668658 -0.116331175 0.123451255
-0.22946423 0.09508632 0.01762009 -0.05292738 -0.17623217 0.14490725 -0.060001194 -0.42747825
-0.49328324 0.5168138 0.8541158 -0.105269395 0.04167513 -0.062316917 -0.055986997 -0.04199156
00000000: 1b23 f2bd b2cf 9a3e 879e 443e 1a04 a03f
00000010: d3fe 80bd dcf1 a1be cc08 62be baad cbbd
00000020: 899a da3d 8ca7 adbe 9655 fdbb 7434 cf3d
00000030: 4643 8ebc 01e6 abbd 1bf1 72bc 7e00 dcbd
00000040: de18 4f3f 5b1a 3cbd d872 d9be b798 2f3d
00000050: a160 34bc 2b58 18bd c1bc 4abe 45c0 a8bd
00000060: 1c37 2ebc 0285 c53d 366b b0bd 0b97 c13e
00000070: 2d3f 7c3e c965 4b3d 0778 c3be b74f eabc
00000080: 1191 71bf 07b9 cfbe 204f fcbd a9be 8ebd
00000090: 2cf5 68bf e0b4 c1bc 089f 70bf cde1 c63e
000000a0: 4b65 c8bc c505 67be 9d3a 8438 329c 46bd
000000b0: 9c28 91bc a16e 3a3d 51d5 7c3e 8cfe 803e
000000c0: 8968 903c 5c4c 23bf 9c06 1a3f 0e6b 47bf
000000d0: f174 423f 8aa2 bb3d 2d3f 61bb 7244 f7bd
000000e0: ee12 973d 986b 163e f4bd c1bd 7a20 16be
000000f0: 3ea2 313e df77 67be c3af 28bd 78a2 07be
00000100: ec03 3bbc b513 703e 102e 053c 16b9 36be
00000110: c355 cf3c 97e6 51bf 00ee a7be 0fe4 9c3e
00000120: 5b5a d13e 635b e2bd 272f 843e 8f3a 0cbe
00000130: b50a bc3c 6e30 afbb c526 61bd ab5a 80bc
00000140: 61f7 463e 29ca b2bd 0c3c aabd 06ef 0dbd
00000150: 874d d93d e13d 353e 3fae d93c 96fc 433e
00000160: c005 0a3d 96e8 023e 82e0 313d 4a14 ac3d
00000170: 001a 763e dd00 da3d 2b72 043e ecd4 0bbd
00000180: 81f7 2bbe 2bb2 3c3d 72bf ad3e b7cf f33d
00000190: 7074 3dbe 82a9 58bb d740 13bf c1af 84be
000001a0: dd6e 403f ec99 d1bd 1e9a 923d 029a f5bd
000001b0: 8dad c7bd 7f66 c2bb 9972 f23d 7011 a13d
000001c0: acb0 df3c d3c8 103e e180 9dbd ea0e 0dbf
000001d0: cb42 29bf 7e55 0cbe df66 203f 937d 24bd
000001e0: 6357 893c cb07 0b3c d931 913c 4002 30bd
000001f0: b902 b8bd ce73 b4bd eb82 a03d fc7d 8e3c
00000200: 0058 54b8 670b f0bd 8003 08ba 8959 ea3f
00000210: 931b a43d 257b 89bd 8b0a 74be 0ec6 ecbe
00000220: 9ebe 57be c76c 403e 0564 82be 27cf 9c3d
00000230: 7ffc e63e 0ce8 413e b2b4 b6bd 1b67 453b
00000240: 9037 83bd 585f b8bd 1632 8d3c 9487 953e
00000250: 7801 f73e 2acb 8dbf bb90 8fbd 92ae 46be
00000260: a831 c43c f150 aabc f0e6 21bc bccc 103e
00000270: 2ef1 c0bc 7780 0a3e 542b eb3d b1a9 0b3e
00000280: 70b3 a63d e080 1bbd 91b6 25be 68c4 19bc
00000290: 06f6 f6bd 20ad 553e a58f d6bd 150c 8f3e
000002a0: e9fc 023e bc48 733d 4c8f af3d 3168 983e
000002b0: 4319 7e3d 404e 7dbe a777 fdbd c5d9 813d
000002c0: c32b bd3d 1d97 2e3c c20c 06bd 55fb fc3d
000002d0: 854f 48be fac4 25be 3426 333f 9cd1 003f
000002e0: 1f27 003f 3f6b 843d 45cb 94bd 1fcd 033d
000002f0: 051b 873d 076f 833d 0a0c 11be 3b22 7b3c
00000300: d8a8 dd3d 4832 debd 8927 403d fef9 7fbd
00000310: c03e 713a 2193 0f3f f9d5 74bd 6524 173e
00000320: f1e6 b1bd d570 413f f48c 47be 7c98 a03e
00000330: 61da 86be 9ce7 63bd 423c 273e 5cb3 483d
00000340: b690 e73d 7861 b7bd 0e28 07be ec04 243e
00000350: 7aa1 33bc 3e32 073d 72d7 1dbf 618c b13e
00000360: 686d 3c3f 5446 823e a3cc b4bc 94a5 0abd
00000370: 03fd 463d 96a4 063e fafa 753d b744 393d
00000380: e524 cabd c241 393e f377 003e 7f70 2fbd
00000390: 46a4 4ebe ace8 2c3c 1041 88bf 6aed 313e
000003a0: b536 4e3d badf 3f3d e2ad e83e 0913 2abe
000003b0: f4e8 e0be 24ab 213b 0a3f eebd 03d4 fc3d
000003c0: acf8 6abe 9ebc c23d 0258 903c 61ca 58bd
000003d0: 3576 34be 9162 143e d0c3 75bd 6ede dabe
000003e0: 9f8f fcbe e94d 043f 55a7 5a3f 7b97 d7bd
000003f0: 8bb3 2a3d 0640 7fbd 9f52 65bd 58ff 2bbd

hidden_layer_1.bias f4 [400]
-0.4770931 -0.22405817 0.028710615 -0.0746789 -0.2710792 -0.24165547 -0.3066133 -0.26070076
-0.10962028 -0.18442589 0.034430593 -0.18042424 -0.15567827 -0.27060676 -0.08435706 0.061429825
-0.37795466 -0.22289002 -0.41220108 -0.25867012 -0.34454083 -0.05107278 -0.29013065 -0.37222332
-0.1592416 -0.38724422 -0.28161213 -0.088260226 0.22169252 -0.33881876 -0.13285713 -0.023297647
0.16109121 -0.055806432 -0.3959966 -0.29534936 -0.044404324 -0.20006664 0.23393354 -0.06844024
-0.1804796 0.28201512 0.12372881 -0.20316078 -0.30458623 0.11559447 0.043188136 -0.009590798
-0.24277605 -0.22359338 0.06005263 -0.01613576 -0.07583863 -0.09260222 -0.35456672 -0.04090141
-0.09400682 -0.20359495 -0.26091224 -0.20291018 -0.030191004 -0.38011837 -0.1712001 -0.28007725
-0.20370457 -0.21092024 -0.06255714 -0.43048495 -0.1697193 -0.08011879 -0.11324046 -0.2857811
-0.16757266 -0.14915466 -0.09409596 -0.058737945 -0.2627933 -0.24502735 -0.15943249 -0.1952029
-0.035645958 -0.13741098 -0.37248188 -0.030673875 -0.5177047 0.039931484 -0.3433876 -0.06920532
-0.27816203 -0.6050471 -0.16159837 -0.34629917 0.06713892 -0.11131094 -0.2850142 -0.36959195
-0.3911121 -0.25156078 -0.09616163 0.018939631 -0.31678054 -0.13684471 -0.05317029 0.05739156
-0.13165273 -0.01345079 -0.18051684 -0.33890945 -0.14079654 -0.25685415 -0.21618971 -0.18384448
-0.35249725 -0.041233633 -0.029844305 -0.010867207 -0.32035136 -0.14807364 -0.28490403 -0.10423776
-0.36317208 -0.37695327 -0.16222133 -0.031804364 -0.24532834 -0.14594778 -0.3418502 -0.31016135
-0.061119013 -0.16976164 -0.30261508 -0.012838165 0.05999765 -0.052239493 0.017566547 -0.14793925
-0.35407835 0.11815219 -0.007965392 -0.25774035 -0.18874644 -0.3656988 -0.1087324 -0.010251423
-0.5842092 -0.13085888 -0.31064498 -0.55851185 -0.45619446 -0.06885132 -0.38737473 -0.18119463
0.5085439 -0.16678558 -0.40291682 -0.62093514 0.15876813 -0.3437816 0.10046826 -0.05634996
-0.2097535 0.23012425 0.0671806 -0.05827555 -0.01216818 -0.18132155 -0.16603456 -0.22944924
-0.08079494 0.010597817 -0.47513014 -0.56117547 -0.2706315 -0.26501054 -0.48986223 0.30365926
-0.42834392 -0.34139377 -0.14618099 -0.1144657 0.04082213 -0.21382843 -0.20132013 -0.28239095
-0.23242378 -0.3254702 -0.1182267 0.012259192 0.09103848 0.004381656 -0.31789374 -0.15319337
-0.1305537 0.089007966 -0.25217474 -0.16859329 -0.3069593 -0.47985142 0.043554988 0.015807074
-0.3222804 -0.21174103 -0.23386511 -0.16667801 -0.24663603 0.019551726 -0.21265966 -0.10820314
-0.11447367 -0.3257755 -0.24935225 0.00040620298 -0.28316873 -0.25418112 -0.16047923 -0.5224782
-0.38401356 -0.032046948 -0.24129127 0.11581528 -0.17703559 -0.44444677 -0.360351 -0.51443696
0.14741945 -0.1347496 -0.11250952 -0.0048580663 -0.15658778 -0.4882236 -0.14576975 -0.12487073
0.005034752 -0.2000285 -0.14274807 0.27906078 -0.1931725 -0.072474316 -0.53267354 0.00176254
0.08785821 -0.010600593 0.27709365 0.00318807 -0.27549744 -0.48127162 0.114486724 0.16539218
0.16317743 -0.40408775 -0.23567516 -0.23958614 -0.27359667 -0.61484325 0.020567685 -0.25914446
00000000: 8c45 f4be 816f 65be 8632 eb3c 40f1 98bd
00000010: e5ca 8abe 8874 77be 6bfc 9cbe 927a 85be
00000020: 9980 e0bd 24da 3cbe 1807 0d3d 22c1 38be
00000030: 206a 1fbe f88c 8abe 65c3 acbd d79d 7b3d
00000040: 4683 c1be 483d 64be 050c d3be 6970 84be
00000050: a867 b0be b131 51bd 018c 94be 0e94 bebe
00000060: 3b10 23be e044 c6be 772f 90be c7c1 b4bd
00000070: 5d03 633e a779 adbe b30b 08be b5da bebc
00000080: 18f5 243e 4995 64bd 11c0 cabe 0838 97be
00000090: 4fe1 35bd 45de 4cbe 468c 6f3e 662a 8cbd
000000a0: a5cf 38be 4964 903e 8865 fd3d 6109 50be
000000b0: baf2 9bbe cbbc ec3d 0be6 303d b922 1dbc
000000c0: 499a 78be aaf5 64be bff9 753d 242f 84bc
000000d0: 4951 9bbd 3ca6 bdbd c589 b5be 3d88 27bd
000000e0: a686 c0bd 327b 50be 4a96 85be b0c7 4fbe
000000f0: 2053 f7bc e09e c2be 144f 2fbe 4966 8fbe
00000100: ee97 50be 7afb 57be f51d 80bd 8668 dcbe
00000110: e5ca 2dbe 5215 a4bd 9dea e7bd e651 92be
00000120: 2b98 2bbe 00bc 18be 62b5 c0bd 3397 70bd
00000130: d88c 86be 73e8 7abe 4542 23be 45e3 47be
00000140: 7f01 12bd 77b5 0cbe f2b5 bebe c747 fbbc
00000150: 4c88 04bf 328f 233d 80d0 afbe 85bb 8dbd
00000160: 416b 8ebe 5ee4 1abf 0b7a 25be 204e b1be
00000170: 2180 893d fdf6 e3bd 62ed 91be 283b bdbe
00000180: d83f c8be 93cc 80be 63f0 c4bd 4927 9b3c
00000190: 0f31 a2be 0521 0cbe 17c9 59bd 6a13 6b3d
000001a0: f9cf 06be b460 5cbc 68d9 38be 8a85 adbe
000001b0: f82c 10be 6382 83be d660 5dbe ba41 3cbe
000001c0: 857a b4be 99e4 28bd 0b7c f4bc 5f0c 32bc
000001d0: 1805 a4be 9ea0 17be f1de 91be 9b7a d5bd
000001e0: b1f1 b9be 0500 c1be 591d 26be 4b45 02bd
000001f0: 5a37 7bbe 5673 15be fd06 afbe 78cd 9ebe
00000200: ee57 7abd ffd5 2dbe 5df0 9abe 2b57 52bc
00000210: 19c0 753d 14f9 55bd b8e7 8f3c 637d 17be
00000220: c249 b5be c7f9 f13d 4781 02bc 8bf6 83be
00000230: bf46 41be e03c bbbe 18af debd 96f5 27bc
00000240: bc8e 15bf dfff 05be dc0c 9fbe a2fa 0ebf
00000250: 5292 e9be ec01 8dbd fb55 c6be 168b 39be
00000260: ef2f 023f d7c9 2abe 1d4b cebe 9bf5 1ebf
00000270: 1d94 223e 2404 b0be 4ec2 cd3d 37cf 66bd
00000280: 9fc9 56be b1a5 6b3e fb95 893d 58b2 6ebd
00000290: 0c5d 47bc 5bac 39be f704 2abe bef4 6abe
000002a0: d177 a5bd 77a2 2d3c 4244 f3be 32a9 0fbf
000002b0: 3690 8abe 76af 87be 39cf fabe 3a79 9b3e
000002c0: e54f dbbe 2acb aebe 78b0 15be fe6c eabd
000002d0: 1b35 273d d7f5 5abe dd26 4ebe 8c95 90be
000002e0: 8000 6ebe 08a4 a6be d720 f2bd c7da 483c
000002f0: 6272 ba3d ff93 8f3b f8c2 a2be b9de 1cbe
00000300: deaf 05be cf49 b63d 0c1d 81be b8a3 2cbe
00000310: c529 9dbe 16af f5be b766 323d d67d 813c
00000320: f001 a5be a4d2 58be 567a 6fbe a4ad 2abe
00000330: 288e 7cbe f12a a03c 74c3 59be 9c99 ddbd
00000340: 2c71 eabd 0ccc a6be 3256 7fbe a4f7 d439
00000350: 7efb 90be 0724 82be ab54 24be 22c1 05bf
00000360: 6d9d c4be a943 03bd 0f15 77be 9030 ed3d
00000370: d148 35be 878e e3be ed7f b8be 24b2 03bf
00000380: 20f5 163e cdfb 09be 646b e6bd 6a30 9fbb
00000390: 8c58 20be 72f8 f9be aa44 15be 3abc ffbd
000003a0: 90fa a43b 45d4 4cbe 8d2c 12be 0ee1 8e3e
000003b0: 03cf 45be 6a6d 94bd 4b5d 08bf 0705 e73a
000003c0: 01ef b33d 1cae 2dbc 38df 8d3e f0ee 503b
000003d0: 000e 8dbe 3c69 f6be 0478 ea3d 915c 293e
000003e0: fc17 273e 97e4 cebe d454 71be 1256 75be
000003f0: dd14 8cbe 5e66 1dbf 907d a83c 95ae 84be

hidden_layer_2.weight f4 [300, 400]
0.1349324 0.0062519237 0.14184362 0.25337774 -0.045035545 -0.34799194 0.27466986 0.23829862
0.29772952 -0.017375266 0.21277635 -0.11543113 0.12367047 -0.13798961 -0.40806052 -0.14766915
0.29679453 -0.38631254 -0.0017441879 0.23572914 -0.21176876 0.026524981 -0.0059081526 -0.09812213
0.13095458 -0.009552438 0.04040925 -0.21519852 0.20094723 -0.19147485 0.30754757 -0.20878403
-0.005432613 -0.12025019 -0.5586665 0.24683756 -0.36331952 -0.4555566 -0.30283913 0.1964802
0.36482158 0.120126486 -0.15987238 -0.11987481 0.118749864 -0.41245267 0.056825727 -0.6216629
-0.12853871 -0.019933732 0.07765204 0.12547554 -0.19941933 -0.23777382 -0.29306057 -0.12916484
0.080346175 0.051091902 0.33589187 -0.37168702 -0.01396027 0.03265258 -0.41191557 -0.38758928
-0.016407926 -0.45261455 -0.25317168 -0.011091776 -0.03051885 -0.15319218 0.3280757 0.4583234
0.033628393 0.07656948 0.25494352 -0.117045745 -0.52117723 -0.08163076 0.09117142 -0.004937669
-0.3375323 -0.044510543 -0.2530379 0.16380501 0.17339103 -0.092706285 -0.27410263 0.23493232
0.4558401 -0.24046953 -0.018925425 0.020266904 0.17108561 0.0646034 -0.04443486 0.29335234
0.015001261 0.37982148 0.05226441 -0.22449996 0.020409845 0.38649365 -0.109350406 -0.035100877
-0.15248509 -0.00601686 -0.0987826 0.27495885 0.33954304 0.072191134 -0.15939078 -0.45228556
0.016586982 0.0051687662 0.2166996 0.10150025 -0.19593975 0.07438765 0.22610235 -0.06578914
-0.029605128 -0.19990179 -0.19682704 -0.099959694 0.10693414 -0.121861055 0.096945 -0.1066213
0.3722521 -0.11723004 0.44639364 -0.145907 -0.284155 -0.1352348 -0.032797523 -0.32308245
-0.16957301 0.04452604 0.0665172 0.26142985 -0.026681552 0.2537455 0.36367407 0.33850506
0.29830992 -0.020644918 -0.08893218 0.13012543 -0.17898947 -0.0035661384 0.08662342 -0.112135075
-0.28405643 -0.31907672 0.39667344 0.157324 0.08593224 0.09811498 -0.06890613 0.024755904
0.0708257 -0.3521124 0.24729298 0.29143757 0.20047629 0.23810937 0.16096914 -0.2452319
0.06966645 -0.25083566 -0.08033793 0.19889222 0.118180856 -0.104204684 0.5161406 -0.052998636
0.041877575 0.098616384 0.31664822 0.031207357 0.36723813 0.12816092 -0.18040232 -0.19183914
-0.027978601 -0.17260776 -0.67846143 -0.008181639 -0.27114332 -0.109915316 -0.08584066 -0.116582505
-0.025127355 -0.2009043 0.16446573 -0.019194454 0.14959252 -0.20198792 -0.24566725 0.12789823
0.31818977 0.18140475 -0.10780969 -0.0005989614 0.27673465 -0.062342804 0.22375762 0.31391498
-0.13263476 0.13581525 -0.19954804 0.011794567 0.17842434 -0.14063534 0.40875354 0.014352202
0.01673631 0.09684381 -0.5037181 -0.081993826 -0.16005567 -0.04392489 0.17116743 0.39133644
-0.44019043 -0.18101466 0.50585127 -0.00084590825 -0.26333547 -0.1420386 0.1279732 0.14639033
0.2702637 0.17384332 -0.15849522 0.25686163 -0.47475284 0.36813402 0.2528434 0.2536319
-0.043283675 -0.1989933 0.21990909 -0.31301495 0.11145648 0.47652543 -0.13986255 -0.25999162
0.023498502 -0.38424218 -0.19300401 -0.35637137 0.0206995 0.08917893 -0.07487009 0.10201995
00000000: b82b 0a3e f0dc cc3b 743f 113e baba 813e
00000010: 3177 38bd 002c b2be 87a1 8c3e 8e04 743e
00000020: 0170 983e 9356 8ebc 0be2 593e 2867 ecbd
00000030: f246 fd3d 264d 0dbe 4fed d0be 9536 17be
00000040: 74f5 973e c2ca c5be 3c9d e4ba fb62 713e
00000050: e9d9 58be eb4a d93c 2d99 c1bb 41f4 c8bd
00000060: f518 063e d481 1cbc 2b84 253d 005d 5cbe
00000070: 1cc5 4d3e fc11 44be e076 9d3e 7bcb 55be
00000080: 1004 b2bb bb45 f6bd c504 0fbf fcc2 7c3e
00000090: 0405 babe b73e e9be bb0d 9bbe 1b32 493e
000000a0: e5c9 ba3e e004 f63d 96b5 23be ed80 f5bd
000000b0: 2133 f33d ff2c d3be 18c2 683d 4d25 1fbf
000000c0: a79f 03be 114c a3bc 0808 9f3d a97c 003e
000000d0: 9534 4cbe fb7a 73be 090c 96be ca43 04be
000000e0: 898c a43d be45 513d 05fa ab3e c34d bebe
000000f0: 9eb9 64bc b6be 053d 99e6 d2be 1a72 c6be
00000100: ea69 86bc 18bd e7be b89f 81be 48ba 35bc
00000110: ab02 fabc 69de 1cbe 8af9 a73e 5da9 ea3e
00000120: edbd 093d 76d0 9c3d f587 823e aeb5 efbd
00000130: df6b 05bf 072e a7bd 15b8 ba3d 2bcc a1bb
00000140: 09d1 acbe b050 36bd 2f8e 81be 80bc 273e
00000150: 6b8d 313e cbdc bdbd 2e57 8cbe 1992 703e
00000160: e063 e93e a53d 76be 7e09 9bbc c706 a63c
00000170: 1131 2f3e ca4e 843d 5401 36bd 4732 963e
00000180: d9c7 753c f677 c23e 3513 563d 51e3 65be
00000190: 8c32 a73c 7fe2 c53e 1bf3 dfbd f0c5 0fbd
000001a0: 0d25 1cbe 1429 c5bb 884e cabd 68c7 8c3e
000001b0: 96d8 ad3e f2d8 933d 5637 23be f991 e7be
000001c0: 6ce1 873c c15e a93b 80e6 5d3e 5ddf cf3d
000001d0: 6ea4 48be 8d58 983d 6087 673e 75bc 86bd
000001e0: 7486 f2bc 0eb3 4cbe 078d 49be abb7 ccbd
000001f0: 4900 db3d 4a92 f9bd 1a8b c63d 455c dabd
00000200: d497 be3e 4e16 f0bd b58d e43e a568 15be
00000210: c47c 91be fe7a 0abe b256 06bd 106b a5be
00000220: 8ca4 2dbe f060 363d 2b3a 883d 22da 853e
00000230: 4593 dabc eeea 813e 7d33 ba3e 8950 ad3e
00000240: 14bc 983e 881f a9bc 1322 b6bd 9a3f 053e
00000250: 0449 37be e0b5 69bb 9f67 b13d 13a7 e5bd
00000260: d86f 91be 065e a3be c818 cb3e 8b19 213e
00000270: 3efd af3d 82f0 c83d a81e 8dbd e5cc ca3c
00000280: 110d 913d 1448 b4be 5f3a 7d3e 4e37 953e
00000290: a849 4d3e f1d2 733e 18d5 243e 121e 7bbe
000002a0: 49ad 8e3d 886d 80be 3688 a4bd 67aa 4b3e
000002b0: ce08 f23d 4469 d5bd ca21 043f 1915 59bd
000002c0: d287 2b3d 63f7 c93d b71f a23e 92a6 ff3c
000002d0: a306 bc3e 9e3c 033e 63bb 38be 7b71 44be
000002e0: 6133 e5bc 17c0 30be a6af 2dbf 480c 06bc
000002f0: 4cd3 8abe 481b e1bd 3acd afbd cfc2 eebd
00000300: e2d7 cdbc dbb9 4dbe b469 283e b03d 9dbc
00000310: c82e 193e ecd5 4ebe 3290 7bbe c1f7 023e
00000320: c5e9 a23e 2bc2 393e 54cb dcbd 9e03 1dba
00000330: 2ab0 8d3e 2b5b 7fbd b820 653e 77b9 a03e
00000340: 68d1 07be 2713 0b3e 5256 4cbe 003e 413c
00000350: dfb4 363e b602 10be 2548 d13e 8025 6b3c
00000360: 961a 893c 0c56 c63d abf3 00bf 61ec a7bd
00000370: a2e5 23be 96ea 33bd 8446 2f3e 405d c83e
00000380: a460 e1be e85b 39be 787f 013f f1bf 5dba
00000390: e8d3 86be 9172 11be 680b 033e 59e7 153e
000003a0: 0160 8a3e fc03 323e 924c 22be 5e83 833e
000003b0: ce12 f3be 107c bc3e b174 813e 0adc 813e
000003c0: 394a 31bd e6c4 4bbe d92f 613e 7f43 a0be
000003d0: 4c43 e43d 24fb f33e 2138 0fbe 9f1d 85be
000003e0: ee7f c03c 64bb c4be d8a2 45be 4f76 b6be
000003f0: ff91 a93c 71a3 b63d 7d55 99bd d6ef d03d

hidden_layer_2.bias f4 [300]
-0.04488483 -0.06060545 -0.1140343 0.040006496 0.04116124 0.06335273 0.021018133 0.086115286
-0.0014076271 0.037477877 -0.02245946 -0.011279475 0.059684884 -0.06284402 -0.09212475 -0.052769028
0.023848437 0.2065097 -0.13270393 -0.02873532 0.09656192 -0.050178096 0.17441715 0.0822869
0.0070917075 -0.13168894 -0.043394517 0.19632676 -0.1185411 -0.29037604 -0.17434868 -0.12636828
-0.09928392 -0.18513459 0.08416042 -0.21450822 -0.14733788 -0.2012687 -0.0513701 0.070213005
-0.07406821 -0.05405644 -0.010540872 0.042953122 -0.14636512 -0.09591595 0.0034218612 -0.061498094
-0.16970801 -0.13887691 -0.10990163 -0.047826592 -0.25464925 -0.12735817 0.0012668698 0.013392888
-0.3104457 -0.09365493 -0.25706053 -0.27123803 0.036077876 -0.09275885 -0.043066666 -0.21941914
0.023871336 0.036022797 -0.019195879 -0.045002844 0.020592384 -0.06480311 -0.010876093 -0.18448626
-0.035606556 -0.050298654 0.07569557 -0.054786664 -0.34517235 0.07964948 -0.14575143 -0.25682068
-0.12739268 -0.1470218 -0.10715702 0.053061202 -0.075283095 -0.08884911 -0.06782792 0.029332636
-0.0037796071 0.060286608 0.0099949725 -0.06050797 -0.004561866 -0.2448303 -0.31149775 -0.2154293
0.03886866 0.019435944 -0.10925718 -0.03769103 -0.2049207 0.056637935 -0.27131605 -0.0095246965
-0.031727303 -0.32412553 -0.17861933 -0.13963863 -0.11738497 -0.107251085 -0.006439791 0.03156236
0.005319686 -0.21631345 0.12929401 -0.07781347 -0.034313258 -0.011617656 -0.095671736 0.05503128
-0.06048583 -0.07573534 0.050745185 -0.06911751 -0.10446567 0.016251558 -0.06665343 0.004660611
0.012550856 0.04041987 -0.01949257 -0.01415226 -0.10187786 -0.087821364 -0.04044266 -0.025563372
-0.035617366 -0.11378518 -0.057867613 0.0061985273 -0.028546136 -0.17295617 -0.16330689 -0.15801375
0.010936446 -0.1120879 0.10000021 -0.14896198 0.1305217 -0.05703971 -0.00030939645 -0.036681965
0.034880146 0.19814514 -0.51152116 -0.14104567 -0.26539817 -0.052364606 -0.3178284 -0.11802736
-0.09227084 -0.043657705 -0.15139195 -0.08886012 -0.043565564 -0.20754217 0.030078689 -0.1129548
-0.14843665 -0.021793034 -0.008359885 -0.3340826 -0.3133947 -0.20454973 -0.045318276 -0.2122227
-0.15833567 -0.08096135 -0.048509736 -0.15744247 -0.05198679 -0.00095101114 -0.03880442 -0.15700279
-0.12756541 -0.07797391 -0.019650241 0.05445879 0.22088227 -0.029204791 -0.018660076 -0.21109433
0.040574145 -0.24276055 0.061414342 0.07505696 -0.10419093 -0.145514 -0.3523463 -0.053760257
0.045754436 -0.1522981 -0.18645498 0.058693666 -0.09174343 0.04257504 0.14930391 -0.0900737
-0.079971895 -0.030953921 -0.1564498 -0.055484615 -0.1300203 -0.15963475 -0.09904143 -0.06257772
-0.020816017 -0.17622198 0.04116085 0.0210321 -0.27467033 -0.4022876 -0.0133731505 -0.20598692
-0.29123372 0.07865899 0.048647698 0.0654708 -0.09737467 -0.03553894 0.025875837 -0.15380315
-0.01904721 0.034982026 -0.11080259 -0.19331372 -0.16293578 0.003693326 -0.20482765 -0.20354486
-0.01710661 0.0021120447 0.025381193 0.023127574 -0.237768 -0.28580052 -0.23018068 0.13076735
0.102562256 -0.035773393 0.076400936 -0.25964355 -0.05108811 -0.048699353 -0.13676937 -0.1555301
00000000: 28d9 37bd 6c3d 78bd d18a e9bd dadd 233d
00000010: b098 283d 13bf 813d 382e ac3c 365d b03d
00000020: 2180 b8ba 6782 193d e7fc b7bc 8ccd 38bc
00000030: 2378 743d 5eb4 80bd e7ab bcbd 5624 58bd
00000040: cc5d c33c 4777 533e 8ae3 07be 5566 ebbc
00000050: 42c2 c53d 8c87 4dbd 699a 323e 0986 a83d
00000060: 8e61 e83b 77d9 06be 73be 31bd e209 493e
00000070: adc5 f2bd 2bac 94be 7688 32be b066 01be
00000080: 5e55 cbbd ec93 3dbe 4c5c ac3d 0ba8 5bbe
00000090: bedf 16be 6219 4ebe 7469 52bd d6cb 8f3d
000000a0: 13b1 97bd 496a 5dbd 9fb3 2cbc 9def 2f3d
000000b0: bde0 15be 956f c4bd 4e41 603b 6de5 7bbd
000000c0: f0c7 2dbe c035 0ebe 1b14 e1bd d1e5 43bd
000000d0: 6361 82be 2e6a 02be 190d a63a d86d 5b3c
000000e0: bdf2 9ebe 28ce bfbd 709d 83be b6df 8abe
000000f0: 65c6 133d 5af8 bdbd ac66 30bd 69af 60be
00000100: d28d c33c a48c 133d ad40 9dbc e754 38bd
00000110: 5cb1 a83c 7eb7 84bd a431 32bc f7e9 3cbe
00000120: 2ed8 11bd f605 4ebd 4706 9b3d fb67 60bd
00000130: 6eba b0be 441f a33d dd3f 15be 007e 83be
00000140: 3a73 02be e28c 16be 2475 dbbd b456 593d
00000150: 062e 9abd 86f6 b5bd 5de9 8abd ff4a f03c
00000160: 49b3 77bb 17ef 763d f4c1 233c 35d7 77bd
00000170: b57b 95bb cbb4 7abe a27c 9fbe 8099 5cbe
00000180: be34 1f3d 2138 9f3c 3ac2 dfbd e961 1abd
00000190: bbd6 51be 2efd 673d f0e9 8abe 790d 1cbc
000001a0: 7df4 01bd c8f3 a5be fce7 36be 6efd 0ebe
000001b0: 8867 f0bd 75a6 dbbd e204 d3bb 8847 013d
000001c0: c350 ae3b 4681 5dbe a665 043e ab5c 9fbd
000001d0: 0f8c 0cbd fb57 3ebc 8bef c3bd 7b68 613d
000001e0: fdbf 77bd 211b 9bbd 2fda 4f3d 7b8d 8dbd
000001f0: 19f2 d5bd fd21 853c 9881 88bd 0ab8 983b
00000200: 1ba2 4d3c 4e8f 253d e2ae 9fbc e1de 67bc
00000210: 57a5 d0bd b0db b3bd 34a7 25bd 476a d1bc
00000220: 84e3 11bd 3408 e9bd 9706 6dbd 041d cb3b
00000230: 96d9 e9bc 6c1b 31be ec39 27be 5bce 21be
00000240: c72e 333c 578e e5bd e9cc cc3d 7d89 18be
00000250: 7ba7 053e 79a2 69bd 7d36 a2b9 d43f 16bd
00000260: 7cde 0e3d 8fe6 4a3e 0df3 02bf 476e 10be
00000270: 45e2 87be 457c 56bd 67ba a2be 54b8 f1bd
00000280: 7ff8 bcbd 6cd2 32bd 7e06 1bbe 4bfc b5bd
00000290: ce71 32bd ef85 54be 9567 f63c d954 e7bd
000002a0: c7ff 17be 4e87 b2bc e6f7 08bc e00c abbe
000002b0: 4575 a0be 7c75 51be a89f 39bd e850 59be
000002c0: bf22 22be 10cf a5bd 25b2 46bd 9938 21be
000002d0: 1af0 54bd 474d 79ba 62f1 1ebd 57c5 20be
000002e0: 82a0 02be c9b0 9fbd 8bf9 a0bc 2e10 5f3d
000002f0: f62e 623e e33e efbc 04dd 98bc 1d29 58be
00000300: 1331 263d 3996 78be 9b8d 7b3d 77b7 993d
00000310: 0e62 d5bd 9f01 15be bc66 b4be b733 5cbd
00000320: 0169 3b3d 08f4 1bbe 0eee 3ebe c568 703d
00000330: fbe3 bbbd 2a63 2e3d 20e3 183e 8f78 b8bd
00000340: 4ec8 a3bd 1493 fdbc 6034 20be d643 63bd
00000350: 0b24 05be 4b77 23be 3cd6 cabd bf28 80bd
00000360: 5a86 aabc 8973 34be 4898 283d 834b ac3c
00000370: 97a1 8cbe a4f8 cdbe 0f1b 5bbc 3cee 52be
00000380: 961c 95be f717 a13d cf42 473d 8e15 863d
00000390: 5f6c c7bd 4891 11bd 90f9 d33c 937e 1dbe
000003a0: e508 9cbc 5049 0f3d 78ec e2bd 08f4 45be
000003b0: a3d8 26be ba0b 723b 57be 51be 106e 50be
000003c0: 2923 8cbc 3b6a 0a3b 38ec cf3c 0a76 bd3c
000003d0: 7479 73be 7254 92be 7cb4 6bbe e0e7 053e
000003e0: 290c d23d 1f87 12bd 1878 9c3d 00f0 84be
000003f0: c441 51bd f978 47bd 450d 0cbe 4843 1fbe

output.weight f4 [4, 300]
-0.95366067 -1.2886833 -1.3867158 -0.055200443 1.6248838 1.1676896 -0.70563316 -0.53021055
1.3405786 1.652787 -0.5223602 -0.47983086 0.400935 -1.4861575 1.1533793 -1.0470812
-1.8717443 0.16448604 -1.7174817 1.3463709 -0.88265157 0.48823127 -0.66502285 1.7001904
0.25280264 -0.41886976 1.4476036 0.4632951 1.7335896 -1.5715815 0.08829504 1.2548847
0.83343536 -1.0126392 0.5594446 1.6938947 -0.75971544 0.68691254 -1.0991119 -0.19405138
-0.49034137 0.4288212 0.97225434 0.054523375 1.0817295 0.09576176 0.2987664 1.7948188
1.4347465 1.3798882 -0.8460982 -0.24087322 -1.2988083 0.09809084 -0.12559083 0.33009666
0.096024625 0.6844524 -1.2907019 0.50714093 -0.13990797 0.0050342227 2.5332873 -0.6596193
-0.14934404 -0.09423724 -1.5203693 -0.33975437 -0.7349691 -0.6422335 -1.2120892 -0.57345605
-0.5431927 0.49994734 0.89302886 0.10498374 1.8020571 -0.9277185 -1.082963 -0.36313123
-0.109166205 0.4723771 0.11967476 -1.1552626 1.1373571 -0.31980637 1.3529842 1.6427908
-0.1949355 -0.6211433 -0.7991524 -0.6656048 -1.1360576 0.7913233 -0.45600796 -0.9326037
-0.70572734 0.5741542 -0.6662198 0.19566007 -1.0009373 -1.4291916 -1.1273754 -0.6297553
0.06580982 -0.8259574 0.30184573 0.44367924 1.0767064 0.20224258 -0.04788069 0.0707129
-1.1356543 0.9253348 0.035266887 -0.5030147 -1.746577 0.5398429 0.59766024 -0.895087
0.4643229 -0.4069708 -0.5592193 0.26057416 -1.139189 0.58505905 -0.23695406 0.25706217
0.7475987 0.66129756 -1.2112424 0.46246588 -1.6786971 -0.46872163 -0.5568631 0.91281134
1.0086409 -1.0400316 -1.4471681 -1.2692609 0.52525413 1.1156704 -0.4652323 0.28707132
0.88189256 0.40418452 0.23817787 1.6500359 0.6923163 -0.9415645 0.25722858 1.3782575
1.0690153 1.2250317 -0.60752505 0.9152157 2.1304934 -0.82264763 0.69124734 0.6721039
-0.9876504 0.31314498 -0.34927052 0.19676511 2.354278 0.50581807 -0.2615087 -0.43289933
0.70097077 -0.1853638 -1.1603357 -0.2757208 1.0814897 -0.3839636 -1.0703943 -0.12480468
0.13457154 -0.3937954 -0.5366371 -0.77335167 1.199172 0.87731004 -0.20177537 0.3935539
-1.1671213 -1.0203762 0.8208897 0.2932221 -0.4679448 0.51110864 0.25234252 -0.3315929
-0.37268314 1.7444569 -0.00095023593 -1.9469006 0.2797099 -1.0849558 -1.369899 0.40465698
0.403586 -0.4808568 -0.38775223 -0.21431012 1.2183031 0.88021415 -0.32097608 -0.33941403
-0.79816896 1.1686126 -0.008729989 -0.44101727 -1.0041736 -0.95822525 2.7673233 0.18286236
-1.1647397 -1.3712012 0.7751768 -0.07208716 -1.8540956 -1.3720353 1.0209806 -1.1073627
0.53484225 -1.1382034 -1.1533537 1.6048837 1.3083562 -1.6439259 0.63613504 -1.4961613
1.5360866 1.0617164 1.0743042 -1.5330948 -1.1447043 1.0641409 2.0398524 0.38972956
1.4654384 1.0403681 -0.38704455 0.24559975 -0.11395471 1.5501904 -1.8567007 1.4237304
0.45084932 0.69372296 -0.71891797 -0.34256595 0.25215077 -0.6806182 0.06727321 -0.7583512
00000000: 1b23 74bf 93f3 a4bf e77f b1bf dc19 62bd
00000010: 31fc cf3f da76 953f 60a4 34bf e1bb 07bf
00000020: 1498 ab3f 868e d33f 66b9 05bf 64ac f5be
00000030: 5a47 cd3e 693a bebf efa1 933f c206 86bf
00000040: 5195 efbf 076f 283e 71d6 dbbf e255 ac3f
00000050: 74f5 61bf 73f9 f93e f03e 2abf d79f d93f
00000060: 596f 813e 1976 d6be 134b b93f 0435 ed3e
00000070: 44e6 dd3f 9529 c9bf 08d4 b43d 10a0 a03f
00000080: 055c 553f 299e 81bf c337 0f3f 8bd1 d83f
00000090: b67c 42bf 80d9 2f3f b3af 8cbf 68b5 46be
000000a0: 060e fbbe 748e db3e a9e5 783f e753 5f3d
000000b0: 1d76 8a3f be1e c43d e9f7 983e 9fbc e53f
000000c0: c6a5 b73f 2da0 b03f e499 58bf 78a7 76be
000000d0: 5a3f a6bf dae3 c83d e29a 00be 6e02 a93e
000000e0: 8fa8 c43d 4638 2f3f b835 a5bf fdd3 013f
000000f0: 0944 0fbe 1ff6 a43b 6121 2240 cfdc 28bf
00000100: a5ed 18be 74ff c0bd 769b c2bf 49f4 adbe
00000110: ef26 3cbf 6a69 24bf bd25 9bbf 04ce 12bf
00000120: ad0e 0bbf 19f9 ff3e 8a9d 643f b701 d73d
00000130: cfa9 e63f f67e 6dbf 889e 8abf 56ec b9be
00000140: 8892 dfbd 69db f13e 0a18 f53d a5df 93bf
00000150: eb94 913f a9bd a3be 962e ad3f f846 d23f
00000160: 2c9d 47be 3f03 1fbf 4095 4cbf 1465 2abf
00000170: 566a 91bf 2a94 4a3f e079 e9be 1ebf 6ebf
00000180: 8caa 34bf c5fb 123f 618d 2abf 1d5b 483e
00000190: b71e 80bf c0ef b6bf d64d 90bf a537 21bf
000001a0: 4dc7 863d f271 53bf 868b 9a3e ed29 e33e
000001b0: 84d1 893f ae18 4f3e 8b1e 44bd edd1 903d
000001c0: 1f5d 91bf bee2 6c3f 0374 103d 92c5 00bf
000001d0: d68f dfbf 2533 0a3f 4300 193f 6c24 65bf
000001e0: bbbb ed3e 7a5e d0be ff28 0fbf fa69 853e
000001f0: f2d0 91bf 6ec6 153f 16a4 72be a79d 833e
00000200: a162 3f3f cc4a 293f fe09 9bbf 54c8 ec3e
00000210: 8cdf d6bf 48fc efbe 958e 0ebf 01ae 693f
00000220: 251b 813f c11f 85bf ce3c b9bf 2477 a2bf
00000230: 0e77 063f 4ace 8e3f ee32 eebe 03fb 923e
00000240: b6c3 613f 46f1 ce3e e6e4 733e 6034 d33f
00000250: a43b 313f 5f0a 71bf 77b3 833e be6a b03f
00000260: 7ed5 883f d7cd 9c3f c386 1bbf 934b 6a3f
00000270: 015a 0840 0999 52bf 96f5 303f 000f 2c3f
00000280: a8d6 7cbf 8a54 a03e 96d3 b2be cb7c 493e
00000290: 7eac 1640 4b7d 013f 78e4 85be fba4 ddbe
000002a0: d272 333f 02d0 3dbe e185 94bf 472b 8dbe
000002b0: 416e 8a3f e196 c4be ae02 89bf 9999 ffbd
000002c0: 1fcd 093e 8d9f c9be 0d61 09bf 60fa 45bf
000002d0: 787e 993f 6497 603f 349e 4ebe e67f c93e
000002e0: 3b64 95bf b09b 82bf d425 523f 3521 963e
000002f0: 7696 efbe 04d8 023f 0a33 813e 8bc6 a9be
00000300: 53d0 bebe 5d4a df3f 4119 79ba 0a34 f9bf
00000310: 2336 8f3e d5df 8abf da58 afbf 332f cf3e
00000320: d3a2 ce3e dd32 f6be 7687 c6be 1d74 5bbe
00000330: 5bf1 9b3f b755 613f fa56 a4be adc7 adbe
00000340: cd54 4cbf 1995 953f 3a08 0fbc 04cd e1be
00000350: c388 80bf 404e 75bf d31b 3140 4540 3b3e
00000360: 3116 95bf 8583 afbf fd71 463f 6fa2 93bd
00000370: 0153 edbf da9e afbf 7eaf 823f 10be 8dbf
00000380: 6ceb 083f a6b0 91bf 18a1 93bf d46c cd3f
00000390: 3778 a73f 2a6c d2bf bfd9 223f 3782 bfbf
000003a0: 7c9e c43f 53e6 873f cd82 893f 733c c4bf
000003b0: ac85 92bf c535 883f f18c 0240 a28a c73e
000003c0: 7c93 bb3f c82a 853f b42a c6be 807e 7b3e
000003d0: 1661 e9bd a46c c63f 5ea8 edbf cc3c b63f
000003e0: b9d5 e63e d497 313f 020b 38bf ce64 afbe
000003f0: e819 813e ff3c 2ebf 89c6 893d 4e23 42bf

output.bias f4 [4]
0.02623221 -0.04402775 0.02242605 -0.056173485
00000000: efe4 d63c 7156 34bd d6b6 b73c 2b16 66bd
