Neural_networks/reacher_20qvalue_target.pth (torch, 543903 bytes, 5 tensors)

hidden_layer_1.weight f4 [400, 33]
000000 3f 1f e1 bd 8a 7a 26 be b4 25 0b be 7f 18 c3 3e
       -0.10992288 -0.16257682 -0.13588601 0.38104627
000010 bb 1f 8b 3e 70 c5 21 bd 98 5d 7c 3e 56 fa 4e bc
       0.27172646 -0.03949493 0.24645078 -0.012632927
000020 ff 11 a6 3c ca 28 18 3e e9 c0 da bb 8e 0c b3 bc
       0.020272253 0.1485931 -0.0066758287 -0.021856572
000030 e7 86 3a bd 56 da 75 3e f3 8c 21 3d c3 3d 09 3d
       -0.04553881 0.2400907 0.03944106 0.033506166
000040 aa e0 04 bf d3 18 87 be 4b 80 16 bf 40 2f 65 3e
       -0.5190531 -0.26386127 -0.5878951 0.22381306
000050 74 32 30 bc b6 8e 8a bc 4a 27 85 3c e3 bf c1 3b
       -0.010754216 -0.016913753 0.016254086 0.0059127673
000060 65 33 ab bc ec c5 64 bb ec 3c 5e be c9 c4 92 3e
       -0.02089853 -0.003490801 -0.21702927 0.2866576
000070 56 5b 9c bc 76 7f 9a 3c dc f3 96 be e4 87 79 3c
       -0.019086521 0.018859606 -0.29482925 0.015230153
000080 46 43 0d bf af 1b a5 bd 07 22 8a bb 5f 67 0f bd
       -0.55180776 -0.08061921 -0.004215482 -0.03501069
000090 74 5c ea be 23 2e 27 bf bb bf a7 3e 7f 98 06 be
       -0.4577366 -0.65304774 0.32763466 -0.1314411
0000a0 78 1f f9 3c 8b c3 0d 3e 01 38 60 be 73 c5 d1 bc
       0.030410513 0.13844125 -0.21896364 -0.025606846
0000b0 21 e9 58 3d 0c 13 bf bc 94 c8 92 3d af a4 ac 3d
       0.052956704 -0.023324512 0.071671635 0.084298484
0000c0 93 fa 46 3d ac 32 60 3f 31 55 10 3f 95 37 26 bf
       0.04857881 0.8757732 0.5637999 -0.6492856
0000d0 64 51 53 3e 74 99 8d bc 89 be a6 bd 56 c1 0c bd
       0.20636517 -0.017285086 -0.081418104 -0.034364067
0000e0 91 cd ba 3d 37 40 83 3d 3e 3e 00 be 3b 4b 1e bd
       0.0912124 0.064087324 -0.12523744 -0.038645964
0000f0 7d 0a e9 bc 42 5d 27 be 50 bf b4 bc 40 ec f5 38
       -0.028447384 -0.16344169 -0.022063881 0.000117265154
000100 d5 e6 40 3d e4 ef ba 3e cb 84 18 3d 50 2c 8e 3d
       0.04709514 0.36511147 0.037236016 0.06942046
000110 55 d5 b9 bc 09 78 92 3d 9c 17 f0 3d 36 76 db be
       -0.022684732 0.07151801 0.11723253 -0.42863625
000120 db 56 0d 3e 8e c8 c9 3c 43 d8 49 3d 54 d1 ef 3d
       0.13802664 0.024631765 0.04927851 0.11709848
000130 09 53 2e 3c 00 1c 55 bd d3 d3 8d bd 21 77 87 bd
       0.010639914 -0.052028656 -0.06925168 -0.06614519
000140 df 7c ac bc 6a df 88 bd 1b 53 f0 3e 7b 40 d8 be
       -0.021055637 -0.06683238 0.46938404 -0.42236695
000150 a1 f4 a9 be 2d 5a 87 3f b4 43 dd bc 55 c8 cc bc
       -0.3319445 1.0574394 -0.027009822 -0.02499787
000160 c0 e0 83 bd 87 3f 0c 3d 5c 59 4f 3d a6 2f 1b 3b
       -0.06439352 0.034240272 0.05062233 0.0023679524
000170 4b 23 f2 3d 1b 24 a5 3e 85 36 e0 3b e8 34 23 3c
       0.11823138 0.3225411 0.0068424367 0.009961344
000180 e4 8f 8f be 30 62 14 bd 6b 40 9f bd ff 6c 48 3c
       -0.28039467 -0.03622645 -0.077759586 0.012233018
000190 a9 1b cb 3d d9 ff 41 bd d0 c0 70 be 5d c7 09 be
       0.09917385 -0.047363136 -0.23511052 -0.13454957
0001a0 03 f2 cd 3e 7e 7a df bd 78 b8 2b 3e dc b5 7c 3c
       0.40223703 -0.109120354 0.16769588 0.015424218
0001b0 36 49 a8 3d 3a 50 81 bd 91 af b6 bc d2 71 91 3d
       0.08217089 -0.0631413 -0.022300513 0.071017876
0001c0 b6 16 4a bd 38 ba 11 bd bd d7 04 3e 48 2a 56 3e
       -0.049338065 -0.035577983 0.12972923 0.20914567
0001d0 be 32 ad 3d 30 b8 a5 bd d7 d6 cc 3c f0 6f 0c 3c
       0.08456944 -0.080917716 0.025004787 0.00857161
0001e0 b8 4d 4c 3d cd b9 8a 3c 98 c8 1a 3d c4 0d 76 bd
       0.049878806 0.0169343 0.037788957 -0.06007172
0001f0 a3 cb f8 3c c5 f7 e9 3a db 4a 5f 3e c5 3f 93 bd
       0.030370539 0.001785033 0.21805899 -0.071898974
000200 89 02 8a bc 09 fa 19 be 98 6c 40 bc 4b 64 9f bf
       -0.016846912 -0.15036787 -0.011744641 -1.2452482
000210 14 f5 44 3d b8 67 87 bd c9 e4 6e bc 7b 74 26 bf
       0.048085287 -0.0661158 -0.014580914 -0.65021485
000220 c4 8d 6e 3e 92 d4 1d 3e 27 1d d7 3e f9 da 47 bc
       0.23296267 0.1541312 0.4201443 -0.012198203
000230 71 81 6a be a3 83 d6 3c b3 6a a4 bd b7 7a f7 3c
       -0.2290094 0.026185816 -0.08028164 0.030209882
000240 61 8d 90 3c 72 9f ca bd 3c 35 e3 3a 9c 55 d5 bd
       0.01764554 -0.09893693 0.0017334591 -0.10416719
000250 f6 11 bf be a8 fa 52 be 1a 35 30 bd 72 05 1f 3e
       -0.3731839 -0.2060343 -0.04301939 0.15529421
000260 fe 6a 8e 3b 28 f7 07 3d 3d 57 a8 bb a6 c5 c9 bd
       0.0043462506 0.03319469 -0.0051373527 -0.098521516
000270 e9 19 92 3b 90 ed 88 3c e0 03 be 3c b1 73 87 bc
       0.004458655 0.016714841 0.023195207 -0.016534658
000280 49 57 26 3e ac ad 0f 3c 08 01 b8 bc 6c 52 8c bc
       0.16244234 0.008769434 -0.02246143 -0.017129146
000290 17 19 a2 3f 07 5b e3 3d e5 ee 85 bd 21 7d ce bc
       1.2663907 0.111013465 -0.06539706 -0.02520615
0002a0 0d 71 47 be 7f ea ba be e6 1c 80 be c5 76 3d be
       -0.19476719 -0.3650703 -0.25022048 -0.18502338
0002b0 2e af 80 3d 1d e0 11 3e b7 4e 4d be ee 67 96 3c
       0.06283413 0.14245649 -0.20049559 0.018360104
0002c0 ad e1 43 3d 99 b5 12 3d 8f 12 5a be 89 fb 01 3e
       0.047822643 0.035817716 -0.21296142 0.1269361
0002d0 64 b6 28 3d bd ec 47 bd f1 c8 ae 3e 71 68 a0 be
       0.041189566 -0.048809756 0.3413768 -0.31329682
0002e0 b0 49 08 bf ad 9a da ba 01 2e 68 bd 55 e3 69 3d
       -0.5323744 -0.0016678177 -0.056684498 0.057101566
0002f0 bb 62 0a be 7a b9 8a 3d 6d 22 59 bd de d7 00 3e
       -0.13514225 0.06773658 -0.053011347 0.12582347
000300 f1 55 35 3d 6f 43 09 be fd 04 1d 3d e6 ce 1f bc
       0.044271413 -0.1340463 0.038334835 -0.009753918
000310 fd 75 0c 3d e7 e9 79 be 59 28 7e be 98 44 d2 bd
       0.03429221 -0.24405633 -0.24820079 -0.102669895
000320 8e e9 05 be 43 12 99 3d 13 97 2d be ac ee 71 3e
       -0.13077375 0.07474186 -0.16952161 0.23626202
000330 02 5d a6 bd e5 17 25 bd 1d fc 4a 3e ca a5 80 bd
       -0.081232086 -0.04030599 0.19822736 -0.06281622
000340 4d 56 59 bd 87 54 02 bd 25 9f e7 bb 22 2e 62 3e
       -0.05306082 -0.031818893 -0.007068532 0.22087911
000350 67 75 9c 3d 1a 43 e2 3d 4a 2c b1 3e 3c 12 3b 3e
       0.0763958 0.11047955 0.34604102 0.18268675
000360 43 d1 f3 3c 44 e1 2a bc 85 3f 45 3c cf af 25 bc
       0.02976287 -0.010429684 0.01203907 -0.010112717
000370 60 2d 10 3d 9b 1c ca 3c 84 9d 1d 3d b6 d5 2b bc
       0.035199523 0.024671843 0.038480297 -0.010487964
000380 f9 79 cf bd 8c a2 d7 3d 93 d6 6a be 64 d1 72 3c
       -0.10130686 0.1052905 -0.22933416 0.01482043
000390 1f 92 0d bd e7 cc df bc 26 c0 54 3f fb 56 01 be
       -0.03456318 -0.027319385 0.83105695 -0.12630837
0003a0 62 35 de 3c f1 a2 ff bc 18 a7 18 3f f6 5d 28 3f
       0.027125064 -0.031205626 0.59629965 0.65768373
0003b0 44 37 b9 3e 4c c2 bc 3e a3 70 8c bb 7e cd 0a 3e
       0.36174977 0.36866987 -0.0042858883 0.13554952
0003c0 fd 9c 8f bd 9e 6e a0 3c 18 18 e8 bd 79 7e eb 3b
       -0.07012365 0.019583996 -0.113327205 0.0071867076
0003d0 c8 32 f6 bb 46 ac d6 bd c1 5f 9b bc 53 04 51 bd
       -0.007513378 -0.10482077 -0.018966557 -0.051029515
0003e0 fb bd 06 bf e2 d7 be 3d 44 9a 6d bf d2 74 80 ba
       -0.5263364 0.0931852 -0.92813516 -0.000980044
0003f0 13 55 8f bc 65 b3 cb bc bb c6 c3 3d 10 d6 a2 bc
       -0.017496621 -0.024865815 0.09559389 -0.019877464

hidden_layer_1.bias f4 [400]
000000 51 69 ae be 6c 2c 63 bd a9 eb 0e be 11 16 2d be
       -0.34064725 -0.055462286 -0.13957085 -0.16902949
000010 ba ef 23 be 53 f3 22 be 00 b3 53 be ca c2 ac be
       -0.16009417 -0.15913133 -0.20673752 -0.33742362
000020 07 41 b1 be 49 b0 32 be 14 f4 87 bd ed 7c b3 be
       -0.34619924 -0.1745006 -0.06638351 -0.35056248
000030 fb 3f 1d be c2 19 2f be 38 64 be be 09 17 e7 bc
       -0.15356438 -0.1709967 -0.37185836 -0.028209226
000040 f2 11 ba be ca b1 83 be 0d 53 39 be a2 fe ac bd
       -0.36341816 -0.2572158 -0.18098088 -0.08447005
000050 d8 a8 ae be 77 4d e7 be 52 ec 12 be 2c 63 9f 3e
       -0.34113193 -0.45176288 -0.14347962 0.3113035
000060 72 13 5d be d4 18 db be 52 00 2e be e8 ef 0f be
       -0.21589449 -0.4279238 -0.1699231 -0.1405636
000070 28 ac 79 3c b4 84 46 3e b8 c6 7d be 7b 6f 8f bd
       0.015238799 0.1938656 -0.24782836 -0.07003685
000080 cc 4e 78 be 63 f6 c4 be 3a bb 26 be 02 73 93 be
       -0.24248809 -0.38469228 -0.16282359 -0.28798681
000090 a7 5a c2 be 12 6a 5c 3d 7e 94 b8 be 82 01 3a be
       -0.37959787 0.053812094 -0.3605079 -0.18164638
0000a0 a9 d7 0c 3f 8a 2a d1 bd 33 99 49 3d 40 16 4d 3e
       0.5501657 -0.10213192 0.049218368 0.20028019
0000b0 6f 2e 0d be ae b2 6b be 2c cc 01 be 0c d2 85 bd
       -0.13787244 -0.2301738 -0.12675542 -0.06534204
0000c0 bc 5f 0c be 90 fd 5d be 45 b2 9b be 57 9d 94 3c
       -0.13708395 -0.21678758 -0.30409446 0.018141432
0000d0 0f c6 95 3d 3d ad 7d 3d 8f c7 41 be 4a a2 e1 bd
       0.07313167 0.06193279 -0.18923782 -0.11017282
0000e0 ba 12 8b be 25 96 87 be 0c 6b 60 be 4c cb 15 be
       -0.27162725 -0.2648174 -0.21915835 -0.14628333
0000f0 05 5f 9d be 4d 83 b6 be ef 30 24 3e 3f 8c ed be
       -0.30736557 -0.3564705 0.16034292 -0.46396062
000100 ab 96 d4 bd aa 78 9f be 25 cf 99 be de 96 cd be
       -0.103803 -0.31146747 -0.3004085 -0.40154165
000110 59 79 45 bd a6 d9 af bd 2d 36 bc 3d b8 63 23 be
       -0.04821143 -0.08586435 0.09190021 -0.15956008
000120 c5 48 e9 3c fa 7d c8 be d9 49 31 be 19 af e8 3c
       0.028477082 -0.39158612 -0.17313327 0.028403806
000130 d4 06 2a be a1 bf 0b be 61 49 b8 bd a4 5a 8b be
       -0.16604167 -0.1364732 -0.08998371 -0.2721759
000140 3a 61 85 be 56 26 b9 be 5e cf ba be 7e 90 61 be
       -0.2605074 -0.3616206 -0.36486334 -0.22027776
000150 f3 20 0c be 4c 40 52 3d 5b 8c 19 3e 44 96 80 bd
       -0.13684444 0.05133085 0.14994948 -0.06278661
000160 b5 2c 52 bd 3a da d5 be 1f a0 cb bd f5 0a 53 be
       -0.051312167 -0.41768056 -0.0994265 -0.20609649
000170 13 bb 4f be 35 6b 05 3e ec 97 a0 be 8f 9b 47 be
       -0.20286207 0.13029177 -0.31365907 -0.19492935
000180 4c 91 89 be 73 c8 38 bd 64 9c 9e be 94 c2 97 bd
       -0.26868665 -0.04511304 -0.30978692 -0.0741016
000190 80 87 37 be d1 fd ae bd c2 6b 69 be 95 35 b7 3c
       -0.17922783 -0.085445054 -0.22795013 0.022364417
0001a0 d0 53 3c 3c 48 a6 8d bd 40 56 08 be 87 51 07 be
       0.011494592 -0.06916481 -0.13314152 -0.13214694
0001b0 ac a4 2f be f2 32 cc be 92 06 f2 bc 85 89 5d be
       -0.17152661 -0.39882618 -0.029544149 -0.21634491
0001c0 93 f4 54 be bd dd f8 be 99 db 46 be f7 11 33 3d
       -0.20796423 -0.48606673 -0.19419707 0.043718304
0001d0 72 6f af be 70 1f 74 be ea 2d ef be 1f 7d 95 be
       -0.34264714 -0.23840117 -0.46714717 -0.29197022
0001e0 27 76 d3 be 61 92 8e be f2 11 6f be b9 0b 7b 3d
       -0.4130108 -0.27846053 -0.2334669 0.061290476
0001f0 ed 1e ce be 37 9a 23 bd db 92 60 be 65 0f 12 be
       -0.4025797 -0.039941993 -0.21931021 -0.14263685
000200 60 1b 55 be 83 47 a2 bd 62 b6 a9 be 5f ca 09 be
       -0.20811224 -0.07923796 -0.3314696 -0.13456105
000210 83 21 b5 bd 42 82 29 be 85 56 87 be c0 8d a3 bc
       -0.088442825 -0.16553596 -0.26433197 -0.019965053
000220 4c 8e ac be f8 88 0f be d6 99 06 bd be 4e 0f be
       -0.33702314 -0.14017093 -0.032861553 -0.13994882
000230 5f 37 13 be cc 21 dd be 05 6c 84 be 9d a3 82 be
       -0.14376591 -0.43189847 -0.25863662 -0.25515452
000240 3c c3 89 be b9 a2 80 be 4b ce 01 be f9 ad a0 be
       -0.26906765 -0.25124148 -0.12676351 -0.3138273
000250 48 8e 93 be 11 a9 80 be 36 95 76 be e5 39 9d bd
       -0.2881949 -0.25128987 -0.24080357 -0.07677058
000260 68 b4 fd bc cc 1b 26 be 51 9b 5b be 07 f4 ac be
       -0.030969813 -0.16221541 -0.21445967 -0.33779928
000270 d0 c3 e9 bd eb 1d 90 be 0f 4a a0 be 83 bf 94 be
       -0.114143014 -0.28147826 -0.31306502 -0.29052362
000280 33 b8 52 3e 77 7e 12 bc f7 f5 57 be 14 9c af bd
       0.20578079 -0.008941284 -0.21089922 -0.085746914
000290 ea 5c 3d be fb b8 0a be e2 5c 4c 3d 8b 42 12 3d
       -0.18492475 -0.13547127 0.049893267 0.03570799
0002a0 14 1f d0 bd 37 04 45 be f2 f3 7b be 6b fd b4 be
       -0.10162178 -0.19239889 -0.24604777 -0.35349593
0002b0 c0 c1 73 be ac 75 52 be a0 1c a7 be 6e ec a4 3d
       -0.23804379 -0.20552701 -0.32639027 0.08052908
0002c0 44 d2 3c be 6d 3a 96 be 13 69 b0 bd f8 a0 27 3d
       -0.18439585 -0.2934145 -0.08613791 0.040924996
0002d0 c5 07 86 be fa 7e 9f 3d e1 9f 9b be 28 65 bd be
       -0.26177803 0.07787891 -0.30395415 -0.3699124
0002e0 54 4d 9e bd aa d9 de bd 03 76 14 be 1e 36 40 be
       -0.07729593 -0.1088136 -0.14498143 -0.18770644
0002f0 a4 97 2b bd e8 05 85 bd 09 a3 e5 bd 0a 24 34 be
       -0.041892663 -0.06495267 -0.11212737 -0.17591873
000300 60 56 86 be 8a 7d 63 bc 83 e7 55 be 37 b6 08 be
       -0.26237774 -0.013884911 -0.20889096 -0.1335076
000310 6c 5c 51 be 15 84 9c be 70 fe 37 be b0 63 9b be
       -0.20445412 -0.3056952 -0.17968154 -0.30349493
000320 7d 91 2c be 6a 32 1b be 4b dc da be 8d cf b1 be
       -0.16852374 -0.1515595 -0.42746195 -0.3472866
000330 59 2b 4e be c5 b9 f5 3d 61 12 71 3c df be 4f bd
       -0.20133723 0.11998323 0.0147138545 -0.05071914
000340 8f 82 eb 3d 9d 68 9d bd 01 c4 aa be e2 a1 26 be
       0.114995115 -0.07685969 -0.33352664 -0.16272691
000350 54 d4 5b be 3b 46 50 be fe aa 6f bd fd 64 75 be
       -0.21467716 -0.20339291 -0.05851268 -0.23964305
000360 da af 9a be b2 30 46 bd 26 ce 94 be 22 1e 1d be
       -0.3021229 -0.048386283 -0.2906353 -0.15343526
000370 7f 87 95 be d6 a0 82 be 3f 08 7c be 2c c2 ac be
       -0.29204938 -0.25513333 -0.2461252 -0.3374189
000380 ef 21 ab bd b7 85 06 be 35 d3 72 be a9 d0 73 be
       -0.08356082 -0.13136946 -0.23713382 -0.23810066
000390 08 29 7c bd 97 46 18 be ff d1 07 be 26 ef 2f be
       -0.061562568 -0.14870678 -0.13263701 -0.17181072
0003a0 3e 07 c7 bd 3e 73 84 be 5f ba a0 be 6e ce fd bd
       -0.09718178 -0.25869173 -0.3139219 -0.12392889
0003b0 ed 7d 6f be a7 f3 ab be c6 a8 c6 be 51 be 59 be
       -0.2338788 -0.3358433 -0.3880064 -0.21264006
0003c0 e3 77 32 be 49 b3 df be af 8c e8 bc cc 66 fa 39
       -0.17428546 -0.4369147 -0.028387396 0.00047760305
0003d0 29 2c da be a7 70 8e be 8e 54 0b 3f 94 fc 8a bd
       -0.42611817 -0.27820322 0.54425895 -0.06786457
0003e0 f5 59 69 be f2 84 bb be ec a9 6b bd 55 f3 5f be
       -0.22788222 -0.36624867 -0.057535097 -0.21870168
0003f0 6f 32 05 be 29 c8 ca be 11 a8 c0 3d d2 aa 89 bd
       -0.1300752 -0.39605835 0.09407056 -0.067220345

hidden_layer_2.weight f4 [300, 404]
000000 a7 53 e6 be 8a 41 31 3e d5 28 ac 3d 37 c8 07 be
       -0.44985697 0.17310157 0.084062256 -0.1325997
000010 6b 91 16 be 27 e0 ae bd cb 65 29 bd 24 5f 3d bd
       -0.1470391 -0.085388474 -0.041356843 -0.04623331
000020 18 65 e7 bd 16 0a d3 bb 5d 81 52 3c c0 30 9d be
       -0.11298579 -0.0064404113 0.012848225 -0.30701256
000030 f5 39 5a be 32 37 a7 be 1b 56 8d 3e 83 f6 fd bc
       -0.21311171 -0.32659298 0.27604756 -0.031001335
000040 b6 62 23 be 90 e2 00 3e 0f 7f 71 3c 9d f4 19 3e
       -0.15955624 0.12586427 0.014739766 0.15034719
000050 77 7c cb bd f9 9c 89 be ac d9 4f bb 66 43 07 3d
       -0.09935849 -0.26877573 -0.0031715436 0.03302326
000060 cc 97 84 be 36 24 a3 be de ae 5c be c1 da 80 bd
       -0.25897062 -0.31863564 -0.21551082 -0.06291724
000070 40 59 2f be 92 4e 0b bb c5 07 2b 3d f6 5a bf bc
       -0.1712389 -0.0021256548 0.041755456 -0.023358803
000080 7a a2 a8 be 26 20 5d be fb 25 cf be 13 56 ff 3c
       -0.3293646 -0.21594295 -0.40458664 0.031168973
000090 71 ea 1c 3e 6d 6e 23 bc 82 84 f4 be 72 c9 fe 3c
       0.15323807 -0.009975058 -0.47757345 0.031101916
0000a0 8e 3f 23 bc 3f 1a 08 be 1c c8 16 be c3 85 32 be
       -0.009963883 -0.13291262 -0.14724773 -0.17433839
0000b0 8b 01 83 3c aa d2 02 3e df c4 ca bc 14 92 83 bd
       0.015991947 0.12775674 -0.024752079 -0.064243466
0000c0 7f 9a 9b 3d a3 4d a0 bb d0 73 0a bf e8 55 72 be
       0.07597827 -0.0048920675 -0.54082966 -0.23665583
0000d0 a8 cf df bd bf 52 89 be 4c 98 ab 3d a3 f3 59 be
       -0.10928279 -0.26820943 0.08378658 -0.21284346
0000e0 c2 bf 61 be ec f2 50 3e 41 9e d5 3d 87 03 11 be
       -0.22045806 0.20405167 0.10430575 -0.14161502
0000f0 12 ab cd bd 66 c8 db be cf 79 09 3d 9f 0a 08 3e
       -0.10042395 -0.4292633 0.03356343 0.13285302
000100 12 e5 fc bd 00 7d 80 3d 75 d7 18 bd ee 4b 10 3c
       -0.12348379 0.06273842 -0.03731485 0.008807166
000110 0d fc aa 3d fb 36 c5 be 93 66 ce bc 78 20 30 bd
       0.08348856 -0.3851851 -0.025195396 -0.042999715
000120 7b da 82 bc 10 68 7c bd b5 f6 98 be 52 41 cf bc
       -0.01597332 -0.06162268 -0.29875723 -0.025299702
000130 61 c3 9c 3c fa 58 b1 bd e6 ea 6e be 9f 49 2f be
       0.019136133 -0.08659549 -0.23331794 -0.17117928
000140 b2 fd 9e 3d a8 2f 25 be f5 0f 1a be f6 20 10 be
       0.07763232 -0.1613146 -0.1504515 -0.14075074
000150 ee 18 ae 3c 12 9e 01 be 4f 09 2e be 61 e4 01 3e
       0.021252122 -0.12657955 -0.16995738 0.12684776
000160 4f 1f 1c be d5 ea d2 be 48 be fa bc 7d 9b 22 3d
       -0.15246318 -0.41194788 -0.030608311 0.039699066
000170 06 21 ac bc 3b d9 c4 bd 43 e2 74 be 4f 25 1b 3e
       -0.02101184 -0.09611746 -0.23914437 0.15150951
000180 aa 35 6b 3c 53 fc 28 be 33 e2 58 be f5 c7 50 3a
       0.014356056 -0.16502504 -0.21180038 0.0007964366
000190 82 0b 9e be 51 81 7d bd be 37 23 be b7 06 88 be
       -0.30868155 -0.061890904 -0.15939233 -0.26567623
0001a0 b8 3a 38 be b8 bd 37 be e3 3f 3d 3d 37 52 54 bd
       -0.1799115 -0.17943466 0.046203505 -0.05183622
0001b0 69 22 e9 bd 8d ca 76 be b0 11 71 3e 5d b4 34 3e
       -0.11383516 -0.24100704 0.23541903 0.17646928
0001c0 a2 e9 e9 3d 6a d1 c4 be 5f ec 40 be f1 11 a8 3e
       0.11421515 -0.3844102 -0.18840168 0.32826188
0001d0 ce ff e4 bc 0f f1 7a 3d 2b fc e2 bd 41 75 9c 3d
       -0.027954008 0.061265048 -0.110832535 0.07639552
0001e0 bc 05 48 3e a4 31 33 be 7f 5c c2 be 89 9d 4c 3c
       0.19533437 -0.17499405 -0.37961194 0.012488731
0001f0 df 92 6f bd b4 e8 7e 3d c1 41 13 3e 54 07 a0 be
       -0.058489677 0.06223364 0.14380552 -0.3125559
000200 d9 82 39 be eb 52 96 be 36 6f c8 3c 63 ad f5 bb
       -0.1811632 -0.29360136 0.024467092 -0.007497476
000210 68 4a 54 be 84 b6 4f be 6a ae 0a be 5a 72 ea bc
       -0.20731509 -0.20284468 -0.13543096 -0.02861898
000220 5d 6b e4 bd 6a 7d 7d bd 6f 68 a4 bd ca 83 6b 3b
       -0.111532904 -0.061887182 -0.080277316 0.0035936707
000230 be d6 8f 3a 47 b7 ad bd 14 aa 46 be a0 f3 92 be
       0.0010974032 -0.08482223 -0.19400817 -0.28701496
000240 db f3 3b bd 2b 5c 28 be f0 55 80 be d5 c1 19 be
       -0.045886856 -0.1644141 -0.25065565 -0.15015347
000250 ca ea fd 3d 4a 17 ba be 1d 50 8e 3e 66 23 f0 be
       0.12398298 -0.36345893 0.27795497 -0.46902007
000260 2c 34 3d be 5f d4 92 bd 1a c9 1d bd 7f b6 08 3e
       -0.18476933 -0.07169413 -0.038521864 0.13350867
000270 2b 2f c5 bd c5 62 3f 3d b5 fc 97 be 6f b8 41 be
       -0.09628137 0.046725053 -0.29684988 -0.18918012
000280 91 dc 81 3b 43 58 a8 bd b2 98 e1 bd 53 30 59 3d
       0.003963061 -0.082199596 -0.110154524 0.0530246
000290 3a fb 30 be dc 9e ed 3c 04 16 b5 bd 7b 37 ec be
       -0.17283335 0.029006414 -0.0884209 -0.46136078
0002a0 61 ca e9 3c e7 e9 67 3e 09 be 0a 3e d0 d6 72 bd
       0.028538885 0.2264782 0.13549055 -0.059286892
0002b0 6e 81 6e bd 34 8c 3c be e8 9e 42 3d 2d 60 99 be
       -0.058228903 -0.18412858 0.047514826 -0.2995619
0002c0 50 2a 13 3e 03 06 46 be 4f 47 87 bd 99 c4 4c 3d
       0.1437161 -0.19338231 -0.06605398 0.049992178
0002d0 cd 8b 86 be 6d a8 d2 3d 4f 16 fa 3d bb bd 7e be
       -0.26278535 0.10286031 0.12211286 -0.24877064
0002e0 a3 20 bd 3d 79 97 b1 be 53 b9 57 be d7 23 7b be
       0.092347406 -0.34685877 -0.2106679 -0.2452539
0002f0 8e da 65 3c 90 94 b8 be 23 dd c4 bd 70 94 80 be
       0.014029158 -0.36050844 -0.09612491 -0.2511325
000300 c3 f7 bb b8 8e 66 07 3e 48 41 fa bd dc b8 85 3d
       -8.963004e-05 0.13222715 -0.12219483 0.065294
000310 15 05 db ba 3f f3 23 be 2b ce b1 bd be 15 b7 bd
       -0.0016709889 -0.1601076 -0.086819015 -0.08939694
000320 01 da e9 3b 1c 5b 05 3e d4 45 a0 bc 98 ca cb bd
       0.007136584 0.13023037 -0.019564547 -0.09950751
000330 ee c4 66 3e 4f 91 a5 3e 40 0e 8a be 59 15 81 bd
       0.2253606 0.32337424 -0.26963997 -0.063029
000340 d5 fb c8 3d cf f3 66 bd 0f 29 55 bd ed d4 8e be
       0.09813658 -0.056384858 -0.05204111 -0.27896824
000350 df 95 92 3e 0c 29 0e be c2 ba 69 3d e6 4f ac 3b
       0.28629968 -0.13882846 0.05706287 0.005258548
000360 d6 fb c8 bc 34 cb 63 bc ef 6e ca be d6 e4 d3 3b
       -0.024534147 -0.013903428 -0.3953776 0.0064664884
000370 2a 9a 01 be ec 97 bc be ff 6c 11 3d 52 92 73 be
       -0.12656465 -0.36834657 0.035504337 -0.23786286
000380 63 01 bd be eb d7 6a 3d 09 f8 b9 3c ae af 0f 3e
       -0.3691512 0.05733482 0.02270128 0.1403186
000390 19 09 cc be c5 b6 86 bd 78 4d 13 be 5f eb 07 be
       -0.3985069 -0.06577829 -0.1438502 -0.1327338
0003a0 29 df 27 3d 46 67 90 bc 8a 3b b2 bd 46 c8 a3 3d
       0.040984306 -0.01762737 -0.087027624 0.079971835
0003b0 32 b0 7d 3c 06 ba 99 bd 44 f6 0d bf 64 c9 e2 bd
       0.015483903 -0.07506184 -0.55453897 -0.110735685
0003c0 f2 aa 95 ba f6 b0 5b be 77 10 41 bd 50 2a 93 3c
       -0.0011418744 -0.21454224 -0.047134843 0.017964512
0003d0 35 f2 47 be 1c 29 2a be 9e df 79 3d 87 98 54 be
       -0.19525988 -0.16617244 0.061004274 -0.2076131
0003e0 2c f4 8e be 0a 69 bc be de ac 07 3f 1c a6 2a be
       -0.27920663 -0.36798888 0.5299815 -0.16664928
0003f0 db 88 ff bc cc ba be be b8 fa 09 be de 31 5c be
       -0.031193187 -0.3725189 -0.13474548 -0.21503398

hidden_layer_2.bias f4 [300]
000000 96 21 6f bc 2c a2 0e 3f 65 c1 5f bd e6 75 d0 3e
       -0.01459541 0.55716205 -0.054627795 0.4071495
000010 a8 34 95 bd f1 f5 3a 3d 8a fd a8 3e e4 e9 a0 bd
       -0.07285434 0.045644704 0.33005935 -0.07857111
000020 ad 61 47 bd 30 88 4b bc 9b 1d 8c bd a7 2d e7 3e
       -0.048677135 -0.012422606 -0.06841584 0.45152017
000030 c7 f5 2d bc 25 48 b7 3e 0e a7 5c bd ae 9e 39 3e
       -0.01061768 0.3579723 -0.053870253 0.18126938
000040 14 72 6c bd 74 32 5f 3e 16 e7 18 be 8d e6 e3 bd
       -0.05772598 0.2179659 -0.14931902 -0.111279584
000050 32 42 9e bc d9 05 39 bd 09 68 1d 3c b4 08 48 3e
       -0.019318674 -0.045171592 0.009607323 0.1953457
000060 b5 5d 2b be 0e 91 32 be a3 34 93 be 85 e8 aa bd
       -0.16734965 -0.17438146 -0.28751096 -0.08345131
000070 38 8c e0 3e cd 54 dd bc 15 af 98 3e 13 ee 28 3e
       0.43856978 -0.027017975 0.29821077 0.16497068
000080 66 58 9e 3e fe 71 e4 3e da 26 1e bd da d2 ed 3e
       0.30926818 0.4461822 -0.03861127 0.4644993
000090 0c 07 c5 3e 14 27 e7 3e 73 e2 31 3f 9c 11 8e bd
       0.3848194 0.45147002 0.6948616 -0.069369525
0000a0 ee ac a1 bd da 01 03 3f d8 ef ca bc 24 1c e0 3e
       -0.07894312 0.511747 -0.02477257 0.4377147
0000b0 82 32 02 be e5 37 9c 3e 91 45 be 3e ea 8c da 3e
       -0.1271458 0.30511394 0.3716245 0.42685634
0000c0 03 00 47 3d 32 7b 34 3e 64 c6 93 3e 9d 49 1d 3e
       0.048583996 0.1762512 0.28862298 0.15360112
0000d0 14 79 c8 3e 67 90 98 3e e4 24 b2 3e 1e ec 24 3f
       0.39154875 0.2979767 0.3479377 0.64422786
0000e0 d8 32 9c ba 64 8c 59 3f 1e 3c d1 bc c1 a7 4d 3e
       -0.0011917008 0.84979844 -0.025541361 0.20083524
0000f0 94 a4 14 3e 60 be 24 be 1d 34 a1 bc f0 8e 05 3e
       0.14515907 -0.16088247 -0.01967817 0.13042808
000100 21 ed e5 3e 67 f8 d2 3e 0e ab 86 bd 6c 29 87 3e
       0.44907477 0.4120514 -0.06575595 0.2639879
000110 5a f7 b9 3e 80 6d b8 bd 83 d5 26 3e 7f 62 dc be
       0.36321527 -0.090052605 0.16292386 -0.43043897
000120 05 61 da bd 26 7e c6 3e e9 0d 21 3e 1c 01 8d 3e
       -0.10663036 0.3876812 0.15727963 0.2753991
000130 b5 4c 35 be 8f f8 39 3e 45 80 da bd fd d2 eb 3e
       -0.17705043 0.18161224 -0.10668997 0.4605941
000140 74 0e c2 3e 46 4b a3 bd a8 ce 91 bd f2 a4 a2 3e
       0.37901652 -0.07973342 -0.07119495 0.31766468
000150 56 c8 3f bd ce de b6 3e 95 81 b4 bd 07 c0 da 3e
       -0.046821915 0.3571686 -0.08813778 0.4272463
000160 ca d7 ae 3e 37 09 b9 3d 00 db f0 bd a8 de bc 3e
       0.3414901 0.09034961 -0.11760521 0.36888623
000170 d3 3c fe bc 6e cb 6c 3e 84 ee 09 3e 48 5b 92 bb
       -0.031034863 0.23124477 0.13469893 -0.004466448
000180 9c 4c 6f 3e 55 cb 9f 3e 5f a6 1c 3e 7f 12 37 be
       0.23369068 0.31209818 0.1529784 -0.1787815
000190 63 18 32 bd 6d b3 d9 be e4 77 97 bd f1 b6 13 bd
       -0.04348029 -0.42519704 -0.07395914 -0.03606314
0001a0 2e 76 07 3e 46 bd 2c be 9b 73 28 bc af 16 95 3e
       0.13228676 -0.16869077 -0.010281469 0.2911887
0001b0 3f bb 49 be 1d 5a b5 3e 41 f7 14 3c 1b 57 e3 b8
       -0.19700335 0.35420313 0.009092153 -0.00010840428
0001c0 a0 06 de bd 48 50 1b bd 93 87 33 3d 86 fa 6e bd
       -0.10841107 -0.03791836 0.043830466 -0.058344387
0001d0 aa 5b 81 bd e3 02 eb bc 90 dc f3 3e b5 8b 10 3f
       -0.06316312 -0.0286879 0.47629213 0.56463176
0001e0 c2 c3 8b bd 77 3d a4 bd b7 8e 96 3e 09 1a a6 bd
       -0.06824447 -0.08019536 0.29405758 -0.081104346
0001f0 e0 53 66 3e 1d c9 8c 3e ff e6 25 3d 14 d4 c4 3e
       0.22492933 0.27497187 0.0405035 0.38443053
000200 82 30 58 3e c9 41 32 be 16 80 86 bd 1c c4 6c bc
       0.21112254 -0.17407908 -0.06567399 -0.014451053
000210 78 da 62 3e c8 e0 56 3e 74 c2 88 3e c6 b6 06 be
       0.22153652 0.20984185 0.26710856 -0.1315566
000220 ce 08 87 bd 9f 02 49 bd b7 4f a7 3d e2 3d 99 3e
       -0.06593476 -0.049074765 0.08169501 0.29930025
000230 52 d3 0f 3f 9c a5 03 bd 02 2e 31 be 35 d4 81 3e
       0.56181824 -0.03214036 -0.17302707 0.25357214
000240 be 06 b1 3e bf fd 0e 3f 5d 09 21 3f 90 89 41 bd
       0.34575456 0.55855936 0.6290491 -0.04725033
000250 90 cc 92 bd 75 c1 aa bd e7 5e 94 3e 55 f1 0c bf
       -0.071679235 -0.0833768 0.28978655 -0.55055743
000260 1c 47 17 3d fd a7 47 bd 9e 82 8a 3e d7 61 f2 3d
       0.03693305 -0.04874419 0.27052778 0.11835068
000270 d4 f7 a4 3e 5c 09 03 bd 61 bf e5 3e 10 34 30 3d
       0.32220328 -0.031991348 0.44872573 0.0430184
000280 53 d1 8b 3e 90 05 10 3e 4c 31 bd 3e 98 8d af 3d
       0.2730814 0.14064622 0.36951673 0.08571929
000290 79 6e e5 3c 0d b1 05 be ae 2f 05 bf a6 f8 36 3e
       0.028006779 -0.13055821 -0.5202588 0.1786829
0002a0 6f df 76 3e 0d e5 b5 3c a1 da 80 3e 79 b5 f3 3b
       0.2410867 0.022203946 0.251668 0.0074374047
0002b0 80 97 c9 3e c6 35 dc bd e0 25 de bc b8 94 80 3e
       0.39373398 -0.10752444 -0.02711767 0.25113463
0002c0 7e 91 93 3e a4 b6 16 3d 82 04 c1 3e b3 01 8c 3d
       0.2882194 0.036795273 0.37698752 0.068362616
0002d0 a8 e6 d4 bd 25 93 ed bd 32 f9 cd bd d3 95 bd 3d
       -0.10395557 -0.11600331 -0.10057296 0.09257092
0002e0 40 28 1b 3e bb b0 8a 3e f4 88 29 bc a8 c7 aa 3e
       0.15152073 0.2708796 -0.010347594 0.3335545
0002f0 72 64 60 3e 50 14 a5 bd b0 03 74 3e 21 a9 2f 3e
       0.21913317 -0.08060515 0.23829532 0.17154361
000300 bc af 85 3e 94 21 00 3d 57 2e 3a 3e 16 d5 23 3e
       0.26110637 0.031282023 0.1818174 0.15999255
000310 97 d1 89 3e 57 db 40 3e 68 2c 12 be 47 ea b3 3d
       0.26917717 0.18833672 -0.14274752 0.08784919
000320 2a 51 b1 bd 3f f8 57 3e eb e0 0c be ce 64 a2 be
       -0.08658059 0.21090792 -0.13757674 -0.31717533
000330 19 50 10 3f f4 2e 0b 3f 73 07 81 3e 69 bf 0c 3f
       0.5637222 0.5436852 0.25200996 0.5497957
000340 3d 27 4a 3e 02 25 66 3e 2c fe 3c 3e 05 73 b0 3e
       0.1974153 0.22475055 0.18456334 0.34462753
000350 13 2d 7a 3e f9 39 0a 3f 5e 15 93 3e 9a f0 44 bd
       0.24431257 0.5399471 0.2872724 -0.048081018
000360 50 7a 30 3b e0 80 7b 3e 0b c3 82 bc 9c 23 1b 3f
       0.0026928373 0.2456088 -0.015962144 0.6060121
000370 4a 6b 01 be 12 51 e9 bd f0 38 9e be a3 53 9f bd
       -0.12638584 -0.11392416 -0.30902815 -0.07779624
000380 41 26 4d 3d d4 92 84 3e c6 b8 fd 3e 38 1b d3 be
       0.05008531 0.2589327 0.49555033 -0.41231704
000390 c8 17 07 3f 16 5f c9 3d a6 e5 86 ba a8 45 73 3e
       0.5277066 0.09832589 -0.0010291829 0.2375704
0003a0 6b f1 7e 3e e0 81 84 3e fd 0f ab 3e d6 60 06 bd
       0.24896781 0.25880337 0.33410636 -0.032807194
0003b0 76 c1 b4 3e c2 57 01 be 74 f9 04 3d 5d b6 7f bd
       0.3530385 -0.12631133 0.03246446 -0.062429775
0003c0 e3 83 95 bd 5e 8f b6 3e 5b 94 e8 3e 33 ac bf bd
       -0.07300546 0.35656255 0.45425686 -0.09359016
0003d0 81 00 a7 bd 44 67 a6 3e a3 6a 07 bf 69 76 06 bf
       -0.08154393 0.3250066 -0.5289709 -0.5252443
0003e0 44 59 f6 bd 0c 08 ea 3e 2e ec 24 be 4c 3a 7f be
       -0.12028745 0.45709264 -0.1610572 -0.24924582
0003f0 5b 29 79 3e a4 07 b2 3d 89 3c 39 bd 56 a8 86 3e
       0.24332182 0.086928636 -0.045223746 0.26300305

output.weight f4 [1, 300]
000000 fa 63 28 bf bf 76 56 3e d2 2e 6d be 36 d4 26 3e
       -0.6577755 0.20943736 -0.23162392 0.1629189
000010 ce 94 1e bf ef 3f 12 bf 84 66 38 3e e4 c7 34 bf
       -0.6194581 -0.57128805 0.18007857 -0.7061751
000020 79 b9 1d bf 68 b4 09 bf d5 51 65 bf 29 32 8a 3e
       -0.61611134 -0.53790903 -0.8957799 0.26991394
000030 fa 0d 0c bf 9c 47 ab 3e 8c a7 3c bf 70 d3 ef 3e
       -0.54708827 0.3345307 -0.73693156 0.46841002
000040 5f b8 25 bf ae 8a 46 3e 68 87 26 bf b1 3d 4d bf
       -0.6473445 0.1938884 -0.65050364 -0.8017226
000050 b8 c2 2f bf 68 6b 39 bf 57 95 1d bf 8d cc 87 3e
       -0.6865649 -0.72429514 -0.61556 0.26523247
000060 7f 0c 25 bf b6 ef 59 be 3d af 22 be 73 44 2a bf
       -0.6447219 -0.21282849 -0.1588716 -0.66510695
000070 af 25 2c 3e 50 db 0a bf d7 01 92 3e 32 d3 94 3e
       0.1681125 -0.54240894 0.2851703 0.2906738
000080 29 e3 81 3e d2 1c 53 3e 5a 4e 29 bf 74 be 38 3e
       0.25368622 0.20616463 -0.6613518 0.18041402
000090 8d 28 7f 3e a1 20 35 3e 2f 6e 3d 3e 20 af 13 bf
       0.24917813 0.17688228 0.18499063 -0.57689095
0000a0 71 0b 32 bf a1 60 ae 3e 01 3f 27 bf 89 6e 4f 3e
       -0.6954871 0.34058097 -0.6533051 0.2025701
0000b0 42 8a 03 bf ad f2 42 3e 91 61 67 3e 11 1f 93 3e
       -0.5138284 0.19037886 0.22595812 0.2873464
0000c0 18 a2 39 bf 7d 01 69 3e 76 93 87 3e e5 cc 5c 3e
       -0.7251296 0.22754474 0.2647969 0.21562536
0000d0 6a 22 4c 3e 1b 83 6f 3e 8b 83 6a 3e a0 5e 33 3e
       0.19935003 0.23389857 0.22901742 0.17516565
0000e0 12 0a 0c bf 1e d0 fb 3d 8f 0e 53 bf 13 38 c3 3e
       -0.54702866 0.122955546 -0.8244409 0.3812872
0000f0 e2 4c b8 3e 5f c5 f1 be ef b1 1b bf 16 bb 2d 3f
       0.35996157 -0.47220895 -0.6081838 0.67863595
000100 bd 39 36 3e f7 f7 82 3e c6 f5 2d bf 7f dc 14 3e
       0.17795463 0.25579807 -0.67953146 0.14537238
000110 82 00 3d 3e 7a ad 1f bf 44 d3 cb 3e 17 65 48 be
       0.18457225 -0.6237408 0.3980962 -0.19569813
000120 f0 c7 09 bf 33 d4 6e 3e b1 47 89 3e c8 cc 6e 3e
       -0.53820705 0.23323135 0.2681251 0.23320305
000130 96 9c 1a bf 16 51 7e 3e ce f9 e5 be 55 8a 8e 3e
       -0.6039518 0.2483562 -0.44917148 0.27839914
000140 b0 1d 68 3e 5c c5 2a bf 66 93 24 bf 7f 35 8d 3e
       0.22667575 -0.66707397 -0.6428741 0.27579877
000150 d9 53 01 bf 70 f2 6f 3e 17 f3 5d bf dc 1f 78 3e
       -0.50518566 0.23432326 -0.8669905 0.24230903
000160 ff 77 af 3e 27 26 f5 3e 83 8d 16 bf 5c 2f 1b 3e
       0.34271237 0.4788067 -0.5880968 0.15154785
000170 8f 22 2f bf e0 8c 63 3e cd cb ae 3e 19 8b 44 bf
       -0.6841211 0.22221708 0.34139863 -0.76774746
000180 26 74 ad 3e 53 c4 80 3e 8a df 12 3f cb 6f 19 bf
       0.33877677 0.25149783 0.57372344 -0.5993621
000190 e1 ea 27 bf cd d5 b6 be 01 4a 1e bf b3 58 33 bf
       -0.6559277 -0.35709992 -0.6183167 -0.7005722
0001a0 b4 07 0f 3f 90 2d 26 bf 62 95 32 bf 27 d6 71 3e
       0.5587113 -0.6491327 -0.6975919 0.23616849
0001b0 3f 88 e7 be 4c 25 95 3e fa bf 43 bf 00 42 63 bf
       -0.45221135 0.29130018 -0.7646481 -0.88772583
0001c0 30 70 08 bf 77 c5 1b bf 9d a0 52 bf 2e b0 36 bf
       -0.53296185 -0.6084818 -0.82276326 -0.7136258
0001d0 f8 37 4c bf b9 c2 2f bf be 1a a4 3e 01 14 3a 3e
       -0.797729 -0.686565 0.32051653 0.18171693
0001e0 15 37 36 bf f7 dc 37 bf 98 53 00 3f 08 f8 39 bf
       -0.711778 -0.7182154 0.50127554 -0.7264409
0001f0 32 ce 16 3e b9 8a 69 3e 6f 3f 1b bf 53 dc 89 3e
       0.14727095 0.22806825 -0.60643667 0.26925907
000200 c8 54 26 3f c4 33 e7 be 13 65 20 bf 4a 0b 3c bf
       0.64973116 -0.45156682 -0.62654227 -0.73454726
000210 60 c4 94 3e 23 17 80 3e 39 7e 2c 3e c8 bc 4c bf
       0.29056072 0.25017652 0.16845025 -0.7997556
000220 42 70 6b bf ab c7 e9 be a6 db cb 3e 29 cb 38 3e
       -0.91968167 -0.45660147 0.39816016 0.1804625
000230 b9 e4 21 3e c8 e9 2f bf ff 2e 38 bf 70 83 66 3e
       0.15809907 -0.68716097 -0.7194671 0.22511077
000240 32 b7 d1 3e 9d 08 80 3e a3 65 2b 3e 0e 51 40 bf
       0.4096008 0.2500657 0.1673799 -0.7512368
000250 5b ff d9 be 5f 2a 2f bf 38 ca 3d 3e 41 42 c2 be
       -0.42577633 -0.6842403 0.18534172 -0.37941173
000260 31 9e 23 bf bc 3d 22 bf 83 e6 5c 3e 1c 08 07 3f
       -0.63913256 -0.6337545 0.21572308 0.5274675
000270 0f 66 80 3e 6b 80 20 bf ef 32 63 3e 9b 7b 1c be
       0.25077865 -0.6269595 0.22187398 -0.15281527
000280 68 44 5a 3e be d4 bd 3e da 26 8d 3e 5d aa c1 3e
       0.21315157 0.37076372 0.27568704 0.3782529
000290 fd 43 1b bf 5e 5d 11 bf fe 1a ad be 0f 7d d2 3e
       -0.60650617 -0.5678309 -0.33809656 0.41111037
0002a0 f2 27 85 3e 61 3c 73 bf df 90 b1 3e a4 25 35 bf
       0.26007038 -0.95014006 0.3468084 -0.7076056
0002b0 4c 52 0c 3f 21 b6 60 bf e7 93 4b bf 1e 3e 87 3e
       0.54813075 -0.87777907 -0.79522556 0.2641458
0002c0 5c 85 72 3e af be 0b bf 19 07 31 3e d3 7b d0 be
       0.23683685 -0.54587835 0.17287864 -0.4071947
0002d0 29 17 02 bf c5 1d 19 bf 1c 4a 0f bf 30 93 42 3f
       -0.5081659 -0.5981105 -0.55972457 0.7600584
0002e0 fc 62 e5 3e e0 4a cd 3e 27 0d 12 bf 95 ab a8 3e
       0.44802082 0.40096188 -0.5705132 0.32943407
0002f0 fa e9 d1 3e f5 0f 1a bf 9d 84 7e 3e e4 9b 92 3e
       0.40998822 -0.601806 0.24855275 0.2863456
000300 1c 4b 83 3e 71 7e 3f be 65 93 f6 3e b2 47 89 3e
       0.2564324 -0.18700577 0.48159328 0.26812512
000310 3b f8 dc 3e 09 40 0e 3f 3c a9 05 bf 4b 09 52 3e
       0.43158135 0.5556646 -0.52211356 0.20511357
000320 cb d1 33 bf b7 bd 7d 3e 5c 42 2b bf 9c 99 05 bf
       -0.70241994 0.24779402 -0.6689813 -0.52187514
000330 34 2d 33 3e 73 85 7d 3e 7a 7d 80 3e 3e 40 6b 3e
       0.17497712 0.24757938 0.2509573 0.22973725
000340 a6 a6 7b 3e 84 38 be 3e ef 53 e6 3e 8b 29 98 3e
       0.2457529 0.37152493 0.4498591 0.29719195
000350 2f c1 f6 3e 00 6f 43 3e 40 4e 87 3e f7 e5 ec be
       0.48194262 0.19085312 0.26426888 -0.462692
000360 9c 56 34 bf 06 7c 87 3e 12 44 3b bf 8c 5c 63 3e
       -0.70444655 0.2646181 -0.7315074 0.22203273
000370 b7 c8 2e bf cb 27 c6 be 7a 05 81 be 44 f0 0e bf
       -0.68275017 -0.38702235 -0.2519949 -0.55835366
000380 c3 52 50 bf fb 52 e3 3e 54 0d 3b 3e e3 71 8e be
       -0.81376284 0.44399247 0.18266803 -0.27821264
000390 f5 cd 43 3e 75 20 14 bf 37 b1 12 bf 0e 54 92 3e
       0.19121535 -0.57862025 -0.5730166 0.28579754
0003a0 8d 74 d7 3e 21 77 93 3e 0d 0f f3 3d 5c bf 2b bf
       0.4208111 0.28801826 0.11868105 -0.67088866
0003b0 1a 67 3c 3e ae 1b 1a bf 38 91 fb be 7c ed 06 bf
       0.18398705 -0.60198486 -0.4913423 -0.5270612
0003c0 32 65 58 bf aa 79 7a 3e e7 8e 8f 3e b1 f2 3e bf
       -0.8452941 0.24460474 0.28038713 -0.7458907
0003d0 f8 c5 42 bf 69 15 8b 3e 4b 3f 0e be 0b 92 88 be
       -0.76083326 0.27164772 -0.13891332 -0.26673922
0003e0 59 04 0b bf 2d a3 68 3e d3 17 26 bf 58 4f a4 be
       -0.5430351 0.22718497 -0.648801 -0.32091784
0003f0 49 3b 45 3e 43 d8 01 bf 12 ee 1e bf 16 0e 70 3e
       0.19260897 -0.50720614 -0.62082016 0.23442873
