Neural_networks/reacher_20_9policy_target.pth (torch, 542751 bytes, 6 tensors)

hidden_layer_1.weight f4 [400, 33]
0.105217025 0.026240641 0.030497925 -0.017461548 -0.14252044 -0.18023703 0.08106283 -0.021867193
-0.22772859 0.059980918 -0.07867816 0.011762156 0.061225247 0.058544274 -0.030129222 0.11247884
0.03767303 0.1625736 0.89312315 -0.1618416 0.035789955 -0.011288371 0.21284941 0.041353736
-0.060830973 0.0038879109 -0.06082268 -0.17834713 -0.081656836 0.049657617 0.17467698 -0.028602464
0.5361405 0.277559 -0.05958474 -0.023459679 -0.08475167 -0.13546985 -0.47217697 0.06090713
0.035585746 0.005463696 -0.015011612 0.038630046 -0.049575336 -0.036957093 -0.027384123 0.077451706
-0.11846202 0.33046973 0.3449736 -0.39407405 -0.024211537 -0.0676867 0.041789535 0.05736461
-0.054252893 0.10604365 -0.03814927 -0.21263795 0.1397702 0.024304839 -0.041183244 -0.09875446
-0.011414509 0.7271445 0.028819455 0.037426986 -0.18639232 0.14297535 0.4053718 -0.21735899
-0.0793009 0.09339983 0.19099575 0.2710444 -0.0876681 0.027227579 -0.078207865 -0.26434377
0.02857155 0.12367282 -0.146613 -0.4202463 -0.2790179 -0.64917016 0.011795459 0.016904574
0.08044314 -0.1686251 -0.050008222 0.021352243 0.14507572 -0.17855765 -0.16306661 -0.034138605
0.11707212 0.04606835 -0.13031164 -0.0004500918 -0.1749112 0.14969464 -0.45596766 -0.4000571
0.52382064 -0.09142773 0.033937935 -0.0049837385 0.2002987 -0.06883479 -0.030935058 0.019066628
0.08032994 -0.10902347 -0.121019125 -0.3549445 -0.024701681 0.5782526 0.71516526 0.065573476
0.07690577 -0.027190758 -0.12602147 0.052723303 0.17358796 -0.05722295 0.01482862 0.073933005
-5.0626695e-05 -0.053669345 -0.000518851 -0.10705403 0.025729273 0.16804743 -0.016909353 -0.46299613
-0.067478135 -0.026387705 0.14353755 -0.020092405 0.028215678 0.14194426 0.17563729 -0.07618033
-0.08745441 -0.11675371 0.030394897 0.05751035 -0.23481302 -0.42544216 0.17070533 0.41078743
-0.04751567 -0.16526164 -0.14303932 0.019813616 -0.08158445 -0.12747663 -0.014321721 0.024916643
-0.12904446 -0.0379647 -0.050360255 -0.009385206 -0.71667445 0.16669047 0.0029241105 0.004955197
-0.34545273 0.31241262 0.9443838 -0.43067217 0.058858696 -0.009040132 0.004955207 0.092742145
0.00324098 -0.08663465 -0.14988098 -0.07857117 0.15083098 -0.30128217 0.42736137 0.15500814
0.1559067 -0.054510895 -0.052818846 0.06482952 -0.01980831 -0.09223013 -0.015526324 0.09997793
-0.017785799 0.0211868 0.046912704 0.06352215 0.0009202771 0.72234815 0.04029848 0.035389837
-0.0035903421 0.07023198 -0.27722934 0.19634597 0.20077054 0.009431202 0.09984871 -0.04175443
-0.03732872 0.0157506 0.105516404 -0.053305447 0.042561807 -0.07292744 0.16617814 0.55763286
-0.0720288 -0.18160607 0.04587399 -0.1082207 -0.11384468 0.03145255 0.011250515 0.028205128
-0.16234487 0.02244126 0.082097255 -0.04283208 -0.04332911 0.01055352 0.06664979 -0.12791626
0.13056073 -0.027548341 -0.58588004 0.012938952 -0.28602675 0.35524803 0.05710237 -0.030481866
-0.10616754 -0.010852794 0.042771064 -0.040841874 0.18928897 -0.026178455 -0.047714688 0.1745158
0.30641216 0.060699333 0.05463512 0.052570418 0.007743137 0.027723756 -0.10763713 0.02270909
00000000: 067c d73d 9df6 d63c c9d6 f93c 850b 8fbc
00000010: e1f0 11be 0e90 38be 4504 a63d d422 b3bc
00000020: af31 69be 8dae 753d 0422 a1bd 0fb6 403c
00000030: 53c7 7a3d 1fcc 6f3d 8fd1 f6bc 4e5b e63d
00000040: 094f 1a3d b279 263e b8a3 643f ceb9 25be
00000050: 7d98 123d dcf2 38bc 32f5 593e 8962 293d
00000060: e629 79bd 52cc 7e3b 3421 79bd a1a0 36be
00000070: b33b a7bd c965 4b3d 86de 323e b74f eabc
00000080: 8140 093f 371c 8e3e 210f 74bd 832e c0bc
00000090: 4992 adbd 9cb8 0abe 2ec1 f1be c179 793d
000000a0: 5cc2 113d ce08 b33b 44f3 75bc 8a3a 1e3d
000000b0: 820f 4bbd 5260 17bd ab54 e0bc 009f 9e3d
000000c0: 379c f2bd 5433 a93e 61a0 b03e 13c4 c9be
000000d0: 4657 c6bc 539f 8abd 812b 2b3d 27f7 6a3d
000000e0: 4838 5ebd 6a2d d93d 6942 1cbd c3bd 59be
000000f0: eb1f 0f3e f11a c73c c3af 28bd c73f cabd
00000100: ec03 3bbc 2426 3a3f c716 ec3c 0a4d 193d
00000110: a1dd 3ebe 2168 123e e48c cf3e 5b93 5ebe
00000120: 8368 a2bd 6948 bf3d 6494 433e 55c6 8a3e
00000130: 558b b3bd 5f0c df3c 722b a0bd 1158 87be
00000140: e20e ea3c 2d48 fd3d b821 16be 862a d7be
00000150: 6fdb 8ebe 0430 26bf be41 413c 767b 8a3c
00000160: 5fbf a43d 0fac 2cbe 6cd5 4cbd e6ea ae3c
00000170: bb8e 143e d1d7 36be effa 26be ecd4 0bbd
00000180: 82c3 ef3d 2bb2 3c3d 6a70 05be 4cfa ebb9
00000190: ec1b 33be 8d49 193e 9874 e9be 49d4 ccbe
000001a0: 1c19 063f 763e bbbd 8102 0b3d a14e a3bb
000001b0: 1a1b 4d3e 41f9 8cbd 856b fdbc 9e31 9c3c
000001c0: 0684 a43d b247 dfbd e0d8 f7bd 49bb b5be
000001d0: 2e5b cabc 5d08 143f 1215 373f 634b 863d
000001e0: c680 9d3d 27bf debc c60b 01be 64f4 573d
000001f0: 0bc1 313e 9d62 6abd bdf3 723c 306a 973d
00000200: 0058 54b8 63d4 5bbd 8003 08ba 253f dbbd
00000210: 32c6 d23c a014 2c3e 7c85 8abc d40d edbe
00000220: fa31 8abd 072b d8bc 82fb 123e d498 a4bc
00000230: 9124 e73c d659 113e 43da 333e 6f04 9cbd
00000240: 4c1b b3bd 921c efbd b8fe f83c f98f 6b3d
00000250: d372 70be 8ed3 d9be 61cd 2e3e bb52 d23e
00000260: cb9f 42bd 593a 29be e678 12be 2a50 a23c
00000270: c015 a7bd 3c89 02be a7a5 6abc fd1d cc3c
00000280: 3b24 04be e080 1bbd 8e46 4ebd 68c4 19bc
00000290: fa77 37bf e8b0 2a3e 6fa2 3f3b 355f a23b
000002a0: 2edf b0be 8cf4 9f3e 23c3 713f 1081 dcbe
000002b0: d115 713d 101d 14bc 4a5f a23b 98ef bd3d
000002c0: 9f66 543b 826d b1bd 667a 19be ece9 a0bd
000002d0: 7073 1a3e a841 9abe 1ccf da3e 74ba 1e3e
000002e0: 02a6 1f3e d146 5fbd 9358 58bd 57c5 843d
000002f0: 0945 a2bc 27e3 bcbd 1f62 7ebc 3bc1 cc3d
00000300: 86b3 91bc f18f ad3c 8927 403d e717 823d
00000310: c03e 713a cfeb 383f 0510 253d eff4 103d
00000320: f24b 6bbb c9d5 8f3d 01f1 8dbe eb0e 493e
00000330: cb96 4d3e 5485 1a3c 7b7d cc3d b106 2bbd
00000340: 00e6 18bd 6707 813c fc18 d83d d056 5abd
00000350: 4a55 2e3d fb5a 95bd 9a2a 2a3e 07c1 0e3f
00000360: d683 93bd f1f6 39be 5de6 3b3d d0a2 ddbd
00000370: 6627 e9bd 64d4 003d 1454 383c 710e e73c
00000380: bc3d 26be bcd6 b73c 9b22 a83d b170 2fbd
00000390: dd79 31bd ace8 2c3c af7f 883d 7bfc 02be
000003a0: b6b1 053e 0fad e1bc 3cfc 15bf e6fd 533c
000003b0: 1972 92be 12e3 b53e 2de4 693d 1bb5 f9bc
000003c0: 5e6e d9bd ebcf 31bc b630 2f3d cf49 27bd
000003d0: f8d4 413e 3374 d6bc 7a70 43bd 45b4 323e
000003e0: 0ee2 9c3e dd9f 783d 13c9 5f3d 1454 573d
000003f0: 24ba fd3b ee1c e33c db70 dcbd 6a08 ba3c

hidden_layer_1.bias f4 [400]
0.07935691 -0.19036222 0.3137268 -0.011132031 -0.15960945 -0.11565713 -0.14814544 -0.17734748
-0.008039047 -0.067361474 0.121802576 -0.11938483 0.21362577 -0.02880099 -0.05773903 -0.028518487
-0.09508717 -0.19400364 -0.15672815 0.12247212 -0.046262622 -0.27297786 0.05761351 -0.06298113
-0.043321148 -0.2942732 0.10761561 0.22238004 0.23929346 0.051029492 0.11455472 0.21188876
0.2297254 -0.035274915 0.07007884 -0.10687714 -0.09356122 0.20332117 0.09288691 0.14326683
0.40850922 0.10931217 0.13585511 0.09242693 0.029145395 -0.025055964 -0.061652187 0.1516018
-0.022005733 -0.06334323 0.13055283 0.069835186 0.13912779 0.080874525 -0.030333323 0.080900505
-0.023897218 -0.19611664 0.081679456 0.17824624 -0.09141159 -0.07680463 0.1815826 0.05623381
-0.021292659 -0.122152075 0.21821843 -0.17005631 0.07167418 0.07735044 0.19101182 0.11296895
0.14446886 0.069731645 0.20630562 0.020950306 -0.026060449 -0.12124893 0.17532739 -0.23320623
0.05184485 -0.07336433 -0.17775492 -0.07267979 0.18232416 0.09179344 -0.0073934156 0.12638894
0.22902566 -0.19374593 0.009174289 0.02292171 0.03760084 -0.096753985 -0.18415928 -0.23072696
0.044228386 0.29945034 -0.1273905 0.1214085 -0.18448256 -0.017654922 0.074441135 0.013465477
0.0117748575 0.1773914 0.14435782 0.07481943 -0.13598657 -0.19928622 -0.2003263 -0.08529195
-0.13564487 -0.076220706 0.07502594 0.09523153 0.14751525 0.048960775 -0.1022835 -0.2220424
-0.18085329 -0.16271113 -0.31332257 0.19746587 -0.13251959 0.083205506 -0.002063923 0.05405613
0.14043629 0.19647093 -0.2404584 0.07774818 0.19319023 -0.064725034 -0.22361693 0.12945016
-0.14482628 -0.13163517 0.11789206 0.081374474 0.020854158 0.033138886 0.00048526027 0.08172612
-0.16886283 -0.041606825 -0.07287282 -0.15052053 0.029715227 -0.016408185 -0.059807364 -0.2689749
0.07111715 -0.1047403 -0.12416773 -0.21428154 0.0133987935 -0.23734246 0.025067288 -0.04379793
0.11590558 0.23075533 -0.039626658 -0.060154058 0.1061804 -0.04685373 0.027217694 0.2568693
-0.033478126 -0.0069623785 -0.029356916 -0.30410463 0.008906746 0.011285623 -0.09219451 0.1531638
-0.19858035 0.095122 0.030034645 0.041450057 0.14996257 -0.08013646 0.019303963 -0.060823895
-0.04039305 -0.14199786 -0.15361217 0.07432494 0.006867146 0.17177717 0.06981047 -0.21668828
0.12310903 0.19483286 -0.056844674 -0.07753546 -0.054876514 -0.092616595 0.08212012 0.014184073
0.03859223 -0.119903944 0.008100104 -0.068173185 -0.08862985 0.1453415 0.070054114 -0.039401535
0.07108149 -0.070194036 0.07030487 0.022408713 -0.048536822 -0.35420796 0.2106393 -0.040571578
-0.11057164 0.016707452 0.097244255 -0.0021832883 -0.34759352 -0.18404566 -0.21886885 0.014324951
0.016331332 -0.112162866 0.07948129 0.05625004 0.048016816 -0.018788498 0.161977 0.048672114
0.057005867 -0.10469588 0.078288235 0.17993651 -0.13416377 -0.11146654 -0.19085212 -0.013126551
0.00033930948 0.07092483 0.004584566 0.055571727 -0.12993538 -0.099976845 0.02795545 -0.059479564
-0.078135066 -0.2786129 0.22112717 0.06339442 0.046509188 -0.123194054 0.16856718 0.028378531
00000000: e085 a23d 50ee 42be cda0 a03e 1f63 36bc
00000010: a970 23be a5dd ecbd 70b3 17be 949a 35be
00000020: 35b6 03bc d0f4 89bd a173 f93d 0980 f4bd
00000030: b7c0 5a3e 0ef0 ebbc c37f 6cbd 9a9f e9bc
00000040: 10bd c2bd e4a8 46be 587d 20be aad2 fa3d
00000050: e07d 3dbd c1c3 8bbe 25fc 6b3d 40fc 80bd
00000060: 8471 31bd faaa 96be 9365 dc3d 98b7 633e
00000070: 5809 753e 4d04 513d aa9b ea3d 5ef9 583e
00000080: 233d 6b3e 6e7c 10bd 7f85 8f3d 67e2 dabd
00000090: 069d bfbd 6d33 503e 7e3b be3d 8ab4 123e
000000a0: 1f28 d13e 0fdf df3d 9a1d 0b3e 554a bd3d
000000b0: 53c2 ee3c 2a42 cdbc 0187 7cbd 813d 1b3e
000000c0: 5e45 b4bc 18ba 81bd a4af 053e c005 8f3d
000000d0: 8477 0e3e 8ba1 a53d 977d f8bc 2aaf a53d
000000e0: 19c4 c3bc cdd2 48be 8f47 a73d 2f86 363e
000000f0: 0036 bbbd bf4b 9dbd caf0 393e 6c55 663d
00000100: f16d aebc de2a fabd a774 5f3e 3e23 2ebe
00000110: eac9 923d e869 9e3d 9a98 433e 445c e73d
00000120: a5ef 133e 77cf 8e3d c841 533e fa9f ab3c
00000130: b97c d5bc 5c51 f8bd 0689 333e 9dcd 6ebe
00000140: 445b 543d 0a40 96bd 6305 36be 24d9 94bd
00000150: 2fb3 3a3e 33fe bb3d 7744 f2bb 1a6c 013e
00000160: b485 6a3e 5565 46be c24f 163c 4fc6 bb3c
00000170: 5703 1a3d f426 c6bd 4094 3cbe b043 6cbe
00000180: d328 353d 8e51 993e a872 02be 05a5 f83d
00000190: ffe8 3cbe 0ea1 90bc 9874 983d 4e9e 5c3c
000001a0: 55eb 403c 17a6 353e 89d2 133e ee3a 993d
000001b0: 1040 0bbe b011 4cbe 5622 4dbe 8cad aebd
000001c0: 7de6 0abe 9a19 9cbd 33a7 993d c008 c33d
000001d0: 3d0e 173e 188b 483d 037a d1bd 155f 63be
000001e0: 9b31 39be bf9d 26be d16b a0be 7e34 4a3e
000001f0: 37b3 07be a667 aa3d e242 07bb f669 5d3d
00000200: 88ce 0f3e ad2f 493e ba3a 76be 703a 9f3d
00000210: a9d3 453e 8f8e 84bd d6fb 64be 958e 043e
00000220: 574d 14be 5fcb 06be 6471 f13d a9a7 a63d
00000230: 57d6 aa3c a4bc 073d 886a fe39 0660 a73d
00000240: 61ea 2cbe eb6b 2abd 583e 95bd 0e22 1abe
00000250: 596d f33c 756a 86bc 91f8 74bd 14b7 89be
00000260: dea5 913d 1582 d6bd a74b febd 9f6c 5bbe
00000270: 9d86 5b3c e709 73be ea59 cd3c 7565 33bd
00000280: e85f ed3d 204b 6c3e 904f 22bd 1a64 76bd
00000290: 1c75 d93d b2e9 3fbd a4f7 de3c 5f84 833e
000002a0: 5c20 09bd aa24 e4bb ea7d f0bc 9ab3 9bbe
000002b0: 9aed 113c 55e7 383c 7ad0 bcbd f9d6 1c3e
000002c0: a658 4bbe 53cf c23d 370b f63c 89c7 293d
000002d0: ca8f 193e 961e a4bd 5823 9e3c 7a22 79bd
000002e0: 2f73 25bd e367 11be 824c 1dbe ad37 983d
000002f0: cc05 e13b 5be6 2f3e cbf8 8e3d 88e3 5dbe
00000300: 9620 fc3d 4482 473e f6d5 68bd e9ca 9ebd
00000310: 32c6 60bd c5ad bdbd 982e a83d 5064 683c
00000320: e312 1e3d 3390 f5bd 4cb6 043c 629e 8bbd
00000330: 9183 b5bd 67d4 143e 8878 8f3d 8163 21bd
00000340: 2c93 913d e4c1 8fbd 00fc 8f3d 7a92 b73c
00000350: 8cce 46bd bf5a b5be d4b1 573e 622e 26bd
00000360: 6273 e2bd 11de 883c ff27 c73d 8015 0fbb
00000370: c7f7 b1be 7776 3cbe 281f 60be 33b3 6a3c
00000380: 49c9 853c a5b5 e5bd 16c7 a23d 7166 663d
00000390: 48ad 443d 56ea 99bc 4cdd 253e 695c 473d
000003a0: fc7e 693d cb6a d6bd 9555 a03d 4741 383e
000003b0: 3a62 09be 9248 e4bd bd6e 43be bf10 57bc
000003c0: 59e5 b139 0a41 913d 213a 963b 2e9f 633d
000003d0: c80d 05be a9c0 ccbd d402 e53c d8a0 73bd
000003e0: 4705 a0bd 5aa6 8ebe 296f 623e efd4 813d
000003f0: 6b80 3e3d 2a4d fcbd e09c 2c3e 187a e83c

hidden_layer_2.weight f4 [300, 400]
-0.1848723 -0.07192883 0.3322373 -0.36296064 -0.058439158 -0.13435665 -0.04893991 -0.034459326
-0.12058152 -0.038600218 0.052861735 0.18280144 0.07381375 0.10925154 -0.10286711 0.06137761
0.016518766 0.11281413 -0.21717136 -0.025784219 0.11527581 0.033236578 -0.2839307 -0.33056203
-0.05254311 -0.28201208 -0.26880312 -0.014749923 0.0717011 -0.09852159 -0.0981602 -0.09528777
-0.106287114 -0.31986204 0.26582217 0.033757407 0.07008954 -0.1601319 0.032196674 0.17264679
0.047673035 0.13168047 -0.014566236 0.06791806 0.3836543 0.25742728 -0.107005954 -0.04487265
0.18775515 -0.14248721 0.056514286 -0.100205615 0.081193484 0.17242554 -0.08422268 0.1645541
-0.05878072 -0.10641912 -0.06735808 0.0616837 0.19294594 0.2113314 0.5275631 -0.14621486
0.13188903 0.18444568 -0.0344218 -0.5240075 0.34221497 0.082944915 -0.030011998 0.032112338
-0.013097661 0.06920986 0.10593779 0.10929017 -0.11537576 0.334342 -0.13041817 0.40027335
-0.10753749 -0.096993215 0.100486994 0.09339416 -0.063347034 0.003066702 0.19588931 -0.024967954
0.021948088 -0.27463424 0.008780041 0.033375077 0.024193948 -0.17257284 -0.04848895 -0.17113575
0.14803639 0.12804344 -0.0064409496 -0.087749384 -0.21759805 0.0018104507 -0.03431497 0.37128288
-0.048835255 0.03289029 0.14665245 -0.07122836 0.054823823 -0.16814326 0.39111456 0.03416804
-0.092222534 6.4407875e-05 -0.016762761 -0.12016342 0.20630515 0.3192967 0.17823128 0.38268778
-0.13886133 0.03631334 0.12682968 0.124438204 -0.051117424 -0.0720491 0.26167068 0.09820476
0.003740469 -0.05929375 -0.058451097 0.124879144 0.21494596 0.13816358 -0.17347266 0.013394704
0.08661827 0.16068433 -0.03275228 -0.0953589 -0.08867539 0.16007106 0.04151914 0.0361187
-0.0712885 0.016897649 -0.15502872 0.015770087 -0.35688284 0.07927962 0.09665942 0.049390733
0.027340295 0.09326163 0.17812228 0.16689627 -0.10090399 0.1358054 0.10410164 0.06380779
0.008389396 0.070515156 0.0879733 -0.11372422 0.15093905 0.06793658 -0.21988975 -0.030874453
0.11946145 0.09814392 0.14560135 0.13417524 0.0145302545 -0.08002926 0.062313393 0.12483174
0.15274857 0.17611629 -0.36291492 0.40244418 -0.06925223 0.14194137 -0.073363036 -0.041798893
-0.025888411 -0.13606475 -0.36768934 -0.30204844 -0.106585495 0.020890197 0.025007708 -0.14133468
0.5135747 -0.07700932 0.111456305 -0.21257447 -0.10027063 -0.17979418 0.15185104 0.08180027
-0.15615833 0.08467566 -0.010230187 -0.14780968 0.0020538731 0.037135895 -0.18277532 0.13750102
0.13799348 -0.04501687 0.0532961 0.12427991 -0.4131146 0.13203597 -0.16937687 0.16113722
0.3116112 -0.18553565 -0.099475704 0.12264297 -0.29411423 0.11321116 -0.14437999 -0.17112328
-0.17639728 0.28732476 0.08372017 0.15388349 0.087018795 0.01617071 0.11053829 0.006684003
0.09631575 0.025738414 0.08692674 -0.052635252 0.06533726 -0.23145133 -0.054443967 0.3293967
0.26792398 0.06731264 -0.03450277 0.0575051 -0.025346885 -0.14144477 -0.18056755 0.12904207
-0.07494451 0.14398919 0.11677002 0.21401072 -0.21394108 0.043948706 0.17802756 -0.2743846
00000000: 2a4f 3dbe 6c4f 93bd 021b aa3e fad5 b9be
00000010: e65d 6fbd ca94 09be 3775 48bd 3925 0dbd
00000020: 72f3 f6bd 431b 1ebd 8c85 583d 4d30 3b3e
00000030: aa2b 973d 45bf df3d feab d2bd 1767 7b3d
00000040: 5d52 873c 180b e73d 2b62 5ebe 6d39 d3bc
00000050: b915 ec3d 1423 083d 5d5f 91be 6d3f a9be
00000060: 7237 57bd e363 90be 90a0 89be a9a9 71bc
00000070: 07d8 923d b0c5 c9bd 3708 c9bd 3c26 c3bd
00000080: 0fad d9bd f5c4 a3be d819 883e 3545 0a3d
00000090: 1b8b 8f3d 9ef9 23be a9e0 033d 52ca 303e
000000a0: cd44 433d 3fd7 063e 39a7 6ebc a018 8b3d
000000b0: 566e c43e 82cd 833e f025 dbbd 62cc 37bd
000000c0: e342 403e 2be8 11be 867b 673d 9a38 cdbd
000000d0: c548 a63d 5290 303e f17c acbd df80 283e
000000e0: 0dc4 70bd 45f2 d9bd 08f3 89bd 0ca8 7c3d
000000f0: 9f93 453e 4267 583e 600e 073f 59b9 15be
00000100: eb0d 073e 54df 3c3e e0fd 0cbd 5b25 06bf
00000110: cd36 af3e 06df a93d b9db f5bc 3a88 033d
00000120: 9297 56bc e6bd 8d3d e9f5 d83d 86d3 df3d
00000130: 204a ecbd e02e ab3e 578c 05be a1f0 cc3e
00000140: 9e3c dcbd 61a4 c6bd 20cc cd3d 7045 bf3d
00000150: 17bc 81bd b9fa 483b 3597 483e 9889 ccbc
00000160: 7acc b33c dc9c 8cbe 29da 0f3c 4eb4 083d
00000170: 6332 c63c efb6 30be 599c 46bd 363e 2fbe
00000180: da96 173e d21d 033e 9a0e d3bb f3b5 b3bd
00000190: 06d2 5ebe a54c ed3a db8d 0cbd ca18 be3e
000001a0: 7a07 48bd f8b7 063d 0f2c 163e 2de0 91bd
000001b0: f28e 603d bf2d 2cbe 2b40 c83e c9f3 0b3d
000001c0: 2bdf bcbd b712 8738 0f52 89bc 3d18 f6bd
000001d0: a841 533e db7a a33e 4382 363e a7ef c33e
000001e0: aa31 0ebe 4cbd 143d a4df 013e 75d9 fe3d
000001f0: 8160 51bd 7b8e 93bd b3f9 853e 941f c93d
00000200: a822 753b 01de 72bd 6b6a 6fbd a3c0 ff3d
00000210: cb1a 5c3e c17a 0d3e d1a2 31be 7675 5b3c
00000220: eb64 b13d 6f8a 243e 4127 06bd 874b c3bd
00000230: 719b b5bd abe9 233e f90f 2a3d 34f1 133d
00000240: b5ff 91bd f06c 8a3c d9bf 1ebe 4530 813c
00000250: 59b9 b6be 5a5d a23d 60f5 c53d f04d 4a3d
00000260: c1f8 df3c f4ff be3d b065 363e dbe6 2a3e
00000270: c0a6 cebd 9210 0b3e 3e33 d53d a9ad 823d
00000280: ad73 093c 406a 903d 582b b43d 3ee8 e8bd
00000290: c48f 1a3e 5522 8b3d c72a 61be 6cec fcbc
000002a0: 34a8 f43d aeff c83d 8518 153e 3c65 093e
000002b0: 4e10 6e3c 61e6 a3bd 543c 7f3d c9a7 ff3d
000002c0: 1f6a 1c3e d457 343e fccf b9be 2a0d ce3e
000002d0: 1dd4 8dbd 1459 113e 5c3f 96bd 5135 2bbd
000002e0: ef13 d4bc 8f54 0bbe c741 bcbe 18a6 9abe
000002f0: 7f49 dabd eb21 ab3c f7dc cc3c 0aba 10be
00000300: a279 033f 10b7 9dbd 3443 e43d 1fad 59be
00000310: b05a cdbd f71b 38be d77e 1b3e e686 a73d
00000320: f8e7 1fbe 6f6a ad3d 849c 27bc 6c5b 17be
00000330: 469a 063b cf1b 183d 7429 3bbe 11cd 0c3e
00000340: 2a4e 0d3e 9c63 38bd 034d 5a3d 7786 fe3d
00000350: c283 d3be 7034 073e 2171 2dbe 2801 253e
00000360: 818b 9f3e 0ffd 3dbe ebb9 cbbd 3d2c fb3d
00000370: 2496 96be 41db e73d 59d8 13be f13a 2fbe
00000380: 7da1 34be 3b1c 933e 7b75 ab3d a293 1d3e
00000390: e936 b23d 7078 843c e661 e23d 7b05 db3b
000003a0: 3141 c53d 5ed9 d23c a606 b23d 1098 57bd
000003b0: 8bcf 853d 9401 6dbe a300 5fbd afa6 a83e
000003c0: 552d 893e 36db 893d c752 0dbd 788a 6b3d
000003d0: 45a4 cfbc e6d6 10be b3e6 38be 9b23 043e
000003e0: 827c 99bd e771 133e 1f25 ef3d a025 5b3e
000003f0: 5f13 5bbe 8f03 343d db4c 363e 237c 8cbe

hidden_layer_2.bias f4 [300]
-0.0019458672 -0.05693461 -0.10868621 0.02526964 -0.048548844 0.028497819 -0.0031690085 0.056349337
0.098676234 -0.03259686 0.03967276 -0.091478534 0.035083696 -0.082156025 -0.08859103 -0.06428778
0.030082652 -0.019499391 -0.015814165 -0.03322629 0.01649486 0.07049401 -0.079661116 -0.03929666
0.030740693 -0.0059965616 -0.02626005 0.066633165 0.061271533 0.00073300855 0.020436216 -0.10238684
0.09589452 -0.03176265 0.047480084 -0.019422527 -0.03305274 -0.039429672 -0.019993057 0.08306939
0.054008763 0.0068444754 -0.045675717 -0.03454478 0.07097018 -0.035919655 -0.06118435 -0.13683476
-0.0066219363 -0.010994884 0.013647364 -0.014334891 0.02663973 -0.007508349 0.0032104312 -0.011551827
-0.13991925 -0.08322108 -0.100256704 -0.14997216 0.029331785 0.031822108 0.011660965 -0.09695684
0.040175237 0.09057963 -0.006879234 -0.041571274 0.030250642 -0.02112199 0.05554664 -0.06865645
0.023226207 -0.044851664 -0.05371171 -0.2131451 -0.17014712 0.009653219 -0.078130774 0.0134195415
0.0015508174 -0.05692917 -0.07241678 0.032966204 0.01568084 -0.014135487 -0.01483552 -0.12774478
0.021308117 0.015152328 -0.036934245 0.021119706 0.0050448067 0.06313553 -0.041670542 -0.057173442
-0.0137078855 0.0068124444 -0.048425622 -0.002936887 -0.15609278 -0.08024369 -0.12763119 -0.11674689
-0.07038002 0.018103248 -0.037473273 -0.08804708 0.015133877 0.043665297 0.027415128 0.030357962
-0.0010232563 -0.0011856529 -0.09428124 -0.01320715 0.04871917 0.0054129562 0.03751501 0.082703374
-0.013473135 -0.018066276 -0.10891028 0.011456101 -0.01662397 0.06544516 -0.028070603 0.005094157
0.0830727 -0.012030115 0.00584972 -0.06220012 -0.097552255 0.03748462 0.092710674 0.011341058
0.052637033 0.11396953 0.022007562 0.06421221 -0.02291977 -0.0011179965 -0.06350536 -0.05612948
-0.022720004 -0.11171568 -0.050026085 0.022148592 0.017023506 0.048481815 0.07323944 0.027097402
-0.01591118 0.103169285 0.00334425 0.04289699 -0.020191282 0.10305062 -0.14348334 0.0025866232
-0.019788532 0.021158 -0.026495198 -0.053688478 0.045948103 -0.04753361 -0.06862186 -0.037426718
-0.036727414 0.042628694 0.045302793 -0.08326655 -0.08518595 -0.03237542 0.043894857 0.0023721855
-0.1354354 0.016440988 -0.018316822 -0.04252864 0.14827977 -0.046125222 -0.06783916 -0.038447928
0.009402992 -0.0076233577 0.05206184 0.07280748 -0.0744222 0.03802208 0.029081212 -0.018401159
-0.048015267 -0.0064112158 0.054057043 -0.043421403 -0.030190635 -0.059227314 -0.034501914 0.043749806
-0.05651491 -0.0492707 -0.116444 0.08831352 0.048750773 0.033103228 0.06859901 -0.108287156
-0.022530956 -0.05013454 -0.055486437 0.022714289 -0.10997285 -0.0057439324 0.012945114 0.13617547
-0.039725438 -0.06688064 0.037458993 0.033241246 -0.029562876 0.014568279 0.062027905 -0.06539894
0.033657633 -0.007744193 0.086684786 0.053522654 -0.072024405 0.036785316 0.041929293 0.061983723
-0.017584123 0.018695712 0.030005692 0.028660636 -0.06034752 -0.0441289 -0.0041553127 -0.082773164
-0.017300759 -0.0015254616 -0.024455957 -0.06539905 0.017865596 -0.0265847 -0.049887568 -0.018818097
-0.01117185 0.0074708615 0.020234047 0.026994983 -0.046322368 0.0001655816 -0.0047389106 -0.05165633
00000000: 780c ffba 4434 69bd e096 debd 4702 cf3c
00000010: 27db 46bd 4274 e93c 24af 4fbb 90ce 663d
00000020: c416 ca3d 4984 05bd e77f 223d 1959 bbbd
00000030: ecb3 0f3d 6b41 a8bd 376f b5bd 50a9 83bd
00000040: e56f f63c 30bd 9fbc b58c 81bc 4a18 08bd
00000050: 3b20 873c 2a5f 903d 5e25 a3bd 89f5 20bd
00000060: e8d3 fb3c ce7e c4bb 511f d7bc f876 883d
00000070: dcf7 7a3d 5f27 403a da69 a73c 31b0 d1bd
00000080: 5964 c43d 8d19 02bd 7a7a 423d fe1b 9fbc
00000090: 4f62 07bd 0281 21bd 7bc8 a3bc 4920 aa3d
000000a0: 4b38 5d3d 9f47 e03b 7616 3bbd d47e 0dbd
000000b0: d058 913d 7d20 13bd 719c 7abd 691e 0cbe
000000c0: d4fc d8bb e323 34bc 3299 5f3c e4dc 6abc
000000d0: 903b da3c 9908 f6bb 1966 523b e043 3dbc
000000e0: fe46 0fbe d06f aabd 6353 cdbd 4d92 19be
000000f0: 3649 f03c e657 023d a20d 3f3c 4f91 c6bd
00000100: ca8e 243d d081 b93d 336b e1bb a446 2abd
00000110: 32d0 f73c 0608 adbc e084 633d c19b 8cbd
00000120: e344 be3c 61b6 37bd cf00 5cbd b642 5abe
00000130: 0c3b 2ebe 8928 1e3c 0703 a0bd a3dd 5b3c
00000140: cc44 cb3a 902e 69bd 404f 94bd 9207 073d
00000150: 1b75 803c 8898 67bc ae10 73bc 87cf 02be
00000160: 5c8e ae3c 7841 783c 5d48 17bd 3c03 ad3c
00000170: e84e a53b 334d 813d bbae 2abd b32e 6abd
00000180: 0a97 60bc ed3a df3b f259 46bd ca78 40bb
00000190: c9d6 1fbe ce56 a4bd c0b1 02be fe18 efbd
000001a0: 6623 90bd 434d 943c 937d 19bd 0752 b4bd
000001b0: 15f4 773c 62da 323d b195 e03c 43b1 f83c
000001c0: c91e 86ba e967 9bba 8616 c1bd cd62 58bc
000001d0: c18d 473d 2b5f b13b 57a9 193d 6360 a93d
000001e0: 6dbe 5cbc baff 93bc 5a0c dfbd 5fb2 3b3c
000001f0: fe2e 88bc 1d08 863d 52f4 e5bc e3ec a63b
00000200: 0522 aa3d f619 45bc 02af bf3b 8ec5 7ebd
00000210: 7ac9 c7bd 7989 193d 18df bd3d d8cf 393c
00000220: ee99 573d db68 e93d 3449 b43c b181 833d
00000230: 3ec2 bbbc bd89 92ba 190f 82bd 07e8 65bd
00000240: 4d1f babc 31cb e4bd 27e8 4cbd f770 b53c
00000250: e174 8b3c de94 463d 8ffe 953d 5ffb dd3c
00000260: 2a58 82bc 6b4a d33d 342b 5b3b c1b4 2f3d
00000270: 3068 a5bc 340c d33d 4ced 12be 5684 293b
00000280: 8f1b a2bc 8b53 ad3c 750c d9bc 73e8 5bbd
00000290: 1434 3c3d 9ab2 42bd 9e89 8cbd c24c 19bd
000002a0: 7c6f 16bd 6d9b 2e3d 6c8f 393d a787 aabd
000002b0: f975 aebd 179c 04bd 18cb 333d ab76 1b3b
000002c0: 94af 0abe 40af 863c 290d 96bc 8332 2ebd
000002d0: a7d6 173e cded 3cbd 42ef 8abd 937b 1dbd
000002e0: 020f 1a3c 5ccd f9bb cc3e 553d 171c 953d
000002f0: ab6a 98bd 0abd 1b3d b93b ee3c 07be 96bc
00000300: a8ab 44bd 2d15 d2bb eb6a 5d3d a4da 31bd
00000310: 5a52 f7bc 5798 72bd e151 0dbd ff32 333d
00000320: 2e7c 67bd 13d0 49bd 317a eebd b8dd b43d
00000330: e4ae 473d 4097 073d a37d 8c3d a8c5 ddbd
00000340: d792 b8bc e059 4dbd bf45 63bd 5113 ba3c
00000350: 7239 e1bd 9937 bcbb be17 543c 9571 0b3e
00000360: 24b7 22bd b8f8 88bd 9a6e 193d f927 083d
00000370: d82d f2bc caaf 6e3c f910 7e3d e1ef 85bd
00000380: 96dc 093d 00c3 fdbb cb87 b13d 923a 5b3d
00000390: 8881 93bd 33ac 163d 0dbe 2b3d a5e2 7d3d
000003a0: 940c 90bc c027 993c 7fce f53c b6c9 ea3c
000003b0: f62e 77bd 81c0 34bd 4a29 88bb fa84 a9bd
000003c0: 52ba 8dbc fff1 c7ba dc57 c8bc f0ef 85bd
000003d0: df5a 923c 28c8 d9bc e856 4cbd 6928 9abc
000003e0: 230a 37bc 21ce f43b dfc1 a53c 9524 dd3c
000003f0: 86bc 3dbd f99f 2d39 dd48 9bbb 9695 53bd

output.weight f4 [4, 300]
-0.47343475 0.99245155 -0.95838183 0.8467308 0.96861744 1.9051085 0.2124825 -0.3728449
1.0201913 0.6407656 -0.13795587 -0.5658589 0.41261184 0.5794493 0.09449881 -0.23528281
-0.1314941 -0.0882279 -0.105973914 0.5237567 1.0387774 0.06676703 -0.50089973 -1.3260201
0.21358618 0.23748444 1.0375277 0.5798313 0.66994673 0.67123467 0.9301072 0.23357324
-0.03057277 -0.17673463 0.10520842 0.5504816 -0.0045642657 0.07899376 -0.6830434 -0.3643311
-0.30600625 -0.028675368 0.08096678 0.09175341 -0.39828917 0.14640458 0.6191545 0.70022446
-0.30327192 -0.9305662 -0.16133483 -0.20447223 -0.7866166 -0.96262074 -0.79779387 0.55320066
0.38317856 -0.65183026 0.13359572 -0.286468 -0.2457313 0.14380565 -0.550975 -0.075607754
-0.5970441 0.33233324 -0.026345102 -0.1977781 -0.5196066 -1.1691378 -0.7892705 -0.7372932
-1.1307855 0.13160211 0.12163058 1.5402436 -0.06128257 0.019359052 0.67620003 -0.2116374
0.50435793 -0.12735526 -0.31010836 -0.39745298 -0.3535803 -0.09984875 0.6621934 0.036060136
-0.11582904 -0.30369297 -1.0136195 1.1357951 -0.5757685 -0.6213103 -0.5919364 1.0283576
0.35506824 -0.9131636 -0.118957475 -0.3201435 0.36442968 -1.0311334 -0.097260155 -0.40341493
-0.44274265 0.4655366 0.44394904 1.0113527 0.7583331 0.39373386 0.35370034 -0.22487812
-1.4293865 0.36658216 -1.172168 -0.54420865 0.5249051 -0.18430857 -0.26663026 -0.97358704
0.20771302 -0.70319253 -0.2647356 -0.60119426 0.15224488 0.56062216 -0.6391787 0.6234072
0.023077812 -0.07551185 -0.67426443 -0.26280475 -0.5330027 -0.6618769 -0.2733735 -0.5038408
0.99838585 -0.28149113 -0.029179992 -0.29027414 -0.15322192 -0.7006187 -0.3169249 -0.1790335
-0.35435465 0.31230628 1.0600643 0.84637475 0.99372363 -0.08259139 -0.005443493 -0.19336385
-0.054473497 0.8160354 -0.065694645 -0.3532707 -0.01007642 -0.51166815 0.5715498 -0.501073
-0.660171 0.6448752 0.8164791 -0.9564267 0.6655202 0.40822446 -0.73455524 -0.2778854
0.3082389 -0.1608504 1.5334024 0.9510584 -0.45614827 0.8464307 -0.075104594 -0.4047938
1.286436 0.9556995 -0.11735889 0.27088523 -0.18721029 -0.15649883 0.6619091 0.56321806
0.1309811 -0.34098583 0.44768775 -0.38501585 -1.2216352 -0.22051153 0.97734034 0.4408597
0.5404368 -0.35330024 -0.2739343 -0.34937328 0.22452706 0.6093259 -1.0120082 -0.74786377
-0.22469653 -0.5771477 0.21577111 -0.21668197 0.103303656 0.067906484 -0.24122952 -0.21471727
-0.812081 -0.32476127 -0.28628108 0.30471066 0.16777144 -0.5752682 -0.51835674 0.34981132
-0.5248563 -0.51398534 -0.34004533 -0.1854284 -0.37868398 0.42616895 0.59794605 -0.2038312
-0.6094657 0.95691484 -0.59248745 -0.250896 -0.053179726 -0.88153714 -0.36403105 -0.22452499
-0.79272974 0.8202699 -0.24600235 0.15263097 -0.20986164 -0.06302538 -0.14188042 0.9973859
0.64779514 -0.38769403 -0.38286373 -0.54910266 0.44385314 0.5926342 -0.19392936 -0.22610366
-0.8038804 0.7512721 -1.0008035 0.029377813 0.09536476 -0.06216913 -0.340973 -0.54204005
00000000: 0a66 f2be 4e11 7e3f 8358 75bf 5ac3 583f
00000010: 50f7 773f 98da f33f 0395 593e 87e5 bebe
00000020: a195 823f 3709 243f 4e44 0dbe 21dc 10bf
00000030: dc41 d33e ca56 143f 9888 c13d faed 70be
00000040: 64a6 06be d4b0 b4bd da08 d9bd eb14 063f
00000050: a8f6 843f 27bd 883d f73a 00bf 07bb a9bf
00000060: 56b6 5a3e 1f2f 733e b5cd 843f d36f 143f
00000070: a181 2b3f 09d6 2b3f 811b 6e3f d32d 6f3e
00000080: bf73 fabc ecf9 34be 8377 d73d 5dec 0c3f
00000090: d68f 95bb 7bc7 a13d efdb 2ebf 9b89 babe
000000a0: daac 9cbe 9be8 eabc e9d1 a53d 36e9 bb3d
000000b0: 8fec cbbe 15eb 153e e980 1e3f e941 333f
000000c0: 7546 9bbe 9639 6ebf f534 25be 2b61 51be
000000d0: b55f 49bf 506e 76bf 383c 4cbf 8f9e 0d3f
000000e0: fb2f c43e 59de 26bf 51cd 083e efab 92be
000000f0: fca0 7bbe ca41 133e b30c 0dbf 3dd8 9abd
00000100: e2d7 18bf 9527 aa3e afd1 d7bc 5886 4abe
00000110: f004 05bf 4fa6 95bf a20d 4abf 3fbf 3cbf
00000120: 94bd 90bf b4c2 063e 7419 f93d b426 c53f
00000130: 6f03 7bbd e096 9e3c 721b 2d3f 79b7 58be
00000140: 9a1d 013f 6b69 02be 86c6 9ebe f57e cbbe
00000150: 7a08 b5be 807d ccbd 8285 293f cbb3 133d
00000160: c737 edbd a57d 9bbe 49be 81bf bc61 913f
00000170: 9065 13bf 310e 1fbf 2589 17bf 39a1 833f
00000180: 81cb b53e 17c5 69bf fa9f f3bd d9e9 a3be
00000190: 8796 ba3e 2efc 83bf 5530 c7bd 678c cebe
000001a0: 2aaf e2be d05a ee3e 4a4d e33e 0174 813f
000001b0: 1e22 423f 7c97 c93e 3618 b53e 7346 66be
000001c0: 23f6 b6bf a8b0 bb3e 9a09 96bf 4251 0bbf
000001d0: 2e60 063f 63bb 3cbe c383 88be 003d 79bf
000001e0: b9b2 543e 6d04 34bf 6d8b 87be dee7 19bf
000001f0: 15e6 1b3e ef84 0f3f 37a1 23bf 9d97 1f3f
00000200: ae0d bd3c f5a5 9abd 989c 2cbf 588e 86be
00000210: dd72 08bf c470 29bf 9df7 8bbe b6fb 00bf
00000220: 3796 7f3f 9b1f 90be e10a efbc d09e 94be
00000230: 35e6 1cbe bf5b 33bf fb43 a2be 8f54 37be
00000240: f96d b5be 9ce6 9f3e 30b0 873f 04ac 583f
00000250: ac64 7e3f ad25 a9bd 545f b2bb 2c01 46be
00000260: 9a1f 5fbd b2e7 503f ea8a 86bd e6df b4be
00000270: 9217 25bc affc 02bf 1651 123f 5246 00bf
00000280: f700 29bf 8b16 253f c604 513f 61d8 74bf
00000290: 885f 2a3f cc02 d13e d00b 3cbf ff46 8ebe
000002a0: 7dd1 9d3e f8b5 24be 8846 c43f 9078 733f
000002b0: 448c e9be afaf 583f 70d0 99bd 2241 cfbe
000002c0: efa9 a43f b9a8 743f dc59 f0bd 78b1 8a3e
000002d0: 0eb4 3fbe 3b41 20be e072 293f 0f2f 103f
000002e0: e91f 063e b295 aebe 5437 e53e cc20 c5be
000002f0: 8b5e 9cbf c6cd 61be fa32 7a3f 5db8 e13e
00000300: 115a 0a3f c5e3 b4be 1e41 8cbe 0ee1 b2be
00000310: 6cea 653e c8fc 1b3f 7c89 81bf 0074 3fbf
00000320: d916 66be f4bf 13bf 1af3 5c3e e1e1 5dbe
00000330: de90 d33d 8e12 8b3d df04 77be d8de 5bbe
00000340: 8ae4 4fbf 1c47 a6be 6f93 92be 0903 9c3e
00000350: 47cc 2b3e c744 13bf 07b3 04bf 781a b33e
00000360: fc5c 06bf 8b94 03bf 6c1a aebe f1e0 3dbe
00000370: dee2 c1be d132 da3e fe12 193f 20b9 50be
00000380: f205 1cbf 5ff8 743f 42ad 17bf 7175 80be
00000390: fcd2 59bd 6bac 61bf 4762 babe e1e9 65be
000003a0: 56f0 4abf 35fd 513f 0ae8 7bbe 4b4b 1c3e
000003b0: f8e5 56be 7313 81bd 1a49 11be af54 7f3f
000003c0: e7d5 253f d57f c6be b706 c4be fe91 0cbf
000003d0: b840 e33e e0b6 173f 6b95 46be b887 67be
000003e0: 1bcb 4dbf 5e53 403f 541a 80bf bda9 f03c
000003f0: 994e c33d 0fa5 7ebd 0394 aebe 23c3 0abf

output.bias f4 [4]
-0.097792335 0.009214266 0.029996552 -0.03039059
00000000: 5947 c8bd 6ff7 163c 54bb f53c b0f5 f8bc
