Neural_networks/reacher_20_9qvalue_local.pth (torch, 543903 bytes, 5 tensors)

hidden_layer_1.weight f4 [400, 33]
00000000: bd42 11be 4277 913c 7477 21bd 1101 65bf
00000010: 75b9 8e3e a262 b1be 9ca0 81be 593f 383d
00000020: 62b1 cfbc 1110 cb3e a976 96bd 7585 2dbb
00000030: fb80 50bc dddd 823d 4c53 ac3d 0536 953d
00000040: 015d 483f eb38 813e db36 423e 7a07 c13e
00000050: 3636 0abd 7e16 3f3d 240e d73c 6a65 9b3d
00000060: b2da d1bc 0f91 bfbc 1d5c 38bd 155b 10bc
00000070: de48 6fbe 767f 9a3c 84df 273a e487 793c
00000080: 1ac7 1e3f 507e 473d 8526 2dbd d702 88bd
00000090: 65e9 803e a292 b9be 25cf 09bf 6e9f 833e
000000a0: 5646 5abd 057a 1f3e 7a33 46be 9a77 943d
000000b0: d165 3ebc d44c 553c f0d1 86bd e832 8b3d
000000c0: 54f3 a83d e946 4abe b71c 0f3f a7e6 693e
000000d0: 0894 67be 5098 20bd 473b 513d d67e 61bc
000000e0: ed7a aebd 14a8 543c f196 933d da1d 953d
000000f0: 5914 0f3e 256b 2abe 50bf b4bc 3d15 2cbe
00000100: d5e6 403d d9a8 553f 7aa5 c43d 2484 773b
00000110: 66c1 ebbc 423d 1fbc 8fe1 b73e eb32 0a3f
00000120: 6cd6 10be 6772 52bd 18ac 143e 6c85 3abe
00000130: 206f 853d 5296 49bd a92a 19bc 2543 10bd
00000140: db69 8f3c 8a48 803b f0f6 1f3e 18a3 023e
00000150: bf8a 00be de20 40be 2a9b 77bc eb3c 763b
00000160: 24c2 2dbc e77d d3bc a6e5 e7bc 58f2 96bd
00000170: 5c22 cebd c24f a83e a61d c4bd e834 233c
00000180: f4bb 92be 3062 14bd 6881 b73f 5129 4cbd
00000190: 1040 57bc 20ec d9bd 258a 973e 1828 b23e
000001a0: fa1c 02bf fe5c 103e 4dcd de3c 08a7 8a3e
000001b0: a1bf 5fbe a5ea 28bd 7e76 6dbd 6fa2 783b
000001c0: 3850 5cbd a297 25bd 29ad 78bc f627 fb3d
000001d0: fd73 003f 8591 2b3c d9f1 1ebf 2988 09bd
000001e0: 9e07 0d3d d1f9 b03d 7d20 333d 8473 30bd
000001f0: 7ed2 983d 4b0a 993d 60a1 043e 67f5 a13d
00000200: 3402 8abc 8e34 7dbd 986c 40bc 9ff8 853f
00000210: 801d 49bc 218c a7bd b976 a8bd 606e 2cbe
00000220: d325 4b3d 623e 5fbe d90c 933e e1f0 b5bd
00000230: 7f27 bebd b960 1a3e af8b 3f3d 4619 aebd
00000240: fd28 b03d 708c aa3d 1e88 b53d 1421 1d3e
00000250: c1ef 2e3e 6256 23bf f18d f2be b6a3 b6be
00000260: 9467 afba 0fcf 96bd a21b a63d a9d5 e13c
00000270: a7a5 503c 05aa 673d 03a6 0cbe 7250 8e3d
00000280: aa43 40bc acad 0f3c 1c2e debd 6c52 8cbc
00000290: 5895 2d3f 2f52 41bd 0c25 7b3d d4c4 373e
000002a0: 4933 7d3c 9a65 1d3d dd9c 303f e338 19be
000002b0: 338b 743d b123 5cbe 7eb1 813e ebae 1bbe
000002c0: 3aab fcba 1383 a93c 532c 113e bb8b a63d
000002d0: 8592 41bd f043 163f a5cc 82bf f0ab 6cbe
000002e0: 47cd f83e 8d75 04bc 3805 96bd 049d 303d
000002f0: 1cb2 aebd a160 d73d 7a2e b23d bd1b b0bc
00000300: 7187 813e 93e2 83bc fd04 1d3d 07b6 5fbe
00000310: fd75 0c3d cac4 16bf f02c 0dbe 02d2 0f3e
00000320: 8e56 fb3a 70e8 59be 9833 503e fede 9a3e
00000330: 20fb 873e 69c3 8cbd c27e 073d e36c 1abe
00000340: d99c fcbb c3a0 ea3d 1277 d6bd 4b1c 113d
00000350: 8eb6 2d3d ac34 95bc 0c1f 48be 582d 23bf
00000360: 827d f33e 49a4 afbe 7115 183d 812e acbc
00000370: 0f8c 85bc 5013 98bd 281f ec3d 2e69 7fbc
00000380: d3ba b63b 9485 b23e 05eb 0e3e 64d1 723c
00000390: 384f 8ebe e7cc dfbc b2ea 15bf 8fca bd3d
000003a0: 6e7a 893d aee8 583e 2890 873e 09f9 ab3e
000003b0: bf29 69ba 20b0 08bf 1d50 b63c 444b edbe
000003c0: b95c 2dbd 5c3b 2e3d daa6 a63d 20fa 013e
000003d0: 307f db3b 9f57 8d3e c2b2 453e 7bf1 92be
000003e0: 0e48 36bf 9875 35bd ba8c 3cbe 7749 c1bc
000003f0: 00cd 4f3d 4a9d 6a3d 7ab7 e8bd 51af cfbc
-0.14185615 0.017757062 -0.03942056 -0.8945475 0.27875867 -0.34645563 -0.25317848 0.044982288
-0.025353137 0.39660695 -0.073468514 -0.0026477252 -0.012726064 0.06389973 0.08414325 0.07285694
0.7826691 0.25238737 0.18966238 0.37701017 -0.033743106 0.04665231 0.02625186 0.075877026
-0.025616977 -0.023384599 -0.04500972 -0.008810778 -0.2336764 0.018859606 0.0006403851 0.015230153
0.62022555 0.048704445 -0.042273063 -0.06641167 0.25178066 -0.36244684 -0.538317 0.25707573
-0.053289734 0.1557389 -0.19355574 0.07249375 -0.011620955 0.0130188055 -0.06583011 0.06796819
0.08249536 -0.19753613 0.5590319 0.22841893 -0.22615063 -0.039207757 0.051081922 -0.01376315
-0.0851954 0.012979526 0.07206524 0.07281084 0.13972606 -0.16642435 -0.022063881 -0.16804977
0.04709514 0.83460766 0.09601875 0.003776797 -0.028778743 -0.009719195 0.35914275 0.53983945
-0.14144295 -0.051378634 0.14518774 -0.18214959 0.06515336 -0.049215622 -0.00934855 -0.035220284
0.01750653 0.0039148973 0.15621543 0.12757528 -0.12552927 -0.18762538 -0.015112678 0.003757293
-0.010605369 -0.02581687 -0.028307747 -0.07370442 -0.10065147 0.3287335 -0.095759675 0.009961344
-0.28659022 -0.03622645 1.4336367 -0.04984409 -0.013137832 -0.106407404 0.29597583 0.34796214
-0.50825465 0.14097974 0.027197504 0.2708056 -0.21850444 -0.0412394 -0.05797433 0.0037938615
-0.05378744 -0.04042781 -0.015178003 0.12263481 0.50176984 0.010471706 -0.6208778 -0.033577118
0.034431092 0.08641399 0.043732155 -0.043078914 0.07462023 0.07472666 0.12952185 0.07908135
-0.016846754 -0.0618177 -0.011744641 1.0466498 -0.0122751 -0.08181024 -0.082257695 -0.1683898
0.04959662 -0.21801141 0.2872074 -0.08883835 -0.09284877 0.1507596 0.046764072 -0.08500914
0.08601568 0.083275676 0.08863853 0.1534465 0.17083646 -0.63803685 -0.47373918 -0.35671777
-0.0013382309 -0.07363712 0.08110739 0.027567701 0.012734807 0.056558628 -0.13735203 0.069489375
-0.011734882 0.008769434 -0.108486384 -0.017129146 0.67806005 -0.047197517 0.061314628 0.17946178
0.015454122 0.038426973 0.68989354 -0.14963107 0.059703063 -0.2149799 0.25330728 -0.15203445
-0.0019277104 0.020692384 0.14177065 0.0813212 -0.047258873 0.58697414 -1.0218703 -0.23112464
0.48594114 -0.008084667 -0.07325214 0.04311849 -0.085300654 0.105164774 0.08700271 -0.021497602
0.25298646 -0.01609925 0.038334835 -0.21846782 0.03429221 -0.58894026 -0.13786674 0.14044955
0.0019175576 -0.21280074 0.20332181 0.30248255 0.2655878 -0.06873209 0.03307987 -0.150806
-0.0077091274 0.11456444 -0.104719296 0.035427373 0.042410426 -0.018213592 -0.19543093 -0.63741064
0.47556692 -0.34305027 0.037129823 -0.021018269 -0.016302137 -0.074255586 0.1152938 -0.015589042
0.0055764704 0.34867537 0.1395684 0.01482043 -0.27794814 -0.027319385 -0.5856124 0.092671506
0.06712805 0.2118251 0.2647717 0.33588436 -0.0008894465 -0.53393745 0.022254998 -0.46346486
-0.042324755 0.04253708 0.08137293 0.12693071 0.0066985115 0.27605912 0.19306472 -0.2869986
-0.71203697 -0.0443016 -0.18413058 -0.023594601 0.050732613 0.05727891 -0.113631204 -0.025352152

hidden_layer_1.bias f4 [400]
00000000: 890c 39bd f6ff 64be 1247 15be c9cf a4bd
00000010: 7904 7cbe 1857 bcbe 6575 e6be 14d0 a2be
00000020: fd00 2bbe 77c1 8bbe 8e14 54bd 4885 acbe
00000030: 2f3c 79be 3fff 9bbe 8367 c6be 55fb 60be
00000040: 817c fbbd 0df5 b4be b52f 80be efa6 343e
00000050: 2e3b 8cbe 6df9 11bf c9f7 0abe fb52 b13e
00000060: 66a7 b5be 24fe 87be ba57 a1be e5e8 593c
00000070: c8ae 4c3e a5d0 7ebe b671 25be 5a7a 62be
00000080: 1e94 dabd de8d b6be c89e 40be 2f93 f3bc
00000090: 1aae 66be b17a 15bd 50c3 dbbd d73e d1bd
000000a0: ecae e33d 183e 3cbd 8edf 9f3a 9542 56be
000000b0: c16f 83be b0fe 1b3e c3b0 20bd 8b93 89be
000000c0: 2109 223c 99cb 31be 006a 0abd f000 acbb
000000d0: f4ef b2bd 62b2 1fbe 4d57 0fbe 4c8d 2dbe
000000e0: 07a0 08be 4d78 98be 4607 523d d493 93be
000000f0: 511c 83be b885 35be 75aa 29bd 16db 04be
00000100: 56e4 78be beb1 c9be 7571 33be f4eb 0abf
00000110: 0ca6 583d e1ce 65bd 82f5 93bd 7bf1 1dbe
00000120: 4118 76be 546b 2b3c fd4d 5cbe d44a a1bd
00000130: af08 c5be 7439 65be a731 e33c da1a 8abe
00000140: eea7 cdbe 25f1 a2be 29ab 87be f96a 6dbe
00000150: b3ed 6fbd fb90 0ebe 24f4 89be 2138 f13c
00000160: e2bd 913c 7d1a 80be 0b2f 80be da45 9ebe
00000170: d32e 15be c9b4 a8bd d53b 7dbe 063d 76be
00000180: e364 aebe 29c1 61be cfdc 4ebe 8501 9abd
00000190: 6421 9dbe b7be d0bd a61f d5be 2d97 95be
000001a0: 7d6b 99bd ac5d f83d e51b 04be 0e82 a1be
000001b0: 420e 97be bd47 d5bd 6c2d 30bd 1855 19be
000001c0: fad0 fabe f623 7abe feea ab3b fd2e d9bd
000001d0: 048a a1be 7f90 c3be 7ae1 b3be ace6 0abf
000001e0: beb6 bcbe 3b18 a4be f5ed babe f6dd 2abd
000001f0: b053 09be b517 abbe 706e 8ebd 3252 39be
00000200: a3e8 9abe e796 7ebd ce36 eebe d132 1fbe
00000210: 1f87 9ebd 7d72 bbbd 62c0 6cbe addb 24bd
00000220: 57e3 85be 2d07 2ebd 860e 003f 4646 37be
00000230: 34b0 033d 4987 31be 97db c0be 25ca ffbd
00000240: 0d79 a3be d188 03be c08f 2ebe a0b3 c8be
00000250: 549c c8be 7099 76be 49b8 e5be 97e1 e43c
00000260: 622f 66be 2285 09bf 50bc d4be f0c5 e9be
00000270: d645 99bc 1109 02bf c586 0dbe e9ae a2be
00000280: 6abe 973e 2df5 f3bd 4a7c 93be 18cb b7bd
00000290: 2104 86bc 6cc0 dfbd 0377 553d 324c 9ebe
000002a0: 8e08 4abe 98a7 4fbe 1cbb 52bd 9efd a8be
000002b0: c790 ee3d 16ca 50be 8cd4 38be 0395 18be
000002c0: 0690 1cbf 7111 4bbe 6e9a 893d 8ade f3bd
000002d0: 7cfc 7ebd f83a be3e b287 ddbe ffcf c3be
000002e0: fc3d 90be b776 0dbf 04a8 f1be 83d7 a8be
000002f0: cff3 4e3e 35cb d83c 6e9c 723c 1c63 5ebe
00000300: 2ab7 84be 76dc 0ebe c6e0 18be 05e2 30bd
00000310: 40c4 27be 1dd7 dabe c07e 73be f0d4 aabe
00000320: 0053 5cbe 142f 9abe 3b13 4cbe 2e2d 2dbe
00000330: a36c 08be ca8f 14bb c964 23be 89d6 8dbc
00000340: 8e3d bb3d 3066 e0bd 1475 3bbe 7da4 79be
00000350: 948b 58be a44b 70be 15f0 653c f866 2ebe
00000360: a82f 92be c25f 88be b382 12be 7efc 4bbe
00000370: ec8c b8be 6887 a5be 1231 4dbe 4bae 22be
00000380: 94eb ecbd 46b0 96bd 680f 80be dce7 81be
00000390: 5ee5 6bbd 19d2 9cbe 3cc3 adbe c903 d63c
000003a0: 4449 1dbe aab2 69be 62e5 40be ea33 813d
000003b0: b6c7 cebd b056 84be c417 6dbe d9aa 53be
000003c0: 8df3 303d 68ce e2be 0ef1 96bd 1246 3abe
000003d0: 6902 febe 87d2 0fbe 966b 773d 3557 57be
000003e0: c343 d9be a319 4abe 9c2f 99bd cf15 bbbe
000003f0: 5c21 96be 75b1 a6be 75ea ccbc a71c 8cbd
-0.04517797 -0.22363266 -0.14577892 -0.080474444 -0.24611081 -0.36785197 -0.4501144 -0.31799376
-0.16699596 -0.2729604 -0.051777415 -0.33695436 -0.24339364 -0.30468175 -0.38750848 -0.21970876
-0.122796066 -0.3534321 -0.25036398 0.17641805 -0.273889 -0.5702122 -0.13571085 0.34633622
-0.35479277 -0.2656108 -0.31512243 0.013300155 0.19988549 -0.24884279 -0.16156659 -0.22116986
-0.10672782 -0.3565511 -0.1881057 -0.029733269 -0.22527352 -0.03649396 -0.10730612 -0.10217064
0.11117348 -0.045957655 0.0012197362 -0.20923837 -0.256712 0.15233874 -0.039231073 -0.2687038
0.009889872 -0.17362823 -0.033792496 -0.005249135 -0.08737174 -0.15595391 -0.13998146 -0.16948432
-0.13342296 -0.29779282 0.051276468 -0.2882372 -0.2560754 -0.17726791 -0.041422326 -0.129742
-0.24305853 -0.3939342 -0.17523749 -0.54266286 0.05289273 -0.0561055 -0.07224561 -0.15424149
-0.2403269 0.010462601 -0.21514125 -0.078756005 -0.38483188 -0.22385198 0.027733637 -0.2697361
-0.40167183 -0.31824604 -0.26497772 -0.23185338 -0.058576297 -0.13922493 -0.26944077 0.02944571
0.017790738 -0.2502021 -0.2503589 -0.30912668 -0.14568643 -0.08237607 -0.24729855 -0.24046716
-0.34061345 -0.22046341 -0.2020142 -0.07519821 -0.30689538 -0.10192626 -0.41625708 -0.292169
-0.07491205 0.121272415 -0.12901266 -0.31544536 -0.29503065 -0.104140736 -0.043012068 -0.14973867
-0.4898756 -0.2442778 0.005246519 -0.106046654 -0.3155061 -0.3819618 -0.35132962 -0.5425823
-0.3685817 -0.32049736 -0.36509672 -0.041715585 -0.1341083 -0.33416525 -0.06954658 -0.18097761
-0.30255613 -0.06215563 -0.46526188 -0.15546729 -0.07740616 -0.09152696 -0.23120263 -0.04024856
-0.2615001 -0.042487312 0.5002216 -0.17897901 0.032150462 -0.17336763 -0.37667534 -0.12489728
-0.31928292 -0.1284516 -0.17047024 -0.39199543 -0.3918177 -0.2408197 -0.4486716 0.0279396
-0.22479013 -0.5371877 -0.4154992 -0.45658827 -0.018710058 -0.50795084 -0.13820942 -0.3177407
0.29637462 -0.11911998 -0.28805763 -0.08974284 -0.01635939 -0.109253734 0.05211545 -0.30917507
-0.19729826 -0.20278776 -0.051447973 -0.33005995 0.11648708 -0.2038959 -0.1804983 -0.14900593
-0.6115726 -0.19830872 0.06718908 -0.1190768 -0.062252507 0.37154365 -0.4326759 -0.38244626
-0.2817229 -0.5525927 -0.47198498 -0.32976922 0.20210193 0.026464084 0.014807804 -0.21717495
-0.25920993 -0.13951287 -0.14929494 -0.0431843 -0.16383457 -0.42742243 -0.2377882 -0.33365583
-0.21516037 -0.30114043 -0.19929211 -0.16911766 -0.13322692 -0.0022668713 -0.15956415 -0.017314212
0.091426 -0.10956991 -0.1830638 -0.24379154 -0.21146995 -0.23466355 0.014034291 -0.17031467
-0.28551984 -0.26635557 -0.1430767 -0.19920537 -0.36045015 -0.3232987 -0.2003825 -0.158868
-0.115683705 -0.0735784 -0.25011754 -0.25372207 -0.05759179 -0.30629042 -0.33938015 0.026124852
-0.1535998 -0.22822061 -0.18837503 0.0630873 -0.100966856 -0.25847387 -0.23153597 -0.20670642
0.043201018 -0.442981 -0.07370196 -0.18190792 -0.49611214 -0.14045154 0.060405336 -0.2102936
-0.4243451 -0.19736342 -0.07479784 -0.36540076 -0.29322326 -0.32557264 -0.025014142 -0.068414025

hidden_layer_2.weight f4 [300, 404]
00000000: 7fc7 b33e d256 aabe c1d9 e63d 7ee5 cb3d
00000010: 61d2 3abc 7fa2 efbd 3756 dbbd d087 e03d
00000020: e62b c13d c4e9 293d c913 7dbc 18b5 88be
00000030: 47a1 0e3d 83fe 613e 4769 babe c38a 55be
00000040: 1363 903e 93e6 c3be 3e57 17bd 47b8 c8bd
00000050: 51e6 17bf bed8 fcbd d091 c9bd 8bae 06be
00000060: 1c02 a13c e4c4 9ebe 7c0b 28be ee18 01bd
00000070: 938f 9a3d f828 1dbd 9d8b 0e3e 8deb 963d
00000080: ec57 2bbe a804 5dbe a347 b33c e71c d53e
00000090: 0435 303e 2672 03bd 8cfd 6f3d aca8 54bd
000000a0: cad4 cabd e7f8 1d3d 78ce db3d e423 dcbe
000000b0: 835d 72bd f2e7 80be 1c55 99bd ef6f 84be
000000c0: 7891 5f3e ea09 7cbc a9de 583d 2642 853d
000000d0: 78fa 99be 4acd 68be a23a d1bd 6d70 5cbe
000000e0: 1e03 90bd 3358 393e f2c8 a0be 1c25 413c
000000f0: 5443 1a3e ec42 28be 1e9b ba3d ec78 8abe
00000100: 1cfd e8be fedc edbd ae78 0dbf a17c b5bd
00000110: dedb 653e 6115 fa3c d83a 543d 6e95 e3bd
00000120: 4f3e 133d 7dfd f1bd 029f fbbe 2807 be3e
00000130: 23e2 6d3d 7e4e 81be 0ea2 9b3c cace fbbd
00000140: 03c2 3cbe d4cf 413d e0b5 fbbc beec 02be
00000150: 0dcb 40be ad31 65be 2a50 68be ee90 833d
00000160: 91e6 2c3d d911 90bd 041c 753d bc40 2a3c
00000170: 59f0 d6be e00d 97bc 3a43 35be a6e7 d53c
00000180: c142 573d 3cc2 47be 844f 68be 29be 843d
00000190: ef10 983d 8cb1 2bbe 800a 93be f310 8bbe
000001a0: e292 34be 4a4b 94bc 3042 38be ef15 6dbe
000001b0: 33fe 8dbd cbcb ecbd 062e 90be 341b 363c
000001c0: e26e 663d 1e0f 2ebe 5a10 02bc acae 80bc
000001d0: 1e94 78be 6674 8c3c 6b71 39bb 14ce 1bbf
000001e0: 5ed6 8abe c828 14be 31cb c3bd 7788 0b3e
000001f0: bb5c 7fbe 2a7f cabe d73a e53c 685b 8abe
00000200: e542 9abd 1269 59be 0c5c acbd fcec 783d
00000210: d2a2 8dbc decc 693c d10f 9dbe 5e0c 503d
00000220: d9f7 46bc 7fb9 4e3e f30f 10be e11b 0dbe
00000230: 2934 873e 7604 42bd 8d67 82bc d815 f63d
00000240: b305 343e 7947 a5be 8787 6cbd 2783 2dbe
00000250: 8182 9bbd a971 993c ee37 463e 2ace 0cbe
00000260: feb3 0f3c 3393 0fbd 940d 40be cd36 ad3e
00000270: a96f f6be a8db 213d 516a 0dbe 4342 823e
00000280: e976 583d 4137 093e d34f 453e cdf0 7cbe
00000290: c030 4c3e ee09 a4bc 1056 123c 2825 aebd
000002a0: 2618 debd 3a7e c33d 8985 54bd 8511 4939
000002b0: 4406 fe3d 0fe2 563c b42d 593d 85cd e1be
000002c0: 537e 15be 799b 66bb 1649 8c3c af2e 3b3e
000002d0: 1dc9 1abe a83c 1cbe 6182 dabd 0d25 c2be
000002e0: 498f 323e 6c1a efbe 2b51 0fbe 685e 0ebf
000002f0: 71d4 5ebd 6491 d1be b354 bbbe 2744 05be
00000300: 3e84 a03d 3201 c3ba 7165 08be 59ea debd
00000310: 2fcc b33d c882 d9bd 3963 9fbe 2723 383e
00000320: 5379 debe 8cc5 95be c34c d53d a111 61be
00000330: ed98 8fbe 8211 0e3e a1fb 9cbd 2d0f 453e
00000340: 2cc5 98bd a510 403e 6ac7 9f3c 3d1d b2be
00000350: 8209 cfbd 6bcd ecbc 0ddd a73d 26be 333e
00000360: 5c2e bbbc 6941 413d 6c7b 7ebd 34af da3d
00000370: e27f 92bc 1b5a 41be 0fa4 3bbe e5ad e3bd
00000380: bee5 9b3e 06ce d4bd ee4a 11be 8c71 97be
00000390: 1806 6e3e 686f bdbd 06e8 103e 65c3 2fbe
000003a0: 2b85 2abe 1007 30bd f4a1 f63c 66bf 10be
000003b0: 2097 65be 72c7 1c3e 9199 38be 8516 853c
000003c0: 1419 1a3d a68d 8fbe 8f0b 0ebc b5f9 953c
000003d0: 5fbe 963d 872e c0bd 390f 79be 8491 95bd
000003e0: 7602 d6be edf9 04be 2ec9 c23d e180 8a3d
000003f0: f6f1 51be 7308 51be c3c6 cf3e 07e5 76be
0.3511314 -0.33269364 0.11272002 0.099558815 -0.011402697 -0.117009155 -0.107098036 0.10963404
0.09432201 0.041482702 -0.015446612 -0.26700664 0.034821775 0.22069745 -0.36408445 -0.20853715
0.28200588 -0.38261852 -0.036948435 -0.09800773 -0.5933581 -0.12346028 -0.09842265 -0.1315252
0.019654326 -0.3100959 -0.16410631 -0.031517915 0.07546916 -0.03836915 0.13920446 0.073691465
-0.16732758 -0.21583807 0.021884745 0.41623613 0.17207724 -0.032091282 0.05859141 -0.05191867
-0.099038675 0.03856745 0.1073274 -0.42996132 -0.05917121 -0.2517696 -0.074869365 -0.2586665
0.21832836 -0.015383223 0.05294672 0.065067574 -0.30073905 -0.22734562 -0.102162614 -0.21527262
-0.070318446 0.18100052 -0.3140331 0.011788633 0.15064746 -0.16431779 0.091116175 -0.2704538
-0.45505607 -0.116144165 -0.5526227 -0.08861662 0.22447154 0.030527772 0.05181393 -0.11112486
0.035948094 -0.11815927 -0.4914475 0.37114835 0.05807699 -0.25255197 0.018998172 -0.12295301
-0.18433385 0.04731734 -0.030726373 -0.12785622 -0.18827458 -0.22382231 -0.2268683 0.064241275
0.042212073 -0.07034654 0.05984117 0.01039141 -0.41980246 -0.018439233 -0.17701426 0.026111435
0.052553896 -0.19507688 -0.22686583 0.06481583 0.07425105 -0.16766948 -0.28718948 -0.2716137
-0.17634156 -0.018102307 -0.17993999 -0.23152898 -0.0693325 -0.11562308 -0.28160113 0.011114884
0.05625809 -0.16997954 -0.007938469 -0.01570829 -0.24275252 0.017145347 -0.0028296362 -0.60861325
-0.27116674 -0.14468682 -0.0956024 0.13626276 -0.24937718 -0.39550143 0.027982159 -0.27022862
-0.0753229 -0.21231487 -0.08415994 0.06077288 -0.017289553 0.014270036 -0.3067613 0.050793044
-0.012144052 0.20187949 -0.14068584 -0.13780166 0.26406983 -0.047367536 -0.015918517 0.12015885
0.17580299 -0.32281092 -0.057746436 -0.16944562 -0.07593251 0.018730955 0.19357273 -0.1375052
0.008770941 -0.03505249 -0.1875518 0.33830872 -0.48132065 0.03951612 -0.13810088 0.2544118
0.052847777 0.13399984 0.19268732 -0.24701233 0.19940472 -0.020024266 0.008931652 -0.08503181
-0.1084445 0.0954556 -0.05188516 0.0001917538 0.12403539 0.01311542 0.0530221 -0.4410211
-0.1459897 -0.0035187884 0.017124694 0.18279527 -0.15115781 -0.15257514 -0.10669399 -0.37918893
0.17437471 -0.46699846 -0.13995807 -0.556128 -0.05440182 -0.40931237 -0.36588058 -0.1301428
0.07837723 -0.0014877676 -0.13319947 -0.10884542 0.08779179 -0.10620648 -0.31130388 0.1798216
-0.43451938 -0.2925228 0.10415032 -0.21979381 -0.2804636 0.13873866 -0.07665182 0.1924407
-0.074594826 0.1875635 0.019504268 -0.34787932 -0.10109235 -0.028906545 0.08196459 0.17553005
-0.022849254 0.04718152 -0.062129423 0.106779486 -0.017883245 -0.18882029 -0.18324302 -0.11117152
0.30448717 -0.10390858 -0.1418874 -0.29578817 0.23244512 -0.09249765 0.1415101 -0.17164381
-0.16652362 -0.042975485 0.030106522 -0.14135513 -0.22420931 0.15310457 -0.18027331 0.01624609
0.037621573 -0.28037757 -0.008669748 0.018307546 0.07360529 -0.093838744 -0.24322213 -0.073031455
-0.41798753 -0.12985964 0.09511028 0.06762863 -0.20502457 -0.2041338 0.4058133 -0.24110804

hidden_layer_2.bias f4 [300]
00000000: e648 7cbe 8e66 c23e 29b2 00be 9ad6 463e
00000010: b919 9cbd 573a 053f 2481 b03e f6b7 e3bd
00000020: d9c5 03bd e637 33bd 24d5 89bb 6e1f ed3e
00000030: e71b b23b a16c cf3e 74dd b53d 4010 903e
00000040: 286b a1be d537 913e 4af4 22bd 5e05 21be
00000050: fb15 683d 880b ec3e 3482 febc ebd3 833e
00000060: a615 e23c c486 3dbd 559e 10bd 8776 cabd
00000070: 6159 043f 3ac0 ebbc d6ea 00be 08bb fd3e
00000080: 5e66 0dbe 8235 293f 12ec 31be c353 b83e
00000090: 77b0 2bbe fcf9 e23e 5667 713e 03d4 89b9
000000a0: e7f7 abbd 087c 033f 4e52 dabd 1170 913e
000000b0: 4227 30be f36a 963e 8777 01bf 3c8d 063f
000000c0: 3f9c 84bb 8afc 4d3e 6434 403f 7b6a 9b3e
000000d0: 1fe9 513f 7616 d13e 71ae e53e 8842 ff3e
000000e0: 6e13 093b 1915 043f 64c2 cc3e 6dae de3e
000000f0: cdc2 803e d2ef e5bc 77ca 6bbd dd2c 2d3f
00000100: 4b59 ae3e 52c5 c43e 36c8 0ebe b6f3 da3e
00000110: f6c0 4f3f 8e62 25be e229 9d3e 9c29 dcbd
00000120: 16cd 97bd 599c 163f 3489 b63e b4cf a13e
00000130: 0414 31be 687f 9839 7177 85bd 0c29 ea3e
00000140: bb23 0c3f a32f a03e 2cf0 c2bc a3a3 4b3f
00000150: c07d 85bd 45cd d93e 96dd 02bf ba68 e53e
00000160: 09a0 bf3e dde4 ab3e d5ba e7be 4307 94bd
00000170: ab2c a6bd b120 9a3e 1fee a93e 6ad9 3f3e
00000180: 4416 ac3e 051a da3e 0c5f 35be c63b 1fbf
00000190: 7dce 9cbd 6c20 67bd af61 25bd 4f16 ffbd
000001a0: bebc c73e c443 d4be d24c 10bc 5d54 863e
000001b0: 08f8 35ba 9038 ae3e 6f93 a23c adda 8f3e
000001c0: 3a78 cbbe b5c6 a0be 046a a7bd db58 afbe
000001d0: 84b9 e03e e274 c83d 99bc 443d 0bff e73e
000001e0: 9c72 00bd b293 8bbd 1c36 3f3f 8dac c3be
000001f0: 6138 b93e d892 b43e 0ece b63e 6203 cabd
00000200: d587 9e3e c2c3 a3bd 5007 01be 77a5 12bf
00000210: 8f4f c53e 60d6 863e 85a6 88bc c499 58bd
00000220: d6e5 81bd c921 14be add5 943e 7384 8dbe
00000230: cd5c fc3e 55e2 dbbc 8b64 61bd f426 713e
00000240: 29c8 d43e 4732 f33e b1f4 ee3e a97a 17be
00000250: b512 6b3e 88ad e0bd 385d 2a3f 1064 5abd
00000260: 8bb1 093f f21e 8e3e f421 bc3e 49dc f73e
00000270: d022 a43e cad9 cfbd e569 183e a14d debd
00000280: f86d 8d3e b74a cb3e 1cee c23e bc88 cd3e
00000290: 480e 26be 88ff 29bd 454a fbbd 95f1 483f
000002a0: 6bc2 b63e 3e90 ff3e 844c 8a3e 8b22 9cbe
000002b0: 5f59 b8be 7ee8 07be 2b56 eb3c 04df 103f
000002c0: 662b 64bd 15e4 bd3c 32d5 e93e fc01 f83d
000002d0: a199 04be 6fc1 59be da33 c5bd 13a8 fd3e
000002e0: 488a 69bc e8b3 353f 51e0 943c a143 e13e
000002f0: de47 9c3d 5181 bd3c 96d6 adbc d7a9 3c3c
00000300: 1de7 973e 22ee 223d 8209 a6bd a9b3 0a3f
00000310: 9c87 213e e42f 8e3e 88ba 8abe 96ec cb3e
00000320: add4 62be 5603 0b3f cb18 56bd c487 2ebd
00000330: 4c70 953e d507 3a3f e990 03be 7c1f 943e
00000340: d268 993a 47ef 433e 4e14 3a3e 8a32 823e
00000350: 194a e33d 7cbb 5c3e 21f6 d3bd 4f77 eebd
00000360: e7ce 30be 711c 563f 2501 903d 314a a53e
00000370: 26ce 95be fcd7 a0bd 25fc 283e b0ce 1fbe
00000380: 8d38 833e 4200 9a3e e953 bc3e 4905 b5bd
00000390: e976 413f b24f b93e 865e e4be 6680 1e3f
000003a0: f461 503f 01c3 36be 495f 3b3e f5d7 eebb
000003b0: 908c 243f b813 d8be 0a0a b03c 412e 203f
000003c0: 7a71 b73e 65ce db3e d60d ee3e f4c5 393c
000003d0: b2b5 07bf b164 393e 706b b6bd f40a adbc
000003e0: 89eb 3fbe bdbe 003f 5e9e 2bbe b5c6 92be
000003f0: 231e 0a3f 0976 803e 9068 01be 5e47 3f3c
-0.24637184 0.37968868 -0.12567963 0.19417801 -0.07622094 0.52042145 0.34473526 -0.11119072
-0.032171104 -0.04375448 -0.0042063165 0.4631304 0.005435455 0.40512565 0.088801295 0.28137398
-0.31527066 0.2836291 -0.039783753 -0.15724704 0.056661587 0.46102548 -0.031067945 0.25747618
0.027598213 -0.0462711 -0.035307247 -0.098858885 0.5169888 -0.028778184 -0.12589583 0.49556756
-0.13808581 0.6609727 -0.1737521 0.36001405 -0.16766535 0.44331348 0.23574576 -0.00026288637
-0.08396893 0.5136113 -0.106602296 0.28405812 -0.17202476 0.2937847 -0.5057301 0.52559257
-0.0040469463 0.20115867 0.7507994 0.30354676 0.8199634 0.4083745 0.4485965 0.49855447
0.0020916122 0.5159469 0.39992058 0.4349245 0.2514862 -0.028068457 -0.057566132 0.6764658
0.340525 0.38431793 -0.13943562 0.42764062 0.8115381 -0.16150877 0.30696017 -0.10750124
-0.07412164 0.5883232 0.35651553 0.31603777 -0.17292792 0.00029086624 -0.06516922 0.4573444
0.5474202 0.31286344 -0.023796163 0.79546565 -0.065181255 0.4253942 -0.51119363 0.44806463
0.37426785 0.33573046 -0.4525973 -0.072279476 -0.081139885 0.30103067 0.33189484 0.1873528
0.33610737 0.42597976 -0.17712039 -0.6220058 -0.07656572 -0.056427404 -0.04037636 -0.12455427
0.39011186 -0.4145795 -0.008807378 0.2623624 -0.00069415616 0.3402753 0.019845692 0.28096524
-0.39740163 -0.314016 -0.08174518 -0.3424748 0.43891537 0.097879186 0.048031423 0.4531177
-0.0313593 -0.0681528 0.7469194 -0.38217583 0.36175826 0.35268283 0.35704082 -0.098639265
0.30963007 -0.07996322 -0.12600446 -0.5728373 0.3853726 0.2633543 -0.016680965 -0.052881017
-0.06342666 -0.14466013 0.29069272 -0.27640113 0.4928955 -0.026841322 -0.055027526 0.23550016
0.4155896 0.47499296 0.4667106 -0.14792885 0.22956355 -0.109705985 0.6654849 -0.053318083
0.53786534 0.27757984 0.36744654 0.48410252 0.3205781 -0.10148962 0.14884146 -0.1085465
0.27622962 0.3970544 0.38072288 0.40143383 -0.16216385 -0.04150346 -0.12270025 0.78493625
0.35695204 0.49914736 0.27011502 -0.30495104 -0.36005685 -0.13272282 0.028727612 0.56590295
-0.05570545 0.023180047 0.45670468 0.121097535 -0.1294923 -0.21265195 -0.096290305 0.49542293
-0.01425416 0.7097764 0.018173369 0.4399691 0.07630895 0.023132952 -0.021220487 0.011515102
0.29668513 0.039777882 -0.08107282 0.5418039 0.15774387 0.27770913 -0.27095437 0.39828938
-0.22151442 0.54301965 -0.05226974 -0.042609945 0.29187238 0.726682 -0.12848248 0.2893027
0.0011704213 0.19134246 0.18171808 0.25429183 0.110981174 0.21555895 -0.1034968 -0.1164385
-0.17266427 0.8363715 0.07031468 0.32283166 -0.2925884 -0.07853696 0.16502436 -0.15606189
0.25629082 0.30078322 0.36782768 -0.08838899 0.7557207 0.36193615 -0.44603366 0.6191467
0.81399465 -0.17847826 0.18298067 -0.0072889277 0.6427698 -0.42202544 0.021489162 0.6257058
0.35828763 0.42930904 0.4649493 0.0113387 -0.5301162 0.18104817 -0.08907211 -0.021123387
-0.18742193 0.50291044 -0.16759631 -0.28667226 0.53952235 0.25090054 -0.12637544 0.01167473

output.weight f4 [1, 300]
00000000: 0eca 2bbf 12e1 d73e 4f94 62bf 713d 113f
00000010: 062b 3cbf fcde 843e 3796 c83e e520 35bf
00000020: 5596 9abf 474b 3cbf 0019 53bf ebfa ad3e
00000030: b059 78bf 0c1f 893e 7f94 433f bd8b 3f3f
00000040: db18 16bf e172 1e3e 65f9 6bbf d773 8cbf
00000050: 0e29 4bbf b0ee cd3d 2f5d 5bbf e73c 653e
00000060: 9709 5fbf 7785 82bf 1691 55bf a12f 78bf
00000070: 2bd6 f83e c656 8bbf 4319 14bf 7675 9d3e
00000080: df2b 68bf 9b7a 573e 7dd2 0abf f5cb 473e
00000090: d36b 27bf c008 783e a11f 0b3f eb08 7dbf
000000a0: a672 6abf 6639 603e 8353 08bf 06ad 883e
000000b0: 53cb 50bf bce9 843e 9b21 c4bd dae5 7f3e
000000c0: 42f9 1abf 7de7 023f 00a7 6c3e 880a 0d3f
000000d0: 6bd6 4b3e 6e3d bb3e e7d8 8f3e 6326 a43e
000000e0: fd4e 57bf 1df1 3c3e f933 2d3e 6dda de3e
000000f0: bae5 3b3e 139f 6ebf 741f 5fbf ea41 043e
00000100: 0f59 ba3e 24a0 6e3e c765 68bf 05c2 0b3e
00000110: 76b7 213e 3eb7 3cbe 407d ea3e 19da 3abf
00000120: 793b ffbe 6ff0 1e3e e0d1 593e e5ab 243f
00000130: 4e58 3fbf 2fac 37bf 378a d1be 3496 333e
00000140: 33f4 8d3e 7b4c 213f dfd8 3fbf c6bc 703e
00000150: 6ef1 6cbf 3bf9 d83e c7da 7bbe c61c 933e
00000160: 5e1b e43e fc3b 753e 9db8 ecbd 1164 4bbf
00000170: 7134 5cbf 790c b23e c000 df3e 5aeb e93e
00000180: 5328 803e 9440 723e 4863 44bf 0802 1cbe
00000190: 4f5f 61bf c087 50bf a7e0 5cbf f6e4 16bf
000001a0: 9fa3 9c3e 5f09 8bbe 6294 76bf f6fd f03e
000001b0: 65ff 8ebf be88 0f3f d75c 46bf 5745 2a3e
000001c0: 6bb5 bfbe b8ad 81be 2c1d 55bf 0f74 45bf
000001d0: 0f13 2c3e d07a 123f cefb 31bf 753e 8a3e
000001e0: 84d8 6dbf 226f 42bf 37e1 133e 0b98 95be
000001f0: 1abd 653e 1c30 0e3e bc1b 8b3e 9f2f 5bbf
00000200: 9459 b93e fead 2abf 1046 72bf ac1e 00be
00000210: 39e6 a53e ab6b 323e 2d9d 08bf 7e7e 83bf
00000220: 5d3c 54bf 118f 6cbf fa4d b73e 9dea 9abe
00000230: b398 bc3e 17f0 88bf a647 83bf 8394 b63e
00000240: d210 2f3e ad20 713e 5d4f 6d3e b0bf babe
00000250: 83ac 763e 0585 4dbf a68e 763e c7d8 06bf
00000260: 8c13 083e d3c0 8c3e 71b7 dd3d 1c54 cd3d
00000270: dc32 823e 5ecc 10bf 5e2c b13e 9f9a 62bf
00000280: b3f0 123f 41bd 3e3e 922a 603e 1e9b 233e
00000290: f33f 62bf d096 6abf c414 cebe 1737 633e
000002a0: 7b49 0b3e c20c 4c3e 8cfd c03e 7d8d 3abf
000002b0: 8bcd 3fbe bc7f 20bf a7e7 ebbe 0c47 503e
000002c0: 484e 3bbf fd87 05bf f5b6 b03e 49d7 08bf
000002d0: 8b26 62bf 01c3 80bf b7ec 5cbf ccd5 2e3e
000002e0: cc90 17bf e5a8 243e e139 adbe 2e01 a03e
000002f0: d0b5 933e a561 8cbf 4f84 63bf c9ba 1ebf
00000300: 1609 103e 3990 6ebf 2461 5dbf 0ab3 5b3e
00000310: ba60 023f 062b e83e eba5 67bf c247 153e
00000320: f464 28be 178a 213e 55a0 84bf ba54 62bf
00000330: 2023 1a3f 39de 283e ff54 43bf f731 a03e
00000340: c011 8abf 0daa a33e 41d1 3c3e 7731 073f
00000350: 9aec 0cbf cac1 d53e 3d49 17bf 5e69 72bf
00000360: 1569 25bf 9453 6e3e d825 9cbe 32d5 183f
00000370: 2fce b6be 5eae 45bf 9793 bc3e 44f7 48bf
00000380: afdb 823e 8b84 d13e 6b2d 9a3e 1de5 6bbf
00000390: 924a 703e f96f d43e 83da 13be f8de 2a3e
000003a0: 5299 0e3e cbfa 92be 46aa aa3e d1b7 89bf
000003b0: ea09 343e da20 2ebe 3e08 8bbf c661 0d3e
000003c0: f88d 093e 689d 963e 4de6 7e3e ecc9 4ebf
000003d0: 28cd 2cbf e346 aa3e f2cc 7cbf 0a69 5bbf
000003e0: b411 0dbf 23ff 3c3e 827b 4cbf 0a36 f9be
000003f0: c007 453e 417d fb3e 4a13 51bf dc90 83bf
-0.67105186 0.42163903 -0.8850755 0.5673438 -0.7350315 0.25951374 0.39177105 -0.7075332
-1.2077128 -0.73552364 -0.8246002 0.33980498 -0.9701185 0.267815 0.7639846 0.748226
-0.58631676 0.1547351 -0.9217742 -1.0972852 -0.7935952 0.10055292 -0.8568906 0.22386514
-0.8712401 -1.019698 -0.8342451 -0.96947676 0.48600897 -1.0885856 -0.57851046 0.30753678
-0.9069194 0.21042864 -0.5422743 0.19511397 -0.653989 0.24222088 0.54345137 -0.9884173
-0.9158119 0.21896896 -0.5325243 0.26694506 -0.8156025 0.25959575 -0.09576722 0.24990025
-0.6053659 0.51134473 0.2311058 0.55094194 0.19906013 0.36570305 0.2809517 0.32060537
-0.841049 0.18451352 0.16914357 0.4352602 0.18349352 -0.9321148 -0.8715737 0.12915769
0.3639607 0.23303276 -0.907803 0.13648231 0.15792641 -0.18429276 0.45798683 -0.7298904
-0.49850062 0.15521406 0.21271467 0.6432479 -0.7474412 -0.71747106 -0.40925762 0.17537767
0.27725372 0.63007325 -0.74940294 0.23509511 -0.9255589 0.42377648 -0.24595176 0.2873289
0.4455213 0.23948663 -0.1155865 -0.79449564 -0.8601752 0.3477514 0.4355526 0.45687371
0.25030765 0.23657447 -0.7671399 -0.1523515 -0.88036054 -0.8145714 -0.8628029 -0.58943117
0.30593583 -0.27155587 -0.96320164 0.47068757 -1.117169 0.56068027 -0.7748541 0.16628014
-0.37443098 -0.2532785 -0.8324764 -0.77130216 0.16804145 0.57218647 -0.6952485 0.27000776
-0.929085 -0.75950825 0.14441381 -0.29217562 0.22435418 0.1388554 0.27169597 -0.8561954
0.36201155 -0.6667174 -0.94638157 -0.125117 0.32402208 0.17423885 -0.5336483 -1.0272977
-0.8290461 -0.924058 0.3580168 -0.3025712 0.3683525 -1.069827 -1.025624 0.3566018
0.1709626 0.23547621 0.23174806 -0.3647437 0.24089245 -0.80281097 0.24077854 -0.52674526
0.13288707 0.27490863 0.10826004 0.10025808 0.25429428 -0.5656184 0.34604162 -0.88517183
0.5739853 0.18626882 0.2189124 0.15977141 -0.8837883 -0.9163637 -0.40250218 0.22188984
0.1360225 0.19926742 0.3769344 -0.72872144 -0.18730752 -0.6269491 -0.46075174 0.20339602
-0.7316632 -0.52160627 0.34514585 -0.534535 -0.8834006 -1.005951 -0.862987 0.17073745
-0.5920532 0.16080053 -0.3383322 0.312509 0.2884965 -1.0967299 -0.8887376 -0.6200376
0.14065966 -0.93188816 -0.8647635 0.21455017 0.50928843 0.45345324 -0.90487546 0.14578155
-0.1644476 0.15775333 -1.036143 -0.8841053 0.60209846 0.16491021 -0.7630157 0.3128812
-1.0786667 0.31965676 0.18439199 0.5280985 -0.55048525 0.41749412 -0.5909613 -0.9469203
-0.6461347 0.2327407 -0.30497622 0.5970031 -0.3570418 -0.7721919 0.36831352 -0.785023
0.2555823 0.40921435 0.30112776 -0.92146474 0.23465946 0.41491678 -0.14438824 0.16686618
0.13925675 -0.28706965 0.33333033 -1.0759221 0.17581907 -0.1700472 -1.086189 0.13806829
0.13433063 0.29416966 0.2489254 -0.8077686 -0.67500544 0.33257207 -0.9875022 -0.8570715
-0.5510514 0.18456702 -0.7987596 -0.4867404 0.19241238 0.49119 -0.8167006 -1.0278583
