Neural_networks/reacher_20qvalue_local.pth (torch, 543903 bytes, 5 tensors)

hidden_layer_1.weight f4 [400, 33]
00000000: df53 e4bd 451d 26be a55b 0abe c1eb c23e
00000010: 1808 8a3e 4968 1cbd 9816 7d3e 2ddf 4ebc
00000020: 7ee8 843c 1087 193e 9372 adbb 6137 c2bc
00000030: bf6c 37bd c310 753e 78de 253d 4858 0c3d
00000040: 93fc 04bf 69a1 86be 8326 17bf bb62 663e
00000050: 7087 1bbc 49f4 8abc 75a7 8d3c 1ae6 de3b
00000060: bcca 98bc d30d acbb 2c9d 5dbe 95fe 923e
00000070: 0f2d 94bc 767f 9a3c 872d 97be e487 793c
00000080: 838e 0dbf 9b54 a5bd 6d5a a1bb cd96 08bd
00000090: bf6f eabe 1145 27bf eab1 a93e cbc9 05be
000000a0: 7def e63c 94e4 103e 7295 5ebe 34bd d1bc
000000b0: be07 4f3d bb4e ccbc ba23 923d 2e34 a83d
000000c0: 5f53 493d 15ec 603f e94c 103f 4e24 26bf
000000d0: a758 553e 53fa a3bc 1ca6 abbd 362a 07bd
000000e0: 4311 b93d 72e6 7c3d 7048 01be 2d85 1cbd
000000f0: 050a e6bc 4735 28be 50bf b4bc e070 82b9
00000100: d5e6 403d dac2 ba3e 91ee 113d ad24 8f3d
00000110: 9a87 b6bc cbc5 8f3d b661 ed3d a256 ddbe
00000120: 4e39 0e3e c03c ca3c 414c 4a3d 4bb4 ec3d
00000130: a3b2 ee3b bd65 53bd d13b 8dbd c3c6 89bd
00000140: 2469 adbc b736 87bd 16bc f13e 0c11 d8be
00000150: 4cbc a9be 5b5f 873f d58e ebbc 7a42 d6bc
00000160: d847 81bd cc01 183d 2214 4a3d 60d1 0a3b
00000170: 80a3 f13d 54eb a53e beae a33b e834 233c
00000180: 2457 90be 3062 14bd 97b2 9fbd 0cc2 533c
00000190: c992 cb3d 4ea8 42bd 8526 70be bc40 0abe
000001a0: c8f9 ca3e 9056 ddbd bb9a 2d3e 4486 573c
000001b0: 640f a83d 3028 83bd eb54 aebc 2815 913d
000001c0: 721c 4cbd d9c1 0ebd f48e 053e 61f8 533e
000001d0: af8f b23d 685e 9fbd d4df d03c bb8d 193c
000001e0: fe9e 4c3d 81de 923c 29df 183d fb46 71bd
000001f0: 1e59 ff3c 7efb 953a 5488 5e3e 1606 92bd
00000200: 3402 8abc cc37 19be 986c 40bc e275 9fbf
00000210: b7fb 4b3d 9916 89bd 8685 7abc dc6d 26bf
00000220: 545c 6f3e 7d31 193e 45b5 d63e eb83 53bc
00000230: d118 6bbe 35e9 e13c ae31 a3bd b3fa e83c
00000240: 6cd9 913c 06f1 c9bd f449 6a3a e560 d8bd
00000250: fccf bdbe 4f87 52be 8e6d 23bd ca56 223e
00000260: 5c37 c83a 4308 093d 4c63 c3bb 6d9a c5bd
00000270: d2e6 4a3b ff5d 873c e3b3 ae3c 1239 8fbc
00000280: 988a 263e acad 0f3c a83a b0bc 6c52 8cbc
00000290: 8250 a23f 7345 e43d bf7f 87bd 18fd d8bc
000002a0: 0e30 46be c4b0 babe b727 82be 8c0e 3ebe
000002b0: 708f 743d 59ad 113e bd5a 4cbe 7ad3 a93c
000002c0: 9024 373d cd87 1f3d b8ec 59be 25a5 003e
000002d0: 2dae 273d c84a 41bd 0ecd af3e 3111 a0be
000002e0: eb1a 08bf 56f5 55bb cbc1 71bd e30c 6c3d
000002f0: 875b 0bbe 027b 8a3d 7a47 5dbd e6b5 fd3d
00000300: 3249 353d 78cc 08be fd04 1d3d 9a9d 1fbc
00000310: fd75 0c3d 69f5 78be c0df 7dbe 1b88 d2bd
00000320: 7aed 05be e50c 993d 9487 2dbe 0e3e 713e
00000330: a9cf a5bd b231 1dbd 46b5 4d3e 246a 81bd
00000340: 3acc 5abd 020c 01bd 3227 e6bb 3790 623e
00000350: 4711 9d3d 9752 e33d 8b28 b23e 07ae 3c3e
00000360: 96e1 053d 931c 21bc 6a02 3b3c a6f3 1abc
00000370: a124 143d b552 c43c f396 163d f80e 40bc
00000380: 4887 cebd 0b3f d73d 525c 6bbe 64d1 723c
00000390: 1ccc 0cbd e7cc dfbc 784e 543f 624f 02be
000003a0: a317 d83c f6da 03bd c6d3 183f bf0a 283f
000003b0: e037 bb3e 0f1c bc3e 5f95 2cbb 2f5e 0f3e
000003c0: 716c 93bd 4a76 8c3c b50c e8bd 6588 cc3b
000003d0: 80a6 06bc e29b d6bd 5b43 9dbc c1fc 54bd
000003e0: 0bd2 06bf a665 bc3d 0270 6dbf 14a4 3cba
000003f0: 9e8d 80bc bdef c6bc 68e7 c33d 90d3 aabc
-0.1114881 -0.16222103 -0.13511522 0.3807049 0.269593 -0.03818539 0.2471565 -0.012626451
0.016224142 0.14992929 -0.0052931993 -0.023708047 -0.044781443 0.23932175 0.040495366 0.03426388
-0.519479 -0.2629502 -0.5904314 0.224986 -0.00949274 -0.016962187 0.017291764 0.0068023326
-0.018651359 -0.0052506714 -0.21641988 0.28709856 -0.018087892 0.018859606 -0.29526922 0.015230153
-0.5529558 -0.08072778 -0.0049241097 -0.03334694 -0.4578838 -0.6533976 0.3314355 -0.13065259
0.028190369 0.14149696 -0.21736696 -0.025602914 0.050544493 -0.024939885 0.071357206 0.082130775
0.049151774 0.8786023 0.56367356 -0.64899147 0.208346 -0.020016825 -0.08381292 -0.03299924
0.090364955 0.061743207 -0.12625289 -0.038212944 -0.02808095 -0.16426574 -0.022063881 -0.0002487963
0.04709514 0.36476785 0.035627905 0.06989417 -0.022281457 0.07020148 0.115909025 -0.43230158
0.13889048 0.024687171 0.049389128 0.11557826 0.0072844788 -0.051610697 -0.06896175 -0.06727364
-0.021168299 -0.06602233 0.4721381 -0.42200506 -0.33151472 1.0575975 -0.028754631 -0.026154745
-0.06312531 0.03711109 0.049335606 0.0021181926 0.11798763 0.32406104 0.004995196 0.009961344
-0.28191483 -0.03622645 -0.07797735 0.012924682 0.099401064 -0.04752379 -0.23452194 -0.13501257
0.39643693 -0.10807526 0.16953556 0.01315457 0.082060605 -0.064041495 -0.021280726 0.07084113
-0.049831815 -0.034852836 0.13042814 0.20700218 0.08718812 -0.077816784 0.025497355 0.00937217
0.049956314 0.017928364 0.037322197 -0.058905583 0.031170424 0.0011442748 0.21731693 -0.07130067
-0.016846754 -0.14962691 -0.011744641 -1.245785 0.0498006 -0.06693763 -0.0152906235 -0.6501138
0.23375064 0.14960285 0.41935173 -0.01290987 -0.22958685 0.027577022 -0.0796846 0.028439855
0.01780387 -0.09860425 0.00089374115 -0.10565356 -0.37072742 -0.20559429 -0.0398994 0.1585342
0.0015275287 0.033455145 -0.005962765 -0.09648595 0.0030960334 0.016524313 0.021326011 -0.017483268
0.16263807 0.008769434 -0.021512344 -0.017129146 1.2680819 0.11146059 -0.066161625 -0.026487872
-0.19354269 -0.36462986 -0.25420925 -0.18560237 0.059707105 0.14226283 -0.19956489 0.020730723
0.044712603 0.03894787 -0.21281707 0.12562998 0.04093759 -0.047190458 0.34336132 -0.31263116
-0.53166074 -0.0032647452 -0.059022706 0.057629477 -0.13609134 0.06761743 -0.054023243 0.1238821
0.044259258 -0.13359249 0.038334835 -0.009742165 0.03429221 -0.24312367 -0.24792385 -0.10279866
-0.13078871 0.074731626 -0.1694625 0.23558828 -0.08096249 -0.03837747 0.20088682 -0.06319073
-0.053417422 -0.031505592 -0.0070237154 0.22125326 0.07669311 0.11099737 0.34796557 0.18425761
0.03268584 -0.009833473 0.01141415 -0.009457504 0.036167745 0.023965219 0.03676505 -0.011722319
-0.100843966 0.10510071 -0.22984436 0.01482043 -0.03437434 -0.027319385 0.82932234 -0.12725595
0.026378458 -0.03219124 0.5969814 0.656414 0.36566067 0.36740157 -0.002633415 0.14000772
-0.07198418 0.017146248 -0.11330549 0.0062418454 -0.008218408 -0.10478951 -0.019197157 -0.051998857
-0.5266425 0.091990754 -0.92749035 -0.00071960804 -0.015692528 -0.024284238 0.095656216 -0.020852834

hidden_layer_1.bias f4 [400]
00000000: 3ba3 aebe 93ab 64bd cd7a 10be 9e53 2cbe
00000010: 7df6 22be aeef 22be e080 53be 2737 acbe
00000020: 3653 b1be 6c0e 32be ebc6 87bd c55a b3be
00000030: 9727 1dbe 391d 2ebe 8b6b bdbe d848 e5bc
00000040: 1fad b9be 042e 84be 616f 39be 1d38 abbd
00000050: 125c aebe 0fcb e7be 673d 13be d786 9f3e
00000060: 7602 5ebe 650c dbbe 40ba 2cbe 78e2 0fbe
00000070: d43c 823c e06a 463e be09 7ebe 491e 8fbd
00000080: fb55 7bbe a737 c5be 7f57 27be c1f0 93be
00000090: 1d82 c2be ef2a 5b3d 9787 b8be 6f37 3bbe
000000a0: eee7 0c3f 6969 d1bd a3c7 453d 756f 4c3e
000000b0: 8be6 0ebe 90dc 6bbe b10e 02be 6a90 86bd
000000c0: 90b0 0bbe 36ba 5dbe d109 9cbe 46ce 8e3c
000000d0: 4c25 983d 2e3d 7c3d fc91 42be 8eed e2bd
000000e0: d903 8bbe 2f8a 87be 8ac1 60be 46ae 15be
000000f0: 3941 9dbe 66e3 b6be 0bba 243e f66b eebe
00000100: cb58 d5bd ed2c 9fbe 3979 99be cf50 cdbe
00000110: 43cd 4bbd 4466 afbd 3826 bc3d b349 22be
00000120: a240 e63c 3edc c7be eb99 2fbe 35e1 ed3c
00000130: 70f3 28be 7e8b 0cbe 64fa babd 5004 8bbe
00000140: dc94 85be 395c b8be 945e bbbe 6089 61be
00000150: a760 0dbe cb19 503d 0fd5 183e 67ec 80bd
00000160: d598 50bd ff46 d5be 7d7d c9bd 93c1 51be
00000170: 4b78 4fbe 7cc6 053e 11ef 9fbe a2e8 46be
00000180: f17d 89be 4306 3abd ef35 9fbe 142a 98bd
00000190: 74be 37be 61f0 afbd 1fc1 69be 26a3 bb3c
000001a0: f9c3 343c 5c34 91bd 9b7c 08be 06d6 07be
000001b0: cca1 2fbe 7b26 ccbe e2a3 f2bc a421 5dbe
000001c0: aeee 53be cbf8 f8be 5e18 47be d455 353d
000001d0: 2ff9 afbe 6e0e 75be d9f9 eebe bca6 95be
000001e0: d14f d3be 1159 8ebe d5e4 6fbe e97a 7a3d
000001f0: 4ed2 cdbe 1e1b 25bd 9541 60be 02bd 12be
00000200: 39a1 55be 9462 a2bd 3b13 aabe 4376 09be
00000210: cd32 b6bd 0f46 2abe 40dd 87be e55d a3bc
00000220: 66ff acbe 3a4a 0fbe cd0d 06bd b356 0ebe
00000230: 42be 13be 7a01 ddbe ae57 85be 17c6 82be
00000240: 5004 8abe a601 81be 179e 01be 5c89 a0be
00000250: 0e2c 94be 61d6 80be 4da0 75be 63fe 9dbd
00000260: 72a6 fcbc 3ca0 26be 211c 5bbe 624e adbe
00000270: e231 e8bd cd57 91be f25c a0be 3151 94be
00000280: 16fa 523e d142 0abc ba09 58be a176 b3bd
00000290: 54f2 3dbe 3a96 0abe 677c 4e3d d5da 0e3d
000002a0: 09cb d0bd be6e 44be 1c63 7cbe 47ea b4be
000002b0: d053 74be 1070 52be 1a45 a7be eadd a43d
000002c0: bc4c 3dbe 4d49 96be 35ee b0bd 42b2 273d
000002d0: 204d 86be 16ea 9f3d e7db 9bbe ff10 bebe
000002e0: 032a 9ebd 2b0a dcbd d799 14be a575 3ebe
000002f0: 9899 28bd ee73 84bd 9eb0 e7bd 724d 33be
00000300: 7ce1 86be f281 75bc 3c93 55be 21c3 08be
00000310: c011 50be a799 9cbe 6a5b 39be c832 9bbe
00000320: 1a04 2bbe f50d 1bbe e7e8 dabe c245 b2be
00000330: 7882 4ebe 8421 f73d 85a8 703c cb10 4cbd
00000340: f180 ed3d e11c 9dbd 20dc aabe 1abc 25be
00000350: cd39 5dbe 6f1d 50be 2eeb 68bd ee36 75be
00000360: 7b1f 9bbe 5a09 44bd b05e 94be 662a 1cbe
00000370: b94a 95be 2209 83be 5cd7 7bbe 418b acbe
00000380: c702 a9bd 27a6 05be 535e 73be 0c3d 73be
00000390: 17a8 7ebd 282a 1abe 340c 07be 080f 31be
000003a0: a18b c6bd aa0d 83be cb04 a1be 80f9 fcbd
000003b0: c6ae 6fbe 50da abbe 9ad9 c5be 2d7e 5abe
000003c0: 72bd 33be 7a10 e0be 1d14 e9bc 7ff8 65b9
000003d0: ab03 dabe 03ce 8ebe 6166 0b3f eb28 8bbd
000003e0: 6750 69be eb01 bcbe a9ce 69bd 63d4 5fbe
000003f0: c934 05be 93dd cbbe 5eaf bc3d 715f 88bd
-0.3410891 -0.05582769 -0.14109345 -0.16828772 -0.1591434 -0.15911743 -0.2065463 -0.33635828
-0.34633797 -0.17388314 -0.066297375 -0.3503019 -0.15347134 -0.17003335 -0.3699611 -0.027988836
-0.36264893 -0.25816357 -0.18108894 -0.08360312 -0.3405462 -0.4527211 -0.14378892 0.31157562
-0.21680626 -0.42782894 -0.16867924 -0.14051235 0.015898146 0.19376707 -0.24808404 -0.06988198
-0.24544518 -0.38519022 -0.16341971 -0.28894618 -0.37989894 0.05350774 -0.36040947 -0.18282865
0.55041397 -0.102251835 0.04828609 0.19964392 -0.13955133 -0.23033357 -0.12700917 -0.065705135
-0.13641572 -0.21653065 -0.3047624 0.017432343 0.07428989 0.061581783 -0.19001001 -0.11080466
-0.27151373 -0.26472613 -0.2194883 -0.14617261 -0.30713823 -0.35720366 0.16086595 -0.46566743
-0.104173265 -0.31088963 -0.29975298 -0.40100715 -0.0497563 -0.085644275 0.09186977 -0.15848427
0.028106991 -0.3903522 -0.17148559 0.029038051 -0.16499114 -0.13725087 -0.091297895 -0.27151728
-0.26090133 -0.3600786 -0.36595595 -0.2202506 -0.13806401 0.050805848 0.14925025 -0.0629509
-0.050927002 -0.41655728 -0.09838388 -0.20483999 -0.20260732 0.13063997 -0.3123708 -0.1942468
-0.26853898 -0.045416128 -0.31095836 -0.07429901 -0.17943746 -0.085907705 -0.22827576 0.022904944
0.011033052 -0.07090065 -0.13328783 -0.13265237 -0.17151564 -0.39873108 -0.029619161 -0.21594864
-0.20696518 -0.48627314 -0.19442889 0.044271305 -0.343698 -0.23931286 -0.46674994 -0.2922877
-0.41271833 -0.27802327 -0.23427136 0.061152373 -0.40199512 -0.040309064 -0.21900018 -0.14329913
-0.20862283 -0.079289585 -0.33217797 -0.1342402 -0.08896408 -0.16628288 -0.26535988 -0.019942233
-0.33788604 -0.13993159 -0.032728005 -0.1390026 -0.14428046 -0.4316519 -0.26043457 -0.25541756
-0.26956415 -0.2519657 -0.12657963 -0.31354797 -0.2893986 -0.25163558 -0.23986931 -0.07714536
-0.030841086 -0.16272062 -0.21397449 -0.33848864 -0.113376394 -0.283873 -0.31320912 -0.28968194
0.20603213 -0.008438782 -0.2109746 -0.08762861 -0.18549472 -0.1353387 0.050411608 0.034876663
-0.10194976 -0.1918287 -0.24647182 -0.3533499 -0.23860097 -0.20550561 -0.32669908 0.08050139
-0.18486303 -0.293528 -0.086391844 0.040941484 -0.26230717 0.0780832 -0.3044121 -0.37122342
-0.07722857 -0.10744127 -0.1451181 -0.18599565 -0.041162103 -0.06467424 -0.11312984 -0.17510012
-0.26343906 -0.014984595 -0.20856947 -0.13355686 -0.20319271 -0.30585977 -0.18101278 -0.3031218
-0.16700783 -0.15142043 -0.42755815 -0.34818846 -0.20166957 0.120669395 0.014688616 -0.049820703
0.11596859 -0.07671524 -0.33371067 -0.16185036 -0.2160408 -0.20323728 -0.05686491 -0.23946735
-0.30297455 -0.04786048 -0.2897849 -0.15250549 -0.2915857 -0.25592905 -0.24593872 -0.33699992
-0.08252483 -0.13051663 -0.2376645 -0.23753756 -0.06217202 -0.15055144 -0.13188249 -0.1729089
-0.09694601 -0.25596362 -0.3144897 -0.12352276 -0.23406515 -0.33564997 -0.3864258 -0.21337195
-0.17552736 -0.4376257 -0.028451974 -0.00021931714 -0.42580923 -0.2789155 0.5445309 -0.06794914
-0.22784577 -0.36720213 -0.057081852 -0.21858363 -0.13008417 -0.39817485 0.09213136 -0.06658829

hidden_layer_2.weight f4 [300, 404]
00000000: 2355 e6be 4d43 313e 2c26 ac3d 95cb 07be
00000010: 1d8f 16be dbdc aebd 8e68 29bd 495f 3dbd
00000020: b766 e7bd 5406 d3bb 9c7e 523c f62d 9dbe
00000030: 1b3c 5abe 5938 a7be 0153 8d3e eef8 fdbc
00000040: f864 23be d7e1 003e 147b 713c 9ff3 193e
00000050: 9b79 cbbd 679d 89be d4db 4fbb bf40 073d
00000060: cc9a 84be 5b24 a3be 64ab 5cbe c0da 80bd
00000070: f45a 2fbe 6a4e 0bbb 2209 2b3d 625b bfbc
00000080: 14a0 a8be d81e 5dbe 4926 cfbe 1f52 ff3c
00000090: 4ceb 1c3e f46a 23bc 1180 f4be d3c4 fe3c
000000a0: 0142 23bc bf1a 08be 62cb 16be 5c87 32be
000000b0: 3b03 833c d1ce 023e 3ac1 cabc d392 83bd
000000c0: 8097 9b3d a24c a0bb f271 0abf 2254 72be
000000d0: b2cd dfbd b550 89be be95 ab3d 4af0 59be
000000e0: 1dbd 61be e3f0 503e 789f d53d db03 11be
000000f0: 5dab cdbd 25c9 dbbe 2978 093d 980a 083e
00000100: 40e5 fcbd fd7a 803d 03d9 18bd 2a4e 103c
00000110: cffe aa3d 1b37 c5be 7e69 cebc 1c1d 30bd
00000120: dddc 82bc 2f66 7cbd b5f2 98be bc3e cfbc
00000130: 99c6 9c3c c65b b1bd e5ea 6ebe b046 2fbe
00000140: 70fc 9e3d d832 25be c90b 1abe 4024 10be
00000150: 5f15 ae3c 77a0 01be c609 2ebe e4e1 013e
00000160: 031d 1cbe 05e7 d2be e5bd fabc 649a 223d
00000170: af23 acbc 76db c4bd 2ae4 74be 2328 1b3e
00000180: e231 6b3c eefd 28be a5e2 58be 5ac8 503a
00000190: d50c 9ebe f77e 7dbd ef3a 23be aa09 88be
000001a0: f13c 38be 94c0 37be 2b3f 3d3d e450 54bd
000001b0: b523 e9bd c5ca 76be f012 713e 7eb6 343e
000001c0: eae9 e93d eacd c4be a4eb 40be 3a0e a83e
000001d0: 2c01 e5bc c3ef 7a3d 87f8 e2bd c475 9c3d
000001e0: fa02 483e c333 33be 4a5b c2be e19c 4c3c
000001f0: d692 6fbd 3ae8 7e3d a142 133e a408 a0be
00000200: c583 39be 7e52 96be f66f c83c f8a9 f5bb
00000210: c749 54be 5fb7 4fbe 88b1 0abe fa74 eabc
00000220: 356c e4bd ff7f 7dbd 4a6b a4bd 6882 6b3b
00000230: 48d9 8f3a 13ba adbd 24ad 46be fbf5 92be
00000240: 65f3 3bbd 3a5c 28be 7655 80be d8be 19be
00000250: a3e6 fd3d 161a babe ec50 8e3e 2822 f0be
00000260: 7836 3dbe ecd2 92bd 15c9 1dbd 2db4 083e
00000270: 532f c5bd 8361 3f3d 9ffd 97be 41b7 41be
00000280: c9d8 813b 9f5a a8bd 9195 e1bd bf2e 593d
00000290: dafd 30be 1c9c ed3c 0314 b5bd 1b36 ecbe
000002a0: aac8 e93c 2fe6 673e f9b9 0a3e 1cd4 72bd
000002b0: 3b82 6ebd 118d 3cbe ab9d 423d 285f 99be
000002c0: 6028 133e b203 46be 3d48 87bd 5ac4 4c3d
000002d0: 0b8a 86be 2ba4 d23d 9812 fa3d 96bd 7ebe
000002e0: f41e bd3d 6094 b1be 63bc 57be 5a22 7bbe
000002f0: 2cdb 653c e895 b8be 8edd c4bd 3292 80be
00000300: b5fa bbb8 c264 073e 0d43 fabd acb5 853d
00000310: 7204 dbba a0f3 23be d1cd b1bd 9414 b7bd
00000320: 21d8 e93b 785a 053e d348 a0bc c6cd cbbd
00000330: 57c0 663e 0990 a53e 9e0b 8abe 0615 81bd
00000340: b4f8 c83d acf5 66bd ec27 55bd c2d4 8ebe
00000350: 6f94 923e 6e2b 0ebe 37ba 693d b851 ac3b
00000360: aafc c8bc f1c6 63bc 5270 cabe 5fe2 d33b
00000370: cb99 01be 6898 bcbe 856e 113d 2292 73be
00000380: 6a00 bdbe 96d7 6a3d 53fa b93c 3db1 0f3e
00000390: 780b ccbe d8b4 86bd c649 13be 0deb 07be
000003a0: b8db 273d 7567 90bc 9e37 b2bd 30c6 a33d
000003b0: 61ac 7d3c 0aba 99bd 8cf6 0dbf 38c9 e2bd
000003c0: b0a9 95ba 92b0 5bbe 9a13 41bd 9029 933c
000003d0: 51f4 47be f829 2abe 73db 793d 4e96 54be
000003e0: acf0 8ebe ee66 bcbe c0aa 073f 60a9 2abe
000003f0: 4186 ffbc 5fb9 bebe 31f7 09be 9132 5cbe
-0.4498683 0.1731083 0.08405718 -0.13261254 -0.14703031 -0.085382186 -0.041359477 -0.04623345
-0.11298888 -0.0064399634 0.012847569 -0.30699128 -0.21311991 -0.32660177 0.2760239 -0.031002488
-0.15956485 0.12586151 0.014738817 0.1503434 -0.09935304 -0.268779 -0.003171672 0.03302073
-0.2589935 -0.31863675 -0.21549755 -0.06291723 -0.1712454 -0.0021256455 0.041756757 -0.023359004
-0.3293463 -0.21593797 -0.40458897 0.031167088 0.15324134 -0.00997423 -0.47753957 0.031099712
-0.009964467 -0.13291453 -0.14726022 -0.17434448 0.015992751 0.12774207 -0.02475034 -0.06424489
0.07597256 -0.004891948 -0.54080117 -0.23664907 -0.10927905 -0.26819387 0.083781704 -0.21283069
-0.22044797 0.20404391 0.10430807 -0.14161627 -0.100424506 -0.429269 0.03356186 0.13285291
-0.123484135 0.06273458 -0.037316334 0.008807698 0.08349382 -0.38518605 -0.025196787 -0.04299651
-0.015974456 -0.061620887 -0.2987267 -0.025298469 0.019137667 -0.086600825 -0.23331793 -0.17116809
0.077629924 -0.16132677 -0.15043558 -0.14076328 0.021250425 -0.12658869 -0.16995916 0.12683827
-0.15245442 -0.4119188 -0.030608127 0.03969802 -0.021013109 -0.09612171 -0.23915163 0.1515203
0.014355155 -0.16503116 -0.21180208 0.0007964425 -0.30869165 -0.06188866 -0.1594045 -0.26569873
-0.17991997 -0.17944556 0.04620282 -0.051834956 -0.11383764 -0.24100788 0.2354238 0.1764774
0.11421569 -0.3843835 -0.1883989 0.32823354 -0.02795466 0.06126381 -0.11082559 0.076396495
0.19532385 -0.17500214 -0.37960273 0.012488575 -0.058489643 0.062233187 0.14380886 -0.31256592
-0.18116672 -0.29359812 0.02446745 -0.0074970685 -0.20731269 -0.20284794 -0.13544285 -0.028620232
-0.11153451 -0.061889645 -0.08028276 0.0035935882 0.0010974789 -0.084827565 -0.19401985 -0.28703293
-0.045886416 -0.16441432 -0.25065202 -0.15014207 0.12397506 -0.36348027 0.27796113 -0.4690106
-0.1847781 -0.071691364 -0.038521845 0.13349982 -0.09628167 0.046723854 -0.29685685 -0.18917562
0.0039626104 -0.082204096 -0.11014856 0.053023096 -0.17284337 0.029005103 -0.088417076 -0.4613503
0.028538067 0.22646402 0.13547505 -0.059284315 -0.058229666 -0.18413188 0.047513645 -0.2995541
0.1437087 -0.19337347 -0.06605575 0.049991943 -0.26277193 0.10285219 0.12210578 -0.24877009
0.092344195 -0.34683514 -0.21067958 -0.24524823 0.014029305 -0.3605187 -0.09612571 -0.25111538
-8.963553e-05 0.1322203 -0.1221982 0.06528792 -0.0016709699 -0.16010904 -0.086818345 -0.08939472
0.0071363603 0.13022792 -0.019565975 -0.099513575 0.2253431 0.32336453 -0.26961988 -0.06302838
0.09813061 -0.056386635 -0.052040026 -0.27896696 0.2862887 -0.13883755 0.057062354 0.005258765
-0.024534542 -0.013902412 -0.3953882 0.0064661945 -0.12656324 -0.36835027 0.03550579 -0.23786214
-0.36914378 0.057334505 0.022702372 0.14032455 -0.398525 -0.06577462 -0.14383611 -0.13273259
0.040981025 -0.017627457 -0.087020144 0.07996786 0.015482993 -0.07506187 -0.55454326 -0.11073536
-0.0011418369 -0.21454075 -0.047137834 0.017964154 -0.19526793 -0.16617572 0.0610003 -0.20760462
-0.27917993 -0.3679728 0.5299492 -0.16666174 -0.031191947 -0.37250802 -0.13473202 -0.21503665

hidden_layer_2.bias f4 [300]
00000000: f222 6fbc d187 0e3f 51d0 63bd 1cd7 d03e
00000010: a622 94bd 91f4 3a3d 13f9 a83e 76eb a0bd
00000020: 2464 47bd 8487 4bbc b620 8cbd 4ba3 e73e
00000030: 8cf7 2dbc ca64 b73e 9da4 5cbd cb96 393e
00000040: 1373 6cbd 6be5 5f3e 0ce7 18be 01e7 e3bd
00000050: 0e45 9ebc c507 39bd 2c7c 033c 49a3 473e
00000060: 515e 2bbe b9b2 31be 340d 93be 23ea aabd
00000070: 7072 e03e be57 d4bc 606f 983e a8ab 283e
00000080: a73a 9e3e 59ad e43e 9f26 1ebd 99d9 ed3e
00000090: 5217 c53e 5f46 e73e 07fa 313f 8c14 8ebd
000000a0: 0a1b a2bd d305 033f 56f1 cabc 677f e03e
000000b0: 2635 02be da90 9c3e 0385 be3e c489 da3e
000000c0: aafb 463d 5eb5 343e 7c17 943e 2846 1d3e
000000d0: 6be7 c83e f305 993e e61a b23e deed 243f
000000e0: 1e36 9cba a2a8 593f f60f d3bc 0ee5 4d3e
000000f0: 0441 153e 90c1 24be 5f36 a1bc 5b52 053e
00000100: 9436 e63e 84e8 d23e e4ac 86bd 5ecf 863e
00000110: c2d6 b93e 8d6d b8bd 46fd 273e 4699 dcbe
00000120: b163 dabd 9bbc c63e a564 213e ac0e 8d3e
00000130: 044f 35be 50de 393e 4a82 dabd aae3 eb3e
00000140: f120 c23e e14d a3bd e4d1 91bd 6c13 a23e
00000150: 51cb 3fbd 6f0a b73e 6681 b4bd 59c7 da3e
00000160: 9305 af3e f8c4 b93d 5edd f0bd 1731 bd3e
00000170: 6a3c febc faf7 6c3e 4651 0a3e f15c 92bb
00000180: 560e 703e a1f3 9f3e 4e64 1d3e df23 37be
00000190: 7318 32bd 92dc d9be 407b 97bd 87b7 13bd
000001a0: 1e72 073e 74bf 2cbe d076 28bc f631 953e
000001b0: ecbc 49be 4755 b53e adf3 143c 638a b73a
000001c0: 3d08 debd 0150 1bbd a983 333d a4fb 6ebd
000001d0: 595b 81bd 3205 ebbc e2cd f33e 1bbf 103f
000001e0: 91c6 8bbd 843d a4bd 0538 963e 391b a6bd
000001f0: 8f08 673e b1bd 8c3e d1e4 233d cdf8 c43e
00000200: 6fc8 573e c690 31be cd7f 86bd b0c4 6cbc
00000210: ff9c 633e 2121 573e 685f 893e a9b7 06be
00000220: 250b 87bd 6b80 4abd 43fc a73d 5467 993e
00000230: 4208 103f 7ea5 03bd 3b2e 31be cfe3 813e
00000240: 8a57 b13e 400d 0f3f b6f1 203f ff88 41bd
00000250: d9cc 92bd acc1 aabd 4154 943e b20f 0dbf
00000260: 6061 143d 6ea8 47bd 3775 8a3e f82c f23d
00000270: c048 a53e d40c 03bd ef0d e63e 9492 2d3d
00000280: 6b15 8c3e a7e8 0f3e a9b0 bd3e 09f1 b03d
00000290: 8163 e93c 58b4 05be b971 05bf 5c22 373e
000002a0: 30c1 763e 58e4 b53c 75b2 803e 13b4 f33b
000002b0: 2627 c93e 6d36 dcbd 1c26 debc f0ec 803e
000002c0: d7a0 933e 2441 133d c9d5 c03e 5fb2 8a3d
000002d0: cfe8 d4bd 6493 edbd aafa cdbd 9a92 bd3d
000002e0: 4078 1b3e 88dc 8a3e c988 29bc 950c ab3e
000002f0: 2bce 603e 0f17 a5bd aaa6 733e 3525 303e
00000300: 343c 853e c293 fd3c 61a9 3a3e a663 233e
00000310: a8e7 893e 0689 403e a12f 12be 2f19 b43d
00000320: 2151 b1bd 780e 573e 05e3 0cbe 2165 a2be
00000330: ea71 103f ea3a 0b3f fec4 803e a7e2 0c3f
00000340: 6269 4a3e 398b 663e 94b2 3c3e 38a9 b03e
00000350: a030 7a3e ec4d 0a3f 9d5c 933e ac91 45bd
00000360: 6379 303b 6806 7c3e e8c3 82bc fa20 1b3f
00000370: 2e6c 01be b574 eabd 2020 9ebe 2b56 9fbd
00000380: 1a22 4d3d 15ea 843e 1cd5 fd3e cc58 d3be
00000390: e52a 073f 5408 cc3d 5ae7 86ba a70e 733e
000003a0: f73f 7e3e 493c 843e ef48 ab3e d460 06bd
000003b0: ae71 b43e 8757 01be edf6 043d d025 7fbd
000003c0: 9483 95bd 24d1 b63e 6f96 e83e 6242 bfbd
000003d0: 6201 a7bd 50cd a63e a48d 07bf ad6c 06bf
000003e0: 085c f6bd 105c ea3e d7b6 24be ae98 7ebe
000003f0: 3084 793e f0b0 b23d 1d3e 39bd bdc4 863e
-0.014595734 0.5567599 -0.055618588 0.40789115 -0.07233171 0.045643393 0.3300253 -0.078574106
-0.048679486 -0.012422446 -0.068421766 0.4524177 -0.010618102 0.35819083 -0.053867925 0.18123929
-0.05772693 0.2186486 -0.14931887 -0.11128045 -0.019320037 -0.045173425 0.00802521 0.19495882
-0.16735198 -0.17353334 -0.2872101 -0.08345439 0.4383731 -0.025920745 0.29772472 0.16471732
0.30904123 0.44663504 -0.03861105 0.46455076 0.38494354 0.45170876 0.69522136 -0.06937513
-0.079153135 0.5118076 -0.024773281 0.438472 -0.12715587 0.30579263 0.37210855 0.42683232
0.04857985 0.17647311 0.28924167 0.15358794 0.39239058 0.2988735 0.34786147 0.64425457
-0.0011917984 0.8502294 -0.025764447 0.20106909 0.14575583 -0.16089463 -0.019679246 0.13019697
0.44963515 0.4119302 -0.06575945 0.26330084 0.3629666 -0.0900527 0.1640521 -0.43085688
-0.10663546 0.3881577 0.15761049 0.27550256 -0.17705923 0.18151212 -0.10669382 0.4607213
0.37915757 -0.079738386 -0.071201116 0.31655443 -0.046824757 0.35750148 -0.08813743 0.42730215
0.3418394 0.09070772 -0.117609724 0.36951515 -0.031034667 0.2314147 0.13507566 -0.004466646
0.23442969 0.31240562 0.15370294 -0.17884777 -0.043480348 -0.42551094 -0.07396555 -0.036063697
0.13227126 -0.16869909 -0.010282233 0.2913968 -0.19700974 0.35416624 0.0090913 0.0014003034
-0.10841415 -0.037918095 0.043826733 -0.058345452 -0.06316251 -0.028689 0.47618014 0.56541604
-0.06824983 -0.08019546 0.29339615 -0.08110661 0.22561859 0.27488473 0.04001314 0.3847107
0.21072553 -0.17340383 -0.06567345 -0.014451191 0.22227858 0.21008731 0.26830602 -0.13155998
-0.065939225 -0.049438875 0.08202412 0.29961646 0.562626 -0.032140248 -0.17302792 0.25369117
0.346371 0.5587959 0.6286882 -0.04724979 -0.07167978 -0.08337721 0.2897053 -0.55102074
0.036225677 -0.04874461 0.27042553 0.11824983 0.32282066 -0.031994656 0.44932505 0.042376116
0.2736009 0.14053594 0.37048844 0.08639724 0.02848983 -0.13057077 -0.5212665 0.17884201
0.24097133 0.02220361 0.25136152 0.007437238 0.3928768 -0.107525684 -0.027117781 0.2518077
0.2883365 0.035950795 0.37663105 0.06772303 -0.10395967 -0.11600378 -0.10057576 0.09256478
0.1518259 0.27121377 -0.0103475535 0.33408037 0.21953647 -0.08061039 0.23794046 0.17201693
0.26022494 0.030954245 0.18228675 0.15955982 0.26934552 0.1880227 -0.14275981 0.08793866
-0.08658052 0.21001613 -0.13758476 -0.3171778 0.5642382 0.5438677 0.25150293 0.55033344
0.19766763 0.22514047 0.18427497 0.34504104 0.24432611 0.5402515 0.28781596 -0.048234627
0.002692782 0.24611819 -0.015962556 0.60597193 -0.12638924 -0.11448041 -0.30883884 -0.07780107
0.05008135 0.2595984 0.49576652 -0.41278684 0.52799827 0.09962526 -0.0010292337 0.23736058
0.24829088 0.25827244 0.3345408 -0.032807186 0.3524298 -0.12631045 0.03246205 -0.06229192
-0.07300487 0.35706437 0.45427272 -0.093388334 -0.081545606 0.32578516 -0.529505 -0.52509576
-0.12029272 0.45773363 -0.16085373 -0.2486293 0.24366832 0.087251544 -0.04522525 0.26321974

output.weight f4 [1, 300]
00000000: 3e63 28bf 18f8 553e 88b4 70be ef02 273e
00000010: 8cc5 1ebf 083e 12bf f459 383e 74c5 34bf
00000020: b3b5 1dbf c0b2 09bf 4f4e 65bf f39b 893e
00000030: 4f0b 0cbf 6152 aa3e 33a7 3cbf 902c f23e
00000040: e2b5 25bf a11e 473e 9a85 26bf 343b 4dbf
00000050: bec0 2fbf f866 39bf 347c 1dbf bdd5 873e
00000060: 8b09 25bf 3f1e 57be 6b72 23be 4343 2abf
00000070: 46dc 2b3e 94e1 0abf c78f 923e cc1d 953e
00000080: d591 813e 0c5e 533e c54d 29bf 0384 383e
00000090: 3207 803e 82dc 343e b363 3d3e 23ac 13bf
000000a0: c2e0 31bf c44b ae3e ad3d 27bf 98f1 4d3e
000000b0: 0588 03bf 9a86 433e 8234 683e e54e 933e
000000c0: 149f 39bf 34ef 653e 2935 873e b42a 5b3e
000000d0: ab74 4c3e 5ba0 6d3e 349a 6a3e 1350 333e
000000e0: b006 0cbf 2214 fc3d 56ba 52bf 99df c33e
000000f0: c69e b83e b8c3 f1be 62ae 1bbf 4358 2e3f
00000100: 921d 383e 91fb 813e 08f5 2dbf 2927 153e
00000110: acf8 3d3e 06ac 1fbf df32 cc3e a053 48be
00000120: 16c4 09bf 33db 6f3e 656c 893e 2824 6f3e
00000130: 6599 1abf 4b7c 7d3e c6f7 e5be 1842 8e3e
00000140: 36f7 673e 09c2 2abf 1b91 24bf 70ba 8b3e
00000150: 2351 01bf 6e1d 703e 15ef 5dbf 31be 773e
00000160: 50f5 ae3e 3c2e f53e 968a 16bf 83d9 1b3e
00000170: c31e 2fbf 64cd 633e 3874 ae3e 8e88 44bf
00000180: 7d63 ae3e 8aa0 803e e76b 123f 5f93 19bf
00000190: 83e8 27bf 92df b6be 2049 1ebf 8054 33bf
000001a0: c704 0f3f 1a2b 26bf 7994 32bf f7ae 713e
000001b0: 0085 e7be 2798 943e 6cbf 43bf 8cb3 63bf
000001c0: 5172 08bf fbc2 1bbf ce9e 52bf eaad 36bf
000001d0: 9f33 4cbf 46c3 2fbf b60b a43e 7157 3a3e
000001e0: 2d36 36bf 14d9 37bf 1fa2 003f aef6 39bf
000001f0: 7204 163e f221 693e c157 1bbf a419 8a3e
00000200: 5357 263f df1d e6be bd63 20bf 4e08 3cbf
00000210: 4b18 943e 6de7 803e 55c4 2d3e 9ab8 4cbf
00000220: 7b6e 6bbf 8299 e8be 9764 cc3e dae5 383e
00000230: bbb3 213e 7fe8 2fbf bb2c 38bf 602c 653e
00000240: aa39 d13e 9110 803e 6831 2b3e eb4e 40bf
00000250: bafd d9be a227 2fbf 7434 3d3e 6402 c2be
00000260: 5a49 22bf 153b 22bf e1ba 5b3e ff06 073f
00000270: 077a 7e3e 837f 20bf 3140 633e c2ed 19be
00000280: 0812 5a3e 1894 bd3e abd4 8c3e 4da9 c13e
00000290: de44 1bbf 6d5b 11bf 7c17 adbe 4dcb d13e
000002a0: 88d9 843e c03a 73bf 07f1 b13e a924 35bf
000002b0: 3568 0c3f 11b5 60bf 4892 4bbf c680 873e
000002c0: b148 703e cec3 0bbf e481 2f3e f23e d0be
000002d0: 0914 02bf 871a 19bf fc48 0fbf 3f90 423f
000002e0: c210 e53e 281a cc3e 630a 12bf ec75 a93e
000002f0: 67f6 d03e 200f 1abf 2906 803e 580f 933e
00000300: 4e23 853e 8aff 3ebe 0b8c f63e f9c7 893e
00000310: f0f2 dc3e 2ec4 0d3f eca4 05bf 9559 523e
00000320: bcce 33bf e895 7d3e 433f 2bbf 8696 05bf
00000330: 71ed 323e 419c 7d3e c95f 803e be53 6b3e
00000340: eaa7 7b3e dc14 be3e fa9b e83e 5051 983e
00000350: 76a0 f53e 9710 423e a856 873e 6dcf ecbe
00000360: 5a52 34bf 0b7b 863e 9f42 3bbf 6a51 633e
00000370: 62c7 2ebf ac3a c6be e0c7 80be 2ded 0ebf
00000380: 7850 50bf 5ef0 e33e 3bf9 3a3e eb8e 8ebe
00000390: 17bb 433e 2e7d 14bf b8ae 12bf 167a 923e
000003a0: 0a74 d63e 3fa5 933e 4521 f33d e3bc 2bbf
000003b0: 68a8 3d3e 7419 1abf b18c fbbe 4418 08bf
000003c0: 2263 58bf bc38 7a3e 217c 8f3e 14d3 3fbf
000003d0: 55c3 42bf 42cb 8a3e ccbd 0ebe 598a 87be
000003e0: a102 0bbf a55f 693e 45be 26bf 57f4 a3be
000003f0: 6022 453e 33da 01bf d2e9 1ebf 480b 703e
-0.6577643 0.20895422 -0.23506367 0.16309713 -0.6202018 -0.571259 0.18003064 -0.7061379
-0.61605376 -0.53788376 -0.89572614 0.26876792 -0.54704756 0.33265975 -0.73692626 0.47299623
-0.64730656 0.19445278 -0.6504761 -0.8016846 -0.68653476 -0.7242274 -0.61517644 0.26530257
-0.64467686 -0.21007632 -0.15961616 -0.66508883 0.16783246 -0.54250455 0.28625318 0.29124296
0.25306574 0.20641345 -0.6613429 0.18019108 0.2500549 0.17662242 0.18495063 -0.57684535
-0.6948358 0.3404218 -0.65328485 0.20111692 -0.51379424 0.19094315 0.2267628 0.2877113
-0.7250836 0.2245453 0.26407745 0.21403009 0.1996638 0.23205702 0.22910386 0.17511015
-0.54697704 0.123085275 -0.82315576 0.3825653 0.36058635 -0.47219634 -0.6081296 0.68103427
0.1798003 0.25387242 -0.67952013 0.1456572 0.18551892 -0.6237186 0.39882562 -0.1956315
-0.5381483 0.23423462 0.2684051 0.23353636 -0.6039031 0.24754445 -0.449156 0.277848
0.22652897 -0.66702324 -0.64283913 0.27290678 -0.5051443 0.23448727 -0.86692935 0.24193646
0.34171534 0.47886837 -0.58805215 0.15219693 -0.68406314 0.22246319 0.34073043 -0.76770866
0.3406028 0.25122482 0.57195896 -0.59990495 -0.6558916 -0.35717446 -0.6183033 -0.7005081
0.55866665 -0.6490952 -0.697578 0.236019 -0.45218658 0.29022333 -0.7646396 -0.8894584
-0.53299433 -0.6084439 -0.82273567 -0.7135912 -0.7976627 -0.6865734 0.32040185 0.18197419
-0.71176416 -0.7181561 0.5024738 -0.7264203 0.14650133 0.22766855 -0.60680777 0.26972687
0.64976996 -0.44944665 -0.6265219 -0.7345017 0.28924784 0.25176564 0.16969426 -0.7996918
-0.91965455 -0.45429617 0.39920494 0.18056431 0.15791218 -0.68714136 -0.71943253 0.22380209
0.40864307 0.2501264 0.16718066 -0.7512042 -0.4257639 -0.6841985 0.1847704 -0.3789245
-0.63393176 -0.633714 0.21458007 0.5274505 0.24851237 -0.6269457 0.22192456 -0.15032104
0.21295941 0.3702705 0.27506003 0.3782448 -0.6065196 -0.5678013 -0.3380698 0.4097542
0.25947213 -0.9501152 0.34754202 -0.70759064 0.5484651 -0.87776285 -0.7952008 0.26465434
0.2346523 -0.5459565 0.17139393 -0.40673023 -0.5081182 -0.598061 -0.5597074 0.7600135
0.44739348 0.39863706 -0.570471 0.3309778 0.4081299 -0.6017933 0.250047 0.28722644
0.26003498 -0.18652168 0.4815372 0.2691038 0.43154097 0.5537747 -0.52204776 0.20541985
-0.70237327 0.24764216 -0.66893405 -0.52182806 0.17473389 0.24766637 0.25073078 0.22981164
0.24575773 0.3712529 0.454315 0.29749537 0.47973984 0.18951641 0.264333 -0.46252003
-0.7043816 0.2626575 -0.7314853 0.22199026 -0.68272984 -0.38716638 -0.25152493 -0.5583065
-0.81372786 0.44519323 0.18259136 -0.27843413 0.19114338 -0.5800351 -0.5729785 0.2860877
0.41885406 0.2883701 0.1187158 -0.67085093 0.18521273 -0.6019509 -0.49130777 -0.53162026
-0.84526265 0.24435705 0.2802439 -0.74931455 -0.76079303 0.27108198 -0.1393959 -0.26472738
-0.54300886 0.22790392 -0.6513408 -0.32022354 0.19251394 -0.5072357 -0.6207553 0.23441803
