Neural_networks/reacher_20_9policy_local.pth (torch, 542751 bytes, 6 tensors)

hidden_layer_1.weight f4 [400, 33]
0.10728982 0.025890052 0.030039862 -0.016348384 -0.14053889 -0.18018009 0.08100702 -0.021581165
-0.2301963 0.059552576 -0.07874418 0.011426918 0.061857715 0.06093062 -0.029987397 0.11079413
0.03700555 0.16359743 0.89227515 -0.1590886 0.035569582 -0.010349646 0.21234284 0.0418888
-0.060623895 0.0047194664 -0.05937792 -0.17917179 -0.082775906 0.049657617 0.17550175 -0.028602464
0.53499943 0.2787123 -0.06096097 -0.025328597 -0.08331385 -0.13482773 -0.47279212 0.059366148
0.035150994 0.006084577 -0.01250833 0.040847775 -0.04997007 -0.03659199 -0.026257373 0.07740835
-0.12052231 0.33009017 0.34651056 -0.39434743 -0.023804607 -0.06755886 0.041822094 0.057298664
-0.05279634 0.1047402 -0.04134338 -0.21191207 0.13860679 0.023138 -0.041183244 -0.09759169
-0.011414509 0.72579104 0.026995776 0.037253596 -0.18693253 0.14285095 0.40370187 -0.21858016
-0.080214225 0.09293804 0.19358927 0.26831424 -0.089754276 0.02564448 -0.07940339 -0.2652471
0.028250245 0.12220887 -0.1442721 -0.41997394 -0.2814654 -0.649313 0.008763349 0.015553236
0.078077964 -0.16919155 -0.050320216 0.021254787 0.14374238 -0.17812255 -0.16495885 -0.034138605
0.116637535 0.04606835 -0.1275414 -0.0018397501 -0.17404588 0.15087217 -0.45702472 -0.40235716
0.52321124 -0.089971796 0.03766977 -0.0063975737 0.19979961 -0.06904469 -0.029942427 0.017487086
0.080266975 -0.10844276 -0.12028957 -0.35314423 -0.02628117 0.57973975 0.7142645 0.06506405
0.07801748 -0.024898468 -0.12596749 0.055309694 0.17265542 -0.05686551 0.015796186 0.0754492
-5.0626695e-05 -0.05463643 -0.000518851 -0.10514785 0.02636713 0.16989388 -0.016339747 -0.4636409
-0.06573277 -0.027971294 0.14178175 -0.019615617 0.030577539 0.13887084 0.17168093 -0.078305095
-0.08494952 -0.11592415 0.032910056 0.057350792 -0.23294374 -0.42512462 0.16916786 0.4106553
-0.045982737 -0.1632932 -0.14313173 0.019282585 -0.08236641 -0.12738493 -0.013236182 0.025396166
-0.13074738 -0.0379647 -0.05083945 -0.009385206 -0.7157277 0.16640526 0.0029185875 0.0062467847
-0.34583467 0.3115642 0.9431507 -0.42838278 0.056785304 -0.0061535076 0.002928032 0.09130686
0.0026726602 -0.08560864 -0.15108778 -0.07877968 0.15144034 -0.3036452 0.4270664 0.15613055
0.15500204 -0.05450647 -0.05141896 0.06268915 -0.016211294 -0.09213732 -0.015906688 0.09693759
-0.017434817 0.021234216 0.046912704 0.06317052 0.0009202771 0.72316116 0.040354077 0.03664084
-0.0039525055 0.069008596 -0.27695513 0.19759297 0.20032959 0.008532684 0.09922817 -0.04411596
-0.039377067 0.0145438835 0.105651595 -0.053720865 0.043611523 -0.07355052 0.16699257 0.557371
-0.072159186 -0.18236326 0.047139067 -0.10905378 -0.11132173 0.030450318 0.011440013 0.028736781
-0.16196267 0.023103986 0.08127728 -0.042831894 -0.043991566 0.01055352 0.06677862 -0.12919472
0.13261327 -0.027466632 -0.58712304 0.011847713 -0.2887271 0.35439935 0.055597108 -0.02889879
-0.104419366 -0.009430683 0.04312538 -0.03833757 0.18702295 -0.024184305 -0.048504516 0.17494783
0.30404547 0.059316363 0.056785654 0.054127794 0.007444684 0.028141584 -0.107909046 0.020822678
00000000: c4ba db3d 6017 d43c 2816 f63c 0ced 85bc
00000010: 6de9 0fbe 2181 38be 02e7 a53d fcca b0bc
00000020: 94b8 6bbe 67ed 733d a144 a1bd f837 3b3c
00000030: 845e 7d3d 6392 793d 21a8 f5bc 08e8 e23d
00000040: 2293 173d 1686 273e 256c 643f 1fe8 22be
00000050: 69b1 113d 9091 29bc 6770 593e 9793 2b3d
00000060: c350 78bd c1a5 9a3b 4336 73bd cf78 37be
00000070: 6a86 a9bd c965 4b3d bbb6 333e b74f eabc
00000080: b9f5 083f 61b3 8e3e 36b2 79bd eb7d cfbc
00000090: 74a0 aabd 4810 0abe cf11 f2be eb29 733d
000000a0: 7dfa 0f3d 2261 c73b bdef 4cbc ff4f 273d
000000b0: 6bad 4cbd 7ce1 15bd b419 d7bc 4588 9e3d
000000c0: 67d4 f6bd 9401 a93e d569 b13e e8e7 c9be
000000d0: e101 c3bc 4d5c 8abd a54d 2b3d 01b2 6a3d
000000e0: fa40 58bd 0882 d63d ad57 29bd 7aff 58be
000000f0: f0ee 0d3e e78b bd3c c3af 28bd 27de c7bd
00000100: ec03 3bbc 71cd 393f 3f26 dd3c 3a97 183d
00000110: 3e6b 3fbe 8547 123e 03b2 ce3e 7ad3 5fbe
00000120: 5b47 a4bd 4d56 be3d 443c 463e 7c60 893e
00000130: 17d1 b7bd 5f14 d23c 3f9e a2bd 78ce 87be
00000140: 0f6d e73c a548 fa3d 11bc 13be d306 d7be
00000150: 3c1c 90be 6039 26bf 2694 0f3c 00d3 7e3c
00000160: 57e7 9f3d 8d40 2dbe 921c 4ebd 851e ae3c
00000170: 3431 133e c265 36be f9ea 28be ecd4 0bbd
00000180: a9df ee3d 2bb2 3c3d 369a 02be c523 f1ba
00000190: 1539 32be 3c7e 1a3e 25ff e9be c201 cebe
000001a0: 2cf1 053f 2243 b8bd 9e4b 1a3d bda2 d1bb
000001b0: 4598 4c3e 4d67 8dbd d249 f5bc 1441 8f3c
000001c0: 0363 a43d 3d17 debd 615a f6bd 52cf b4be
000001d0: 9c4b d7bc d369 143f 0ada 363f 4d40 853d
000001e0: a1c7 9f3d dff7 cbbc 9ffd 00be 6b8c 623d
000001f0: 95cc 303e cfeb 68bd 0167 813c 1c85 9a3d
00000200: 0058 54b8 73ca 5fbd 8003 08ba c257 d7bd
00000210: e1ff d73c a9f8 2d3e efda 85bc 5762 edbe
00000220: e79e 86bd 0e24 e5bc 3c2f 113e eeb0 a0bc
00000230: bf7d fa3c 2834 0e3e 20cd 2f3e 6c5e a0bd
00000240: 04fa adbd a469 edbd b2cc 063d aae8 6a3d
00000250: ce88 6ebe efa9 d9be 573a 2d3e 6941 d23e
00000260: 6558 3cbd 5536 27be 2091 12be 83f6 9d3c
00000270: b8af a8bd 3271 02be 92dc 58bc 9f0b d03c
00000280: a4e2 05be e080 1bbd 073d 50bd 68c4 19bc
00000290: ee39 37bf 2466 2a3e c645 3f3b d4b1 cc3b
000002a0: 3e11 b1be 5885 9f3e 5372 713f fd54 dbbe
000002b0: b597 683d 5da3 c9bb 3ae4 3f3b 17ff ba3d
000002c0: cc27 2f3b 9553 afbd c1b6 1abe 3e57 a1bd
000002d0: 2d13 1b3e 6277 9bbe 72a8 da3e b0e0 1f3e
000002e0: dbb8 1e3e 2d42 5fbd b09c 52bd 2b63 803d
000002f0: 8ccd 84bc 7eb2 bcbd be4e 82bc 3787 c63d
00000300: 76d3 8ebc 61f3 ad3c 8927 403d 8c5f 813d
00000310: c03e 713a 1721 393f 514a 253d b514 163d
00000320: 0584 81bb 6154 8d3d 10cd 8dbe d055 4a3e
00000330: 3323 4d3e accc 0b3c 2438 cb3d f0b2 34bd
00000340: d949 21bd 7849 6e3c dd5f d83d 690a 5cbd
00000350: ffa1 323d a8a1 96bd 1a00 2b3e deaf 0e3f
00000360: 32c8 93bd 6fbd 3abe e514 413d 9757 dfbd
00000370: a6fc e3bd f272 f93c e46e 3b3c 6669 eb3c
00000380: 8bd9 25be 9244 bd3c b474 a63d 7f70 2fbd
00000390: 8030 34bd ace8 2c3c 3bc3 883d 9f4b 04be
000003a0: c6cb 073e b401 e1bc b24d 16bf e91c 423c
000003b0: 0ad4 93be d573 b53e cbb9 633d 28bd ecbc
000003c0: d2d9 d5bd 2783 1abc 3da4 303d db07 1dbd
000003d0: f282 3f3e 2a1e c6bc acac 46bd 8625 333e
000003e0: d9ab 9b3e b7f5 723d 1398 683d 1bb5 5d3d
000003f0: 89f2 f33b 2e89 e63c 6bff dcbd 5294 aa3c

hidden_layer_1.bias f4 [400]
0.0801831 -0.18919808 0.31328955 -0.012099655 -0.16008744 -0.11600626 -0.14880653 -0.1785974
-0.008388348 -0.06777399 0.121913314 -0.12134799 0.21427247 -0.027866378 -0.05900161 -0.028717136
-0.09416662 -0.19309725 -0.15680684 0.121040136 -0.046282247 -0.2711708 0.056945723 -0.06299716
-0.04433354 -0.29366046 0.10775135 0.22343567 0.2390179 0.050610155 0.11508984 0.21200554
0.22900194 -0.03368573 0.07010649 -0.10630193 -0.09366039 0.20536797 0.094295286 0.14369401
0.4091345 0.1089813 0.13499199 0.09268677 0.031728074 -0.025002515 -0.062316857 0.15066244
-0.022725495 -0.06332153 0.13170554 0.06906989 0.1385039 0.07956997 -0.030149741 0.07952928
-0.022739008 -0.19660339 0.08193457 0.17978984 -0.091027215 -0.076544754 0.18165465 0.056532994
-0.01841114 -0.122854576 0.21866414 -0.17058744 0.07169768 0.07598868 0.19153617 0.1131016
0.14547464 0.0699163 0.20565116 0.020137334 -0.025463626 -0.121464975 0.1739205 -0.23484458
0.05100558 -0.07319352 -0.17831768 -0.07228929 0.18357608 0.09293886 -0.0074778073 0.1267559
0.2289748 -0.19369297 0.008966967 0.022484642 0.03608665 -0.09700419 -0.18367526 -0.23087269
0.044900987 0.29911995 -0.12675829 0.12179665 -0.18315044 -0.016191423 0.07442188 0.013968365
0.011651067 0.17751347 0.14484131 0.07415615 -0.1355751 -0.19885163 -0.20086439 -0.086086944
-0.13523287 -0.07594834 0.07369316 0.096125156 0.14718063 0.049511433 -0.10251576 -0.22165981
-0.1812284 -0.16386336 -0.31384173 0.19820526 -0.13147849 0.08140147 -0.0028709918 0.05442196
0.14022213 0.19704108 -0.23964536 0.07797809 0.19442777 -0.06562264 -0.22526638 0.12969372
-0.1443009 -0.13272792 0.11768983 0.08146007 0.020506589 0.032646127 0.0006380263 0.08229542
-0.16794294 -0.0421169 -0.07297448 -0.15098004 0.03079903 -0.018176792 -0.06049832 -0.27011177
0.07154428 -0.10385241 -0.122264236 -0.21446374 0.013095539 -0.23786855 0.025753466 -0.04468113
0.11666224 0.23106176 -0.04025524 -0.05903758 0.105939604 -0.04668526 0.025396796 0.25595868
-0.03240074 -0.0076574446 -0.027909547 -0.30453765 0.008738809 0.011764124 -0.09223048 0.1529405
-0.19932668 0.094333194 0.02998802 0.04420267 0.14900945 -0.08039196 0.019320264 -0.060341906
-0.04168159 -0.14147426 -0.15367533 0.07509551 0.0072836797 0.17020014 0.06977398 -0.2168752
0.123118296 0.19462222 -0.05763199 -0.07674843 -0.05480262 -0.09251392 0.08256807 0.01278173
0.039786734 -0.11920339 0.0072929603 -0.06811897 -0.08811013 0.14589694 0.06986144 -0.039410412
0.07295074 -0.06959577 0.069470726 0.022964908 -0.0485256 -0.35406953 0.20968649 -0.03855298
-0.111001834 0.015928878 0.0972748 -0.0023283795 -0.3484232 -0.18444738 -0.21872097 0.014958628
0.014709283 -0.11054917 0.08000698 0.05693299 0.046683658 -0.019291876 0.16143756 0.048676953
0.057148725 -0.10659289 0.07771788 0.18002023 -0.1353459 -0.11084727 -0.19072655 -0.013753404
0.0012128464 0.071207836 0.003912275 0.05460602 -0.12920955 -0.09967628 0.028671393 -0.059620865
-0.07916812 -0.28008863 0.2208907 0.06461561 0.04657233 -0.12320977 0.16996695 0.030165432
00000000: 0a37 a43d 24bd 41be 7d67 a03e a23d 46bc
00000010: f6ed 23be b194 edbd bd60 18be 3de2 36be
00000020: 486f 09bc 17cd 8abd b0ad f93d 4c85 f8bd
00000030: 3e6a 5b3e 0848 e4bc acab 71bd 3340 ebbc
00000040: 6eda c0bd 49bb 45be f991 20be e4e3 f73d
00000050: 7492 3dbd e6d6 8abe eb3f 693d a804 81bd
00000060: 1697 35bd aa5a 96be bdac dc3d 52cc 643e
00000070: 1cc1 743e 984c 4f3d 39b4 eb3d fb17 593e
00000080: 7c7f 6a3e 0cfa 09bd fe93 8f3d d4b4 d9bd
00000090: 05d1 bfbd fb4b 523e e31d c13d 8624 133e
000000a0: 147a d13e 9631 df3d 573b 0a3e 90d2 bd3d
000000b0: 4cf5 013d 13d2 ccbc f63f 7fbd 4147 1a3e
000000c0: d12a babc b8ae 81bd d1dd 063e 8474 8d3d
000000d0: f7d3 0d3e 95f5 a23d 97fc f6bc 3fe0 a23d
000000e0: 2847 babc 6652 49be 50cd a73d d41a 383e
000000f0: 7a6c babd 7fc3 9cbd ad03 3a3e 248f 673d
00000100: f6d2 96bc 2e9b fbbd 7ee9 5f3e 79ae 2ebe
00000110: 3cd6 923d f49f 9b3d 0f22 443e d0a1 e73d
00000120: 4ef7 143e 4730 8f3d 3896 523e 0df7 a43c
00000130: 1899 d0bc a1c2 f8bd 3718 323e 197b 70be
00000140: 3aeb 503d 7ce6 95bd e998 36be 680c 94bd
00000150: 5efb 3b3e bb56 be3d 6508 f5bb 4ccc 013e
00000160: 5f78 6a3e 7357 46be 30ea 123c b631 b83c
00000170: 98cf 133d 22aa c6bd 5e15 3cbe e469 6cbe
00000180: 19ea 373d 4026 993e edcc 01be 8670 f93d
00000190: ca8b 3bbe e0a3 84bc 806a 983d 92db 643c
000001a0: 1ee4 3e3c 17c6 353e 4851 143e 2edf 973d
000001b0: 33d4 0abe c39f 4bbe 65af 4dbe 5a4e b0bd
000001c0: 7c7a 0abe ce8a 9bbd 71ec 963d 44dd c43d
000001d0: 85b6 163e 80cc 4a3d c8f3 d1bd cafa 62be
000001e0: f093 39be cccb 27be ddaf a0be 52f6 4a3e
000001f0: 4ca2 06be d0b5 a63d 4027 3cbb 90e9 5e3d
00000200: 6496 0f3e 23c5 493e 9865 75be fab2 9f3d
00000210: 1318 473e 2a65 86bd 3bac 66be 6ece 043e
00000220: 9dc3 13be d4e9 07be 5e07 f13d 8ad4 a63d
00000230: 6ffd a73c f2b7 053d 3841 273a 808a a83d
00000240: 3cf9 2bbe c582 2cbd a573 95bd 839a 1abe
00000250: 3f4e fc3c 7fe7 94bc 16cd 77bd 174c 8abe
00000260: cf85 923d 93b0 d4bd ac65 fabd 629c 5bbe
00000270: ac8e 563c d093 73be eff8 d23c 9003 37bd
00000280: 9dec ee3d 749b 6c3e aee2 24bd 64d1 71bd
00000290: ddf6 d83d 0b39 3fbd f10c d03c 040d 833e
000002a0: a3b6 04bd 4deb fabb 90a2 e4bc 5cec 9bbe
000002b0: 392d 0f3c 50be 403c 55e3 bcbd 6f9c 1c3e
000002c0: 4b1c 4cbe c331 c13d 70a9 f53c dc0d 353d
000002d0: ef95 183e 8aa4 a4bd 8845 9e3c 1329 77bd
000002e0: 51ba 2abd a1de 10be 115d 1dbe adcb 993d
000002f0: efab ee3b f248 2e3e a9e5 8e3d 8814 5ebe
00000300: 7225 fc3d 0c4b 473e 860f 6cbd 482e 9dbd
00000310: b678 60bd f077 bdbd 7319 a93d 766a 513c
00000320: 6af7 223d e820 f4bd c9f9 ee3b f581 8bbd
00000330: 1573 b4bd 0266 153e 8413 8f3d d06c 21bd
00000340: 3367 953d 3a88 8ebd ab46 8e3d e720 bc3c
00000350: c8c2 46bd 9a48 b5be 0eb8 563e bbe9 1dbd
00000360: ee54 e3bd 477d 823c 0338 c73d ba97 18bb
00000370: 8764 b2be c6df 3cbe 64f8 5fbe 0915 753c
00000380: 34ff 703c 9a67 e2bd b3da a33d 9132 693d
00000390: 5d37 3f3d ff09 9ebc e34f 253e 7c61 473d
000003a0: c814 6a3d 604d dabd 8d2a 9f3d 3957 383e
000003b0: 1e98 0abe e503 e3bd d24d 43be f555 61bc
000003c0: 5ff8 9e3a 6ad5 913d 8b32 803b 90aa 5f3d
000003d0: 824f 04be 1423 ccbd 45e0 ea3c 0235 74bd
000003e0: e522 a2bd c767 8fbe 2c31 623e 3055 843d
000003f0: a1c2 3e3d 6755 fcbd d10b 2e3e 7f1d f73c

hidden_layer_2.weight f4 [300, 400]
-0.18489762 -0.07163225 0.33180192 -0.36267802 -0.05772138 -0.13575669 -0.04885401 -0.03370145
-0.120717674 -0.037857156 0.053609822 0.1826381 0.07385836 0.10994194 -0.102724686 0.06142655
0.017403131 0.11302919 -0.21607752 -0.026541114 0.11432001 0.03416986 -0.28274286 -0.3307875
-0.05116254 -0.28174168 -0.2704425 -0.016645323 0.07113797 -0.09858705 -0.099565744 -0.09532601
-0.10621301 -0.3191988 0.26666492 0.03119446 0.07043099 -0.16019872 0.031304166 0.17170958
0.046916988 0.13060758 -0.014461241 0.07004409 0.38617456 0.2588776 -0.10666889 -0.043616977
0.18795955 -0.1402736 0.055490144 -0.09894211 0.08017369 0.17335339 -0.08502341 0.1643316
-0.0588576 -0.10518829 -0.06911499 0.060911637 0.19287343 0.21209367 0.5265725 -0.14665785
0.13232958 0.18325137 -0.034145482 -0.5241523 0.34134534 0.08201249 -0.030728478 0.030569782
-0.014028451 0.068005 0.10477548 0.10997926 -0.11640263 0.33319142 -0.13055788 0.40126583
-0.10834441 -0.09807777 0.10229447 0.093603976 -0.06339572 0.0015409827 0.19637603 -0.025498716
0.02125532 -0.2743529 0.008293328 0.03405432 0.022981716 -0.17425859 -0.047855295 -0.17112914
0.14780663 0.12909512 -0.004908947 -0.08842337 -0.21757112 0.0028772017 -0.03523022 0.37100464
-0.05050631 0.032563668 0.14603083 -0.07165233 0.057077814 -0.16770896 0.3903262 0.03358413
-0.09244825 -0.0006987945 -0.016417738 -0.12046376 0.20558628 0.3189795 0.17687744 0.3832215
-0.13869515 0.036214698 0.1262413 0.12358343 -0.051106278 -0.07299522 0.26185247 0.10021593
0.0029245734 -0.059950095 -0.0588243 0.12366544 0.21527095 0.14020137 -0.1711801 0.01284496
0.08599476 0.16241886 -0.034754824 -0.09576383 -0.08821464 0.15955354 0.040239956 0.03631248
-0.07063203 0.017777476 -0.15490216 0.014623554 -0.35736918 0.08074242 0.095914535 0.047955528
0.026718866 0.09200585 0.17761174 0.16825823 -0.101272255 0.13254699 0.10369633 0.06453144
0.0075938026 0.06991571 0.087812446 -0.113165155 0.1517569 0.068413116 -0.21829715 -0.030766217
0.119768135 0.0982451 0.14569044 0.13560304 0.015023104 -0.07890025 0.062040538 0.124409564
0.15334807 0.17630012 -0.3640357 0.40272352 -0.06859037 0.14323956 -0.07321053 -0.042205162
-0.025252776 -0.13589267 -0.3676458 -0.3022274 -0.10647143 0.021750242 0.021989899 -0.14304726
0.5118058 -0.07759883 0.11132557 -0.21154305 -0.09981754 -0.1811509 0.15160498 0.082650304
-0.15655793 0.08515302 -0.011175084 -0.14952141 0.0019772504 0.03816432 -0.18326208 0.13529427
0.13741097 -0.046515677 0.05046213 0.1249262 -0.4127284 0.13088018 -0.16831826 0.16198361
0.3110692 -0.18500249 -0.10296147 0.12249685 -0.29367423 0.113823734 -0.14444703 -0.1700161
-0.17696418 0.2870858 0.08324982 0.15390086 0.087874405 0.016127132 0.10985491 0.0065168655
0.09661133 0.026870864 0.085763685 -0.049991447 0.066393316 -0.2320656 -0.054124005 0.3276442
0.268205 0.06746902 -0.032239817 0.057905268 -0.025264107 -0.14152032 -0.17914994 0.13198611
-0.07682664 0.14280832 0.1167449 0.21369623 -0.21426187 0.04530267 0.17575595 -0.27465653
00000000: cd55 3dbe eeb3 92bd f1e1 a93e efb0 b9be
00000010: 416d 6cbd cd03 0bbe 241b 48bd 880a 0abd
00000020: d43a f7bd 1b10 1bbd f995 5b3d 7b05 3b3e
00000030: 0d43 973d 3d29 e13d 5261 d2bd 689a 7b3d
00000040: 0391 8e3c d97b e73d 6d43 5dbe c06c d9bc
00000050: 9c20 ea3d b2f5 0b3d acc3 90be fb5c a9be
00000060: d08f 51bd 7240 90be 7077 8abe c65b 88bc
00000070: c9b0 913d 02e8 c9bd 20e9 cbbd 483a c3bd
00000080: 3586 d9bd 066e a3be 4e88 883e 868b ff3c
00000090: 1f3e 903d 220b 24be cc38 003d a3d4 2f3e
000000a0: 072c 403d febd 053e d7ee 6cbc 4773 8f3d
000000b0: acb8 c53e 9b8b 843e 3875 dabd b7a7 32bd
000000c0: 7878 403e e2a3 0fbe a249 633d 29a2 cabd
000000d0: 1b32 a43d 8d83 313e c120 aebd 8b46 283e
000000e0: ab14 71bd f56c d7bd 298c 8dbd 7b7e 793d
000000f0: 9d80 453e 152f 593e 75cd 063f 7a2d 16be
00000100: 6881 073e 3fa6 3b3e 22dc 0bbd d82e 06bf
00000110: d1c4 ae3e 2af6 a73d 4aba fbbc 7b6d fa3c
00000120: 97d7 65bc 3546 8b3d 8794 d63d ce3c e13d
00000130: 8164 eebd 1198 aa3e f7b0 05be b772 cd3e
00000140: ade3 ddbd ffdc c8bd c37f d13d 71b3 bf3d
00000150: 9ed5 81bd cdfa c93a cc16 493e afe2 d0bc
00000160: a31f ae3c fc77 8cbe bde0 073c 8b7c 0b3d
00000170: 2744 bc3c d870 32be ea03 44bd 7a3c 2fbe
00000180: 9f5a 173e 8331 043e 3bdb a0bb 5017 b5bd
00000190: f7ca 5ebe 6f8f 3c3b 904d 10bd 52f4 bd3e
000001a0: b4df 4ebd 7b61 053d 1b89 153e 75be 92bd
000001b0: 6dca 693d e6bb 2bbe d6d8 c73e 838f 093d
000001c0: 8255 bdbd 4e2f 37ba 7e7e 86bc b4b5 f6bd
000001d0: 3685 523e 4851 a33e 5c1f 353e 9c35 c43e
000001e0: 1a06 0ebe dd55 143d 6645 013e 4f19 fd3d
000001f0: d154 51bd 857e 95bd 8711 863e 023e cd3d
00000200: 33aa 3f3b 3b8e 75bd c0f1 70bd 4e44 fd3d
00000210: fd6f 5c3e f390 0f3e d649 2fbe ab73 523c
00000220: 051e b03d 2151 263e 135b 0ebd d41f c4bd
00000230: e1a9 b4bd 0162 233e a7d2 243d 65bc 143d
00000240: 87a7 90bd 12a2 913c ac9e 1ebe a297 6f3c
00000250: 18f9 b6be 485c a53d d76e c43d 046d 443d
00000260: 86e1 da3c 906d bc3d dadf 353e e34b 2c3e
00000270: d467 cfbd 66ba 073e be5e d43d 0f29 843d
00000280: 6fd5 f83b f82f 8f3d 03d7 b33d 22c3 e7bd
00000290: 2966 1b3e 2d1c 8c3d 4a89 5fbe 6f09 fcbc
000002a0: ff48 f53d ba34 c93d e02f 153e 86db 0a3e
000002b0: 7723 763c 7496 a1bd 381e 7e3d 71ca fe3d
000002c0: 4707 1d3e 0588 343e e362 babe c731 ce3e
000002d0: 1c79 8cbd 64ad 123e 67ef 95bd 52df 2cbd
000002e0: e9de cebc 7327 0bbe 123c bcbe 8dbd 9abe
000002f0: b10d dabd 902d b23c 2924 b43c fb7a 12be
00000300: b405 033f 23ec 9ebd a9fe e33d be9e 58be
00000310: 236d ccbd 9f7f 39be 563e 1b3e 9044 a93d
00000320: b950 20be b564 ae3d b317 37bc 241c 19be
00000330: c294 013b 3152 1c3d 0ea9 3bbe 958a 0a3e
00000340: 76b5 0c3e 3987 3ebd 61b1 4e3d 4fd9 ff3d
00000350: 2351 d3be 7405 063e 9f5b 2cbe 08df 253e
00000360: 7644 9f3e 4b71 3dbe 77dd d2bd a1df fa3d
00000370: 785c 96be 6b1c e93d ece9 13be b318 2ebe
00000380: 1936 35be e9fc 923e e27e aa3d 3098 1d3e
00000390: 7ff7 b33d 0c1d 843c 9cfb e03d 6e8b d53b
000003a0: 29dc c53d 4920 dc3c dfa4 af3d d5c3 4cbd
000003b0: 38f9 873d 9ba2 6dbe 22b1 5dbd fbc0 a73e
000003c0: 2a52 893e 332d 8a3d e60d 04bd 132e 6d3d
000003d0: acf6 cebc b4ea 10be 1573 37be 5e27 073e
000003e0: 4957 9dbd 583c 123e f317 ef3d 2fd3 5a3e
000003f0: 7767 5bbe 4b8f 393d 5ef9 333e c89f 8cbe

hidden_layer_2.bias f4 [300]
-0.002535746 -0.05685678 -0.109129526 0.025365356 -0.047638237 0.028775394 -0.0029726506 0.056629647
0.09910109 -0.033184346 0.039371446 -0.09149075 0.034515 -0.08278338 -0.08865304 -0.0640915
0.030481005 -0.019526057 -0.015717706 -0.033645943 0.017241556 0.07045186 -0.0791964 -0.03728735
0.030586595 -0.0054677133 -0.025976019 0.0666552 0.06195436 -0.00010186243 0.020235708 -0.10241476
0.09619916 -0.03229655 0.04657617 -0.018959776 -0.033523537 -0.038672823 -0.020132849 0.08295049
0.053513244 0.007108779 -0.0459194 -0.034268137 0.07194734 -0.035630174 -0.06067114 -0.13784349
-0.006226695 -0.010423817 0.013218096 -0.015032102 0.026994126 -0.0069498015 0.0038658753 -0.011677782
-0.1387832 -0.08608376 -0.099869065 -0.15054654 0.029158013 0.031836215 0.01185247 -0.096600376
0.039653204 0.090857305 -0.0075833313 -0.041274667 0.029997043 -0.021701671 0.055931892 -0.067295134
0.024125915 -0.04555715 -0.05436974 -0.21261941 -0.16982344 0.009295252 -0.07838156 0.013851743
0.0012292754 -0.057125725 -0.072246835 0.032978993 0.015857842 -0.014055452 -0.014998883 -0.12802567
0.021087497 0.015147016 -0.037022814 0.020239582 0.00447424 0.06314577 -0.042061336 -0.057751745
-0.012909437 0.005948579 -0.047725953 -0.0027067668 -0.15500285 -0.08035459 -0.12731305 -0.116896704
-0.07123749 0.01790122 -0.037435163 -0.088552184 0.01562569 0.043457694 0.027936844 0.029536175
-0.00054719544 -0.0011374267 -0.09470514 -0.014445291 0.048576478 0.0052501466 0.037321694 0.08380465
-0.013255453 -0.017550549 -0.10965515 0.010024919 -0.01539709 0.06473274 -0.028370252 0.006346584
0.08277779 -0.011836522 0.0054192883 -0.062162723 -0.097408466 0.03832656 0.09193865 0.011382322
0.052734822 0.11374325 0.021895027 0.06436277 -0.023457933 -0.0012906642 -0.06416959 -0.05594364
-0.021865066 -0.111990206 -0.049534857 0.022057384 0.016879857 0.048287146 0.07440793 0.027093247
-0.015076651 0.10234479 0.0031639987 0.04325606 -0.02077179 0.10363339 -0.14241439 0.002166102
-0.020552954 0.021110682 -0.025477925 -0.05355686 0.045724533 -0.04748554 -0.069068655 -0.03735018
-0.036564857 0.04230357 0.045141548 -0.08229011 -0.08561733 -0.033481564 0.043510824 0.0017508959
-0.13486715 0.016822027 -0.01800558 -0.04400254 0.14878306 -0.046303883 -0.06731235 -0.038381536
0.0090417545 -0.007364368 0.051904142 0.07289197 -0.07513962 0.037776552 0.029154783 -0.018338127
-0.04855561 -0.007334599 0.0542048 -0.043142643 -0.029789172 -0.05903773 -0.035022844 0.043954123
-0.055931944 -0.048879758 -0.11719207 0.08896276 0.048679512 0.03235545 0.06880659 -0.10841975
-0.022000136 -0.04935349 -0.0545012 0.022432145 -0.110452645 -0.0057774554 0.013242777 0.13612802
-0.042153776 -0.06810117 0.03795996 0.034083594 -0.029457513 0.014359485 0.06208927 -0.06580825
0.033186544 -0.007680251 0.08663125 0.0526725 -0.07177971 0.03677513 0.04151426 0.062197953
-0.017489247 0.018263664 0.03070227 0.02817399 -0.060253307 -0.04394832 -0.0043366244 -0.082706176
-0.01855486 -0.002556152 -0.023900975 -0.06622154 0.018049622 -0.025768526 -0.049464185 -0.017533585
-0.011357507 0.007898179 0.020199198 0.027899679 -0.046343636 0.00019109351 -0.005510583 -0.050338093
00000000: c22e 26bb a8e2 68bd 4d7f dfbd 02cb cf3c
00000010: 5020 43bd 60ba eb3c cdd0 42bb 7df4 673d
00000020: 83f5 ca3d 4fec 07bd f443 213d 815f bbbd
00000030: 9a5f 0d3d 558a a9bd ba8f b5bd 6842 83bd
00000040: 4db3 f93c 1cf5 9fbc 6bc2 80bc 54d0 09bd
00000050: 2a3e 8d3c 1149 903d b931 a2bd 9fba 18bd
00000060: bd90 fa3c 812a b3bb a9cb d4bc 8682 883d
00000070: dbc3 7d3d fa9e d5b8 5bc5 a53c d4be d1bd
00000080: 1104 c53d 6349 04bd a7c6 3e3d 8851 9bbc
00000090: fa4f 09bd 6567 1ebd a5ed a4bc f2e1 a93d
000000a0: b430 5b3d c3f0 e83b fb15 3cbd bf5c 0cbd
000000b0: 2159 933d f2f0 11bd 4d82 78bd d826 0dbe
000000c0: 4e09 ccbb a8c8 2abc b790 583c 3549 76bc
000000d0: c922 dd3c 29bb e3bb a05a 7d3b 2b54 3fbc
000000e0: 2f1d 0ebe af4c b0bd 2788 ccbd df28 1abe
000000f0: c9dc ee3c b166 023d dd30 423c 6bd6 c5bd
00000100: 666b 223d 6513 ba3d 987d f8bb a00f 29bd
00000110: 5cbc f53c b4c7 b1bc d718 653d 08d2 89bd
00000120: b6a3 c53c 229a 3abd ceb2 5ebd e7b8 59be
00000130: 32e6 2dbe 1d4b 183c 8386 a0bd 6cf2 623c
00000140: a31f a13a aafc 69bd 26f6 93bd fb14 073d
00000150: 4ee8 813c d748 66bc e0bd 75bc 2919 03be
00000160: b0bf ac3c 312b 783c 3ca5 17bd 7bcd a53c
00000170: a59c 923b 9252 813d 8248 2cbd 188d 6cbd
00000180: 1a82 53bc 4cec c23b 4a7c 43bd 0364 31bb
00000190: 11b9 1ebe f390 a4bd 5a5e 02be 8a67 efbd
000001a0: f6e4 91bd 94a5 923c 9d55 19bd d95a b5bd
000001b0: 7201 803c b200 323d cfdb e43c d9f5 f13c
000001c0: aa71 0fba b515 95ba c5f4 c1bd f1ab 6cbc
000001d0: 21f8 463d 6c09 ac3b a2de 183d c6a1 ab3d
000001e0: 662d 59bc 2bc6 8fbc e192 e0bd 8f3f 243c
000001f0: 1444 7cbc 9992 843d bb68 e8bc 01f7 cf3b
00000200: 6787 a93d f9ed 41bc 4994 b13b 579e 7ebd
00000210: 177e c7bd 50fc 1c3d 554a bc3d eb7c 3a3c
00000220: 7800 583d 39f2 e83d 335d b33c a1d0 833d
00000230: da2a c0bc 812b a9ba 596b 83bd 2925 65bd
00000240: 5e1e b3bc 1f5b e5bd 10e5 4abd b0b1 b43c
00000250: a047 8a3c bec8 453d 2f63 983d a8f2 dd3c
00000260: 0f04 77bc 259a d13d 175b 4f3b 442d 313d
00000270: 9a29 aabc be3d d43d 14d5 11be 29f5 0d3b
00000280: ab5e a8bc 4ff0 ac3c 15b7 d0bc 705e 5bbd
00000290: a649 3b3d 3380 42bd de73 8dbd 81fc 18bd
000002a0: 08c5 15bd 8246 2d3d 58e6 383d b887 a8bd
000002b0: 2458 afbd f723 09bd 6838 323d 517e e53a
000002c0: 9d1a 0abe 59ce 893c 7080 93bc 023c 34bd
000002d0: 965a 183e 24a9 3dbd 0fdb 89bd f535 1dbd
000002e0: de23 143c cc50 f1bb 7099 543d 6348 953d
000002f0: cde2 99bd 96bb 1a3d 03d6 ee3c d739 96bc
00000300: 3fe2 46bd 1357 f0bb da05 5e3d 57b6 30bd
00000310: 6c08 f4bc 8cd1 71bd 1d74 0fbd 3d09 343d
00000320: e518 65bd 2436 48bd 6502 f0bd 1c32 b63d
00000330: 2b64 473d 2687 043d 78ea 8c3d 2d0b debd
00000340: a139 b4bc e326 4abd a63c 5fbd 9ec3 b73c
00000350: ff34 e2bd cf50 bdbb 3cf8 583c 2565 0b3e
00000360: 70a9 2cbd a078 8bbd e77b 1b3d 3d9b 0b3d
00000370: e250 f1bc 0c44 6b3c 5251 7e3d 7ac6 86bd
00000380: 9dee 073d 9daa fbbb ba6b b13d 1fbf 573d
00000390: 3e01 93bd 85a1 163d db0a 2a3d 48c3 7e3d
000003a0: 9c45 8fbc ae9d 953c 5483 fb3c 24cd e63c
000003b0: 2ccc 76bd 2703 34bd 3e1a 8ebb db61 a9bd
000003c0: 5d00 98bc 1d85 27bb facb c3bc 299f 87bd
000003d0: cddc 933c 8418 d3bc f59a 4abd 98a2 8fbc
000003e0: d614 3abc 5d67 013c ca78 a53c de8d e43c
000003f0: d3d2 3dbd 4660 4839 1f92 b4bb 512f 4ebd

output.weight f4 [4, 300]
-0.47161257 0.9924013 -0.95997775 0.84590507 0.9706624 1.907171 0.21228561 -0.3712337
1.0206087 0.640754 -0.13792445 -0.5664023 0.41301176 0.57636136 0.09443974 -0.23615229
-0.13190772 -0.088047326 -0.10590375 0.5242723 1.0389477 0.06667265 -0.49922875 -1.3263285
0.21357843 0.23719986 1.037847 0.57928634 0.67043537 0.67216873 0.93031216 0.23410295
-0.030411359 -0.17697191 0.10506088 0.55082095 -0.002642235 0.07932789 -0.6818314 -0.3644056
-0.30611226 -0.028022727 0.08183483 0.093777925 -0.39816794 0.14817037 0.61796826 0.70002425
-0.30339593 -0.93165857 -0.162065 -0.2044266 -0.78653204 -0.96285546 -0.798482 0.55378056
0.38295826 -0.65246433 0.13509181 -0.28496385 -0.24539696 0.14365521 -0.550191 -0.07596812
-0.59650075 0.3320657 -0.026122814 -0.19863585 -0.5199603 -1.168269 -0.7894228 -0.7373586
-1.1299802 0.13222189 0.12028414 1.5416213 -0.061346598 0.021342512 0.6732175 -0.21332294
0.5043547 -0.12722285 -0.30761623 -0.3973241 -0.35286063 -0.10118212 0.6622404 0.03593915
-0.1172141 -0.3026746 -1.0140132 1.1359242 -0.57687217 -0.6210297 -0.59132195 1.0267669
0.35549718 -0.9133068 -0.11809287 -0.32014334 0.36277863 -1.0326855 -0.097518615 -0.39978945
-0.4419264 0.4656033 0.44434893 1.0123299 0.7587783 0.3937204 0.35312265 -0.22476427
-1.4284545 0.36649716 -1.1697311 -0.5448814 0.5278612 -0.18397456 -0.26696998 -0.97345215
0.20703143 -0.70275533 -0.263895 -0.601254 0.15184194 0.5602599 -0.6376894 0.625057
0.022920707 -0.07458488 -0.6742515 -0.2606421 -0.5351012 -0.6614578 -0.2732862 -0.5039096
0.99945 -0.2815218 -0.028393667 -0.29053682 -0.15274431 -0.7005709 -0.31706208 -0.17987885
-0.35404447 0.3119526 1.0609974 0.84605396 0.99353236 -0.0832708 -0.004374803 -0.19339944
-0.053207815 0.8156352 -0.065652885 -0.35396382 -0.012498986 -0.5119947 0.57076657 -0.5010273
-0.6595074 0.64497703 0.8160593 -0.95695215 0.6648757 0.4084892 -0.73400784 -0.27731797
0.30849463 -0.16171676 1.5332483 0.9502772 -0.4574008 0.8478829 -0.07252503 -0.40456927
1.2844173 0.9562783 -0.11717683 0.27317455 -0.1875987 -0.1573619 0.66042376 0.5627723
0.13120902 -0.34076634 0.4481395 -0.38491327 -1.219073 -0.22099602 0.9778128 0.4426892
0.5410378 -0.35182157 -0.27380115 -0.34973016 0.22445442 0.6117347 -1.0096756 -0.7480574
-0.22484887 -0.57867444 0.21587586 -0.21697786 0.10323068 0.06834508 -0.24152306 -0.21602884
-0.81350565 -0.32545504 -0.28625187 0.3044224 0.1659626 -0.57537186 -0.51850855 0.34926632
-0.5249704 -0.515785 -0.34032 -0.18579532 -0.37875673 0.42582175 0.59766155 -0.20373492
-0.60918343 0.95750976 -0.5918049 -0.2509938 -0.05349478 -0.8813557 -0.36544332 -0.22501224
-0.7933197 0.82067686 -0.24303855 0.15316066 -0.20854616 -0.06314729 -0.14205438 0.9980003
0.64915574 -0.38846818 -0.38293657 -0.5505206 0.4444828 0.59349966 -0.19406784 -0.22519875
-0.8024428 0.7511378 -0.99980426 0.0294775 0.0941742 -0.062024858 -0.34053218 -0.541434
00000000: 3477 f1be 030e 7e3f 1ac1 75bf 3c8d 583f
00000010: 557d 783f 2e1e f43f 6661 593e 5812 bebe
00000020: 4ea3 823f 7408 243f 113c 0dbe beff 10bf
00000030: 4776 d33e 6b8c 133f 9f69 c13d e8d1 71be
00000040: d112 07be 2852 b4bd 11e4 d8bd b636 063f
00000050: 3dfc 843f ac8b 883d e99a ffbe 22c5 a9bf
00000060: 4eb4 5a3e 85e4 723e 2cd8 843f 1c4c 143f
00000070: a7a1 2b3f 4013 2c3f f028 6e3f afb8 6f3e
00000080: 3e21 f9bc 2038 35be 292a d73d 9a02 0d3f
00000090: 5929 2dbb a976 a23d 818c 2ebf 5f93 babe
000000a0: bfba 9cbe eb8f e5bc 0599 a73d a40e c03d
000000b0: abdc cbbe f9b9 173e 2b33 1e3f ca34 333f
000000c0: b656 9bbe 2d81 6ebf 5ef4 25be 3555 51be
000000d0: 2a5a 49bf b27d 76bf 5169 4cbf 90c4 0d3f
000000e0: 1b13 c43e e707 27bf 8255 0a3e c8e6 91be
000000f0: 5749 7bbe 5a1a 133e 51d9 0cbf 2c95 9bbd
00000100: 46b4 18bf 8404 aa3e 83ff d5bc 3267 4bbe
00000110: 1e1c 05bf d789 95bf 9d17 4abf 89c3 3cbf
00000120: 31a3 90bf 2d65 073e 8857 f63d d953 c53f
00000130: 9246 7bbd 7ed6 ae3c fb57 2c3f 5471 5abe
00000140: 641d 013f b546 02be e07f 9dbe 106e cbbe
00000150: 26aa b4be 9238 cfbd 9688 293f ee34 133d
00000160: f20d f0bd 2af8 9abe 2fcb 81bf f765 913f
00000170: e5ad 13bf cdfb 1ebf e060 17bf 196d 833f
00000180: ba03 b63e 79ce 69bf adda f1bd d4e9 a3be
00000190: 1fbe b93e 0a2f 84bf d7b7 c7bd 34b1 ccbe
000001a0: 2d44 e2be 8e63 ee3e b481 e33e 0794 813f
000001b0: 4b3f 423f b895 c93e 7ecc b43e 9b28 66be
000001c0: 99d7 b6bf 84a5 bb3e c0b9 95bf 597d 0bbf
000001d0: e921 073f d463 3cbe 4ab0 88be 2934 79bf
000001e0: 0c00 543e c6e7 33bf 3f1d 87be c8eb 19bf
000001f0: 747c 1b3e 316d 0f3f 9d3f 23bf bc03 203f
00000200: 35c4 bb3c f5bf 98bd bf9b 2cbf e272 85be
00000210: 64fc 08bf 4c55 29bf 2bec 8bbe 3800 01bf
00000220: f5db 7f3f a023 90be d699 e8bc 3ec1 94be
00000230: 0169 1cbe 9d58 33bf f655 a2be 2932 38be
00000240: 5145 b5be 40b8 9f3e c3ce 873f fe96 583f
00000250: 2358 7e3f e289 aabd 825a 8fbb 810a 46be
00000260: 70f0 59bd 78cd 503f 0575 86bd bf3a b5be
00000270: 8cc8 4cbc 1612 03bf c21d 123f 5343 00bf
00000280: 7ad5 28bf 371d 253f 43e9 503f d1fa 74bf
00000290: 4b35 2a3f 7f25 d13e f0e7 3bbf 9ffc 8dbe
000002a0: 02f3 9d3e 1499 25be 7b41 c43f 5e45 733f
000002b0: 7030 eabe db0e 593f 0188 94bd b423 cfbe
000002c0: c967 a43f a8ce 743f 68fa efbd 89dd 8b3e
000002d0: e019 40be 7a23 21be 8811 293f d811 103f
000002e0: a85b 063e ed78 aebe 8a72 e53e 5a13 c5be
000002f0: 960a 9cbf c84c 62be f151 7a3f 29a8 e23e
00000300: 7481 0a3f f521 b4be aa2f 8cbe d50f b3be
00000310: 61d7 653e a59a 1c3f 0d3d 81bf b180 3fbf
00000320: c83e 66be 0224 14bf 900e 5d3e 722f 5ebe
00000330: 9b6a d33d 81f8 8b3d d251 77be aa36 5dbe
00000340: e841 50bf 0ba2 a6be 9b8f 92be 41dd 9b3e
00000350: 1af2 293e 924b 13bf fabc 04bf 09d3 b23e
00000360: 7664 06bf 7c0a 04bf 6c3e aebe 2141 3ebe
00000370: 67ec c1be 4f05 da3e 5900 193f e39f 50be
00000380: 72f3 1bbf 5c1f 753f 8780 17bf 4282 80be
00000390: 581d 5bbd 87a0 61bf 631b bbbe 9c69 66be
000003a0: 0017 4bbf e117 523f 19df 78be 26d6 1c3e
000003b0: 208d 55be 5e53 81bd b476 11be f37c 7f3f
000003c0: 122f 263f 4de5 c6be 4310 c4be ebee 0cbf
000003d0: 4093 e33e 98ef 173f b8b9 46be 809a 66be
000003e0: e46c 4dbf 914a 403f 2cf3 7fbf cc7a f13c
000003f0: 67de c03d c70d 7ebd 3c5a aebe 6b9b 0abf

output.bias f4 [4]
-0.0978507 0.009255415 0.030159662 -0.030344084
00000000: f365 c8bd 06a4 173c 6511 f73c 2894 f8bc
