Neural_networks/reacher_20_2_qvalue_local.pth (torch, 543903 bytes, 5 tensors)

hidden_layer_1.weight f4 [400, 33]
-0.31385228 -0.03505024 -0.23192711 0.3670416 0.4092258 0.125548 0.2924148 0.016890662
0.17632471 0.05555759 -0.08544451 -0.060056835 -0.084703185 0.07274355 -0.0686609 -0.10290255
-0.44263503 0.07939844 0.33579788 0.32164797 0.042779602 -0.10154406 0.09952019 0.05096551
-0.02603065 0.0381633 0.12243544 0.27825364 0.111582614 0.018859606 -0.28642574 0.015230153
-1.1442078 0.20118825 -0.08020834 -0.16985649 -0.5750426 -0.41206807 0.3968325 -0.050504986
0.032719515 0.015652658 -0.1718839 0.11799373 0.0020150146 -0.00035587145 -0.0252368 0.07942406
0.012602376 1.0487503 0.192287 -0.87443304 0.117523335 0.037216645 -0.0030829809 -0.069352604
0.07165935 -0.043744717 -0.0034899758 0.117149055 0.003261194 -0.101596154 -0.022063881 -0.03159085
0.04709514 0.10811561 -0.013309823 0.1903389 0.028044598 0.25160584 0.23230113 0.2057224
0.057579607 0.13056871 -0.20508412 -0.003346991 -0.018531267 -0.0050679203 -0.032970484 -0.07112871
-0.15201676 0.03501871 0.3927864 -0.72275335 -0.48282376 1.0795968 -0.03918564 0.00091435295
-0.04232398 -0.015092174 -0.013257095 0.10220511 0.030624047 0.368016 -0.16816801 0.009961344
-0.3258698 -0.03622645 -0.38941684 -0.11833571 -0.003443829 0.09448453 -0.10045462 0.19621812
1.0222573 0.021272978 -0.019685766 -0.21601257 -0.16559619 -0.033098027 0.023539286 -0.010149737
0.078683585 0.10686226 -0.0031954795 0.016941013 0.73069644 -0.6930081 -0.07032322 0.054889668
-0.018872496 0.033540346 0.08836212 0.056612138 -0.097974874 -0.0532664 0.08530893 -2.08035e-06
-0.016846754 -0.017609589 -0.011744641 -1.1719886 -0.06903831 0.12621929 0.005362736 -0.8090951
0.05400973 -0.19000289 0.40675062 -0.013493838 -0.016980937 0.058273055 -0.0040693954 0.0055350456
0.059632625 0.0037914969 -0.064977445 -0.06858119 -0.06669119 -0.023617405 0.32465437 0.31751183
0.04700416 0.0003424083 -0.06070222 0.082452014 0.033464074 0.011196816 0.24372807 0.049186066
0.11281043 0.008769434 -0.088186316 -0.017129146 1.741884 0.017749688 0.18921825 0.13151588
-0.37463626 0.02945379 -0.12512408 0.2827755 -0.102841526 -0.0582349 -0.011313522 -0.039284788
0.036751304 0.057211705 0.21484643 -0.04571704 0.14745228 0.45745304 -0.14398475 -0.5905341
-0.6685831 0.0035352018 0.070540756 0.071812764 0.014552705 -0.08247536 -0.10617296 -0.20147969
0.4296315 -0.14238283 0.038334835 -0.39511678 0.03429221 -0.12167124 -0.22823903 -0.03775017
0.009055065 -0.6115068 -0.33917788 -0.28961602 0.08857451 -0.08374337 -0.2957975 0.015472981
0.020245628 0.046350703 -0.07657163 0.20737585 -0.0798581 0.024653355 0.16225377 -0.18811505
-0.09255791 -0.09918001 0.03979898 -0.015660599 -0.08705849 0.21673782 -0.13402048 0.108900204
0.0139538245 0.49714535 -0.2096551 0.01482043 -0.42642057 -0.027319385 0.74859816 -0.019624546
0.10195122 0.09108129 0.7598099 0.6100876 0.46135297 0.40462252 -0.097329885 -0.13173282
0.30550224 -0.05507224 -0.016154038 -0.020824766 -0.11786978 0.022669371 -0.070219055 -0.2603237
-0.2770148 0.32691956 -1.2053216 -0.014267617 -0.13541324 -0.016382966 -0.050715014 0.088562846
00000000: 3fb1 a0be d790 0fbd 4d7e 6dbe e0ec bb3e
00000010: 0b86 d13e a88f 003e 65b7 953e 495e 8a3c
00000020: 778e 343e 5b90 633d 88fd aebd 28fe 75bd
00000030: dd78 adbd 92fa 943d 169e 8cbd 92be d2bd
00000040: 0fa1 e2be a69b a23d b3ed ab3e 0baf a43e
00000050: aa39 2f3d 55f6 cfbd 3ed1 cb3d 36c1 503d
00000060: 3b3e d5bc 1f51 1c3d 6fbf fa3d 4377 8e3e
00000070: 6d85 e43d 767f 9a3c 65a6 92be e487 793c
00000080: 6775 92bf 4b04 4e3e 4544 a4bd dcee 2dbe
00000090: fe35 13bf 96fa d2be a12d cb3e 51de 4ebd
000000a0: e604 063d 013a 803c 5502 30be b2a6 f13d
000000b0: 560e 043b 4294 bab9 68bd cebc 15a9 a23d
000000c0: 327a 4e3c 733d 863f e2e6 443e d8da 5fbf
000000d0: 13b0 f03d 7b70 183d d60b 4abb bd08 8ebd
000000e0: 23c2 923d a92d 33bd 14b8 64bb d8eb ef3d
000000f0: c2b9 553b a511 d0bd 50bf b4bc 6865 01bd
00000100: d5e6 403d b86b dd3d 7211 5abc 33e8 423e
00000110: c9bd e53c 7bd2 803e 59e0 6d3e e5a8 523e
00000120: 98d8 6b3d ceb3 053e 9201 52be 3159 5bbb
00000130: e2ce 97bc cc10 a6bb 0f0c 07bd eeab 91bd
00000140: 48aa 1bbe c76f 0f3d 4d1b c93e 5d06 39bf
00000150: ad34 f7be 3a30 8a3f 1f81 20bd 30b1 6f3a
00000160: e95b 2dbd 2a45 77bc 4934 59bc ea50 d13d
00000170: 48df fa3c 986c bc3e 3c34 2cbe e834 233c
00000180: 68d8 a6be 3062 14bd a561 c7be fe59 f2bd
00000190: ddb1 61bb 1b81 c13d 27bb cdbd 67ed 483e
000001a0: 54d9 823f ab44 ae3c 0b44 a1bc 6632 5dbe
000001b0: 0c92 29be cc91 07bd 76d5 c03c 154b 26bc
000001c0: dc24 a13d 9ada da3d 406b 51bb e1c7 8a3c
000001d0: ec0e 3b3f fb68 31bf 9f05 90bd fdd3 603d
000001e0: 7e9a 9abc 9a61 093d 33f7 b43d 21e2 673d
000001f0: 0da7 c8bd de2d 5abd 73b6 ae3d 249c 0bb6
00000200: 3402 8abc fc41 90bc 986c 40bc b903 96bf
00000210: f563 8dbd a13f 013e e4b9 af3b db20 4fbf
00000220: 4f39 5d3d 1e90 42be 9e41 d03e 4215 5dbc
00000230: 9b1b 8bbc baaf 6e3d 9058 85bb 545f b53b
00000240: 5741 743d c37a 783b e512 85bd 4c74 8cbd
00000250: 6495 88bd 4a79 c1bc 1939 a63e e990 a23e
00000260: 6f87 403d 4485 b339 e4a2 78bd 9adc a83d
00000270: a011 093d da72 373c da93 793e 5477 493d
00000280: 2809 e73d acad 0f3c 079b b4bd 6c52 8cbc
00000290: 0ef6 de3f cb67 913c 6ec2 413e 19ac 063e
000002a0: 53d0 bfbe 1349 f13c 8720 00be f3c7 903e
000002b0: 949e d2bd b887 6ebd 5a5c 39bc 16e9 20bd
000002c0: 8988 163d d256 6a3d b400 5c3e ca41 3bbd
000002d0: bbfd 163e 4937 ea3e bd70 13be 3e2d 17bf
000002e0: 4328 2bbf d8ae 673b ac77 903d 9212 933d
000002f0: 786e 6e3c d7e8 a8bd 3571 d9bd b150 4ebe
00000300: a9f8 db3e cecc 11be fd04 1d3d bf4c cabe
00000310: fd75 0c3d c52e f9bd 7eb7 69be ec9f 1abd
00000320: b25b 143c b68b 1cbf b9a8 adbe 8d48 94be
00000330: 8d66 b53d a581 abbd c572 97be 6382 7d3c
00000340: 29da a53c 3cda 3d3d 96d1 9cbd 565a 543e
00000350: a58c a3bd d5f5 c93c da25 263e 3ba1 40be
00000360: 008f bdbd e41e cbbd 4104 233d a84a 80bc
00000370: b94b b2bd 85f0 5d3e aa3c 09be 1207 df3d
00000380: 959e 643c d689 fe3e d4af 56be 64d1 723c
00000390: cc53 dabe e7cc dfbc 21a4 3f3f a8c3 a0bc
000003a0: cdcb d03d d488 ba3d e782 423f b32e 1c3f
000003b0: 7536 ec3e af2a cf3e e454 c7bd f8e4 06be
000003c0: ca6a 9c3e 6e93 61bd 7955 84bc b398 aabc
000003d0: b665 f1bd 1eb5 b93c 02cf 8fbd 2649 85be
000003e0: e2d4 8dbe 0062 a73e fa47 9abf b9c2 69bc
000003f0: c5a9 0abe 9235 86bc 8cba 4fbd 7060 b53d

hidden_layer_1.bias f4 [400]
-0.33224326 -0.087171584 -0.18504095 -0.0362731 -0.225815 -0.5444955 -0.5985786 -0.14215994
-0.21639161 -0.20334084 -0.27150553 -0.3168957 -0.22179279 -0.02392269 -0.4004696 -0.00506082
0.04470881 -0.18115915 -0.22443165 -0.18527323 -0.32600093 -0.43118924 -0.30512384 0.4768798
-0.28791147 -0.17830263 -0.17011826 0.032065164 -0.11965785 -0.18040118 -0.21692799 0.022551563
-0.31373748 -0.47242963 -0.126377 -0.3672267 -0.2547612 0.09948836 -0.29845864 -0.19422449
0.72536004 -0.085840985 0.09077553 0.04943867 -0.12344729 -0.10216055 -0.13006443 -0.2541816
-0.015887478 -0.40111643 -0.42254537 -0.25426826 0.043426428 0.031291854 -0.29974604 -0.058909483
-0.23566465 -0.31360382 -0.33348295 -0.17685615 -0.33798775 -0.38451004 0.1936752 -0.39789557
-0.3024924 -0.4259123 -0.2750971 -0.28990543 0.009162978 -0.22156289 -0.12851605 -0.21959096
-0.04559053 -0.48968682 -0.1920887 -0.010912308 -0.08430355 -0.08517966 -0.08634977 -0.14815262
-0.3214896 -0.46465194 -0.39958167 -0.14564702 -0.15862265 0.11683042 0.08522504 -0.032964412
-0.009181419 -0.2150323 -0.13822095 -0.22878319 -0.18938701 -0.05687255 -0.27610213 -0.18023416
-0.44740593 -0.33759823 -0.33513334 -0.15877631 -0.33036807 0.105960056 -0.052598957 0.040329944
-0.23006138 -0.18957658 -0.1758986 -0.0759682 -0.31723213 -0.472263 -0.105441086 -0.25127646
-0.18958895 -0.51084614 -0.42861664 0.17503433 -0.42249414 -0.48905918 -0.51161766 -0.28605467
-0.30554423 -0.31511545 -0.40019664 0.084075004 -0.481325 -0.12365827 -0.14861079 -0.028666476
-0.2759491 -0.18511848 -0.21953352 -0.15580398 -0.16653901 -0.17091665 -0.31640834 0.023994362
-0.4405618 -0.028338134 -0.17009205 -0.21694866 -0.2827292 -0.3291803 -0.30940217 -0.37460458
-0.19923836 -0.1981394 -0.16752374 -0.2965045 -0.09055964 -0.44566193 -0.09305785 0.016250763
-0.27408394 -0.03528773 -0.26945537 -0.22683302 -0.1646337 -0.3679584 -0.14011014 -0.11101522
0.32780132 -0.025949625 -0.22420236 -0.23187418 -0.1972227 -0.07612309 -0.23350048 -0.21823189
-0.19406621 -0.24729107 -0.15343939 -0.35482624 -0.45182467 -0.3147148 -0.33705458 0.06560622
-0.036382202 -0.21953796 -0.13483164 0.04585784 -0.21798508 -0.08489693 -0.26655266 -0.60388625
-0.15286282 -0.25626808 -0.29703236 -0.3138889 -0.013212687 -0.032531273 -0.20758879 -0.11589485
-0.33198404 -0.07713536 0.0086667035 -0.3896395 -0.35882545 -0.27715737 -0.072478324 -0.3921285
-0.32922003 -0.24675463 -0.31965995 -0.40998328 -0.21892183 -0.025969489 -0.025718968 -0.20341541
0.09374265 -0.1325616 -0.18806125 -0.1845666 -0.24991159 -0.13394491 -0.16935678 -0.36679736
-0.43603548 -0.16069259 -0.14051567 -0.17967422 -0.35591188 -0.46205005 -0.34711087 -0.13625976
-0.07039948 -0.3917418 -0.27630845 -0.24180208 -0.0067987014 -0.17785944 -0.16488414 -0.013035426
-0.2389493 -0.32765955 -0.3285402 -0.16336182 -0.2039209 -0.26127228 -0.22105165 -0.3156493
-0.3502637 -0.3471395 0.027920272 -0.12022117 -0.25460953 -0.47769096 0.7116247 -0.15087688
-0.3745798 -0.4054952 -0.0771339 -0.12012965 -0.16481757 -0.32045257 0.113704525 -0.27974305
00000000: ca1b aabe 0487 b2bd 607b 3dbe 1a93 14bd
00000010: 0c3c 67be 0f64 0bbf 723c 19bf 6092 11be
00000020: c395 5dbe 9538 50be c602 8bbe 2740 a2be
00000030: a61d 63be 84f9 c3bc 5a0a cdbe 3cd5 a5bb
00000040: 9620 373d c981 39be 69d1 65be 44b8 3dbe
00000050: 98e9 a6be d6c4 dcbe 3139 9cbe 9729 f43e
00000060: 2269 93be f794 36be 7b33 2ebe c356 033d
00000070: 2d0f f5bd 16bb 38be 5f22 5ebe 0ebe b83c
00000080: 33a2 a0be 4ce2 f1be f968 01be 2305 bcbe
00000090: 0f70 82be 8ec0 cb3d 92cf 98be c9e2 46be
000000a0: 32b1 393f 66cd afbd 85e8 b93d 3480 4a3d
000000b0: efd1 fcbd 8d39 d1bd 9c2f 05be 1724 82be
000000c0: 7526 82bc 225f cdbe de57 d8be 732f 82be
000000d0: e9df 313d e32b 003d 5078 99be 124b 71bd
000000e0: 1352 71be ae90 a0be 47be aabe c719 35be
000000f0: bb0c adbe 80de c4be cb52 463e f8b8 cbbe
00000100: 49e0 9abe 2d11 dabe 87d9 8cbe 7c6e 94be
00000110: 5120 163c 62e1 62be b699 03be 74dc 60be
00000120: 23bd 3abd 3bb8 fabe e6b2 44be 89c9 32bc
00000130: 57a7 acbd ac72 aebd 26d8 b0bd 52b5 17be
00000140: 499a a4be dce6 edbe f895 ccbe 7e24 15be
00000150: fa6d 22be ca44 ef3d 778a ae3d b105 07bd
00000160: aa6d 16bc 6d31 5cbe cb89 0dbe 2446 6abe
00000170: abee 41be 31f3 68bd 425d 8dbe 4e8f 38be
00000180: 6412 e5be add9 acbe 9996 abbe 4296 22be
00000190: 0126 a9be 9601 d93d 0172 57bd 0331 253d
000001a0: 3695 6bbe 5d20 42be c31e 34be 3795 9bbd
000001b0: 406c a2be 75cc f1be 7ff1 d7bd 4fa7 80be
000001c0: 9b23 42be d0c6 02bf a473 dbbe 333c 333e
000001d0: 2751 d8be f765 fabe 60f9 02bf c275 92be
000001e0: 4b70 9cbe d056 a1be 93e6 ccbe 842f ac3d
000001f0: 3b70 f6be 8c40 fdbd 6d2d 18be f5d5 eabc
00000200: 3349 8dbe b38f 3dbe 65cd 60be 148b 1fbe
00000210: 3489 2abe c604 2fbe 4600 a2be d38f c43c
00000220: 5191 e1be 6025 e8bc 9c2c 2ebe ca27 5ebe
00000230: e2c1 90be 528a a8be f669 9ebe 2ccc bfbe
00000240: 2405 4cbe 0ee5 4abe 588b 2bbe 70cf 97be
00000250: 5577 b9bd cd2d e4be 1d95 bebd 5220 853c
00000260: bb54 8cbe de89 10bd 0ef6 89be ea46 68be
00000270: bd95 28be 0b65 bcbe 0879 0fbe f35b e3bd
00000280: 93d5 a73e 4f94 d4bc 4e95 65be 6d70 6dbe
00000290: bff4 49be 6ce6 9bbd c01a 6fbe 2e78 5fbe
000002a0: 4bb9 46be df39 7dbe 371f 1dbe c9ab b5be
000002b0: 9055 e7be 4c22 a1be 6b92 acbe 8e5c 863d
000002c0: 8105 15bd 8fce 60be 4e11 0abe 6ed5 3b3d
000002d0: 7b37 5fbe 71de adbd 9779 88be 4a98 1abf
000002e0: 1288 1cbe 9235 83be a014 98be 0cb6 a0be
000002f0: 077a 58bc 833f 05bd 2892 54be 475a edbd
00000300: d0f9 a9be 25f9 9dbd cafe 0d3c d47e c7be
00000310: f8b7 b7be 92e7 8dbe 846f 94bd 11c5 c8be
00000320: 878f a8be 3fad 7cbe 78aa a3be 54e9 d1be
00000330: 0b2d 60be f7bd d4bc 96b0 d2bc 214c 50be
00000340: 25fc bf3d 3abe 07be 2193 40be 07ff 3cbe
00000350: d3e8 7fbe db28 09be dd6b 2dbe ddcc bbbe
00000360: 0b40 dfbe 998c 24be 57e3 0fbe 85fc 37be
00000370: 153a b6be d391 ecbe 84b8 b1be ae87 0bbe
00000380: 9a2d 90bd 6292 c8be 4d78 8dbe f79a 77be
00000390: a4c7 debb c920 36be 63d7 28be 8a92 55bc
000003a0: 20af 74be fec2 a7be 6c36 a8be 5248 27be
000003b0: a4d0 50be 7bc5 85be 5d5b 62be c99c a1be
000003c0: c455 b3be 45bc b1be 0eb9 e43c 8436 f6bd
000003d0: 2e5c 82be e993 f4be 092d 363f 787f 1abe
000003e0: ecc8 bfbe 119d cfbe 61f8 9dbd 8906 f6bd
000003f0: f0c5 28be 5c12 a4be ebdd e83d 7b3a 8fbe

hidden_layer_2.weight f4 [300, 404]
-0.45230234 0.14600295 0.07376835 -0.1295403 -0.20424362 -0.085382186 -0.041359477 0.015895257
0.022134064 -0.0021942712 0.012847569 -0.3438157 -0.20516543 -0.32660177 0.2698363 0.042224582
-0.08136334 0.114960805 0.006294214 0.1503434 -0.09935304 -0.27470812 -0.0172712 0.033338618
-0.26594624 -0.33476502 -0.2278762 -0.072573505 -0.1712454 -0.016470373 -0.004076018 0.03426485
-0.33486417 -0.22121763 -0.40458897 0.04762908 0.13698435 -0.009935483 -0.4685415 0.030679705
-0.019749774 -0.15297925 -0.10846253 -0.18438655 0.012821771 0.11276052 -0.04661907 -0.035655525
0.010307302 -0.011241407 -0.55216366 -0.23664907 -0.10686851 -0.27258795 0.06801072 -0.1678785
-0.1329428 0.20404391 0.10305973 -0.14161627 -0.18901114 -0.429269 -0.015816687 0.2318552
-0.07124888 0.06812971 -0.08778674 0.045935396 0.08349382 -0.35612422 -0.025196787 -0.066902265
-0.04243459 -0.089778855 -0.3597178 -0.04286585 0.03836997 -0.15511937 -0.19673043 -0.17116809
0.056972593 -0.16448522 -0.15360932 -0.15762721 0.014130222 -0.1532113 -0.18662268 0.06598021
-0.16857384 -0.4119188 -0.1328503 0.06800786 -0.021013109 -0.10411654 -0.23915163 0.12260742
-0.038593814 -0.16072915 -0.2595132 0.0007964425 -0.30989715 -0.047164056 -0.17905827 -0.2361187
-0.18309592 -0.16885392 0.03371142 -0.07839581 -0.18945716 -0.2374443 0.21793504 0.13381068
0.017886866 -0.3823101 -0.12339702 0.32879984 -0.09050928 0.058087613 -0.11082559 0.06642687
0.18413253 -0.18603264 -0.37960273 0.014932694 -0.06364084 0.07219574 0.121333 -0.300947
-0.16885275 -0.29359812 -0.021424742 -0.11876011 -0.21649201 -0.23157139 -0.073427066 -0.035150327
-0.20452 -0.100999646 -0.09925203 -0.035558246 0.0075722835 -0.078908876 -0.19401985 -0.2980849
-0.094990484 -0.18457282 -0.2521602 -0.16498342 0.12529942 -0.36665505 0.24910957 -0.54139274
-0.20210043 -0.040436983 -0.028923567 0.14193095 -0.110105336 0.0073594926 -0.27684608 -0.23320775
-0.0005704059 -0.10917036 -0.11014856 0.041883953 -0.24413037 0.030742513 -0.08170651 -0.46785247
0.037531383 0.22646402 0.14071038 -0.094752744 -0.061401643 -0.16781108 0.044341873 -0.2995541
0.16884889 -0.21304981 -0.07717831 0.040583543 -0.26987493 0.096709795 0.1252244 -0.2547236
0.09723307 -0.34654433 -0.25889617 -0.25019506 -0.019587955 -0.4084151 -0.11775477 -0.30582598
-0.009150292 0.100546695 -0.13567379 0.071028836 -0.040578146 -0.17167692 -0.086818345 -0.04158566
0.038460936 0.08171236 0.04904632 -0.09929057 0.19701615 0.24522264 -0.26047507 -0.07891887
0.031136146 -0.0120219905 -0.065276414 -0.266553 0.2862887 -0.15304549 0.03410333 0.005258765
-0.023994066 -0.050420538 -0.34048375 0.05453146 -0.13627271 -0.3708343 -0.009672819 -0.238356
-0.36913764 -0.009945149 0.03989481 0.14135313 -0.45815256 -0.07904294 -0.11303807 -0.10066922
0.0131385205 -0.017627457 -0.108765475 0.046866875 -0.04630734 -0.06410186 -0.55454326 -0.111127585
0.061972767 -0.21519157 -0.024643937 0.031739827 -0.28505874 -0.15138334 0.053532492 -0.22213411
-0.26761934 -0.40263256 0.47280297 -0.15905619 -0.054296404 -0.3761611 -0.15673417 -0.2278177
00000000: 2c94 e7be cc81 153e dc13 973d 36a6 04be
00000010: 3d25 51be dbdc aebd 8e68 29bd c536 823c
00000020: 7f52 b53c c3cd 0fbb 9c7e 523c 9d08 b0be
00000030: e316 52be 5938 a7be fc27 8a3e aff3 2c3d
00000040: d3a1 a6bd 9270 eb3d b23f ce3b 9ff3 193e
00000050: 9b79 cbbd 8ba6 8cbe 557c 8dbc 138e 083d
00000060: 1b2a 88be 5266 abbe 6158 69be 6ba1 94bd
00000070: f45a 2fbe e0ec 86bc 1e90 85bb 4d59 0c3d
00000080: 5173 abbe e086 62be 4926 cfbe b616 433d
00000090: a045 0c3e 70c8 22bc ace4 efbe 0154 fb3c
000000a0: 47ca a1bc 98a6 1cbe 9a21 debd d4cf 3cbe
000000b0: 6812 523c fdee e63d a3f3 3ebd 870b 12bd
000000c0: f5df 283c e12d 38bc 995a 0dbf 2254 72be
000000d0: e1dd dabd a690 8bbe 3449 8b3d 57e8 2bbe
000000e0: 2822 08be e3f0 503e fb10 d33d db03 11be
000000f0: 238c 41be 25c9 dbbe ff91 81bc 736b 6d3e
00000100: efea 91bd 9787 8b3d 89c9 b3bd c126 3c3d
00000110: cffe aa3d ea55 b6be 7e69 cebc 0e04 89bd
00000120: e5cf 2dbd fadd b7bd ee2c b8be 1a94 2fbd
00000130: d429 1d3d 9dd7 1ebe b473 49be b046 2fbe
00000140: 185c 693d d06e 28be c34b 1dbe 0769 21be
00000150: 7282 673c 6ce3 1cbe 041a 3fbe a220 873d
00000160: 9f9e 2cbe 05e7 d2be e909 08be b447 8b3d
00000170: af23 acbc 0d3b d5bd 2ae4 74be 9919 fb3d
00000180: 8c14 1ebd 2f96 24be eade 84be 5ac8 503a
00000190: d7aa 9ebe 192f 41bd 0d5b 37be 1ac9 71be
000001a0: 7f7d 3bbe 0be8 2cbe fc14 0a3d fc8d a0bd
000001b0: 0f01 42be 9924 73be 5d2a 5f3e ab05 093e
000001c0: 7a87 923c 26be c3be 94b7 fcbd 7458 a83e
000001d0: ee5c b9bd 47ed 6d3d 87f8 e2bd d00a 883d
000001e0: 3d8d 3c3e 577f 3ebe 4a5b c2be 42a8 743c
000001f0: 2156 82bd 5cdb 933d 707d f83d ba15 9abe
00000200: bce7 2cbe 7e52 96be f182 afbc 8038 f3bd
00000210: 15b0 5dbe 0d21 6dbe ee60 96bd caf9 0fbd
00000220: b16d 51be e7d8 cebd a644 cbbd 86a5 11bd
00000230: eb20 f83b fa9a a1bd 24ad 46be 969e 98be
00000240: 5f8a c2bd a800 3dbe 241b 81be 6af1 28be
00000250: 7e4e 003e 36ba bbbe 9416 7f3e b798 0abf
00000260: 6af3 4ebe 40a1 25bd 1ef1 ecbc 5956 113e
00000270: e87e e1bd e627 f13b c5be 8dbe 03ce 6ebe
00000280: 4b87 15ba b694 dfbd 9195 e1bd 828e 2b3d
00000290: 50fd 79be b9d7 fb3c be55 a7bd 5c8a efbe
000002a0: 82ba 193d 2fe6 673e 6216 103e ba0d c2bd
000002b0: 4a80 7bbd abd6 2bbe d39f 353d 285f 99be
000002c0: b9e6 2c3e bb29 5abe a90f 9ebd ee3a 263d
000002d0: 0c2d 8abe c90f c63d d33a 003e 226b 82be
000002e0: 2222 c73d 426e b1be 0a8e 84be 9119 80be
000002f0: eb76 a0bc c91b d1be 6a29 f1bd 3995 9cbe
00000300: 1beb 15bc 6deb cd3d 12ee 0abe 9177 913d
00000310: 4535 26bd 13cc 2fbe d1cd b1bd ba55 2abd
00000320: 3789 1d3d cf58 a73d cbe4 483d db58 cbbd
00000330: 9abe 493e a51b 7b3e fd5c 85be 37a0 a1bd
00000340: 3b11 ff3c e2f7 44bc a4af 85bd a379 88be
00000350: 6f94 923e f5b7 1cbe efaf 0b3d b851 ac3b
00000360: 348f c4bc c485 4ebd e353 aebe 615c 5f3d
00000370: 138b 0bbe fedd bdbe be7a 1ebc 9813 74be
00000380: 9cff bcbe faf0 22bc be68 233d e0be 103e
00000390: f992 eabe 44e1 a1bd 8180 e7bd aa2b cebd
000003a0: f342 573c 7567 90bc 6fc0 debd 7bf7 3f3d
000003b0: c4ac 3dbd d647 83bd 8cf6 0dbf dc96 e3bd
000003c0: 28d7 7d3d 2e5b 5cbe 15e2 c9bc 9f01 023d
000003d0: 38f3 91be 3c04 1bbe e344 5b3d 2077 63be
000003e0: 6705 89be db25 cebe 3b13 f23e a0df 22be
000003f0: e865 5ebd 3098 c0be ec7e 20be 0b49 69be

hidden_layer_2.bias f4 [300]
-0.02458756 0.5824526 -0.102669634 0.5056794 -0.10780723 0.045643393 0.40304735 -0.07758917
-0.057069317 0.031055354 -0.068421766 0.5308697 -0.01738732 0.49268356 -0.056994118 0.17032327
-0.07035512 0.31810144 -0.14931887 -0.13349423 -0.019320037 -0.045173425 -0.020377787 0.26673004
-0.17318472 -0.093903795 -0.49535567 -0.08522774 0.58119494 -0.017713154 0.44728687 0.24229755
0.5286486 0.39627054 -0.041781377 0.8000357 0.3936861 0.60009044 1.0454139 -0.06937513
-0.08130738 0.5739336 -0.027496666 0.5014544 -0.1551698 0.44174448 0.36999357 0.5712613
0.047983997 0.42348439 0.3918289 0.27686304 0.5089378 0.46125248 0.4474617 0.99620724
-0.01683848 1.21338 -0.08031596 0.22116253 0.1573075 -0.12849198 -0.026006747 0.186476
0.5190897 0.37259892 -0.06575945 0.22698916 0.55130005 -0.0900527 0.23608309 -0.60816485
-0.10663546 0.4289276 0.2842312 0.29455805 -0.1582089 0.29906362 -0.11541915 0.62391806
0.3806121 -0.10394401 -0.07437684 0.39776012 -0.046824757 0.45198545 -0.090381585 0.49938357
0.4410608 0.24997695 -0.117609724 0.64227265 -0.031034667 0.2688483 0.14550044 -0.004466646
0.289925 0.55195415 0.23984855 -0.16334091 -0.05663578 -0.55335706 -0.064478815 -0.036063697
0.2858763 -0.17477608 -0.010282233 0.3812932 -0.19700974 0.40145305 0.0090913 -0.02206031
-0.108548194 -0.037918095 0.023809817 -0.061515138 -0.07092873 -0.06605192 0.4636773 0.68998396
-0.06824983 -0.08019546 0.46419513 -0.08110661 0.48308218 0.49305746 0.020531777 0.47223768
0.16317642 -0.20192415 -0.06567345 -0.014451191 0.2563647 0.3501568 0.38599768 -0.12891848
-0.065939225 -0.07141909 0.16101821 0.40719613 0.74636614 -0.048139937 -0.17302792 0.43344948
0.2772526 0.6929381 0.69552654 0.06365547 -0.08019708 -0.08592932 0.39382592 -0.74488384
-0.0070632016 -0.04874461 0.24532223 0.20293954 0.2664784 -0.04147004 0.5657521 0.055661198
0.46215007 0.17619298 0.4871503 0.1767337 -0.00019792488 -0.13057077 -0.57594025 0.1799838
0.41999206 0.02220361 0.3136095 0.007437238 0.4240268 -0.107525684 -0.03612764 0.29412645
0.44205612 -0.008841154 0.46476793 0.039003976 -0.10490495 -0.091679044 -0.10057576 0.08240847
0.32084844 0.40737435 -0.0103475535 0.40981993 0.28033397 -0.09479139 0.30593607 0.22281462
0.39421916 -0.12449704 0.321795 0.30462372 0.34732744 0.42447793 -0.14673518 0.14925952
-0.092929944 0.20560132 -0.126937 -0.3187579 0.556363 0.65940934 0.2638677 0.865807
0.33133242 0.33876902 0.17214538 0.54160744 0.24576034 0.59809434 0.33416262 -0.07434866
-0.0004835108 0.3093928 -0.015962556 0.835207 -0.15037961 -0.12795413 -0.40331802 -0.043206036
0.05008135 0.3712666 0.48460084 -0.5367797 0.5867115 0.06110809 -0.0010292337 0.2965683
0.35474417 0.351736 0.5555352 -0.032807186 0.5102287 -0.12631045 0.03246205 -0.05558443
-0.076180704 0.52035296 0.6029839 -0.1381484 -0.08472167 0.3200583 -0.72494537 -0.7176106
-0.12930846 0.5021788 -0.19110312 -0.26148233 0.39600158 0.07885939 -0.055310875 0.32801574
00000000: da6b c9bc 9d1b 153f 7544 d2bd 3574 013f
00000010: 09ca dcbd 91f4 3a3d 395c ce3e 12e7 9ebd
00000020: 84c1 69bd cc67 fe3c b620 8cbd 14e7 073f
00000030: da6f 8ebc 0541 fc3e aa72 69bd 3969 2e3e
00000040: 5816 90bd 31de a23e 0ce7 18be b6b2 08be
00000050: 0e45 9ebc c507 39bd 51ef a6bc d790 883e
00000060: 5657 31be a250 c0bd 429f fdbe e28b aebd
00000070: 31c9 143f 2d1b 91bc c902 e53e d91c 783e
00000080: 8455 073f f9e3 ca3e f322 2bbd 24cf 4c3f
00000090: 3991 c93e 879f 193f 1fd0 853f 8c14 8ebd
000000a0: 7c84 a6bd 50ed 123f b040 e1bc 515f 003f
000000b0: d5e4 1ebe 552c e23e cc6f bd3e 2e3e 123f
000000c0: de8a 443d f2d2 d83e cc9d c83e fec0 8d3e
000000d0: bf49 023f 4929 ec3e b319 e53e 7007 7f3f
000000e0: daf0 89bc 0950 9b3f b27c a4bd 6e78 623e
000000f0: 3815 213e 6793 03be 1a0c d5bc 91f3 3e3e
00000100: 10e3 043f 49c5 be3e e4ac 86bd d96f 683e
00000110: 0022 0d3f 8d6d b8bd c4bf 713e b1b0 1bbf
00000120: b163 dabd 669c db3e c086 913e 50d0 963e
00000130: 8401 22be de1e 993e e060 ecbd 18b9 1f3f
00000140: 97df c23e 99e0 d4bd e252 98bd 37a7 cb3e
00000150: 51cb 3fbd a36a e73e fb19 b9bd 34af ff3e
00000160: b9d2 e13e f5f9 7f3e 5edd f0bd fb6b 243f
00000170: 6a3c febc 7ca6 893e 11fe 143e f15c 92bb
00000180: 0d71 943e de4c 0d3f dc9a 753e d742 27be
00000190: ebfa 67bd cfa8 0dbf 780d 84bd 87b7 13bd
000001a0: 615e 923e 80f8 32be d076 28bc dd38 c33e
000001b0: ecbc 49be 418b cd3e adf3 143c d3b7 b4bc
000001c0: 844e debd 0150 1bbd ce0c c33c 4cf7 7bbd
000001d0: 1543 91bd 3b46 87bd 1c67 ed3e caa2 303f
000001e0: 91c6 8bbd 843d a4bd fcaa ed3e 391b a6bd
000001f0: 8c56 f73e 0772 fc3e 4232 a83c 23c9 f13e
00000200: b817 273e 34c5 4ebe cd7f 86bd b0c4 6cbc
00000210: 3c42 833e c147 b33e 7da1 c53e 3503 04be
00000220: 250b 87bd 2c44 92bd f5e1 243e 037c d03e
00000230: da11 3f3f 622e 45bd 3b2e 31be 17ed dd3e
00000240: 0ef4 8d3e 6464 313f 070e 323f cd5d 823d
00000250: 5e3e a4bd b6fb afbd 8da3 c93e b5b0 3ebf
00000260: 6e72 e7bb 6ea8 47bd c035 7b3e 62cf 4f3e
00000270: db6f 883e 7ddc 29bd 21d5 103f fffc 633d
00000280: ef9e ec3e ef6b 343e c46b f93e aef9 343e
00000290: 0e8a 4fb9 58b4 05be d270 13bf ac4d 383e
000002a0: 3309 d73e 58e4 b53c 6d91 a03e 13b4 f33b
000002b0: 0a1a d93e 6d36 dcbd 94fa 13bd be97 963e
000002c0: 2e55 e23e 7dda 10bc 10f6 ed3e a2c2 1f3d
000002d0: 68d8 d6bd 39c2 bbbd aafa cdbd c6c5 a83d
000002e0: 3f46 a43e 5f93 d03e c988 29bc ebd3 d13e
000002f0: ef87 8f3e fd21 c2bd a7a3 9c3e 8429 643e
00000300: 18d7 c93e 4ef8 febd 50c2 a43e a4f7 9b3e
00000310: e7d4 b13e 2c55 d93e bf41 16be 7dd7 183e
00000320: 0e52 bebd 2789 523e c6fb 01be 3c34 a3be
00000330: ce6d 0e3f 0dcf 283f ab19 873e 87a5 5d3f
00000340: 67a4 a93e 2273 ad3e e146 303e c9a6 0a3f
00000350: 99a8 7b3e b61c 193f 5d17 ab3e 1c44 98bd
00000360: b97f fdb9 bc68 9e3e e8c3 82bc 20d0 553f
00000370: 1dfd 19be 6806 03be b37f cebe d0f8 30bd
00000380: 1a22 4d3d a816 be3e 9a1d f83e 656a 09bf
00000390: ba32 163f 7a4c 7a3d 5ae7 86ba cdd7 973e
000003a0: 07a1 b53e be16 b43e 8e37 0e3f d460 06bd
000003b0: 599e 023f 8757 01be edf6 043d 80ac 63bd
000003c0: a104 9cbd da35 053f 275d 1a3f c676 0dbe
000003d0: 8e82 adbd aede a33e 0596 39bf 54b5 37bf
000003e0: 7069 04be ca8e 003f 89b0 43be 03e1 85be
000003f0: b8c0 ca3e 0881 a13d a88d 62bd aef1 a73e

output.weight f4 [1, 300]
-0.6406518 0.34099513 -0.041219972 0.1485356 -0.6026042 -0.571259 0.19318476 -0.7350705
-0.6342193 -0.521179 -0.89572614 0.15948258 -0.5499307 0.14655249 -0.73446643 0.13350725
-0.6356706 0.3265716 -0.6504761 -0.49011332 -0.68653476 -0.7242274 -0.50620383 0.18152802
-0.6465918 -0.06319462 -0.087497264 -0.66248184 0.12482693 -0.4063193 0.09586068 0.13049226
0.12906867 0.27550277 -0.65883476 0.13881202 0.17537461 0.11107671 0.21505801 -0.57684535
-0.745646 0.21476568 -0.6505847 0.14249791 -0.42939836 0.16746539 0.24350098 0.20476621
-0.7097457 0.098752126 0.15188542 0.23580043 0.14445356 0.19774717 0.08816438 0.19369626
-0.52822673 0.19374716 -0.834686 0.29379734 0.2397013 -0.50761294 -0.60190916 0.32392928
0.20501441 0.33278158 -0.67952013 0.37508836 0.22025694 -0.6237186 0.16850904 -0.53600496
-0.5381483 0.14149366 0.16910803 0.21262594 -0.41470858 0.08059692 -0.43632108 0.17504793
0.43393347 -0.6513134 -0.6396819 0.19053753 -0.5051443 0.19264743 -0.8583982 0.061599743
0.25469 0.1081967 -0.58805215 0.094869256 -0.68406314 0.18879512 0.2227441 -0.76770866
0.18111861 0.13468826 0.23402594 -0.9799448 -0.6467591 -0.23135325 -0.6573396 -0.7005081
0.08393589 -0.6415376 -0.697578 0.15130456 -0.45218658 0.18278065 -0.7646396 -0.8063231
-0.5323651 -0.6084439 -0.80392545 -0.7104783 -0.75644535 -0.56581795 0.22104006 0.16709332
-0.71176416 -0.7181561 0.10577007 -0.7264203 0.13070457 0.06219126 -0.6000894 0.27531332
0.6101871 -0.39729404 -0.6265219 -0.7345017 0.23343818 0.099771686 0.21041144 -0.7989417
-0.91965455 -0.51278293 0.18440256 0.12463538 0.16985138 -0.6736496 -0.71943253 0.15354669
0.31673756 0.22649427 0.18889764 -0.6416187 -0.41702992 -0.6824774 0.14109406 -0.3143392
-0.5969759 -0.633714 0.25204718 0.1653403 0.28921887 -0.7211388 0.20861372 -0.06107545
0.14071023 0.19954178 0.14531665 0.42765364 -0.56248033 -0.5678013 -0.23487411 0.23046166
0.13618958 -0.9501152 0.13817075 -0.70759064 0.24622674 -0.87776285 -0.78901005 0.20306157
0.10738575 -0.5614618 0.2232539 -0.51465464 -0.5743876 -0.7044371 -0.5597074 0.6977261
0.14308688 0.1684166 -0.570471 0.2686478 0.22582386 -0.58747613 0.29195732 0.088048965
0.07775248 -0.3386112 0.14272799 0.092219554 0.24519084 0.090152726 -0.52582586 0.5459738
-0.6962302 0.24835847 -0.64465004 -0.4802566 0.20859577 0.18051934 0.32162586 0.21521322
0.18446174 0.09055095 0.34387493 0.11892678 0.25490057 0.20616734 0.15443446 -0.4553116
-0.7012108 0.16345502 -0.7314853 0.1717966 -0.67693377 -0.53677726 -0.71319693 -0.3393388
-0.81372786 0.12132772 0.13755988 -0.20007512 0.22443214 -0.63101506 -0.5729785 0.23130575
0.22104323 0.12747441 0.089031264 -0.67085093 0.120099366 -0.6019509 -0.49130777 -0.67590743
-0.84221524 0.30004814 0.19596094 -0.8030301 -0.7577056 0.2367007 -0.2014206 -0.15338077
-0.5302714 0.35778248 -0.6663424 -0.5870306 0.13675465 -0.39868915 -0.61316997 0.172245
00000000: c201 24bf ea96 ae3e 46d6 28bd b719 183e
00000010: 4544 1abf 083e 12bf 3ad2 453e 952d 3cbf
00000020: 325c 22bf fd6b 05bf 4f4e 65bf 674f 233e
00000030: 42c8 0cbf db11 163e fe05 3cbf 20b6 083e
00000040: 4fbb 22bf 6534 a73e 9a85 26bf 22f0 fabe
00000050: bec0 2fbf f866 39bf 9396 01bf 7be2 393e
00000060: 0a87 25bf 2e6c 81bd c431 b3bd 6998 29bf
00000070: 43a5 ff3d 1509 d0be 9b52 c43d c39f 053e
00000080: 942a 043e b30e 8d3e 65a9 28bf bd24 0e3e
00000090: 6795 333e 307c e33d 2b38 5c3e 23ac 13bf
000000a0: a8e2 3ebf 89eb 5b3e b88c 26bf f9ea 113e
000000b0: 1ada dbbe 0c7c 2b3e 5258 793e 3cae 513e
000000c0: e5b1 35bf 8e3e ca3d da87 1b3e ab75 713e
000000d0: a2eb 133e 3c7e 4a3e 878f b43d 5058 463e
000000e0: de39 07bf a865 463e fbad 55bf 9b6c 963e
000000f0: 4274 753e ecf2 01bf b816 1abf 0fda a53e
00000100: 4cef 513e 5962 aa3e 08f5 2dbf 950b c03e
00000110: 098b 613e 06ac 1fbf a28d 2c3e 9f37 09bf
00000120: 16c4 09bf b7e3 103e a82a 2d3e 9dba 593e
00000130: af54 d4be ff0f a53d 7a65 dfbe c43f 333e
00000140: 872c de3e 7abc 26bf 31c2 23bf 451c 433e
00000150: 2351 01bf 5e45 453e fcbf 5bbf 0350 7c3d
00000160: ba66 823e 3b96 dd3d 968a 16bf d04a c23d
00000170: c31e 2fbf 8253 413e 0817 643e 8e88 44bf
00000180: 2877 393e b8eb 093e 7fa4 6f3e aadd 7abf
00000190: 0192 25bf dee7 6cbe 6847 28bf 8054 33bf
000001a0: 94e6 ab3d cf3b 24bf 7994 32bf 95ef 1a3e
000001b0: 0085 e7be da2a 3b3e 6cbf 43bf 316b 4ebf
000001c0: 1449 08bf fbc2 1bbf 0fce 4dbf e8e1 35bf
000001d0: 67a6 41bf 72d9 10bf 5358 623e 831a 2b3e
000001e0: 2d36 36bf 14d9 37bf fa9d d83d aef6 39bf
000001f0: 6bd7 053e 43bc 7e3d 759f 19bf def5 8c3e
00000200: 3935 1c3f 206a cbbe bd63 20bf 4e08 3cbf
00000210: 6b0a 6f3e 1955 cc3d 1976 573e 7187 4cbf
00000220: 7b6e 6bbf be45 03bf 06d4 3c3e d640 ff3d
00000230: 85ed 2d3e 4d74 2cbf bb2c 38bf 583b 1d3e
00000240: 6d2b a23e 1dee 673e 626e 413e 2041 24bf
00000250: f284 d5be d7b6 2ebf f67a 103e 11f1 a0be
00000260: 6ad3 18bf 153b 22bf 540c 813e f84e 293e
00000270: 7f14 943e 8d9c 38bf d69e 553e 402a 7abd
00000280: 5816 103e ae54 4c3e e3cd 143e 6bf5 da3e
00000290: b6fe 0fbf 6d5b 11bf d782 70be 24fe 6b3e
000002a0: 4875 0b3e c03a 73bf a27c 0d3e a924 35bf
000002b0: dd22 7c3e 11b5 60bf 90fc 49bf 5fef 4f3e
000002c0: 0fed db3d f6bb 0fbf ac9c 643e 68c0 03bf
000002d0: 110b 13bf fd55 34bf fc48 0fbf 2d9e 323f
000002e0: 5e85 123e 6775 2c3e 630a 12bf 348c 893e
000002f0: 5f3e 673e d664 16bf 6e7b 953e 0453 b43d
00000300: b13c 9f3d 725e adbe 4927 123e 9bdd bc3d
00000310: 4f13 7b3e fea1 b83d 869c 06bf f0c4 0b3f
00000320: 243c 32bf af51 7e3e c907 25bf 31e4 f5be
00000330: 219a 553e 10da 383e 25ac a43e db60 5c3e
00000340: 8ae3 3c3e c772 b93d 6010 b03e e28f f33d
00000350: 5482 823e 881d 533e 1124 1e3e 9a1e e9be
00000360: 8d82 33bf c160 273e 9f42 3bbf 73eb 2f3e
00000370: 884b 2dbf 3c6a 09bf 1394 36bf d1bd adbe
00000380: 7850 50bf ab7a f83d 7fdc 0c3e 7ee0 4cbe
00000390: 8ad1 653e 348a 21bf b8ae 12bf 6adb 6c3e
000003a0: 2859 623e a788 023e 0656 b63d e3bc 2bbf
000003b0: a8f6 f53d 7419 1abf b18c fbbe 4508 2dbf
000003c0: 6b9b 57bf e99f 993e fca9 483e 6193 4dbf
000003d0: fff8 41bf ab61 723e 3441 4ebe d90f 1dbe
000003e0: debf 07bf 442f b73e 6a95 2abf a347 16bf
000003f0: 6909 0c3e fc20 ccbe b5f8 1cbf fe60 303e
