Neural_networks/reacher_20_originalpolicy_local.pth (torch, 542751 bytes, 6 tensors)

hidden_layer_1.weight f4 [400, 33]
0	0xbc837058	-0.01604478
1	0x3eaf2934	0.34211123
2	0x3e0f1c6b	0.13975684
3	0x3f9e6574	1.2374711
4	0x3dfb5ad9	0.12273187
5	0xbe797d1b	-0.2436413
6	0xbeb06b56	-0.3445689
7	0xbd979fb4	-0.07403508
8	0x3e61c145	0.22046383
9	0xbe25d265	-0.1619354
10	0x3d788e49	0.06068257
11	0xbb41c1f3	-0.0029565066
12	0xbc57e4ae	-0.01317708
13	0xbc82659c	-0.015917592
14	0x3c99e840	0.018787503
15	0xbdf43545	-0.11924223
16	0x3f40f808	0.75378466
17	0xbda69f6c	-0.08135876
18	0xbce8c9d8	-0.02841656
19	0x3d8554ff	0.06510352
20	0x3d6a1890	0.05715233
21	0x3d220374	0.039554074
22	0xbcd5a4a4	-0.026079483
23	0xbdcaa0d7	-0.09893959
24	0xbdae8aed	-0.08522592
25	0xbd12c38f	-0.03583103
26	0xbddcc2df	-0.10779356
27	0x3ec6b60f	0.38810775
28	0x3e871bd3	0.26388416
29	0x3d4b65c9	0.049657617
30	0xbec8970b	-0.39177737
31	0xbcea4fb7	-0.028602464
32	0xbf256967	-0.64613956
33	0xbea7730f	-0.3270497
34	0xbdc81d47	-0.09771209
35	0xbd07e698	-0.033178896
36	0xbf6d71b7	-0.9275164
37	0x3e31cf42	0.17364219
38	0xbf8ceb73	-1.1009353
39	0x3ee04bed	0.43807927
40	0x3b0f3fb5	0.002185804
41	0xbc70c1d5	-0.014694651
42	0xbd4a5eb0	-0.049406707
43	0xbe021a01	-0.12705232
44	0xbc817035	-0.015800575
45	0x3bfb17f1	0.007662766
46	0x3e58689d	0.21133657
47	0x3df39681	0.11893941
48	0x3be55007	0.0069980654
49	0xbeaec630	-0.3413558
50	0x3e6f53d9	0.23371829
51	0xbf147da2	-0.580042
52	0x3f614acf	0.88004774
53	0x3c9ac930	0.018894762
54	0x3d9c5f9b	0.07635423
55	0xbd9c686f	-0.076371066
56	0x3cb52183	0.022110706
57	0x3e1a0c93	0.15043859
58	0xbd30a695	-0.043127615
59	0xbe76d9d9	-0.2410654
60	0x3e3e4b6e	0.18583462
61	0xbe270a34	-0.16312486
62	0xbd28afc3	-0.041183244
63	0xbe144c3c	-0.14482206
64	0xbc3b03ec	-0.011414509
65	0x3eac084e	0.33600086
66	0x3c725f8a	0.014793286
67	0xbdf90549	-0.12159211
68	0x3c558ec5	0.013034527
69	0xbf529e70	-0.82273006
70	0xbe8cd797	-0.27508232
71	0x3e2f6ea5	0.17132051
72	0x3ed50869	0.4160798
73	0x3d4d13cb	0.050067704
74	0x3deeb2b6	0.1165518
75	0xbe0171a6	-0.1264101
76	0xbd5714c9	-0.052510057
77	0xbcaa0325	-0.020753453
78	0xbd80fa88	-0.06297785
79	0x3d45c6d7	0.04828533
80	0x3e0661d7	0.1312326
81	0xbcebab83	-0.028768307
82	0xbdbc0068	-0.09179765
83	0xbe08fd18	-0.13377798
84	0x3ed3a062	0.413333
85	0x3e107a86	0.14109239
86	0x3b52387a	0.003207712
87	0xbc2fa834	-0.010721255
88	0x3d6c3963	0.057671916
89	0x3c49cffb	0.012317653
90	0xbd98be4b	-0.074581705
91	0xbc727405	-0.014798169
92	0x3e5a3855	0.21310551
93	0x3e23f4f0	0.16011405
94	0x3e578da6	0.21050128
95	0xbd0bd4ec	-0.034138605
96	0xbe62ec4c	-0.22160453
97	0x3d3cb22b	0.04606835
98	0x3f0b247c	0.54352546
99	0x3e0c7ee9	0.13720287
100	0xbe653c35	-0.22386248
101	0x3d90162d	0.0703548
102	0xbf062bcb	-0.5241057
103	0xbe4523aa	-0.19251886
104	0x3f1b1594	0.605798
105	0x3dd46e5c	0.10372612
106	0x3d642076	0.05569502
107	0xbe23e3ba	-0.1600484
108	0xbd4e14d5	-0.050312836
109	0xbd29c24c	-0.04144506
110	0x3d90ed5c	0.07076523
111	0x3cf57aaf	0.029965727
112	0x3cb97305	0.022637853
113	0x3d8728a0	0.065995455
114	0xbda48448	-0.08033043
115	0xbed9d1de	-0.42542928
116	0xbf45d338	-0.7727542
117	0xbefd1129	-0.49427155
118	0x3f0ee4eb	0.5581805
119	0x3bfb5e9f	0.007671192
120	0x3cd746d0	0.026278883
121	0x3cf4fa08	0.02990438
122	0xbd41cb7f	-0.04731321
123	0xbc93eb42	-0.018056516
124	0xbd6f4e93	-0.058424544
125	0x3d9348ab	0.07191595
126	0x3d520ce4	0.051281825
127	0x3e0e4266	0.13892516
128	0xb8545800	-5.0626695e-05
129	0xbdb88e8d	-0.090115644
130	0xba080380	-0.000518851
131	0x3ff7727e	1.9331815
132	0x3debb4b7	0.11509078
133	0xbcaf3fc6	-0.021392714
134	0xbebf8647	-0.37407133
135	0xbee126cf	-0.4397492
136	0xbe1f6136	-0.15564427
137	0x3e6f7a12	0.2338641
138	0xbed1da6f	-0.40986964
139	0xbb91a234	-0.004444385
140	0x3ed3611f	0.41285035
141	0x3d8af7d8	0.06785554
142	0xbdbdfb0c	-0.09276399
143	0x3e29e2bd	0.165904
144	0x3cac77bf	0.021053193
145	0xbd3a2886	-0.045448802
146	0x3dc3df32	0.095640555
147	0x3e6d516e	0.23175594
148	0x3ecf74b6	0.4051873
149	0xbf5b8e1c	-0.85763717
150	0x3d9a5646	0.075359866
151	0xbd928d73	-0.071558855
152	0x3ce7e944	0.028309472
153	0xbe1fc516	-0.15602526
154	0xbd67e015	-0.056610186
155	0x3d37cd7a	0.044873692
156	0xbd9ca6cb	-0.07649001
157	0x3d47992f	0.04873007
158	0x3e3c7f15	0.18407853
159	0x3e086bc9	0.13322367
160	0x3da054ba	0.0782866
161	0xbd1b80e0	-0.0379647
162	0xbe2278bf	-0.15866373
163	0xbc19c468	-0.009385206
164	0xbda872f5	-0.08225051
165	0x3e39e935	0.18155368
166	0xbc4e56ae	-0.012593908
167	0x3e8d690d	0.2761921
168	0x3e0cb64d	0.13741417
169	0x3e0fd2e1	0.14045288
170	0xbe156ee1	-0.14593078
171	0x3e649091	0.22320773
172	0xbd4560b6	-0.048187934
173	0xbd5a8a9c	-0.053354844
174	0x3ded6bf1	0.11592854
175	0x3cb5eacf	0.022206692
176	0xbcd7f2df	-0.026360927
177	0x3d2bfae6	0.041987322
178	0xbcaf7b33	-0.02142105
179	0x3e13d36d	0.14436121
180	0xbe610618	-0.21974981
181	0xbef362be	-0.47536272
182	0x3f12e7c9	0.57384926
183	0x3ef13c20	0.47116184
184	0x3ed86f2e	0.42272323
185	0x3d0c9e55	0.034330685
186	0xbe4ffc67	-0.20311128
187	0xbd96f38b	-0.07370671
188	0xbc9d704e	-0.01921859
189	0x3c39dc11	0.011343972
190	0xbdb5b392	-0.08872141
191	0x3e2c9b6e	0.16856167
192	0x3e13b2fd	0.14423747
193	0xbcd039b9	-0.02541815
194	0x3d402789	0.046912704
195	0xbdc9b838	-0.0984959
196	0x3a713ec0	0.0009202771
197	0x3f39ccb8	0.72578
198	0xbd7c0f42	-0.06153799
199	0x3e53101b	0.20611612
200	0xbe696f97	-0.22796474
201	0x3f326245	0.696812
202	0xbe3fb7c1	-0.1872244
203	0xbd0355d0	-0.03206426
204	0xbe55d59d	-0.20882268
205	0x3c743dd6	0.014907321
206	0x3d879512	0.0662023
207	0x3d850853	0.06495728
208	0x3d6fd63e	0.058553927
209	0xbded6364	-0.11591223
210	0xbdc5ae3c	-0.09652373
211	0x3e309f65	0.17248304
212	0x3af52a61	0.0018704646
213	0xbccabc09	-0.024747865
214	0xbf315520	-0.69270515
215	0x3e03818c	0.12842387
216	0x3f3a8640	0.728611
217	0xbe58dd1d	-0.21178098
218	0xbcf8ef83	-0.030387646
219	0x3d6dfdcc	0.058103368
220	0x3ca4d592	0.02012137
221	0x3daf5ff7	0.08563226
222	0x3d3c0a8f	0.045908507
223	0x3dd36d1f	0.103235476
224	0xbd8834ca	-0.06650694
225	0x3e320652	0.17385224
226	0x3d323360	0.043506026
227	0xbd2f707f	-0.042831894
228	0xbe47694c	-0.19473761
229	0x3c2ce8ac	0.01055352
230	0xbf89b16c	-1.075727
231	0x3e1ec62e	0.15505287
232	0x3d898d1c	0.067163676
233	0x3e4490ac	0.19195813
234	0x3ef34143	0.47510728
235	0xbde94970	-0.1139096
236	0xbed53665	-0.41643062
237	0x3c998c92	0.018743787
238	0xbc721fcd	-0.01477809
239	0x3dfe72d9	0.12424249
240	0x3c31d6fe	0.010854481
241	0x3da2f7fa	0.07957454
242	0x3db8e12a	0.09027322
243	0x3c8885af	0.016665308
244	0xbe45adfc	-0.19304651
245	0x3de85844	0.1134496
246	0xbbdf79bb	-0.0068199313
247	0xbeecd655	-0.46257272
248	0xbeb2a7b9	-0.34893587
249	0x3eef41db	0.4672993
250	0x3f715e81	0.94284827
251	0xbd0c11a6	-0.03419652
252	0xbd93554e	-0.07194005
253	0xbdfbe7af	-0.123000495
254	0xbde32f03	-0.11092951
255	0x3da82e00	0.08211899

hidden_layer_1.bias f4 [400]
0	0xbef9665d	-0.4871091
1	0xbe72189f	-0.23642205
2	0xbccc75af	-0.02495846
3	0xbd42e96a	-0.047585882
4	0xbe892a97	-0.26790306
5	0xbe8e29c7	-0.2776625
6	0xbe995e6d	-0.29954854
7	0xbe9ea952	-0.30988556
8	0xbe36ccba	-0.17851534
9	0xbe638af2	-0.22220972
10	0x3bc0c9fd	0.005883454
11	0xbdcf4e06	-0.10122304
12	0xbe2f17e8	-0.17098963
13	0xbe8c93ee	-0.2745661
14	0xbd8a3951	-0.067492135
15	0x3cf5d0ad	0.03000673
16	0xbed46e2d	-0.41490307
17	0xbe689115	-0.22711594
18	0xbeeb0ff7	-0.45910618
19	0xbe943443	-0.28946123
20	0xbee97b4f	-0.4560189
21	0xbe540766	-0.20705947
22	0xbe6dba75	-0.23215659
23	0xbec0edb7	-0.37681362
24	0xbe24b985	-0.16086395
25	0xbed53ac4	-0.41646397
26	0xbe51be78	-0.20482814
27	0xbe70538f	-0.23469375
28	0x3e58f62c	0.21187657
29	0xbed524f9	-0.4162977
30	0xbdd502c2	-0.10400917
31	0xbd94f1b8	-0.07272667
32	0x3d9329fc	0.07185742
33	0xbdbd86d5	-0.09254233
34	0xbeea93b2	-0.45815808
35	0xbe822023	-0.25415143
36	0xbdd4564c	-0.10368022
37	0xbe95dc0b	-0.29269442
38	0x3e469bed	0.19395418
39	0x3d235a82	0.039881237
40	0xbe4ee29e	-0.20203635
41	0x3e56e13d	0.20984359
42	0x3e02e679	0.12783231
43	0xbe43f5e1	-0.19136764
44	0xbee1f993	-0.44135723
45	0x3e0b6a56	0.13614783
46	0xbd981b54	-0.074270874
47	0xbe2cf9d4	-0.16892177
48	0xbe982238	-0.29713607
49	0xbe8c08d3	-0.27350482
50	0xbcb20ae8	-0.021733716
51	0xbe2200aa	-0.15820566
52	0xbdff2434	-0.12458077
53	0xbe4ef2d4	-0.20209819
54	0xbe8bc1be	-0.2729625
55	0xbe0ef261	-0.13959648
56	0xbdb90221	-0.09033609
57	0xbe4cfa30	-0.20017314
58	0xbea6efa5	-0.3260471
59	0xbe9bc5a3	-0.30424222
60	0xbe641a29	-0.22275604
61	0xbebe66fe	-0.37187952
62	0xbe0f1a09	-0.13974775
63	0xbe97b02d	-0.296266
64	0xbea75c97	-0.32687828
65	0xbe0732e0	-0.13203001
66	0xbdb6bcae	-0.089227065
67	0xbef26d3e	-0.4734897
68	0xbe5e9805	-0.21737678
69	0xbde33ae7	-0.11095219
70	0xbde3544e	-0.11100064
71	0xbebb62b1	-0.36598733
72	0xbe5a8f37	-0.21343695
73	0xbea78346	-0.3271734
74	0xbe11ca0b	-0.1423723
75	0xbbfb0a59	-0.0076611456
76	0xbec45868	-0.383487
77	0xbeaa8083	-0.33301172
78	0xbeaf916f	-0.34290645
79	0xbe8de651	-0.2771478
80	0xbd196d52	-0.03745777
81	0xbe5e726c	-0.21723336
82	0xbedfc390	-0.4370389
83	0xbd6db42c	-0.058033153
84	0xbf04c90c	-0.51869273
85	0x3df7b6d5	0.12095419
86	0xbed8dc34	-0.42355502
87	0xbdf26f1a	-0.11837597
88	0xbe9d8cb3	-0.30771407
89	0xbf180870	-0.59387875
90	0xbec29159	-0.38001516
91	0xbeb29aa2	-0.348836
92	0x3dec5a94	0.11540714
93	0xbe2aaa55	-0.16666539
94	0xbebeed56	-0.37290448
95	0xbecf49c0	-0.40485954
96	0xbf0276a4	-0.5096228
97	0xbe746d67	-0.23869859
98	0xbd98a8d0	-0.074540734
99	0xbd68b3e5	-0.056812186
100	0xbed388ed	-0.41315404
101	0xbe478027	-0.1948248
102	0xbc1c3eff	-0.009536504
103	0xbdc3d9a0	-0.09562993
104	0xbdf96cd1	-0.12178958
105	0xbe025f60	-0.12731695
106	0xbe518736	-0.20461735
107	0xbef8f6d9	-0.4862583
108	0xbde851db	-0.11343738
109	0xbe65f285	-0.22455795
110	0xbe967388	-0.29385018
111	0xbe667d63	-0.22508769
112	0xbf048ca5	-0.51777107
113	0x3d6e15ab	0.058126133
114	0xbe554239	-0.20826043
115	0x3c5d4204	0.013504509
116	0xbee1283d	-0.43976012
117	0xbe14b8e2	-0.14523652
118	0xbec61b0a	-0.38692504
119	0xbdb37bf5	-0.08763877
120	0xbe82eb29	-0.25570038
121	0xbedafa86	-0.4276926
122	0x3ca8d508	0.020609394
123	0xbe01a7d3	-0.12661676
124	0xbea5bfee	-0.32372993
125	0xbe15f5a2	-0.14644483
126	0xbec7d9a9	-0.3903325
127	0xbe9f13bd	-0.31069747
128	0xbd9755c7	-0.073894076
129	0xbe71525d	-0.23566575
130	0xbe896b63	-0.26839742
131	0xbd20c774	-0.039252713
132	0xbe0e1bb3	-0.13877754
133	0xbdf921bf	-0.1216464
134	0xbe0bd02d	-0.13653632
135	0xbe2eee9a	-0.17083207
136	0xbebe0d0f	-0.37119338
137	0x3dbba753	0.09162774
138	0xbe27b1ee	-0.16376469
139	0xbeacf66c	-0.33781755
140	0xbe49387e	-0.19650456
141	0xbeb9a271	-0.36256745
142	0xbd788437	-0.060672965
143	0xbcec75fd	-0.028864855
144	0xbf28343e	-0.65704715
145	0xbe51e59d	-0.20497747
146	0xbeb2e31a	-0.3493889
147	0xbf27adb4	-0.65499425
148	0xbef071c8	-0.46961808
149	0xbd801083	-0.06253149
150	0xbf02c2e7	-0.5107865
151	0xbe706dab	-0.23479335
152	0x3ef3787c	0.4755286
153	0xbe5e19ef	-0.2168958
154	0xbf0d6283	-0.5522844
155	0xbf1be7dd	-0.6090067
156	0xba90ec85	-0.0011056816
157	0xbefecab7	-0.49764034
158	0xbd3c907c	-0.04603623
159	0xbe521628	-0.20516264
160	0xbe871a4a	-0.26387244
161	0x3d99e262	0.07513882
162	0x3e032be5	0.12809713
163	0xbe0a5357	-0.13508354
164	0xbd8a9ad7	-0.067678146
165	0xbe4274ad	-0.18989821
166	0xbe7d0db3	-0.24712257
167	0xbea6ccdf	-0.3257818
168	0xbd3d0c61	-0.046154384
169	0xbc6fa80d	-0.014627469
170	0xbef3dd81	-0.47629932
171	0xbf2271b4	-0.6345475
172	0xbe8d9c3e	-0.27658266
173	0xbe8141ea	-0.252456
174	0xbeb11279	-0.34584406
175	0x3e3f0dcc	0.18657607
176	0xbebd3b80	-0.36959457
177	0xbeab6213	-0.33473262
178	0xbe301488	-0.17195332
179	0xbe509a17	-0.2037128
180	0xbce4f57f	-0.027949093
181	0xbe8db57d	-0.27677527
182	0xbe51487f	-0.20437811
183	0xbe9f2989	-0.31086376
184	0xbe694235	-0.22779162
185	0xbec12180	-0.3772087
186	0xbe82f388	-0.25576425
187	0x3dd9df2e	0.10638271
188	0x3d0f09e2	0.034921534
189	0xbdab0262	-0.08350064
190	0xbeb6a026	-0.3566906
191	0xbe8dad59	-0.27671316
192	0xbc940897	-0.018070502
193	0x3e0ebb0c	0.1393854
194	0xbea85b13	-0.32881984
195	0xbe35b2fe	-0.17744061
196	0xbec93c63	-0.39303884
197	0xbeeabec8	-0.4584868
198	0xbd34c8d1	-0.044136826
199	0xbd3afe63	-0.04565276
200	0xbea7e82e	-0.32794327
201	0xbe962a1b	-0.29329
202	0xbe2573ae	-0.1615741
203	0xbe7cda8b	-0.24692743
204	0xbec5615c	-0.38550842
205	0xbddedcae	-0.10881935
206	0xbd9bbb51	-0.07604087
207	0xbe152ee7	-0.14568673
208	0xbe11180e	-0.14169332
209	0xbeaf8dc2	-0.3428784
210	0xbe953f64	-0.29149926
211	0x3da2dfc2	0.07952835
212	0xbe9c546e	-0.30533165
213	0xbeac628b	-0.33668932
214	0xbe6f5e4b	-0.23375814
215	0xbf0d0ce1	-0.55097777
216	0xbf02d627	-0.5110802
217	0xbd828c75	-0.06374446
218	0xbea0d9bd	-0.3141612
219	0x3da9fa8a	0.0829974
220	0xbe70de57	-0.23522316
221	0xbf0a1e35	-0.5395234
222	0xbea38eb0	-0.319448
223	0xbee6e349	-0.4509528
224	0x3dc32a77	0.09529584
225	0xbe1108d5	-0.14163525
226	0xbdc760fa	-0.09735294
227	0xbd8f3887	-0.069932036
228	0xbe2a31e2	-0.16620591
229	0xbef3ecd4	-0.47641623
230	0xbe31dc78	-0.17369258
231	0xbe296453	-0.16542177
232	0x3da62235	0.08111993
233	0xbe18ef51	-0.14935042
234	0xbe445d35	-0.1917618
235	0x3e6ad22d	0.22931738
236	0xbea36f36	-0.31920785
237	0xbe01f3eb	-0.12690704
238	0xbf17273c	-0.5904424
239	0xbdb4adf5	-0.08822242
240	0xbc9f2d4d	-0.01943078
241	0xbd2a67d9	-0.041602943
242	0x3ea01340	0.31264687
243	0x3d305188	0.043046504
244	0xbe957471	-0.291904
245	0xbf153f26	-0.5829948
246	0xbc51df15	-0.012809535
247	0x3e27c309	0.16382994
248	0x3ccaec49	0.024770873
249	0xbed5eb30	-0.41780996
250	0xbe1c71ad	-0.15277739
251	0xbe6f8801	-0.23391725
252	0xbe6b5444	-0.22981364
253	0xbf0aa74c	-0.54161525
254	0xbd907480	-0.070534706
255	0xbe61b497	-0.22041546

hidden_layer_2.weight f4 [300, 400]
0	0x3d8378dd	0.06419537
1	0xbe6ecdd4	-0.23320705
2	0x3e4f6508	0.20253384
3	0x3e3999fe	0.1812515
4	0xbdfcc697	-0.123425655
5	0xbebfcda4	-0.3746158
6	0x3ebfa562	0.37430865
7	0x3df535c1	0.11973143
8	0x3e545662	0.20736077
9	0x3e005c32	0.1253517
10	0x3e97d11b	0.29651722
11	0x3d25bb76	0.04046198
12	0xbc1947c1	-0.009355486
13	0xbdc46bfc	-0.09590909
14	0xbe5e50f6	-0.21710572
15	0xbe3dbfb3	-0.18530159
16	0xbe1972f0	-0.14985251
17	0xbe276bc6	-0.16349706
18	0xbe24f68f	-0.1610968
19	0x3e60522f	0.2190635
20	0xbedc994e	-0.43085712
21	0xbd733e72	-0.059385724
22	0xbd6a6820	-0.057228208
23	0xbe75ac0a	-0.23991409
24	0xbba204f5	-0.0049444386
25	0xbda4a2c9	-0.08038861
26	0xbe8f692c	-0.28009927
27	0xbe69b50d	-0.22822972
28	0x3ea62390	0.32449007
29	0xbde19854	-0.110153824
30	0x3e21e54f	0.1581013
31	0xbeac654f	-0.33671042
32	0x3d8450e8	0.06460744
33	0x3e0ac3c6	0.13551244
34	0xbeebeb06	-0.46077746
35	0x3e97a40e	0.2961735
36	0xbd06bcf5	-0.032895047
37	0xbe22025f	-0.15821217
38	0xbe9e2803	-0.30889902
39	0x3e76de01	0.24108125
40	0x3f2274e6	0.6345962
41	0xbcecfc82	-0.028928999
42	0xbe8e5b72	-0.27804142
43	0xbebec377	-0.37258503
44	0x3de17d89	0.11010272
45	0xbebb0930	-0.36530447
46	0x3dc63d79	0.09679694
47	0xbf203405	-0.62579376
48	0xbe888cf6	-0.26670045
49	0xbdaa4122	-0.08313204
50	0xbe132308	-0.14368832
51	0xbd935a5f	-0.07194971
52	0x3e6bdf2a	0.23034349
53	0xbe062c6c	-0.13102883
54	0xbe96d37f	-0.29458234
55	0x3cd314ee	0.025766816
56	0x3e3d80eb	0.1850621
57	0xbc932b2f	-0.017964927
58	0xbc039fdd	-0.00803372
59	0xbe687c4e	-0.22703668
60	0xbd43a0a9	-0.04776064
61	0x3d0e0d9b	0.034680944
62	0xbf075dea	-0.52877676
63	0xbefc12d5	-0.49233118
64	0x3d952990	0.07283318
65	0xbea2eb7a	-0.3182028
66	0xbe5ea602	-0.21743014
67	0x3dbf1032	0.09329261
68	0xbe46653c	-0.19374555
69	0xbe1276ca	-0.14303127
70	0x3e279e46	0.1636897
71	0x3ebc91c8	0.36829972
72	0xbc426fd3	-0.011867481
73	0x3e82f95e	0.25580877
74	0x3e786bc8	0.24259865
75	0xbe4cfad4	-0.20017558
76	0xbf23d8f7	-0.6400294
77	0xbe475bb4	-0.19468576
78	0x3e12b611	0.14327265
79	0x3c877cbf	0.016538976
80	0xbeca02d9	-0.39455298
81	0xbe20ab85	-0.1569043
82	0xbec52cbe	-0.38510698
83	0x3a74fad4	0.00093452376
84	0x3e82844a	0.25491554
85	0xbdc9c874	-0.098526865
86	0xbf0852d8	-0.5325141
87	0x3e8f5475	0.27994123
88	0x3f3a20eb	0.7270648
89	0xbef3eb41	-0.47640422
90	0xbdc5447f	-0.09632205
91	0xbd8ca1d3	-0.06866803
92	0x3e227181	0.15863611
93	0xbe04b252	-0.12958649
94	0x3d2e7567	0.042592432
95	0x3df9dd1d	0.12200377
96	0x3de69723	0.11259296
97	0x3e4c622f	0.19959329
98	0xbea9f1f5	-0.3319241
99	0xbe9c3ca0	-0.30515003
100	0x3dc4b2f0	0.09604442
101	0x3e11c575	0.1423548
102	0xbcdd80e0	-0.027038991
103	0x3ddc3bef	0.10753619
104	0xbe034ad1	-0.12821509
105	0x3e15481a	0.14578286
106	0x3d6d1913	0.05788524
107	0x3ee7f508	0.45304132
108	0x3f1514f8	0.5823512
109	0x3d16d23b	0.036821585
110	0xbe6381eb	-0.22217529
111	0xbf033eb3	-0.51267546
112	0x3e2dffe6	0.16992149
113	0xbe900fb9	-0.28136995
114	0x3ed09df7	0.40745518
115	0xbc03eb46	-0.008051699
116	0xbdf00d0b	-0.11721238
117	0xbdac1f37	-0.08404391
118	0x3e2fd0ed	0.17169543
119	0x3d153fbc	0.036437735
120	0xbccfad40	-0.025351167
121	0x3de397d1	0.11112941
122	0xbe572bf8	-0.21012866
123	0x3e924077	0.28564808
124	0x3d51cbfd	0.05121993
125	0xbe19e748	-0.15029633
126	0xbe760aed	-0.24027605
127	0x3dfd53d7	0.12369507
128	0x3eba4195	0.3637816
129	0xbe606f8b	-0.2191755
130	0x3e98bcde	0.29831594
131	0x3dbc469f	0.091931574
132	0xbe44a182	-0.19202235
133	0xbe2ba71c	-0.16762966
134	0x3e5c735a	0.21528378
135	0xbec10028	-0.37695432
136	0xbda81290	-0.082066655
137	0xbde1a874	-0.11018458
138	0xbbbdf5a2	-0.005797104
139	0x3ac92589	0.0015346269
140	0xbe70cb8e	-0.2351515
141	0x3da15a6b	0.07878574
142	0x3eb3ee80	0.351429
143	0x3ea9591f	0.33075806
144	0x3d43de08	0.047819167
145	0x3e780f9a	0.24224702
146	0xbf073fb7	-0.52831596
147	0x3c18af7a	0.009319181
148	0xbdda972f	-0.10673367
149	0x3e76686c	0.24063271
150	0x3deb8efc	0.115018815
151	0xbe194082	-0.14966014
152	0xbe0a7a82	-0.13523296
153	0xbe834a45	-0.256426
154	0x3e7d8119	0.24756278
155	0x3eb40c76	0.35165757
156	0x3d282b63	0.041057
157	0x3e0de627	0.13857327
158	0x3d384a09	0.04499248
159	0xbc815cff	-0.015791414
160	0xbb3c4f9e	-0.002873398
161	0xbeb6bb53	-0.35689792
162	0x3e9cd170	0.30628538
163	0xbdbd603c	-0.09246871
164	0x3ed5ffb3	0.41796646
165	0x3e86dc64	0.2634002
166	0x3e807a8f	0.25093505
167	0xbea7b4a4	-0.32755005
168	0xbe11ba95	-0.14231332
169	0xbe343fe0	-0.17602491
170	0x3e1e752a	0.15474382
171	0x3cad76f7	0.02117489
172	0x3d388745	0.045050878
173	0xbe732cb7	-0.23747526
174	0x3eef8ed6	0.46788663
175	0xbe881e22	-0.2658549
176	0x3e2a35e6	0.16622123
177	0xbe1d31b7	-0.15350996
178	0x3e80168e	0.25017208
179	0x3df15b88	0.11785036
180	0x3ec003dd	0.37502947
181	0x3ec2c512	0.38040978
182	0xbb84be7f	-0.004051029
183	0xbe6768c2	-0.22598556
184	0x3b81d873	0.0039625703
185	0xbe0f15a2	-0.13973096
186	0xbf1fba03	-0.62393206
187	0xbd12b92a	-0.035821117
188	0xbe444296	-0.19166026
189	0x3d7186af	0.058966335
190	0xbd6d9a9b	-0.05800877
191	0xbe8071d8	-0.25086856
192	0x3e1fd665	0.15609129
193	0xbe6c2c8e	-0.23063871
194	0x3e9dc2c4	0.30812657
195	0x3df22764	0.118239194
196	0x3d0e121d	0.034685243
197	0xbe25701c	-0.16156048
198	0xbc36d675	-0.011159529
199	0x3e41e247	0.18933974
200	0x3ed9ce96	0.42540425
201	0x3e2df205	0.16986854
202	0xbe50d6b6	-0.20394406
203	0xbc9f48fc	-0.019443981
204	0x3ef80d3d	0.484476
205	0xbd146cae	-0.036236458
206	0x3d017dda	0.031614162
207	0x3e4b14ec	0.198322
208	0xbe8a9dc3	-0.27073488
209	0x3df91402	0.12162019
210	0xbec50d24	-0.38486588
211	0x3cdaa56e	0.026690211
212	0x3e3b5458	0.18293893
213	0xbe898c72	-0.26864964
214	0x3ee94a49	0.45564488
215	0x3cbcb4f6	0.023035508
216	0xbd33d4ec	-0.04390423
217	0xbe12fea1	-0.14354946
218	0xbeece028	-0.46264768
219	0xbd9bd4c5	-0.07608942
220	0xbd5ec469	-0.05438653
221	0x3d5c9288	0.05385068
222	0x3e289607	0.16463481
223	0x3e90413b	0.28174767
224	0xbec6a25e	-0.3879575
225	0xbec2fe35	-0.3808457
226	0x3eb6f3d8	0.35732913
227	0xbce68c14	-0.028142966
228	0xbf007a7a	-0.50186884
229	0xbe188cf0	-0.14897513
230	0x3bea01f6	0.007141347
231	0x3d918fc8	0.07107502
232	0x3e8630a1	0.26208976
233	0xbe087ca5	-0.13328798
234	0xbdede2ad	-0.116155006
235	0x3e45d94f	0.19321178
236	0xbf2479a5	-0.64248115
237	0x3efc264d	0.4924797
238	0x3eba0e87	0.36339208
239	0x3ea73f8f	0.3266568
240	0xbe5e4b1e	-0.21708342
241	0xbe97b607	-0.29631063
242	0x3da58fea	0.0808409
243	0xbe895b7d	-0.26827613
244	0x3e588d12	0.21147564
245	0x3f04cd4d	0.51875764
246	0x3e1adafa	0.15122595
247	0xbe3f755b	-0.18697111
248	0x3b945a69	0.0045273793
249	0xbe88b858	-0.26703143
250	0xbe3d3633	-0.18477707
251	0xbf111f28	-0.56688166
252	0xbdac5a51	-0.08415664
253	0x3e930ea5	0.2872211
254	0xbe233150	-0.1593678
255	0x3e46d904	0.19418722

hidden_layer_2.bias f4 [300]
0	0xbc444483	-0.011979225
1	0xbd494094	-0.049133852
2	0xbde98ad1	-0.1140343
3	0x3da7a42f	0.081856124
4	0x3bbf02ca	0.00582919
5	0x3d6667fd	0.056251515
6	0x3cd07ce1	0.025450172
7	0x3db03ea3	0.08605697
8	0x3c64357d	0.013928768
9	0x3d731d91	0.05935437
10	0xbd7d362e	-0.061819248
11	0xbbba3e1a	-0.0056836726
12	0x3de775d8	0.11301774
13	0xbde01891	-0.10942186
14	0xbe27ecc7	-0.16398917
15	0xbcee1339	-0.0290619
16	0xbc437ef8	-0.011932127
17	0x3e84629c	0.25856483
18	0xbdea7691	-0.11448396
19	0x3b55e047	0.00326349
20	0x3de541b7	0.11194175
21	0xbd395d85	-0.045255203
22	0x3e0e5974	0.13901311
23	0x3da2bbd4	0.079459816
24	0x3d98c257	0.074589424
25	0xbe1ec197	-0.15503536
26	0xbd5f7fb5	-0.05456515
27	0x3e60c92c	0.21951741
28	0xbe001582	-0.12508205
29	0xbeb60b8f	-0.35555694
30	0xbdec3c22	-0.11534907
31	0xbe41132d	-0.18854971
32	0xbd93002e	-0.07177769
33	0xbe9e74a8	-0.30948377
34	0x3d3c42b5	0.045962054
35	0xbe2154f5	-0.15755065
36	0xbdf65bf8	-0.120292604
37	0xbe3c9339	-0.18415536
38	0x3d0c35d0	0.034231007
39	0x3ca094f8	0.019602284
40	0xbde8ca45	-0.11366705
41	0x3c94fb9f	0.018186389
42	0xbc626146	-0.013817137
43	0x3d302cf4	0.04301162
44	0xbe1d56eb	-0.15365188
45	0xbe07c36c	-0.13258141
46	0xbd1c8749	-0.038214955
47	0xbe0a51a1	-0.13507701
48	0xbe48a385	-0.19593628
49	0xbe243821	-0.16037036
50	0xbd8b1994	-0.06791988
51	0x3ca93be7	0.020658446
52	0xbeb46c5b	-0.3523892
53	0xbe2d8e76	-0.16948876
54	0xbbb14c75	-0.0054107257
55	0xbce9a5e6	-0.02852149
56	0xbe839f1a	-0.25707322
57	0xbcea0d00	-0.028570652
58	0xbe77a7e0	-0.24185133
59	0xbe8ef158	-0.27918506
60	0xbd9824e7	-0.074289136
61	0xbe05af99	-0.13055266
62	0xbd98fcba	-0.07470079
63	0xbea0f113	-0.31433925
64	0xbceb90ce	-0.028755572
65	0xbd30fb0c	-0.043208167
66	0xbcec1359	-0.02881782
67	0xbd4f498d	-0.050607253
68	0x3d9bb2fa	0.076024964
69	0xbe4c0da7	-0.19927083
70	0x3d0a6fe0	0.0337981
71	0xbe5e2902	-0.2169533
72	0xbd10d0fe	-0.03535556
73	0xbe06980c	-0.13143939
74	0x3d557d1a	0.05212126
75	0xbbf2318a	-0.0073911594
76	0xbeb30efc	-0.3497237
77	0x3cc60701	0.024173262
78	0xbe58a721	-0.21157505
79	0xbe2af37d	-0.16694446
80	0xbdbad8ad	-0.09123359
81	0xbe5a8964	-0.21341473
82	0xbc1c170e	-0.009526981
83	0x3d9c470a	0.07630737
84	0xbdb0ffc7	-0.08642536
85	0xbe044102	-0.12915424
86	0xbd87c86a	-0.06630023
87	0xbd550903	-0.052010547
88	0xbcbae570	-0.022814482
89	0x3df7fc61	0.12108684
90	0xbc2fd6e9	-0.010732391
91	0xbc26cb0f	-0.010180249
92	0x3d0f951f	0.035054322
93	0xbe832cec	-0.2562021
94	0xbe97cbfb	-0.29647812
95	0xbe9dcc3f	-0.3081989
96	0x3d34aac8	0.044108182
97	0xbe306e9a	-0.17229691
98	0xbd7a518a	-0.061112918
99	0x3b92dcf2	0.004481905
100	0xbe5e43f0	-0.21705604
101	0x3adf7583	0.0017048571
102	0xbe880d1a	-0.26572496
103	0xbd15e1f5	-0.036592443
104	0xbc561c15	-0.013068219
105	0xbe9812ce	-0.29701847
106	0xbe28989a	-0.16464463
107	0xbdd64f06	-0.10464291
108	0xbdbacfa8	-0.091216385
109	0xbdaec1e7	-0.08533078
110	0x3c47bfc1	0.012191714
111	0x3d9f9346	0.07791762
112	0x3c9fb247	0.019494189
113	0xbe60f5fb	-0.21968834
114	0x3da4ff24	0.08056477
115	0xbe1673c5	-0.146926
116	0x3cc6ca3e	0.024266358
117	0xbdc767fe	-0.09736632
118	0xbe1a45cd	-0.1506569
119	0x391d12f6	0.0001497975
120	0xbdb8fc16	-0.090324566
121	0xbcb709b9	-0.022343503
122	0x3bcec630	0.006310247
123	0xbda9d506	-0.08292584
124	0xbe205eeb	-0.15661208
125	0x3c870a98	0.016484544
126	0xbd44d458	-0.04805407
127	0xbdb09c92	-0.086236134
128	0x3da9459b	0.08265229
129	0xbc0c9291	-0.008579866
130	0xbd5019a5	-0.050805707
131	0x3e0fcaae	0.1404216
132	0xbda167dd	-0.078811385
133	0xbe1afe74	-0.15136129
134	0xbd36ef18	-0.04466161
135	0x3c29cf39	0.010364347
136	0xbe1fb69c	-0.15597004
137	0xbd1f6f6f	-0.03892463
138	0xbe1a48d9	-0.15066852
139	0xbacb4f10	-0.0015511233
140	0xbc96ad8c	-0.0183933
141	0xbe7f935f	-0.24958561
142	0xbde8d864	-0.11369398
143	0xbdb27fbc	-0.0871577
144	0x3d957109	0.0729695
145	0xbd05fa30	-0.0327093
146	0x3d89b848	0.06724602
147	0xbd7c25ca	-0.061559476
148	0x3d8f6a13	0.07002654
149	0xbce87f0b	-0.028380891
150	0xbab80e91	-0.0014042427
151	0x3c19e2d4	0.009392459
152	0x3d3bf63d	0.045889128
153	0x3e878fbf	0.26476857
154	0xbf0ba59d	-0.5454958
155	0xbe34a1f8	-0.17639911
156	0xbea98e1b	-0.3311623
157	0xbca12aea	-0.019673783
158	0xbeb54d59	-0.35410574
159	0xbdea584c	-0.114426225
160	0xbd80dee6	-0.062925145
161	0xbd480e1b	-0.048841577
162	0xbe23bd1e	-0.15990111
163	0xbdc266c7	-0.094922595
164	0xbd877bb1	-0.06615389
165	0xbe197bab	-0.14988582
166	0xbdcb6f33	-0.09933319
167	0xbe467b92	-0.19383076
168	0xbdd640c8	-0.10461575
169	0xbd864c65	-0.0655754
170	0x3d0487f7	0.03235623
171	0xbebf99cc	-0.37422025
172	0xbe735121	-0.23761417
173	0xbe8239f7	-0.2543485
174	0xbc90ee76	-0.017691832
175	0xbe8e6591	-0.27811864
176	0xbe3f9729	-0.18710007
177	0xbd5eafc1	-0.05436683
178	0xbd63a967	-0.055581477
179	0xbe25d15a	-0.16193143
180	0x3ced6966	0.028980922
181	0x3e007854	0.12545902
182	0xbe084a46	-0.13309583
183	0xbdf7758a	-0.12082966
184	0xbdde8604	-0.10865405
185	0xbd530bb2	-0.051524825
186	0x3d2897c3	0.041160356
187	0x3de6015c	0.11230728
188	0x3e342157	0.17590843
189	0xbd83a9c5	-0.06428865
190	0xbd934cb7	-0.071923666
191	0xbe5235fb	-0.20528404
192	0xbc94de90	-0.018172532
193	0xbeb553d8	-0.3541553
194	0x3de1e448	0.11029869
195	0x3da5dea1	0.08099104
196	0x3bf1aee5	0.0073755854
197	0xbe8fe87b	-0.28107056
198	0xbefaeef0	-0.4901042
199	0xbd7b87d2	-0.061408825
200	0x3d09f918	0.03368482
201	0xbd584835	-0.052803237
202	0xbe3a6585	-0.18202789
203	0x3db932d4	0.09042898
204	0xbd8e3fda	-0.069457725
205	0x3ce4ddd2	0.027937803
206	0x3df1a498	0.11798972
207	0xbdaf3538	-0.085550725
208	0xbd90e02b	-0.07074007
209	0xbcb68b49	-0.022283213
210	0xbe4d7b8d	-0.20066662
211	0xbd708bb1	-0.05872697
212	0xbca1bdf9	-0.019743906
213	0xbe4e55d8	-0.20149934
214	0xbdd35ab8	-0.103200376
215	0xbdba6581	-0.091013916
216	0xbda063ae	-0.078315124
217	0xbe861c09	-0.26193264
218	0x3d991ecd	0.07476578
219	0xbd4cd42c	-0.05000703
220	0xbe716614	-0.23574096
221	0xbeba1146	-0.36341304
222	0xbb9105e2	-0.00442575
223	0xbe560b67	-0.20902787
224	0xbe956eec	-0.2918619
225	0xbcf230fc	-0.029564373
226	0x3d975eb3	0.07391109
227	0x3d812aa0	0.06306958
228	0xbe41bccf	-0.18919681
229	0xbe0ba03b	-0.13635342
230	0x3d4af5ee	0.049550943
231	0xbe0998ef	-0.13437246
232	0xbda03014	-0.0782167
233	0x3d390c26	0.0451776
234	0xbe329a9e	-0.17441794
235	0xbe85f6e1	-0.26164916
236	0xbe85cfa2	-0.26134974
237	0x3da05d1a	0.07830258
238	0xbe1fa527	-0.15590344
239	0xbe3b21fe	-0.18274686
240	0x3bcea4eb	0.006306281
241	0x3d0551bd	0.032548655
242	0xbc017958	-0.007902466
243	0xbc0286e5	-0.007966732
244	0xbe1be3e7	-0.15223657
245	0xbe1275f8	-0.14302814
246	0xbe5f50ee	-0.21808216
247	0x3e26cc43	0.16288857
248	0xbda1efa7	-0.07907038
249	0xbdc82aa2	-0.097737566
250	0x3d47df90	0.04879719
251	0xbe6c01f1	-0.23047616
252	0x3abf910e	0.0014615373
253	0x3bc27ffe	0.005935668
254	0xbe480c05	-0.19535835
255	0xbe5593de	-0.20857188

output.weight f4 [4, 300]
0	0xbf3a6742	-0.7281381
1	0xbfa63b5a	-1.2986863
2	0xbfb17fe7	-1.3867158
3	0xbdfa3cfa	-0.122186616
4	0x3fc2bfc7	1.5214776
5	0x3f7ad116	0.9797529
6	0xbf3e640d	-0.74371415
7	0xbefc63b4	-0.49294817
8	0x3f9f0b77	1.2425374
9	0x3ff4fb96	1.9139278
10	0xbf0069ab	-0.50161237
11	0xbf08b853	-0.53406256
12	0x3eb2f32c	0.3495115
13	0xbf9b7543	-1.214516
14	0x3f8e9568	1.1139345
15	0xbf755cf4	-0.9584496
16	0xbfeaa3ee	-1.8331277
17	0x3dc6de32	0.09710349
18	0xbfaca3a1	-1.3487436
19	0x3f808141	1.0039445
20	0xbf804151	-1.0019933
21	0x3e7b0a52	0.24515656
22	0xbf0c624a	-0.5483748
23	0x3fbda52a	1.4816029
24	0x3e35f278	0.17768276
25	0xbed8fd71	-0.4238086
26	0x3fa40c71	1.2816297
27	0x3f0b5a23	0.5443441
28	0x3ff41ad3	1.9070686
29	0xbfead4c1	-1.8346177
30	0x3e8e1edb	0.27757916
31	0x3f813e12	1.0097067
32	0x3ee9624f	0.45582816
33	0xbf62ddf5	-0.8861993
34	0x3f309588	0.68978167
35	0x3fb71bd9	1.4305373
36	0xbf14dbe9	-0.58148056
37	0x3f5e7558	0.868978
38	0xbf84437c	-1.0333095
39	0xbe4f766e	-0.20260021
40	0xbf0f94ba	-0.56086314
41	0x3ebcb83c	0.3685931
42	0x3f5e32ea	0.8679644
43	0x3c7ce187	0.015434629
44	0x3f7e9469	0.99445206
45	0xbd00c1b1	-0.03143472
46	0x3e6d8d3e	0.23198411
47	0x3fbcaafa	1.4739678
48	0x3f8d8bb1	1.1058255
49	0x3fa4bfc3	1.2871021
50	0xbf5aad50	-0.85420704
51	0xbd3d09d8	-0.046151966
52	0xbfa05d84	-1.2528539
53	0xbdd7a0d1	-0.1052872
54	0xbdb4f25e	-0.0883529
55	0x3ea9a720	0.3313532
56	0x3d898930	0.067156196
57	0x3f475d6e	0.7787694
58	0xbfb09f94	-1.3798699
59	0x3edc0863	0.4297515
60	0xbe367d8e	-0.17821333
61	0x3e13f7db	0.14450018
62	0x4006f1b4	2.1085024
63	0xbedfeb14	-0.43734038
64	0xbe3b5a71	-0.1829622
65	0x3e9b9475	0.303867
66	0xbfd029c1	-1.6262742
67	0xbe725088	-0.23663533
68	0xbf249652	-0.6429187
69	0xbf0f55d3	-0.5599033
70	0xbf7f478f	-0.99718565
71	0xbea1f0c1	-0.31628993
72	0xbf0515fb	-0.51986665
73	0x3ee13d11	0.43991902
74	0x3f54bafc	0.83097816
75	0x3d9dd2b4	0.07706204
76	0x3fc949b4	1.5725617
77	0xbf6d7c03	-0.9276735
78	0xbf7ea68e	-0.9947289
79	0xbef68638	-0.48149276
80	0xbde37d40	-0.11107874
81	0x3f1e91f1	0.6194144
82	0xbe00f27f	-0.12592505
83	0xbf833bf8	-1.0252676
84	0x3f871b82	1.055527
85	0xbec88c6d	-0.39169636
86	0x3fc9aa46	1.5755088
87	0x3fc918d0	1.5710697
88	0xbe95fe02	-0.29295355
89	0xbece3e48	-0.40281892
90	0xbf4ae8c6	-0.79261434
91	0xbf2c5a2c	-0.6732509
92	0xbfcb0c56	-1.586314
93	0x3f4f03a9	0.8086496
94	0xbf04fe45	-0.51950485
95	0xbf8dde9a	-1.1083558
96	0xbf85f3f3	-1.0465072
97	0x3f06f5f9	0.52719074
98	0xbf2e95f0	-0.68197536
99	0x3dcccfc4	0.10000566
100	0xbfa4bacf	-1.286951
101	0xbfaa36ed	-1.3298012
102	0xbf84f21e	-1.0386388
103	0xbf0b1aea	-0.5433794
104	0xbe1f1b03	-0.15537648
105	0xbf193a40	-0.5985451
106	0x3e71811d	0.23584409
107	0x3ec5a564	0.38602746
108	0x3fce1a76	1.6101825
109	0x3e94c2bb	0.29054818
110	0xbdd8f927	-0.10594397
111	0x3e2b311f	0.16717957
112	0xbf7f87b5	-0.9981645
113	0x3f6ce2be	0.9253348
114	0x39b39437	0.0003425197
115	0xbf01a3f7	-0.50640815
116	0xbfd2d3f7	-1.6470937
117	0x3e3c3656	0.18380103
118	0x3eb5a517	0.35477516
119	0xbf7378d3	-0.9510624
120	0x3f02aed5	0.5104802
121	0xbec30402	-0.38088995
122	0xbf6e3fa8	-0.9306588
123	0x3e8443c5	0.25832954
124	0xbf8c7048	-1.0971766
125	0x3f082fa0	0.5319767
126	0xbe8e6a50	-0.27815485
127	0x3e99795c	0.29975402
128	0x3f1e8aea	0.61930716
129	0x3f0a7825	0.54089576
130	0xbf905baa	-1.1277974
131	0x3ee1a514	0.44071257
132	0xbfa4535d	-1.283794
133	0xbef75b8d	-0.48312035
134	0xbeff333f	-0.49843785
135	0x3f564464	0.83698106
136	0x3f9b1ec6	1.2118766
137	0xbf731bc3	-0.94964236
138	0xbfa71828	-1.3054247
139	0xbf95beff	-1.1698912
140	0x3ef08fea	0.46984798
141	0x3f7d1eff	0.9887542
142	0xbf49941a	-0.7874161
143	0x3d63b0c2	0.05558849
144	0x3f5a06d6	0.8516668
145	0x3ec3124f	0.38099906
146	0x3e100f35	0.14068301
147	0x3fdf10d3	1.7427009
148	0x3f18aa30	0.59634686
149	0xbf77fb67	-0.96867985
150	0x3e67c289	0.22632803
151	0x3f9a1d7a	1.2040246
152	0x3f8171a7	1.0112809
153	0x3f7a022b	0.9765956
154	0xbf58e310	-0.8472147
155	0x3f8ce150	1.100626
156	0x3fe169b2	1.7610381
157	0xbf329061	-0.69751555
158	0x3f903281	1.1265413
159	0x3f2b1005	0.6682132
160	0xbf632bec	-0.88738894
161	0x3eb96a1d	0.3621377
162	0xbed1711a	-0.40906602
163	0x3db22c2f	0.086998336
164	0x40020525	2.031564
165	0x3efc3f4a	0.49267036
166	0xbbb13b3f	-0.005408674
167	0xbf203094	-0.62574124
168	0x3f55f556	0.8357748
169	0xbe0f972b	-0.1402251
170	0xbf83ec00	-1.0306396
171	0xbe896a9e	-0.26839155
172	0x3f6e48f7	0.93080086
173	0xbea73507	-0.32657644
174	0xbf9ee500	-1.2413635
175	0xbee4aa2e	-0.44661087
176	0x3df6f17d	0.12057779
177	0xbe118aca	-0.142131
178	0xbf096189	-0.5366445
179	0xbf8a4d69	-1.0804874
180	0x3fc68393	1.5508903
181	0x3f54bcee	0.83100784
182	0xbe4ccfe7	-0.20001183
183	0x3e6244c3	0.22096543
184	0xbfa483f4	-1.2852769
185	0xbf99221c	-1.1963534
186	0x3f469477	0.7757029
187	0x3eaa683e	0.33282655
188	0xbef0ea15	-0.4705359
189	0x3f009e11	0.5024119
190	0x3e6c70fd	0.23089977
191	0xbe141a40	-0.14463139
192	0xbdf6b69f	-0.12046551
193	0x3fd9b33b	1.7007822
194	0x3de731ce	0.11288796
195	0xbfd0f5a0	-1.6324959
196	0x3e827390	0.25478792
197	0xbfa0fa8c	-1.2576461
198	0xbfab14a8	-1.3365679
199	0x3f722a5a	0.94595873
200	0x3ea82c56	0.32846326
201	0xbf062b33	-0.52409667
202	0x3eb02236	0.344011
203	0xbe5e01e1	-0.21680404
204	0x3fbdfadf	1.4842185
205	0x3f9fe945	1.2493063
206	0xbea4e748	-0.32207704
207	0xbe8e1021	-0.2774668
208	0xbf604dc9	-0.8761869
209	0x3f96853d	1.1759411
210	0xbe6fae0b	-0.23406236
211	0xbed60f5b	-0.4180859
212	0xbf2816a8	-0.6565957
213	0xbf8eac7f	-1.1146392
214	0x40018326	2.0236297
215	0xbe428ec8	-0.18999779
216	0xbf98a9be	-1.1926801
217	0xbfa7825d	-1.3086659
218	0x3f44865c	0.76767516
219	0xbf553c13	-0.8329479
220	0xbfc1c760	-1.513897
221	0xbf8d2ce9	-1.102933
222	0x3f7ecc83	0.9953081
223	0xbf8b1626	-1.0866134
224	0x3f386e00	0.72042847
225	0xbf745d85	-0.954552
226	0xbf9105cc	-1.1329894
227	0x3fbd7ea1	1.4804269
228	0x3f8fabd2	1.122431
229	0xbfd37fa1	-1.6523324
230	0x3f1dddf6	0.6166681
231	0xbfb85126	-1.4399765
232	0x3f7d35c0	0.9891014
233	0x3f92f658	1.1481428
234	0x3f68180c	0.9066169
235	0xbfdac0ad	-1.709005
236	0xbf831475	-1.0240618
237	0x3f74e764	0.95665574
238	0x3feb81ad	1.8398949
239	0x3e26f1eb	0.16303222
240	0x3fb171df	1.3862876
241	0x3f5649a2	0.83706105
242	0xbecbbb3a	-0.3979128
243	0x3e4c728e	0.19965574
244	0xbe79ae68	-0.24382937
245	0x3fea66dd	1.8312641
246	0xbfd078a9	-1.6286823
247	0x3fa73c3c	1.3065257
248	0x3e4742d1	0.19459082
249	0x3f83d8e9	1.0300571
250	0xbf2f1797	-0.6839537
251	0xbf5021e2	-0.813017
252	0x3f4133f7	0.7546992
253	0xbf1e8d88	-0.6193471
254	0xbd1348c6	-0.035958074
255	0xbf2511c7	-0.6448025

output.bias f4 [4]
0	0x3c6c1b8a	0.014410863
1	0xbd0d8da4	-0.034558907
2	0xbced0179	-0.028931366
3	0xbdcbf05b	-0.099579535
