Neural_networks/reacher_20_originalqvalue_target.pth (torch, 543903 bytes, 5 tensors)

hidden_layer_1.weight f4 [400, 33]
0	0xbe898c8e	-0.26865047
1	0x3c8f92b9	0.017526018
2	0xbdb30b6e	-0.087424144
3	0x3e9ab0a0	0.3021288
4	0x3e9e34bf	0.30899617
5	0x3dba7804	0.091049224
6	0x3eaf3b4f	0.34224936
7	0x3ac7ec76	0.0015252966
8	0xbcfab2c8	-0.030602828
9	0xbdb708e3	-0.08937242
10	0xbe4a8598	-0.19777524
11	0x3dc6c4b3	0.09705486
12	0xbd9cb207	-0.076511435
13	0x3d715487	0.058918502
14	0x3d929cc0	0.07158804
15	0xbd5a495f	-0.05329263
16	0xbf36deec	-0.714339
17	0xbddc34ca	-0.10752256
18	0x3e7d9624	0.24764305
19	0x3ec331d7	0.38123962
20	0x3c3da3d9	0.011574709
21	0xbd9522b8	-0.07282013
22	0x3da434da	0.08017893
23	0xbbf8f095	-0.007597039
24	0xbd4faffd	-0.050704945
25	0xbd8ccf3d	-0.06875465
26	0x3e1c4d2b	0.15263812
27	0x3eae22e2	0.34010988
28	0x3c8a81c0	0.016907573
29	0x3c9a7f76	0.018859606
30	0xbeb2520a	-0.34828216
31	0x3c7987e4	0.015230153
32	0xbfa4957f	-1.2858123
33	0x3d2da1cf	0.04239064
34	0xbe283922	-0.16428044
35	0xbdca2224	-0.09869793
36	0xbf2e9376	-0.6819376
37	0xbf2edb73	-0.683036
38	0x3f02a833	0.510379
39	0xbd89ba2d	-0.06724963
40	0x3d49622a	0.049165882
41	0x3ead5afa	0.33858472
42	0xbe5a9d49	-0.21349062
43	0x3da32a54	0.07967058
44	0x3d521016	0.051284872
45	0xbd4ded02	-0.050274856
46	0xbe0a115c	-0.13483185
47	0x3e2f9f8b	0.17150705
48	0x3c9804eb	0.018557033
49	0x3f9922ce	1.1963747
50	0xb99eea66	-0.0003031075
51	0xbf2d7fb9	-0.67773014
52	0x3e93f289	0.28895977
53	0xbd69751c	-0.05699645
54	0x3c8ed03a	0.017433275
55	0xbe026011	-0.12731959
56	0xbbad2429	-0.0052838516
57	0xbd2d8b40	-0.042369127
58	0x3d952d54	0.07284036
59	0x3d8350fa	0.064119294
60	0xbd2cbd2b	-0.042172592
61	0xbd768ec0	-0.06019473
62	0xbcb4bf50	-0.022063881
63	0x3c62cddf	0.013843029
64	0x3d40e6d5	0.04709514
65	0x3de57291	0.112034924
66	0xbdb761fb	-0.08954235
67	0x3e6ab97e	0.22922322
68	0x3e15bed8	0.14623582
69	0x3e094d33	0.13408355
70	0x3e0948ad	0.1340663
71	0x3cad45bd	0.021151418
72	0x3e50bf86	0.2038556
73	0x3e80b51b	0.25138173
74	0x3dd48206	0.103763625
75	0xbb9a7708	-0.0047138967
76	0x3c69619e	0.014244465
77	0x3db70012	0.0893556
78	0xbd912a88	-0.0708819
79	0xbd6d2c56	-0.05790361
80	0xbe507d9a	-0.20360413
81	0xbda70721	-0.081556566
82	0x3e2964c1	0.16542341
83	0xbf1162f7	-0.56791633
84	0xbee62b70	-0.44955015
85	0x3f555ccb	0.83344716
86	0xbe251b7d	-0.16123767
87	0x3b6d8855	0.003624459
88	0xbe5db860	-0.21652365
89	0xbcd37588	-0.02581288
90	0xb98c094b	-0.00026709805
91	0x3e12ff19	0.14355125
92	0xbb861a06	-0.0040924577
93	0x3eea1620	0.45720005
94	0xbdb7c0c3	-0.08972313
95	0x3c2334e8	0.009961344
96	0xbed481fb	-0.41505417
97	0xbd146230	-0.03622645
98	0xbe9d6516	-0.30741185
99	0xbdc1522d	-0.09439502
100	0xbd63dcf1	-0.055630628
101	0x3da466c1	0.08027411
102	0xbd82cab1	-0.063863166
103	0x3e9a9666	0.3019287
104	0x3f7ff628	0.9998498
105	0x3e049986	0.1294919
106	0xbd324524	-0.04352297
107	0xbe28a111	-0.16467692
108	0xbd84d94d	-0.06486759
109	0xbcb328e4	-0.021870084
110	0xbc9276d4	-0.017878927
111	0x3d3bd1c5	0.04585435
112	0xbd6545fe	-0.055974953
113	0x3d8e8c2b	0.06960329
114	0x3a8962db	0.0010481732
115	0x3dd37f77	0.10327046
116	0x3f1f081a	0.62121737
117	0xbf5aa27b	-0.85404176
118	0xbe067759	-0.13131465
119	0xbb2bfba3	-0.0026242516
120	0x3cab6477	0.020921929
121	0x3d6f3492	0.058399744
122	0x3dc27e30	0.094967246
123	0x3c503ce9	0.012709835
124	0x3cde85d3	0.027163422
125	0xbe08ec69	-0.13371433
126	0x3d7a0edb	0.061049324
127	0x3b8174c8	0.003950689
128	0xbc8a0289	-0.016846912
129	0x3bd9f6a9	0.0066517186
130	0xbc406c98	-0.011744641
131	0xbf95ad99	-1.1693603
132	0xbdeea035	-0.11651651
133	0x3e0c8dd1	0.13725974
134	0xbcab75cd	-0.020930195
135	0xbf3d3702	-0.7391206
136	0x3dac6c63	0.084191106
137	0xbe0d5243	-0.13800912
138	0x3e80666c	0.25078142
139	0x3c2daf60	0.010600895
140	0x3e2cd065	0.16876371
141	0x3dac8a42	0.08424808
142	0xbc9b4594	-0.018954076
143	0x3cad1862	0.02112979
144	0xbd559982	-0.05214835
145	0xbdb412b4	-0.0879263
146	0xbcf29358	-0.029611275
147	0xbdb8ecde	-0.09029554
148	0xbe8172d7	-0.25282928
149	0xbd8922a3	-0.066960596
150	0x3e29ac01	0.1656952
151	0x3ebfec8a	0.37485152
152	0x3c094931	0.008379267
153	0x3b999279	0.0046866504
154	0xbddd9e0d	-0.108211614
155	0x3c10af1c	0.008830812
156	0xbd526baa	-0.051372208
157	0xbd214781	-0.039374832
158	0x3e64fc4e	0.22361872
159	0xbc8217e3	-0.01588053
160	0x3e22c534	0.1589554
161	0x3c0fadac	0.008769434
162	0xbcbd67f3	-0.023120856
163	0xbc8c526c	-0.017129146
164	0x3fe4d30d	1.7876908
165	0xbdb0b674	-0.0862855
166	0x3d75828e	0.05993896
167	0xbdc93ee9	-0.09826452
168	0xbeb5a117	-0.35474464
169	0x3caeb5e9	0.021326976
170	0x3d37f3d6	0.044910274
171	0x3e62c61f	0.2214589
172	0xbe2761f9	-0.16345967
173	0xbd530e6e	-0.051527433
174	0x3d1b2721	0.037879113
175	0xbc02750f	-0.007962479
176	0x3e1a4e3a	0.15068904
177	0x3ce992aa	0.028512318
178	0x3e0395f1	0.12850167
179	0xbd610de3	-0.054944884
180	0x3d9dbf51	0.07702506
181	0x3e3f1aed	0.18662615
182	0xbed4d6d0	-0.4157014
183	0xbef60a4b	-0.48054728
184	0xbf119c5f	-0.5687923
185	0x3dd3762b	0.10325273
186	0x3da4d6d7	0.0804879
187	0x3b9cf518	0.0047899596
188	0x3de37eff	0.11108207
189	0xbc749105	-0.0149271535
190	0x3da9c879	0.0829019
191	0xbe27a5b4	-0.16371804
192	0x3ecfba1e	0.40571684
193	0xbcbe9d71	-0.023268433
194	0x3d1d04fd	0.038334835
195	0xbebe0e1d	-0.37120143
196	0x3d0c75fd	0.03429221
197	0xbe7e1cd0	-0.24815679
198	0xbea05037	-0.313112
199	0x3d88b3b1	0.066748984
200	0x3cc5bd8f	0.02413824
201	0xbf1a4ada	-0.60270464
202	0xbf2f4d9a	-0.68477786
203	0xbf01a45a	-0.50641406
204	0x3ed36f92	0.4129606
205	0xbe1ab3c3	-0.15107636
206	0xbe39cdef	-0.18144964
207	0x3b1bfcfe	0.0023801918
208	0xbe48be5a	-0.19603863
209	0x3b1c6531	0.0023864026
210	0xbd873314	-0.06601539
211	0xbc63aaf4	-0.013895739
212	0x3d943944	0.07237485
213	0x3d275ffe	0.04086303
214	0x3d3d7e90	0.046263278
215	0xbe48941f	-0.19587754
216	0xbe168622	-0.14699605
217	0xbdf59201	-0.11990739
218	0x3e411791	0.18856646
219	0x3d7d6916	0.061867796
220	0xbb52ce1e	-0.0032166312
221	0x3e05fbca	0.13084331
222	0xbe1e73c4	-0.15473849
223	0x3dad755b	0.084696494
224	0x3d9917fa	0.07475276
225	0x3ee26436	0.4421708
226	0xbe3f449c	-0.18678516
227	0x3c72d164	0.01482043
228	0xbebe2e1d	-0.37144557
229	0xbcdfcce7	-0.027319385
230	0x3f209f3a	0.6274296
231	0x3d828a1f	0.06374001
232	0x3dac4a56	0.08412616
233	0x3d236f88	0.039901286
234	0x3f282995	0.6568845
235	0x3ed51e17	0.4162452
236	0x3f0489d7	0.51772827
237	0x3ea0fd5c	0.31443298
238	0xbcf442a7	-0.029816939
239	0x3c1f3994	0.009718318
240	0x3e96f3e2	0.29482943
241	0xbdea52da	-0.11441584
242	0x3a73d94f	0.0009302096
243	0x3ce075ac	0.02739986
244	0xbd6d6b2f	-0.057963546
245	0xbc2d76e3	-0.010587427
246	0xbdbb0579	-0.09131903
247	0xbe964170	-0.293468
248	0xbe6c42d5	-0.2307237
249	0x3eb673e1	0.35635284
250	0xbf9119b8	-1.1335974
251	0x3d9b3c83	0.07579901
252	0xbdd2bd0b	-0.10289963
253	0x3d8681f0	0.06567752
254	0xbcfc173b	-0.030772796
255	0x3d522d88	0.051312953

hidden_layer_1.bias f4 [400]
0	0xbec9c78a	-0.3941005
1	0xbd2af6e8	-0.041739374
2	0xbe8c6647	-0.2742178
3	0xbc44d151	-0.012012796
4	0xbe249c4b	-0.16075246
5	0xbf0546e1	-0.5206128
6	0xbf0b299f	-0.54360384
7	0xbe662113	-0.22473554
8	0xbe29fabd	-0.16599555
9	0xbe3761f8	-0.17908466
10	0xbe61eaf3	-0.22062282
11	0xbe873e7b	-0.26414856
12	0xbe84a84a	-0.25909644
13	0xbda85701	-0.0821972
14	0xbec183e8	-0.3779595
15	0x3d4dfeb9	0.05029175
16	0xbd8a99ad	-0.067675926
17	0xbe3cc37c	-0.18433946
18	0xbe8730be	-0.26404375
19	0xbe8a2b6f	-0.26986262
20	0xbeabd829	-0.33563355
21	0xbe9afa73	-0.30269203
22	0xbe7c9c17	-0.24668919
23	0x3ef539f2	0.4789577
24	0xbe9ccd8f	-0.3062558
25	0xbe62e909	-0.22159208
26	0xbdc541d0	-0.09631693
27	0x3d12ca56	0.035837494
28	0xbe19bd2c	-0.1501357
29	0xbdfee1de	-0.124454245
30	0xbe7abd18	-0.24486196
31	0x3ce29a10	0.027661353
32	0xbe218efc	-0.157772
33	0xbf159a3f	-0.58438486
34	0xbe2b359f	-0.16719674
35	0xbe965215	-0.293595
36	0xbe534cb2	-0.20634726
37	0x3e250d8c	0.16118449
38	0xbe6250dd	-0.2210116
39	0xbe86ab12	-0.2630239
40	0x3f393716	0.7234968
41	0xbd9fc4f0	-0.07801235
42	0x3d452e2a	0.04813973
43	0x3d1f66a7	0.038916256
44	0xbdd07f69	-0.101805516
45	0xbe52bb3a	-0.20579234
46	0xbe18e097	-0.14929424
47	0xbdfb8406	-0.12281041
48	0x3dbfacae	0.09359108
49	0xbecec378	-0.40383506
50	0xbef97eff	-0.48729703
51	0xbece05d0	-0.4023881
52	0x3c24e9fd	0.010065553
53	0xbd956670	-0.07294929
54	0xbe866265	-0.26246944
55	0xbce53761	-0.027980508
56	0xbe61f98d	-0.22067852
57	0xbdcea40a	-0.10089882
58	0xbe850f80	-0.25988388
59	0xbe131052	-0.14361694
60	0xbea3842d	-0.3193678
61	0xbee116b1	-0.43962625
62	0x3e5acad4	0.21366435
63	0xbee5301e	-0.44763273
64	0xbe904748	-0.28179383
65	0xbea21f2c	-0.31664407
66	0xbe841c0a	-0.25802642
67	0xbea3db46	-0.3200323
68	0xbdcd2896	-0.10017507
69	0xbe9b2b17	-0.30306312
70	0xbd006bf3	-0.03135295
71	0xbe6bf987	-0.23044406
72	0xbdd8a044	-0.10577443
73	0xbee95e6f	-0.4557986
74	0xbe9530ae	-0.29138702
75	0xbc01b0e5	-0.00791571
76	0xbde50384	-0.11182311
77	0xbe280bcc	-0.1641075
78	0xbe247038	-0.16058433
79	0xbe0c86b2	-0.13723257
80	0xbef1f435	-0.47256628
81	0xbee1b9b4	-0.44086993
82	0xbf06c5ef	-0.5264577
83	0xbe6b9d18	-0.23009145
84	0xbe3ce12b	-0.1844527
85	0x3cf9712d	0.030449474
86	0x3d843ae8	0.06456548
87	0xbe8cd8ea	-0.27509242
88	0xbb49cab3	-0.0030790984
89	0xbe42ba95	-0.19016488
90	0xbd89d69a	-0.06730385
91	0xbe3b2e92	-0.18279484
92	0xbec076a5	-0.3759052
93	0xbd25a764	-0.04044284
94	0xbe4a684a	-0.19766346
95	0xbe052b7d	-0.1300487
96	0xbee4e50d	-0.44706002
97	0xbeb211cb	-0.347792
98	0xbe92de30	-0.2868514
99	0xbdd2845f	-0.10279154
100	0xbee7cceb	-0.45273528
101	0x3d961377	0.073279314
102	0xbaeb4506	-0.0017949648
103	0x3c8fb702	0.01754332
104	0xbe8bb5fa	-0.27287275
105	0xbeaa8ae9	-0.33309105
106	0xbde3d345	-0.11124281
107	0x3c55c467	0.013047314
108	0xbe77e5d0	-0.2420876
109	0xbef166cf	-0.4714875
110	0xbe783734	-0.24239808
111	0xbe499023	-0.1968389
112	0xbe1971d9	-0.14984836
113	0xbf0f2eae	-0.559306
114	0xbec4b808	-0.38421655
115	0x3e14abeb	0.14518707
116	0xbea0ff3c	-0.31444728
117	0xbee4259f	-0.44559953
118	0xbf0f3388	-0.55938005
119	0xbe7cf022	-0.24700978
120	0xbe946f48	-0.2899115
121	0xbe8e03bf	-0.27737233
122	0xbedb341d	-0.42813197
123	0x3d31102b	0.04322831
124	0xbedbaaa7	-0.42903635
125	0xbe119615	-0.14217408
126	0xbe267e0a	-0.16259018
127	0xbc0b6028	-0.008506812
128	0xbe779fef	-0.24182104
129	0xbe6b5e04	-0.22985083
130	0xbe6f22cc	-0.23353118
131	0xbdba5de8	-0.090999424
132	0xbe8658f9	-0.26239756
133	0xbe291fa2	-0.16515973
134	0xbeaaaabc	-0.33333385
135	0xbbea7f22	-0.0071562687
136	0xbf047d22	-0.5175344
137	0xbddc0b0e	-0.10744296
138	0xbe41eb2f	-0.18937372
139	0xbe219021	-0.15777637
140	0xbe959938	-0.2921846
141	0xbea5f6ff	-0.32415006
142	0xbea563e1	-0.32302764
143	0xbed06e6e	-0.4070925
144	0xbe9bde52	-0.30443054
145	0xbe82ed87	-0.25571844
146	0xbe0b7b1b	-0.1362118
147	0xbea443ec	-0.3208307
148	0xbdb55e3e	-0.08855866
149	0xbefea650	-0.4973626
150	0xbe42ea86	-0.19034776
151	0xbdc7ce69	-0.097561665
152	0xbecd4ad3	-0.4009615
153	0x3d12e2f7	0.03586098
154	0xbeae7eb0	-0.3408103
155	0xbe3dde48	-0.18541825
156	0xbe329692	-0.1744025
157	0xbe925a30	-0.28584433
158	0xbd5bbd66	-0.05364742
159	0xbd6f846f	-0.058475908
160	0x3ea96c76	0.33090562
161	0xbce3f14b	-0.027825018
162	0xbe9cc2bb	-0.30617318
163	0xbe5edbe8	-0.21763575
164	0xbec53f07	-0.3852465
165	0xbdd0c254	-0.10193315
166	0xbe2b2c24	-0.16716057
167	0xbe024543	-0.12721734
168	0xbe4d5815	-0.20053132
169	0xbe4431ab	-0.19159572
170	0xbe2312a4	-0.1592508
171	0xbeddda03	-0.43330392
172	0xbee7db63	-0.45284566
173	0xbeb50d7f	-0.3536186
174	0xbeb833c0	-0.35976982
175	0x3df241d0	0.11828959
176	0xbc4ea7ad	-0.012613219
177	0xbdea96f5	-0.11454574
178	0xbe35e6a2	-0.1776376
179	0x3d8cb23d	0.06869934
180	0xbe2e2b9d	-0.17008825
181	0xbe545c6a	-0.20738378
182	0xbe972996	-0.29523915
183	0xbeecd95e	-0.46259588
184	0xbdfe51b9	-0.12417931
185	0xbe8c1dc7	-0.27366468
186	0xbe68c4d0	-0.22731328
187	0xbe7017ca	-0.23446575
188	0xbd7c1e12	-0.061552115
189	0xbdde1e3a	-0.10845609
190	0xbe91b4a1	-0.2845812
191	0xbe092e5b	-0.1339659
192	0xbea00d52	-0.31260163
193	0x3d05f7e9	0.03270713
194	0xbc6a49df	-0.014299839
195	0xbead55d3	-0.3385454
196	0xbea82238	-0.32838607
197	0xbec87976	-0.39155167
198	0xbdf77807	-0.1208344
199	0xbe9b76d5	-0.303641
200	0xbe3a1225	-0.18170984
201	0xbeacad9f	-0.33726212
202	0xbea24396	-0.3169219
203	0xbec64ccb	-0.38730463
204	0xbe0ba4f8	-0.1363715
205	0x3d8d14c0	0.068887234
206	0xbca498f2	-0.020092461
207	0xbe93f81d	-0.28900233
208	0x3e459663	0.19295649
209	0xbd9aa1eb	-0.07550415
210	0xbe59cb76	-0.2126902
211	0xbea48187	-0.32130072
212	0xbe81be70	-0.25340605
213	0xbe641c1d	-0.2227635
214	0xbe5fcb81	-0.21854974
215	0xbe8e08b1	-0.27741006
216	0xbec7ae32	-0.39000088
217	0xbe1df3ca	-0.1542503
218	0xbe163f2a	-0.14672533
219	0xbe49b7e3	-0.19699053
220	0xbeab756d	-0.33488026
221	0xbee6cecb	-0.45079646
222	0xbeeae436	-0.45877236
223	0xbe0742e0	-0.13209105
224	0x3d6203ec	0.05517952
225	0xbee35e1f	-0.44407746
226	0xbeb3c753	-0.3511301
227	0xbe15828c	-0.14600581
228	0x3dd78a46	0.105244204
229	0xbe1bd170	-0.15216613
230	0xbe545420	-0.20735216
231	0xbe087e37	-0.13329397
232	0xbe8dbae7	-0.27681658
233	0xbeb36fa7	-0.3504612
234	0xbe9a7915	-0.30170503
235	0xbe5eed87	-0.21770297
236	0xbe62d666	-0.22152099
237	0xbedc5c99	-0.43039396
238	0xbe8a6e11	-0.270371
239	0xbeaaaf1f	-0.33336732
240	0xbecba03e	-0.39770693
241	0xbea2dd5e	-0.31809515
242	0xbd90f72a	-0.07078393
243	0xbdcc2d5e	-0.099695906
244	0xbe8cd047	-0.27502653
245	0xbf0f76cf	-0.5604066
246	0x3f364425	0.7119773
247	0xbdc613d1	-0.096717484
248	0xbecc312b	-0.39881262
249	0xbeb70673	-0.35747108
250	0xbe44e31e	-0.19227263
251	0xbda35461	-0.079750784
252	0xbdc3df0e	-0.09564029
253	0xbea1b595	-0.3158385
254	0x3d45e285	0.04831173
255	0xbeb44ef6	-0.35216492

hidden_layer_2.weight f4 [300, 404]
0	0xbee793f8	-0.4523008
1	0x3e157ffb	0.14599602
2	0x3d97163b	0.07377287
3	0xbe04a76b	-0.1295449
4	0xbe5125b5	-0.2042454
5	0xbdaee027	-0.085388474
6	0xbd2965cb	-0.041356843
7	0x3c82366a	0.015895087
8	0x3cb5509d	0.022133166
9	0xbb0fcb06	-0.002194108
10	0x3c52815d	0.012848225
11	0xbeb00909	-0.34381893
12	0xbe5213fe	-0.20515439
13	0xbea73732	-0.32659298
14	0x3e8a25b1	0.2698188
15	0x3d2cf3f6	0.042224847
16	0xbda6a2c0	-0.08136511
17	0x3deb742a	0.11496766
18	0x3bce436a	0.0062946575
19	0x3e19f49d	0.15034719
20	0xbdcb7c77	-0.09935849
21	0xbe8caa3a	-0.27473623
22	0xbc8d7944	-0.017269738
23	0x3d088b88	0.033336192
24	0xbe8829df	-0.26594445
25	0xbeab6585	-0.3347589
26	0xbe695919	-0.22787894
27	0xbd94a152	-0.07257332
28	0xbe2f5940	-0.1712389
29	0xbc86e98e	-0.01646879
30	0xbb858de5	-0.004075753
31	0x3d0c5c1a	0.034267522
32	0xbeab7524	-0.3348781
33	0xbe6286fc	-0.22121805
34	0xbecf25fb	-0.40458664
35	0x3d431419	0.04762659
36	0x3e0c4892	0.13699558
37	0xbc22c676	-0.009935012
38	0xbeefe8ce	-0.46857303
39	0x3cfb56a0	0.030680954
40	0xbca1cc74	-0.019750811
41	0xbe1ca808	-0.15298474
42	0xbdde25df	-0.10847067
43	0xbe3cce9c	-0.1843819
44	0x3c5213fd	0.012822148
45	0x3de6efe6	0.11276226
46	0xbd3ef17e	-0.046617024
47	0xbd120940	-0.035653353
48	0x3c28e0fa	0.010307545
49	0xbc382eff	-0.0112416735
50	0xbf0d5a04	-0.5521548
51	0xbe7255e8	-0.23665583
52	0xbddade05	-0.10686878
53	0xbe8b90fa	-0.27259046
54	0x3d8b4aa9	0.0680135
55	0xbe2bea55	-0.1678861
56	0xbe08220f	-0.13294242
57	0x3e50f2ec	0.20405167
58	0x3dd311e6	0.10306148
59	0xbe110387	-0.14161502
60	0xbe418990	-0.18900132
61	0xbedbc866	-0.4292633
62	0xbc81925a	-0.015816856
63	0x3e6d6c15	0.23185761
64	0xbd91ea00	-0.0712471
65	0x3d8b8542	0.06812526
66	0xbdb3c9fc	-0.0877876
67	0x3d3c26a3	0.045935284
68	0x3daafc0d	0.08348856
69	0xbeb65656	-0.35612744
70	0xbcce6693	-0.025195396
71	0xbd8900b8	-0.0668959
72	0xbd2dceb7	-0.042433467
73	0xbdb7e0df	-0.08978438
74	0xbeb82eff	-0.35973355
75	0xbd2f93d9	-0.042865608
76	0x3d1d2cd8	0.038372844
77	0xbe1ed6a3	-0.15511565
78	0xbe4974ed	-0.1967351
79	0xbe2f499f	-0.17117928
80	0x3d695919	0.056969736
81	0xbe286bcb	-0.1644737
82	0xbe1d4c19	-0.1536106
83	0xbe2166e5	-0.15761907
84	0x3c678457	0.014130673
85	0xbe1ce688	-0.15322316
86	0xbe3f1c75	-0.18663199
87	0x3d872426	0.06598692
88	0xbe2ca1ed	-0.16858645
89	0xbed2ead5	-0.41194788
90	0xbe080a9e	-0.132853
91	0x3d8b46c2	0.06800605
92	0xbcac2106	-0.02101184
93	0xbdd538b0	-0.10411203
94	0xbe74e243	-0.23914437
95	0x3dfb1c07	0.12261205
96	0xbd1e1739	-0.038596366
97	0xbe249367	-0.16071855
98	0xbe84de1d	-0.2595071
99	0x3a50c7f5	0.0007964366
100	0xbe9ea7c2	-0.30987364
101	0xbd412fb8	-0.04716465
102	0xbe375c0e	-0.1790621
103	0xbe71cd30	-0.23613429
104	0xbe3b7ac3	-0.18308549
105	0xbe2cec25	-0.16886957
106	0x3d0a1610	0.033712447
107	0xbda0900b	-0.07839974
108	0xbe41fec0	-0.18944836
109	0xbe7328d9	-0.23746051
110	0x3e5f27b1	0.21792485
111	0x3e090887	0.13382159
112	0x3c928640	0.017886281
113	0xbec3bff9	-0.382324
114	0xbdfcba19	-0.12340183
115	0x3ea85843	0.32879838
116	0xbdb95bc9	-0.0905071
117	0x3d6df0e4	0.05809106
118	0xbde2fc2b	-0.110832535
119	0x3d880a9f	0.06642651
120	0x3e3c8c34	0.18412858
121	0xbe3e7c4d	-0.18602104
122	0xbec25c7f	-0.37961194
123	0x3c74ab92	0.014933484
124	0xbd8255aa	-0.063639954
125	0x3d93da19	0.07219333
126	0x3df87c26	0.121330544
127	0xbe9a13df	-0.30093285
128	0xbe2ce83e	-0.16885468
129	0xbe9652eb	-0.29360136
130	0xbcaf8051	-0.02142349
131	0xbdf3387a	-0.118760064
132	0xbe5db0b0	-0.21649432
133	0xbe6d1df5	-0.23155959
134	0xbd96628a	-0.073430136
135	0xbd0ff9e6	-0.03515043
136	0xbe516c05	-0.20451362
137	0xbdced7db	-0.10099765
138	0xbdcb41e0	-0.09924674
139	0xbd11a3af	-0.03555649
140	0x3bf8224d	0.0075724483
141	0xbda19d94	-0.07891384
142	0xbe46aa14	-0.19400817
143	0xbe989cdd	-0.29807177
144	0xbdc28779	-0.094984956
145	0xbe3cfd7c	-0.18456072
146	0xbe811d28	-0.25217557
147	0xbe28f09b	-0.16498034
148	0x3e004e21	0.12529804
149	0xbebbb943	-0.3666478
150	0x3e7f1793	0.24911337
151	0xbf0a96f9	-0.54136616
152	0xbe4ef333	-0.2020996
153	0xbd25a0f0	-0.040436685
154	0xbcecef14	-0.028922595
155	0x3e11558f	0.14192794
156	0xbde17d5b	-0.11010238
157	0x3bf1291f	0.0073596383
158	0xbe8dbf93	-0.27685222
159	0xbe6ecba6	-0.23319873
160	0xba1587ca	-0.0005704133
161	0xbddf9511	-0.10917104
162	0xbde198b2	-0.110154524
163	0x3d2b907c	0.041885838
164	0xbe79faf7	-0.24412142
165	0x3cfbd789	0.030742424
166	0xbda7528a	-0.0817004
167	0xbeef8b0f	-0.4678578
168	0x3d19ba06	0.03753092
169	0x3e67e9e7	0.2264782
170	0x3e101925	0.14072092
171	0xbdc20a78	-0.09474653
172	0xbd7b7db1	-0.061399166
173	0xbe2bdab5	-0.16782649
174	0x3d35a2a5	0.044344563
175	0xbe99602d	-0.2995619
176	0x3e2ce456	0.16883978
177	0xbe5a2a55	-0.21305211
178	0xbd9e0f6a	-0.07717784
179	0x3d263949	0.040581975
180	0xbe8a299a	-0.26984864
181	0x3dc611bb	0.096713506
182	0x3e003e80	0.12523842
183	0xbe826933	-0.25470886
184	0x3dc71f45	0.09722761
185	0xbeb16c82	-0.34653097
186	0xbe848c14	-0.2588812
187	0xbe80186b	-0.2501863
188	0xbca0789b	-0.01958876
189	0xbed119fd	-0.4084014
190	0xbdf12920	-0.11775422
191	0xbe9c9868	-0.30585027
192	0xbc15ed5a	-0.009150827
193	0x3dcde992	0.100543156
194	0xbe0af0d1	-0.13568427
195	0x3d9178b6	0.07103102
196	0xbd263561	-0.04057825
197	0xbe2fca89	-0.17167105
198	0xbdb1ce2b	-0.086819015
199	0xbd2a57fb	-0.04158781
200	0x3d1d86b1	0.03845853
201	0x3da75a59	0.08171529
202	0x3d48e466	0.049045943
203	0xbdcb5950	-0.099291444
204	0x3e49bf27	0.19701825
205	0x3e7b1fef	0.245239
206	0xbe855f04	-0.26049054
207	0xbda19d95	-0.078913845
208	0x3cff13ab	0.031137308
209	0xbc44fc62	-0.012023063
210	0xbd85ad25	-0.06527165
211	0xbe887be7	-0.2665703
212	0x3e9295df	0.28629968
213	0xbe1cb7a9	-0.15304436
214	0x3d0bb421	0.03410733
215	0x3bac4fe6	0.005258548
216	0xbcc48f02	-0.023993973
217	0xbd4e85d3	-0.050420593
218	0xbeae5388	-0.34048104
219	0x3d5f5a79	0.05452964
220	0xbe0b892a	-0.13626543
221	0xbebddc25	-0.3708202
222	0xbc1e78e2	-0.009672375
223	0xbe741721	-0.23836948
224	0xbebcfd7c	-0.36912143
225	0xbc22f16e	-0.009945257
226	0x3d236a85	0.039896507
227	0x3e10bd37	0.1413468
228	0xbeea919a	-0.4581421
229	0xbda1dffd	-0.079040505
230	0xbde78457	-0.11304539
231	0xbdce2bfa	-0.100669816
232	0x3c57403a	0.013137871
233	0xbc906746	-0.01762737
234	0xbddebe38	-0.10876125
235	0x3d3ff736	0.046866618
236	0xbd3dad45	-0.04630782
237	0xbd834bc2	-0.06410934
238	0xbf0df644	-0.55453897
239	0xbde3986c	-0.111130565
240	0x3d7ddb2a	0.06197659
241	0xbe5c5cd5	-0.21519788
242	0xbcc9e636	-0.024645906
243	0x3d0203a1	0.031741742
244	0xbe91f1d0	-0.285048
245	0xbe1b060e	-0.15139028
246	0x3d5b4396	0.05353125
247	0xbe63792b	-0.2221419
248	0xbe890887	-0.26764318
249	0xbece242a	-0.40261966
250	0x3ef21768	0.47283483
251	0xbe22e1cd	-0.15906449
252	0xbd5e6460	-0.054294944
253	0xbec09b46	-0.37618464
254	0xbe207c84	-0.15672499
255	0xbe694979	-0.22781934

hidden_layer_2.bias f4 [300]
0	0xbcc96d1d	-0.024588162
1	0x3f16c579	0.5889507
2	0xbd978db4	-0.074000746
3	0x3f05a8bb	0.5221059
4	0xbddcce1e	-0.10781501
5	0x3d3af5f1	0.045644704
6	0x3ecba065	0.3977081
7	0xbd9eea2a	-0.07759507
8	0xbd69beaa	-0.057066597
9	0x3b271fc1	0.0025501105
10	0xbd8c1d9b	-0.06841584
11	0x3ef93ee2	0.48680788
12	0xbc8e6f5d	-0.017387087
13	0x3eee55ae	0.46549743
14	0xbd8d6e60	-0.06905818
15	0x3e41cc45	0.18925579
16	0xbd90153e	-0.070353016
17	0x3ea56319	0.32302168
18	0xbe18e716	-0.14931902
19	0xbe08b298	-0.13349378
20	0xbc9e4232	-0.019318674
21	0xbd3905d9	-0.045171592
22	0xbcd3d91f	-0.025860367
23	0x3e881eec	0.26586092
24	0xbe315512	-0.17317608
25	0xbc151616	-0.009099504
26	0xbf03fb2a	-0.5155512
27	0xbdae8a38	-0.08522457
28	0x3f0b2dfc	0.5436704
29	0xbd0320cb	-0.032013696
30	0x3f0cedec	0.5505054
31	0x3e6a63a6	0.22889575
32	0x3ef2e7dd	0.47442523
33	0x3ec6d76c	0.3883623
34	0xbd2b231d	-0.041781534
35	0x3f4e4db3	0.8058731
36	0x3ecfb2fd	0.40566245
37	0x3f21dc7b	0.6322705
38	0x3f8862c3	1.065514
39	0xbd8e119c	-0.069369525
40	0xbda68381	-0.08130551
41	0x3f0e03d4	0.5547459
42	0xbce13edb	-0.027495792
43	0x3f030aad	0.51188165
44	0xbe16d3d4	-0.14729244
45	0x3ed2fb62	0.41207415
46	0x3ec50554	0.38480628
47	0x3f141ab2	0.57853234
48	0x3d448f01	0.04798794
49	0x3ed8200b	0.42211947
50	0x3ed7a9d1	0.42121747
51	0x3e954fb0	0.2916236
52	0x3f051218	0.51980734
53	0x3ef4180f	0.47674605
54	0x3ed9e4b3	0.42557296
55	0x3f804161	1.0019952
56	0xbcf1fc11	-0.02953914
57	0x3f9cc4ae	1.2247522
58	0xbdac730e	-0.084203824
59	0x3ea886f0	0.3291545
60	0x3e54c8f3	0.20779781
61	0xbe039214	-0.12848693
62	0xbcd509d0	-0.026005656
63	0x3e4c1ca0	0.19932795
64	0x3f09383f	0.5360145
65	0x3ede8180	0.43458176
66	0xbd7d0452	-0.0617717
67	0x3e5ca57c	0.21547502
68	0x3f0b0ade	0.54313457
69	0xbdb86d80	-0.090052605
70	0x3e77b4a8	0.24190009
71	0xbf1c7158	-0.6111045
72	0xbdda6105	-0.10663036
73	0x3ed9bafb	0.42525467
74	0x3e8c0d2f	0.27353808
75	0x3e92d9ca	0.28681785
76	0xbe27b04a	-0.16375843
77	0x3ea76f40	0.32702065
78	0xbdfb8910	-0.12282002
79	0x3f1a141b	0.6018693
80	0x3ec11320	0.37709904
81	0xbdd4ded8	-0.103940666
82	0xbd9852a5	-0.07437638
83	0x3ecaf609	0.39640835
84	0xbd6daa95	-0.058024008
85	0x3ee3ee4a	0.44517738
86	0xbdb91961	-0.09038044
87	0x3ee87244	0.45399678
88	0x3ee1026f	0.4394717
89	0x3e7a59b9	0.24448289
90	0xbdf0db00	-0.11760521
91	0x3f26389c	0.6493013
92	0xbcfe3cd3	-0.031034863
93	0x3e9384a2	0.28812128
94	0x3e28ff2e	0.16503593
95	0xbb925b48	-0.004466448
96	0x3ea22eae	0.3167624
97	0x3f129b6f	0.5726842
98	0x3e61ea8f	0.22062133
99	0xbe2742ea	-0.1633412
100	0xbd7a3d60	-0.061093688
101	0xbf16bf93	-0.5888607
102	0xbd840b2c	-0.06447443
103	0xbd13b6f1	-0.03606314
104	0x3e92084c	0.28521955
105	0xbe32f70c	-0.17477053
106	0xbc28739b	-0.010281469
107	0x3eb59d10	0.35471392
108	0xbe49bb3f	-0.19700335
109	0x3edeefa7	0.43542215
110	0x3c14f741	0.009092153
111	0xbce9802a	-0.028503496
112	0xbdde4cf0	-0.108545184
113	0xbd1b5048	-0.03791836
114	0x3cc31030	0.02381143
115	0xbd7bf6c9	-0.06151465
116	0xbd914207	-0.07092672
117	0xbdb47dad	-0.08813033
118	0x3ef72c82	0.48276144
119	0x3f27fd27	0.65620655
120	0xbd8bc3c2	-0.06824447
121	0xbda43d77	-0.08019536
122	0x3eedb184	0.46424496
123	0xbda61a09	-0.081104346
124	0x3ef7b5d8	0.48380923
125	0x3f077b87	0.5292286
126	0x3c2d3a46	0.0105729755
127	0x3ed601c6	0.41798228
128	0x3e271bd8	0.16319215
129	0xbe4ec453	-0.20192079
130	0xbd868016	-0.06567399
131	0xbc6cc41c	-0.014451053
132	0x3e4588fd	0.19290538
133	0x3ea35d04	0.31906903
134	0x3eca9614	0.39567626
135	0xbe04035c	-0.12891906
136	0xbd8708ce	-0.06593476
137	0xbd4202df	-0.04736602
138	0x3e546b10	0.20743966
139	0x3ec5a030	0.38598776
140	0x3f38202d	0.71924096
141	0xbd452b43	-0.04813696
142	0xbe312e02	-0.17302707
143	0x3ed49926	0.41523093
144	0x3e94abd6	0.2903735
145	0x3f3e8e8a	0.7443625
146	0x3f39c9cb	0.72573537
147	0x3b3f8a28	0.0029226635
148	0xbda43d77	-0.08019536
149	0xbdaff969	-0.08592493
150	0x3ed0d4aa	0.4078725
151	0xbf3a80a6	-0.7285255
152	0xbbe770d0	-0.007063009
153	0xbd47a7fd	-0.04874419
154	0x3e7c6e06	0.24651346
155	0x3e57f3f6	0.21089157
156	0x3e530656	0.20607886
157	0xbd650650	-0.055914223
158	0x3f1d38f8	0.6141505
159	0x3dae9599	0.08524627
160	0x3ef63b0f	0.48091933
161	0x3e0ee5e0	0.13954878
162	0x3f02a17b	0.5102765
163	0x3e5e4377	0.21705423
164	0xbb5d1857	-0.0033736432
165	0xbe05b10d	-0.13055821
166	0xbeff4644	-0.49858296
167	0x3e55471d	0.20827909
168	0x3ec14ed1	0.37755445
169	0x3cb5e50d	0.022203946
170	0x3ea24c49	0.31698826
171	0x3bf3b579	0.0074374047
172	0x3eed8403	0.4638978
173	0xbddc35c6	-0.10752444
174	0xbd13f959	-0.03612647
175	0x3e866e56	0.26256055
176	0x3f02dfc9	0.5112272
177	0xbc10d88f	-0.008840694
178	0x3ef10288	0.47072244
179	0x3d1fc4ea	0.03900615
180	0xbde3dad5	-0.11125723
181	0xbdc8c526	-0.09803228
182	0xbdcdf932	-0.10057296
183	0x3da2458c	0.07923421
184	0x3e9fe7ad	0.31231442
185	0x3ebd711a	0.37000352
186	0xbc2988f4	-0.010347594
187	0x3ed3253a	0.4123934
188	0x3e8e5b8a	0.27804214
189	0xbdc221e8	-0.09479123
190	0x3eb0dc3b	0.34543023
191	0x3e7d60aa	0.24743906
192	0x3ecab6ab	0.3959249
193	0xbda46a69	-0.080281086
194	0x3ea6c4a6	0.32571906
195	0x3eb33a28	0.35005307
196	0x3ec70da0	0.38877583
197	0x3ed829d5	0.42219415
198	0xbe163f63	-0.14672618
199	0x3e125f2f	0.14294122
200	0xbdbe5155	-0.092928566
201	0x3e1e0ac4	0.15433794
202	0xbe0b5a4a	-0.13608661
203	0xbea333d6	-0.31875485
204	0x3f1372df	0.57597154
205	0x3f2032dc	0.62577605
206	0x3e540782	0.20705989
207	0x3f581a43	0.8441507
208	0x3eb18909	0.34674862
209	0x3eb4cbfb	0.35311875
210	0x3e5d024c	0.21582907
211	0x3f02f7b1	0.511592
212	0x3e8bcb7e	0.2730369
213	0x3f2358a9	0.6380716
214	0x3eab3ecc	0.33446348
215	0xbd984305	-0.07434658
216	0xb9fd7d6a	-0.0004834936
217	0x3e9fad43	0.31186876
218	0xbc82c30b	-0.015962144
219	0x3f4e9187	0.8069081
220	0xbe19fc6e	-0.150377
221	0xbe030573	-0.12795047
222	0xbece7e03	-0.40330514
223	0xbd5e2daf	-0.054242786
224	0x3d4d2641	0.05008531
225	0x3eb7db3e	0.35909456
226	0x3ef62c02	0.4808045
227	0xbf03f4f1	-0.51545626
228	0x3f1e70bc	0.6189077
229	0x3d7a50e7	0.06111231
230	0xba86e5a6	-0.0010291829
231	0x3e9d04b7	0.3066766
232	0x3ec4cd9b	0.38438115
233	0x3eb2aad9	0.3489597
234	0x3f04dcad	0.51899225
235	0xbd0660d6	-0.032807194
236	0x3efc70fc	0.4930495
237	0xbe048c14	-0.1294406
238	0x3d04f974	0.03246446
239	0xbd803a99	-0.062611766
240	0xbd9c03f8	-0.076179445
241	0x3efb6c09	0.49105862
242	0x3f12ca56	0.5733999
243	0xbe0d755c	-0.138143
244	0xbdb96a0c	-0.0905343
245	0x3ecec8a6	0.40387458
246	0xbf3ee0e5	-0.7456191
247	0xbf359ede	-0.7094554
248	0xbe0468ec	-0.1293065
249	0x3f065cea	0.52485526
250	0xbe43b05a	-0.19110242
251	0xbe85dfed	-0.26147404
252	0x3ebb2782	0.3655358
253	0x3d98c3ec	0.07459244
254	0xbd628ae4	-0.055308238
255	0x3e99f192	0.30067116

output.weight f4 [1, 300]
0	0xbf2402de	-0.64066875
1	0x3e110d28	0.14165175
2	0xbc9f75ce	-0.019465353
3	0x3db4ead4	0.088338524
4	0xbf1a42bf	-0.60258096
5	0xbf123fef	-0.57128805
6	0x3db75a23	0.08952739
7	0xbf3c2a8b	-0.73502415
8	0xbf225cfc	-0.6342313
9	0xbefc1608	-0.49235559
10	0xbf6551d5	-0.8957799
11	0x3e61c78e	0.2204878
12	0xbf0cc97a	-0.5499493
13	0x3daf3d29	0.08556587
14	0xbf377766	-0.7166656
15	0x3d412188	0.04715112
16	0xbf22bea5	-0.6357215
17	0x3de5934c	0.11209735
18	0xbf268768	-0.65050364
19	0xbefaf10f	-0.49012038
20	0xbf2fc2b8	-0.6865649
21	0xbf396b68	-0.72429514
22	0xbf06aef5	-0.52610713
23	0x3db4ebe9	0.08834059
24	0xbf25897f	-0.6466293
25	0xbcafad7a	-0.021445025
26	0xbd05ada3	-0.032636296
27	0xbf299c7b	-0.66254395
28	0x3df099f3	0.117481135
29	0xbe949d6a	-0.29026347
30	0x3cdf068a	0.027224798
31	0x3d5545d0	0.05206853
32	0x3dbb5ca2	0.09148528
33	0x3d93d44b	0.07218226
34	0xbf28aa4a	-0.6588484
35	0x3da675ca	0.08127935
36	0x3dd4540b	0.103675924
37	0x3d75684c	0.05991392
38	0x3e1c3698	0.15255201
39	0xbf13af20	-0.57689095
40	0xbf3ee5c5	-0.7456935
41	0x3df385b9	0.1189074
42	0xbf268f38	-0.65062284
43	0x3d8fcb95	0.07021252
44	0xbed28545	-0.41117302
45	0x3dc56f67	0.09640389
46	0x3e0be44d	0.13661309
47	0x3daa4498	0.083138645
48	0xbf35b62d	-0.70981103
49	0x3e0bf4d9	0.1366762
50	0x3de9faa8	0.11424762
51	0x3deef521	0.116678484
52	0x3d62076f	0.05518287
53	0x3e8ce550	0.27518702
54	0x3e2d1fd5	0.16906674
55	0x3def48dd	0.116838194
56	0xbf03ff73	-0.5156166
57	0x3e0b2493	0.1358817
58	0xbf51e905	-0.81996185
59	0x3e04d6dc	0.12972587
60	0x3d78c94b	0.060738843
61	0xbf01f401	-0.50762945
62	0xbf1a17c6	-0.60192525
63	0x3ea2264c	0.31669843
64	0x3dbc2541	0.09186793
65	0x3dc05fc3	0.09393265
66	0xbf2d077d	-0.6758955
67	0x3e6f9374	0.23396093
68	0x3e6618ae	0.22470352
69	0xbf1fad7a	-0.6237408
70	0x3de54498	0.11194724
71	0xbf03efd3	-0.5153782
72	0xbf09c7f0	-0.53820705
73	0x3db6ff9e	0.08935474
74	0x3e18b1cf	0.14911579
75	0x3e9b8867	0.30377504
76	0xbed24e95	-0.41075578
77	0x3cc8c4af	0.024507849
78	0xbecdba49	-0.40181187
79	0x3dd03204	0.1016579
80	0x3e985fad	0.29760495
81	0xbf26be18	-0.6513381
82	0xbf23c45e	-0.6397151
83	0x3d9e64db	0.077340804
84	0xbf04af3b	-0.5182988
85	0x3da4b57e	0.080424294
86	0xbf5bc47d	-0.8584669
87	0x3d73808b	0.05944876
88	0x3e0a5cc8	0.13511956
89	0x3d18e40c	0.037326857
90	0xbf168d83	-0.5880968
91	0x3d190774	0.037360623
92	0xbf2f228f	-0.6841211
93	0x3d8a1a03	0.067432426
94	0x3e293785	0.16525085
95	0xbf448b19	-0.76774746
96	0x3da64a42	0.08119632
97	0x3dabdedb	0.08392116
98	0x3e114622	0.1418691
99	0xbf7ae16f	-0.98000234
100	0xbf178f53	-0.5920307
101	0xbe0f07ab	-0.13967769
102	0xbf2848a1	-0.6573582
103	0xbf3358b3	-0.7005722
104	0x3dce1a88	0.10063654
105	0xbf243d76	-0.6415628
106	0xbf329562	-0.6975919
107	0x3db28654	0.08717027
108	0xbee7883f	-0.45221135
109	0x3dd8b4e0	0.10581374
110	0xbf43bffa	-0.7646481
111	0xbf4bca97	-0.79606
112	0xbf084d07	-0.53242534
113	0xbf1bc577	-0.6084818
114	0xbf4dd221	-0.80398756
115	0xbf35e50d	-0.7105263
116	0xbf41a8cf	-0.75648206
117	0xbf12016f	-0.5703344
118	0x3e3879c9	0.18015207
119	0x3e616959	0.22012843
120	0xbf363715	-0.711778
121	0xbf37dcf7	-0.7182154
122	0x3d794f91	0.060866896
123	0xbf39f808	-0.7264409
124	0x3dd80ec8	0.10549694
125	0x3c9c127f	0.019051788
126	0xbf178783	-0.5919115
127	0x3e829f20	0.25512028
128	0x3f1c36bf	0.61021036
129	0xbecb6cd7	-0.39731476
130	0xbf206513	-0.62654227
131	0xbf3c0b4a	-0.73454726
132	0x3e07efde	0.13275096
133	0x3d2b8201	0.04187203
134	0x3e0ea14b	0.13928716
135	0xbf4c8a00	-0.7989807
136	0xbf6b7042	-0.91968167
137	0xbf031797	-0.5120787
138	0x3d70ce44	0.05879046
139	0x3d9d5c78	0.07683653
140	0x3dea497d	0.11439798
141	0xbf2c76f5	-0.67369014
142	0xbf382eff	-0.7194671
143	0x3d951a80	0.07280445
144	0x3e9839ef	0.297317
145	0x3e1b2644	0.15151316
146	0x3d770e50	0.060316384
147	0xbef367b6	-0.47540063
148	0xbed586d0	-0.41704416
149	0xbf2eb917	-0.68251175
150	0x3e11216e	0.14172909
151	0xbe91b158	-0.28455615
152	0xbf18d774	-0.59703755
153	0xbf223dbc	-0.6337545
154	0x3db5d7f6	0.08879082
155	0x3d658274	0.056032613
156	0x3e258453	0.16163759
157	0xbf2dd8d1	-0.6790896
158	0x3e455ac7	0.1927291
159	0xbd04d3c5	-0.03242852
160	0x3d73a073	0.05947919
161	0x3db11729	0.086469956
162	0x3d8e86f8	0.06959337
163	0x3e564aab	0.20926921
164	0xbf0f32ac	-0.55936694
165	0xbf115d5e	-0.5678309
166	0xbe0cf51e	-0.1376538
167	0x3da3d639	0.07999844
168	0x3db74eeb	0.08950599
169	0xbf733c61	-0.95014006
170	0x3d8d3615	0.06895081
171	0xbf3525a4	-0.7076056
172	0x3e2ac1a2	0.16675428
173	0xbf60b621	-0.87777907
174	0xbf49fda6	-0.7890266
175	0x3db1a517	0.086740665
176	0x3d344cc1	0.04401851
177	0xbf0fbf4d	-0.56151277
178	0x3e5df76b	0.21676414
179	0xbf03c0f3	-0.5146629
180	0xbf1170e6	-0.56812894
181	0xbf32b88a	-0.69812834
182	0xbf0f4a1c	-0.55972457
183	0x3f31d212	0.69461167
184	0x3d985371	0.0743779
185	0x3d8d2d0f	0.0689336
186	0xbf120d27	-0.5705132
187	0x3e155e34	0.14586717
188	0x3ddcf847	0.10789543
189	0xbf166672	-0.5875007
190	0x3e76885a	0.24075451
191	0x3d8e6895	0.06953541
192	0x3cb91d4a	0.022596974
193	0xbe97fefa	-0.2968672
194	0x3d43a3c9	0.04776362
195	0x3d8925e7	0.066966824
196	0x3e09cb12	0.13456371
197	0x3d64f07e	0.055893414
198	0xbf069f55	-0.5258687
199	0x3f14a539	0.5806461
200	0xbf323f72	-0.6962806
201	0x3e5f893e	0.21829697
202	0xbf22c28d	-0.6357811
203	0xbef5e7fb	-0.4802855
204	0x3db4789a	0.088120654
205	0x3df6d7f4	0.120529085
206	0x3e5269b4	0.20548135
207	0x3de21354	0.11038843
208	0x3d9f6774	0.07783404
209	0x3da8c498	0.08240622
210	0x3e2e3704	0.17013174
211	0x3dadaf82	0.08480741
212	0x3e22ca49	0.15897478
213	0x3d77e270	0.060518682
214	0x3dc9c93e	0.09852837
215	0xbee92268	-0.45534062
216	0xbf3383ab	-0.70122784
217	0x3db0930e	0.086217985
218	0xbf3b4412	-0.7315074
219	0x3e0093d4	0.12556392
220	0xbf2d4dce	-0.67696846
221	0xbf096e17	-0.5368361
222	0xbf3694d6	-0.71320856
223	0xbefba5e0	-0.4914999
224	0xbf5052c3	-0.81376284
225	0x3e0af18f	0.1356871
226	0x3db5e89b	0.088822566
227	0xbe003e47	-0.12523757
228	0x3dbb5192	0.09146418
229	0xbf218df4	-0.6310723
230	0xbf12b137	-0.5730166
231	0x3dc5b40d	0.096534826
232	0x3e916f05	0.28405014
233	0x3d8e9b1e	0.0696318
234	0x3d39e21b	0.045381647
235	0xbf2bbf5c	-0.67088866
236	0x3dbf2eea	0.0933512
237	0xbf1996dd	-0.59995824
238	0xbefb9138	-0.4913423
239	0xbf1bf457	-0.6091971
240	0xbf579df9	-0.8422542
241	0x3e0500a2	0.12988523
242	0x3def30a8	0.11679202
243	0xbf4d9789	-0.8030935
244	0xbf3b2f07	-0.73118633
245	0x3d60d6c9	0.054892335
246	0xbd91a33a	-0.07111211
247	0xbdd76c63	-0.1051872
248	0xbf07c066	-0.5302795
249	0x3e839f49	0.25707462
250	0xbf2a967b	-0.66635865
251	0xbf164b1a	-0.58708346
252	0x3de489c1	0.11159087
253	0xbec52372	-0.38503605
254	0xbf1cfa10	-0.61319065
255	0x3db2ff91	0.08740152
