Neural_networks/reacher_20_2_qvalue_target.pth (torch, 543903 bytes, 5 tensors)

hidden_layer_1.weight f4 [400, 33]
00000000: c2a9 a0be 2f52 14bd b126 6cbe 6e20 bc3e
00000010: 6048 d03e a944 003e 28a3 953e c07c 7f3c
00000020: 566b 363e 2059 613d 3679 b0bd 9489 77bd
00000030: d2e8 a6bd 7d55 963d c9de 90bd 0566 d2bd
00000040: c5ee e0be 3b4f a43d 44dd ac3e 8f3e a43e
00000050: 933a 343d 532b cdbd 63dc ca3d af29 533d
00000060: 0d11 b7bc b1ab 213d f465 fb3d 9a6c 8e3e
00000070: cb6d e53d 767f 9a3c e39b 92be e487 793c
00000080: 1bcd 92bf b692 4f3e d3f8 a2bd 5a7a 2bbe
00000090: c28a 13bf a906 d3be 3df8 ca3e 943a 4bbd
000000a0: fe00 173d 3934 9e3c 9f9a 2bbe 1b20 f73d
000000b0: 0f45 683a e07a a2b9 d53c cdbc 9269 a03d
000000c0: 170a 6d3c 034a 863f 7d1c 4a3e 34c7 60bf
000000d0: c5ed e43d 2db8 113d daa8 60bb d127 93bd
000000e0: 72a1 983d 7a59 2cbd 3da9 99bb 2fde f13d
000000f0: 066e 723b a639 cbbd 50bf b4bc 0b31 03bd
00000100: d5e6 403d 8b1f d93d 7f42 52bc 2f8c 453e
00000110: 4188 ec3c 9332 803e f858 6e3e c518 563e
00000120: 9cfe 703d 5a50 033e efde 4fbe 70c6 78bb
00000130: 16d6 91bc bc71 50bb d6f1 05bd df4e 90bd
00000140: 8516 19be a336 0e3d bacf c93e a881 39bf
00000150: 8eb2 f7be f6cf 893f 95ac 24bd 57cd a03b
00000160: ff7d 2fbd e0f2 66bc 80ca 63bc dae0 d33d
00000170: 2e0e 023d bce8 bc3e 134e 2cbe e834 233c
00000180: 5a54 a7be 3062 14bd 392d c7be 319b f1bd
00000190: 8edc 36bb 2291 c13d 0413 cabd b078 4a3e
000001a0: 51aa 823f 87f1 b23c e712 91bc 6e84 5cbe
000001b0: 465e 28be 4287 04bd d8a5 be3c d08d 3abc
000001c0: 3e7e a03d d2f7 dc3d 7bc7 41bb 299b 7a3c
000001d0: 5223 3b3f 0d86 31bf 4418 94bd 58c6 633d
000001e0: 4524 9cbc 41fc 0f3d bb1e b33d 01ff 653d
000001f0: 2413 cbbd e4d0 57bd 36f5 ad3d 91ae 853a
00000200: 8902 8abc 3f3b 8dbc 986c 40bc 1426 96bf
00000210: 63ad 8ebd acad 003e bc39 e13b fa12 4fbf
00000220: f664 563d e9d0 3ebe 4d97 cf3e 45fb 33bc
00000230: 7686 b5bc 048a 763d 38aa 9639 91e7 bf3b
00000240: 5a8c 7a3d 4b3f 733b 9bdf 84bd aad1 8bbd
00000250: d2a8 86bd 30ad d4bc 3886 a53e 5ec2 a23e
00000260: 16e4 403d ab39 0d3a 04b5 69bd fae8 a83d
00000270: f25a 0f3d 42ad 513c bff7 7a3e 44af 443d
00000280: fa62 e83d acad 0f3c 3e37 b2bd 6c52 8cbc
00000290: 8eba de3f ac07 943c 1440 3f3e 881b 063e
000002a0: 5807 c1be 94d5 f03c d5d5 fdbd 4dbe 8f3e
000002b0: d382 cbbd 6236 6ebd d36a 60bc 6ef2 28bd
000002c0: 4455 083d b3bb 673d 226a 5e3e 2ef3 45bd
000002d0: ef1c 173e 3581 ea3e 24ec 15be 8c27 18bf
000002e0: f352 2abf 7c8f 853b bce9 8c3d 83cd 903d
000002f0: 5e5f 453c 09f4 a7bd e35a dbbd eb9e 4dbe
00000300: 748c db3e 1070 0fbe fd04 1d3d 71e0 c9be
00000310: fd75 0c3d 1867 f4bd f78a 6cbe 2475 1fbd
00000320: c04c 053c c011 1dbf 306f aebe fe0a 92be
00000330: 1575 b13d 66fe abbd ae4c 98be acc0 893c
00000340: a9e5 ab3c 451b 3a3d e564 96bd a13b 533e
00000350: d93b a4bd a2f5 c73c 0e14 213e 7e84 40be
00000360: 438c c7bd a156 c3bd 725a 2a3d 9765 7dbc
00000370: ff52 b4bd 5a1b 5d3e 16ee 08be c3c8 e43d
00000380: 628a 573c 9be0 fe3e b611 55be 64d1 723c
00000390: 7baa dabe e7cc dfbc 8518 3f3f a0c9 98bc
000003a0: 9cd8 cb3d 3a91 b83d 97e9 423f 5905 1c3f
000003b0: d51f ea3e 7e90 cf3e 88c5 cbbd c818 04be
000003c0: 1321 9d3e c6c5 57bd 3152 91bc f943 9fbc
000003d0: 436d eebd 31d8 b83c f9b0 90bd 4198 84be
000003e0: fad5 8dbe 2817 a83e c950 9abf da83 83bc
000003f0: bb36 0bbe e37a 34bc 1844 48bd 013e b63d
-0.31379515 -0.03621119 -0.23061635 0.36743492 0.40680218 0.12526192 0.2922604 0.015593708
0.17814383 0.055016637 -0.08616869 -0.06043394 -0.08149876 0.07340524 -0.07073743 -0.10273365
-0.43932167 0.080229245 0.33762562 0.32078978 0.044001173 -0.10018029 0.09905317 0.051553424
-0.022346998 0.03947038 0.122753054 0.2781723 0.11202582 0.018859606 -0.28634557 0.015230153
-1.1468843 0.2027081 -0.07957616 -0.16745892 -0.576336 -0.4121602 0.39642516 -0.04961641
0.03686618 0.019312011 -0.16758202 0.120666705 0.0008860388 -0.00030990597 -0.025053421 0.07832636
0.014467738 1.0491337 0.1973743 -0.8780396 0.111781634 0.035576034 -0.003428033 -0.07185329
0.07452668 -0.04207752 -0.004689364 0.11809956 0.0036991849 -0.09923105 -0.022063881 -0.032029193
0.04709514 0.106017195 -0.012833237 0.19291757 0.028873565 0.25038585 0.23276126 0.20907886
0.058836564 0.1282362 -0.20299886 -0.0037960075 -0.01780228 -0.0031806072 -0.032701336 -0.070462935
-0.14949997 0.034720074 0.39416295 -0.72463465 -0.48378414 1.076659 -0.04020365 0.004907291
-0.04284477 -0.014095992 -0.01390326 0.103456214 0.031751804 0.36896312 -0.16826658 0.009961344
-0.32681543 -0.03622645 -0.3890169 -0.117971785 -0.0027902457 0.0945151 -0.09866908 0.19772601
1.0208226 0.021843685 -0.017709209 -0.21534893 -0.16442212 -0.032355554 0.02327244 -0.01138635
0.07836579 0.107894555 -0.0029568363 0.015295782 0.7310077 -0.6934517 -0.07231191 0.055609077
-0.019060263 0.035152677 0.08746096 0.056151394 -0.0991576 -0.052689448 0.08494036 0.001019912
-0.016846912 -0.017240165 -0.011744641 -1.173037 -0.06966665 0.1256625 0.0068733376 -0.8088833
0.052342378 -0.1863438 0.4054512 -0.0109852 -0.022158843 0.060190216 0.00028737052 0.0058564623
0.061169006 0.0037116583 -0.06487962 -0.068270996 -0.06575169 -0.025961488 0.32328963 0.31788915
0.04709252 0.00053873163 -0.057057396 0.08247562 0.03499884 0.012797656 0.2450857 0.04801871
0.11347003 0.008769434 -0.08701943 -0.017129146 1.7400682 0.018070064 0.18676788 0.1309644
-0.37700915 0.029398717 -0.12394301 0.28074875 -0.09937062 -0.058157332 -0.013697344 -0.041246824
0.03328444 0.05657549 0.21720174 -0.048327617 0.14757131 0.45801702 -0.14640862 -0.59435344
-0.6653282 0.0040759426 0.06880519 0.07070448 0.012046663 -0.08200843 -0.10710695 -0.20080154
0.42880595 -0.14007592 0.038334835 -0.39429048 0.03429221 -0.11933726 -0.23099886 -0.038930073
0.008135974 -0.6135521 -0.34069204 -0.2852401 0.0866491 -0.08398132 -0.29746002 0.016815506
0.020983534 0.045436163 -0.07343463 0.20628215 -0.080192275 0.024409119 0.15730307 -0.18800542
-0.0974355 -0.095380075 0.04159016 -0.015466115 -0.08804893 0.21592465 -0.13372073 0.11171105
0.013155552 0.49780735 -0.20807537 0.01482043 -0.4270819 -0.027319385 0.7464679 -0.01865083
0.09953424 0.09012075 0.7613768 0.6094566 0.4572741 0.40539926 -0.099497855 -0.12900078
0.30689296 -0.052678846 -0.017739387 -0.019441592 -0.11641934 0.022564026 -0.07065005 -0.2589741
-0.27702314 0.32830167 -1.2055904 -0.016054083 -0.13595097 -0.011015627 -0.048893064 0.08898545

hidden_layer_1.bias f4 [400]
00000000: 4611 aabe 216d b3bd e972 3ebe f30f 13bd
00000010: b30a 66be 0f2e 0bbf d367 19bf 3406 11be
00000020: 6c8c 5dbe f880 50be 636f 8cbe 4018 a2be
00000030: ed4c 64be 81f1 bfbc 29e0 ccbe c6c7 d4bb
00000040: 444e 313d 4035 38be 74e0 63be 9bf5 3dbe
00000050: 61d4 a6be 0646 dcbe 8c5d 9cbe 5c13 f43e
00000060: b17f 93be 4246 36be 3995 2ebe 903b f93c
00000070: feff f3bd 2a2c 3abe 82bb 5dbe 06c8 aa3c
00000080: b725 a2be 6d1f f1be 082a 01be 391c bdbe
00000090: f83f 82be 871a cd3d b874 98be 8efa 46be
000000a0: 97a5 393f 5a4c b2bd 4ee3 b93d 2e10 423d
000000b0: 8b4a ffbd 215f d3bd b72a 05be 7f75 82be
000000c0: af5c 7dbc d0f6 cdbe ad6d d8be 3d18 82be
000000d0: bc81 333d 4b25 f53c bb69 99be 1526 71bd
000000e0: 706d 71be 6e81 a0be c2e1 aabe 2add 35be
000000f0: 8df4 acbe a693 c4be faef 463e ec79 ccbe
00000100: a559 9abe d63a dabe cdc1 8cbe 6834 93be
00000110: 748f 363c 2212 63be 2e76 04be 8937 62be
00000120: 5599 39bd 1051 fbbe e456 44be 9e24 2abc
00000130: 7d1a aebd 1481 b1bd 483c b1bd a19f 17be
00000140: 56a6 a3be bc5a eebe 7ad3 cbbe 1ea4 15be
00000150: 197d 21be ed9b ef3d 25b9 ad3d 99bc 09bd
00000160: 70e0 1fbc 0095 5cbe cb3f 0fbe 9582 6cbe
00000170: 6732 40be 3fce 66bd 7bcd 8dbe 43f1 38be
00000180: 419b e4be 404f acbe 393c acbe 05cd 24be
00000190: 6dd9 a8be e661 d73d d42b 54bd 354a 263d
000001a0: 39fe 6bbe a42b 43be 9997 33be 0772 9bbd
000001b0: cecc a1be 761a f1be 38f2 d8bd 6bc6 80be
000001c0: fcbd 41be 2887 02bf c39a dbbe 825a 353e
000001d0: 71eb d7be 01c8 fabe cbfc 02bf 70d1 91be
000001e0: 67ae 9cbe 9348 a1be 31fa ccbe d372 ab3d
000001f0: 82f9 f5be 2ede fbbd 424a 19be b8ba e0bc
00000200: afcb 8cbe bc7f 3ebe ebb6 5fbe 33ab 1fbe
00000210: 8dfd 2abe d33e 30be 64f7 a0be 3e05 ca3c
00000220: 10fa e0be 7b8d eabc 0c7f 2fbe 6130 5cbe
00000230: c59e 90be bafb a9be 114a 9fbe 1fef bebe
00000240: 98dc 4cbe 262a 4cbe 71b9 2abe 2583 98be
00000250: df0b babd 95c4 e3be 495f bdbd 212c 843c
00000260: 1950 8dbe d6c2 12bd 6ce6 89be 094b 68be
00000270: 85e1 27be 6f4d bbbe 7e82 0ebe 9566 e6bd
00000280: 7ddc a73e 7837 ccbc 4521 65be a118 6fbe
00000290: 9aa3 49be fdde 9abd aa91 70be 0778 5ebe
000002a0: b725 47be dc6a 7dbe 8502 1fbe 6c2e b5be
000002b0: 3232 e7be 72f9 a0be 84fb abbe 707a 873d
000002c0: eef6 15bd 764f 62be 66ec 08be 10e4 3a3d
000002d0: f284 5ebe a0c9 acbd b531 89be 14b0 1abf
000002e0: 84ef 1bbe 8393 83be b039 98be c8ee 9fbe
000002f0: c1de 45bc 52cd fabc f9af 55be 819b eebd
00000300: 2482 aabe 1416 9dbd b8e0 173c eb78 c7be
00000310: 53dd b7be b1b3 8dbe 0266 96bd b72c c8be
00000320: f3f2 a8be e279 7ebe 741b a3be b569 d2be
00000330: e7be 61be 082b d7bc df6b d2bc ebb5 50be
00000340: 74e4 bf3d 5808 06be 0c04 41be 01d0 3bbe
00000350: 7e6d 80be 3ca5 08be 23a5 2bbe 95e9 bcbe
00000360: 3833 dfbe b9df 24be 9c55 10be dc7f 37be
00000370: d43c b6be 51ed ecbe 7d1f b2be efb4 0abe
00000380: 6e2d 91bd f60d c8be 8934 8dbe 2c39 78be
00000390: 81dd e1bb ff13 37be 4194 28be 5df8 52bc
000003a0: 5e5a 74be cb89 a7be f02d a8be efa0 26be
000003b0: a2c7 51be 5518 86be dbdd 62be f6a9 a1be
000003c0: 4a6a b2be e1ed b2be fdd7 e43c 4c49 f6bd
000003d0: ff19 83be 5071 f4be fc21 363f 3dc3 19be
000003e0: da29 c0be 6094 cebe 5154 a0bd ac95 f5bd
000003f0: 85a5 29be 1016 a4be 499d ea3d 65e5 8ebe
-0.33216304 -0.08761049 -0.18598522 -0.035903882 -0.22465019 -0.54367155 -0.5992405 -0.14162523
-0.21635598 -0.20361698 -0.2742873 -0.31659126 -0.2229497 -0.023430588 -0.4001477 -0.0064935414
0.04328753 -0.17989063 -0.22253591 -0.18550722 -0.32583907 -0.43022174 -0.3054012 0.4767102
-0.28808358 -0.17800239 -0.17049111 0.03042391 -0.11914061 -0.1818091 -0.2165356 0.020847332
-0.316694 -0.47094288 -0.1261369 -0.36935595 -0.2543943 0.10014825 -0.2977655 -0.19431517
0.72518295 -0.08705969 0.09076558 0.04737871 -0.1246539 -0.10320879 -0.13004576 -0.25480267
-0.015463992 -0.40227365 -0.42271176 -0.25409117 0.043824896 0.02992501 -0.29963478 -0.05887421
-0.23576903 -0.31348747 -0.33375365 -0.17760149 -0.33780327 -0.38393897 0.19427481 -0.3993677
-0.30146518 -0.42623013 -0.27491608 -0.2875092 0.0111426 -0.22174886 -0.12935707 -0.22091497
-0.045312244 -0.49085283 -0.19173771 -0.010384707 -0.08501146 -0.08667198 -0.08654076 -0.14806987
-0.31962842 -0.465536 -0.3980978 -0.14613387 -0.15770377 0.11699662 0.08482579 -0.033627126
-0.0097581 -0.21541214 -0.13989179 -0.23096688 -0.18769227 -0.056349035 -0.27695832 -0.18060784
-0.446497 -0.33654213 -0.33639696 -0.16093834 -0.32978383 0.105167195 -0.05179961 0.040598113
-0.23046197 -0.19059616 -0.17538299 -0.07590108 -0.31601566 -0.470905 -0.105930746 -0.2515138
-0.1892013 -0.5098748 -0.4289151 0.17710307 -0.42171815 -0.48980716 -0.5116698 -0.284801
-0.30601808 -0.31500682 -0.4003463 0.0837151 -0.48041922 -0.12298237 -0.14969733 -0.027432784
-0.27499148 -0.18603414 -0.21847121 -0.15592651 -0.16698284 -0.17211466 -0.31438744 0.024660703
-0.43940783 -0.028631916 -0.17138308 -0.2150283 -0.28246132 -0.33199865 -0.31111196 -0.3729181
-0.20006025 -0.19937953 -0.16672303 -0.29787555 -0.090842955 -0.44485918 -0.0924669 0.016134324
-0.27600172 -0.03583034 -0.2693361 -0.22684874 -0.16394623 -0.36582515 -0.13916966 -0.11250035
0.32785407 -0.024928793 -0.22375973 -0.23349239 -0.19691315 -0.07562063 -0.23493066 -0.21725474
-0.19447981 -0.24747795 -0.15528305 -0.3538698 -0.45155483 -0.31440312 -0.3359033 0.0661515
-0.036612444 -0.22100624 -0.13371429 0.045627654 -0.21730402 -0.084368944 -0.26795736 -0.60424924
-0.15228087 -0.2569848 -0.29731512 -0.31236863 -0.012077034 -0.030615482 -0.2086791 -0.11650754
-0.33302414 -0.07670227 0.009269886 -0.3895944 -0.35911044 -0.27676156 -0.07343675 -0.39096615
-0.32997856 -0.24851182 -0.31856883 -0.41096273 -0.2204548 -0.026265636 -0.025686203 -0.20381896
0.09369746 -0.1308912 -0.188492 -0.18341066 -0.25083536 -0.13344282 -0.16762213 -0.3689696
-0.43593764 -0.16100968 -0.14095157 -0.17919868 -0.35593283 -0.46274808 -0.3478965 -0.13545583
-0.07088743 -0.3907315 -0.27579144 -0.2424056 -0.0068928604 -0.17878722 -0.16462804 -0.012876597
-0.23862597 -0.32722315 -0.32847548 -0.16272329 -0.2048631 -0.2619044 -0.22154944 -0.31574982
-0.34846717 -0.34947112 0.027935022 -0.12025699 -0.2560577 -0.477427 0.71145606 -0.15015884
-0.3753193 -0.40347576 -0.07828582 -0.11991438 -0.16567047 -0.32048082 0.11455781 -0.2790939

hidden_layer_2.weight f4 [300, 404]
00000000: f893 e7be fb7f 153e 3b16 973d 6ba7 04be
00000010: b525 51be 27e0 aebd cb65 29bd 6a36 823c
00000020: 9d50 b53c 06cb 0fbb 5d81 523c 0909 b0be
00000030: fe13 52be 3237 a7be b125 8a3e f6f3 2c3d
00000040: c0a2 a6bd 2a74 eb3d 6a43 ce3b 9df4 193e
00000050: 777c cbbd 3aaa 8cbe 4479 8dbc 888b 083d
00000060: df29 88be 8565 abbe 1959 69be 52a1 94bd
00000070: 4059 2fbe 8ee9 86bc e58d 85bb 1a5c 0c3d
00000080: 2475 abbe fc86 62be fb25 cfbe 1914 433d
00000090: 9248 0c3e 76c6 22bc cee8 efbe a056 fb3c
000000a0: 74cc a1bc 08a8 1cbe df25 debd 9cce 3cbe
000000b0: fd13 523c e6ef e63d 7ef1 3ebd 4009 12bd
000000c0: fae0 283c ff2e 38bc 045a 0dbf e855 72be
000000d0: 05de dabd fa90 8bbe a94a 8b3d 55ea 2bbe
000000e0: 0f22 08be ecf2 503e e611 d33d 8703 11be
000000f0: 9089 41be 66c8 dbbe 5a92 81bc 156c 6d3e
00000100: 00ea 91bd 4285 8b3d fcc9 b3bd a326 3c3d
00000110: 0dfc aa3d 5656 b6be 9366 cebc b800 89bd
00000120: b7ce 2dbd dfe0 b7bd ff2e b8be d993 2fbd
00000130: d82c 1d3d a3d6 1ebe ed74 49be 9f49 2fbe
00000140: 1959 693d cb6b 28be 194c 1dbe e566 21be
00000150: 5784 673c 88e6 1cbe 751c 3fbe 2624 873d
00000160: eda1 2cbe d5ea d2be 9e0a 08be c246 8b3d
00000170: 0621 acbc b038 d5bd 43e2 74be 071c fb3d
00000180: 3917 1ebd 6793 24be 1dde 84be f5c7 503a
00000190: c2a7 9ebe b82f 41bd 0e5c 37be 30cd 71be
000001a0: c37a 3bbe 25ec 2cbe 1016 0a3d 0b90 a0bd
000001b0: c0fe 41be d928 73be b127 5f3e 8708 093e
000001c0: 4086 923c f9bf c3be 19ba fcbd 4358 a83e
000001d0: c95b b9bd e4f0 6d3d 2bfc e2bd 9f0a 883d
000001e0: 348c 3c3e 4d7c 3ebe 7f5c c2be 92ab 743c
000001f0: aa55 82bd 19da 933d 267c f83d df13 9abe
00000200: 3ee8 2cbe eb52 96be 5180 afbc 7a38 f3bd
00000210: b0b0 5dbe f51d 6dbe 8a62 96bd e6f9 0fbd
00000220: 056c 51be dbd7 cebd e041 cbbd afa3 11bd
00000230: 4d22 f83b 949d a1bd 14aa 46be dd9c 98be
00000240: 7987 c2bd 7cfd 3cbe 281d 81be 9bf0 28be
00000250: 214e 003e 43b9 bbbe 9317 7f3e f996 0abf
00000260: 33f3 4ebe f0a0 25bd 14ef ecbc 8f55 113e
00000270: 5b7d e1bd 1f29 f13b 93bf 8dbe a6cb 6ebe
00000280: ca87 15ba 1195 dfbd b298 e1bd 7c90 2b3d
00000290: f7fa 79be 89d7 fb3c 8a52 a7bd 0f8b efbe
000002a0: 06ba 193d e7e9 673e 2519 103e 780a c2bd
000002b0: b17d 7bbd b5da 2bbe a5a2 353d 2d60 99be
000002c0: 56e4 2c3e 552a 5abe 6a0f 9ebd 4939 263d
000002d0: 9a29 8abe bb11 c63d 803e 003e 3369 82be
000002e0: 451f c73d 826c b1be 148c 84be 6b18 80be
000002f0: 9b78 a0bc fd19 d1be 2029 f1bd 6898 9cbe
00000300: 5aed 15bc 92e9 cd3d d1f0 0abe b678 913d
00000310: 6135 26bd 89ca 2fbe 2bce b1bd fb57 2abd
00000320: b186 1d3d 595a a73d 66e4 483d 5059 cbbd
00000330: 27bf 493e ef1f 7b3e 045f 85be 959d a1bd
00000340: ab13 ff3c 62fc 44bc 25ad 85bd e77b 88be
00000350: df95 923e a9b7 1cbe 21b4 0b3d e64f ac3b
00000360: 028f c4bc d385 4ebd 8853 aebe 795a 5f3d
00000370: 2a89 0bbe 25dc bdbe e278 1ebc 2117 74be
00000380: 7cfd bcbe 6ef1 22bc 856a 233d 37bd 103e
00000390: 9a91 eabe fddf a1bd 5784 e7bd fa2b cebd
000003a0: 3a40 573c 4667 90bc 38be debd 36f7 3f3d
000003b0: 45ad 3dbd c24b 83bd 44f6 0dbf 6c98 e3bd
000003c0: 2adb 7d3d d55c 5cbe 36e6 c9bc a103 023d
000003d0: d0f1 91be 0e06 1bbe 9643 5b3d 2b79 63be
000003e0: 8708 89be 2a24 cebe 6817 f23e cde1 22be
000003f0: 6064 5ebd 469b c0be 847c 20be 7949 69be
-0.4523008 0.14599602 0.07377287 -0.1295449 -0.2042454 -0.085388474 -0.041356843 0.015895087
0.022133166 -0.002194108 0.012848225 -0.34381893 -0.20515439 -0.32659298 0.2698188 0.042224847
-0.08136511 0.11496766 0.0062946575 0.15034719 -0.09935849 -0.27473623 -0.017269738 0.033336192
-0.26594445 -0.3347589 -0.22787894 -0.07257332 -0.1712389 -0.01646879 -0.004075753 0.034267522
-0.3348781 -0.22121805 -0.40458664 0.04762659 0.13699558 -0.009935012 -0.46857303 0.030680954
-0.019750811 -0.15298474 -0.10847067 -0.1843819 0.012822148 0.11276226 -0.046617024 -0.035653353
0.010307545 -0.0112416735 -0.5521548 -0.23665583 -0.10686878 -0.27259046 0.0680135 -0.1678861
-0.13294242 0.20405167 0.10306148 -0.14161502 -0.18900132 -0.4292633 -0.015816856 0.23185761
-0.0712471 0.06812526 -0.0877876 0.045935284 0.08348856 -0.35612744 -0.025195396 -0.0668959
-0.042433467 -0.08978438 -0.35973355 -0.042865608 0.038372844 -0.15511565 -0.1967351 -0.17117928
0.056969736 -0.1644737 -0.1536106 -0.15761907 0.014130673 -0.15322316 -0.18663199 0.06598692
-0.16858645 -0.41194788 -0.132853 0.06800605 -0.02101184 -0.10411203 -0.23914437 0.12261205
-0.038596366 -0.16071855 -0.2595071 0.0007964366 -0.30987364 -0.04716465 -0.1790621 -0.23613429
-0.18308549 -0.16886957 0.033712447 -0.07839974 -0.18944836 -0.23746051 0.21792485 0.13382159
0.017886281 -0.382324 -0.12340183 0.32879838 -0.0905071 0.05809106 -0.110832535 0.06642651
0.18412858 -0.18602104 -0.37961194 0.014933484 -0.063639954 0.07219333 0.121330544 -0.30093285
-0.16885468 -0.29360136 -0.02142349 -0.118760064 -0.21649432 -0.23155959 -0.073430136 -0.03515043
-0.20451362 -0.10099765 -0.09924674 -0.03555649 0.0075724483 -0.07891384 -0.19400817 -0.29807177
-0.094984956 -0.18456072 -0.25217557 -0.16498034 0.12529804 -0.3666478 0.24911337 -0.54136616
-0.2020996 -0.040436685 -0.028922595 0.14192794 -0.11010238 0.0073596383 -0.27685222 -0.23319873
-0.0005704133 -0.10917104 -0.110154524 0.041885838 -0.24412142 0.030742424 -0.0817004 -0.4678578
0.03753092 0.2264782 0.14072092 -0.09474653 -0.061399166 -0.16782649 0.044344563 -0.2995619
0.16883978 -0.21305211 -0.07717784 0.040581975 -0.26984864 0.096713506 0.12523842 -0.25470886
0.09722761 -0.34653097 -0.2588812 -0.2501863 -0.01958876 -0.4084014 -0.11775422 -0.30585027
-0.009150827 0.100543156 -0.13568427 0.07103102 -0.04057825 -0.17167105 -0.086819015 -0.04158781
0.03845853 0.08171529 0.049045943 -0.099291444 0.19701825 0.245239 -0.26049054 -0.078913845
0.031137308 -0.012023063 -0.06527165 -0.2665703 0.28629968 -0.15304436 0.03410733 0.005258548
-0.023993973 -0.050420593 -0.34048104 0.05452964 -0.13626543 -0.3708202 -0.009672375 -0.23836948
-0.36912143 -0.009945257 0.039896507 0.1413468 -0.4581421 -0.079040505 -0.11304539 -0.100669816
0.013137871 -0.01762737 -0.10876125 0.046866618 -0.04630782 -0.06410934 -0.55453897 -0.111130565
0.06197659 -0.21519788 -0.024645906 0.031741742 -0.285048 -0.15139028 0.05353125 -0.2221419
-0.26764318 -0.40261966 0.47283483 -0.15906449 -0.054294944 -0.37618464 -0.15672499 -0.22781934

hidden_layer_2.bias f4 [300]
00000000: 1d6d c9bc b911 153f b484 cebd 768a 013f
00000010: 1ece dcbd f1f5 3a3d 6ce1 ce3e 2aea 9ebd
00000020: aabe 69bd e033 053d 9b1d 8cbd fbf8 073f
00000030: 5d6f 8ebc 8146 fc3e 8970 69bd b13c 2e3e
00000040: 3e15 90bd eba9 a23e 16e7 18be 98b2 08be
00000050: 3242 9ebc d905 39bd f9ec a6bc 4968 883e
00000060: 1255 31be 8911 c1bd 9013 fdbe 388a aebd
00000070: bce4 143f ee38 92bc 8c1b e53e d30d 773e
00000080: 4f91 073f 4a54 cb3e 1d23 2bbd 00c9 4c3f
00000090: 8170 ca3e 5386 193f efc9 853f 9c11 8ebd
000000a0: 8183 a6bd 33e9 123f db3e e1bc 2a3c 003f
000000b0: 6190 1fbe 4861 e23e b098 bd3e 310f 123f
000000c0: 018f 443d 240f d93e c7e6 c83e d202 8d3e
000000d0: 6272 023f 0b0a ec3e 6830 e53e 43f6 7e3f
000000e0: 01ef 89bc c54a 9b3f f77b a4bd a717 623e
000000f0: 311f 213e 1492 03be d009 d5bc 65f5 3e3e
00000100: eeee 043f 02ba be3e 0eab 86bd e50b 683e
00000110: a030 0d3f 806d b8bd ec7a 703e d0a9 1bbf
00000120: 0561 dabd a36b db3e c2b8 913e d29a 963e
00000130: 3dff 21be 05c1 983e 8c5e ecbd 40a7 1f3f
00000140: 69c3 c23e d8de d4bd a552 98bd cb6d cb3e
00000150: 56c8 3fbd 49d4 e63e 6119 b9bd c314 ff3e
00000160: 14b2 e13e 8014 7f3e 00db f0bd 9b67 243f
00000170: d33c febc dcd2 893e ceb5 143e 485b 92bb
00000180: ff4e 943e 913f 0d3f ded8 753e ea42 27be
00000190: 88f9 67bd c1ac 0dbf 2c0b 84bd f1b6 13bd
000001a0: 0f7d 923e 0cf7 32be 9b73 28bc dedc c23e
000001b0: 3fbb 49be 07bf cd3e 41f7 143c 45b8 b4bc
000001c0: f04c debd 4850 1bbd 3010 c33c c9f6 7bbd
000001d0: 0742 91bd 1931 8abd ae41 ed3e 57bf 303f
000001e0: c2c3 8bbd 773d a4bd 4390 ed3e 091a a6bd
000001f0: 71eb f63e 1dc4 fc3e 1935 a83c e0cc f13e
00000200: d81b 273e 53c4 4ebe 1680 86bd 1cc4 6cbc
00000210: f36e 833e cb3e b33e 5668 c53e 5c03 04be
00000220: ce08 87bd d843 92bd 7384 243e 2669 d03e
00000230: 6618 3f3f 432b 45bd 022e 31be e5dc dd3e
00000240: 43f6 8d3e 105a 313f 6807 323f ef98 823d
00000250: 773d a4bd 69f9 afbd eb24 c93e e89d 3ebf
00000260: d070 e7bb fda7 47bd 73cd 7a3e fd39 4f3e
00000270: 9e78 883e fcda 29bd 8df7 103f 102e 673d
00000280: b551 ec3e de2e 343e 8cc2 f93e c8ed 313e
00000290: a487 4fb9 0db1 05be 543d 13bf 4b04 393e
000002a0: bcf4 d63e 0de5 b53c 4011 a03e 79b5 f33b
000002b0: 76bf d83e c635 dcbd 59f9 13bd d630 963e
000002c0: f05c e23e 8fd8 10bc 6e2a ee3e eac4 1f3d
000002d0: a9da d6bd 13c1 bbbd 32f9 cdbd 8ac9 a83d
000002e0: 5e20 a43e 3f9a d03e f488 29bc abc4 d13e
000002f0: b74a 8f3e e821 c2bd dc92 9c3e a1b3 643e
00000300: 83fa c93e 6ac1 ffbd e24a a43e b7e6 9b3e
00000310: c4cb b13e 7b52 d93e 633f 16be 4dfe 193e
00000320: 5551 bebd eeb8 523e 75fb 00be d633 a3be
00000330: ce95 0e3f 69de 283f b494 863e f598 5d3f
00000340: ed3c a93e 5494 ac3e 40c5 2f3e ba97 0a3f
00000350: 0374 7a3e 19ed 183f 979d aa3e 0543 98bd
00000360: 6a7d fdb9 136d 9e3e 0bc3 82bc 89ac 553f
00000370: 6efc 19be 7305 03be 037e cebe 2865 30bd
00000380: 4126 4d3d f9b3 bd3e 995c f83e 1a70 09bf
00000390: 291b 163f e750 7a3d a6e5 86ba c02f 983e
000003a0: e5cb b53e 6c6f b43e 9a28 0e3f d660 06bd
000003b0: 9481 023f c257 01be 74f9 043d f5ab 63bd
000003c0: f803 9cbd 6afe 043f 3e4a 1a3f 5c75 0dbe
000003d0: 9780 adbd 2f4b a33e 96a1 39bf 03b3 37bf
000003e0: ec68 04be 1466 003f 8fac 43be eddf 85be
000003f0: 9861 ca3e 3c82 a13d e48a 62bd 8a13 a83e
-0.024588162 0.5823017 -0.10083905 0.506019 -0.10781501 0.045644704 0.40406358 -0.07759507
-0.057066597 0.032520175 -0.06841584 0.5311429 -0.017387087 0.4927254 -0.056992088 0.1701534
-0.070353016 0.31770262 -0.14931902 -0.13349378 -0.019318674 -0.045171592 -0.02037667 0.26642063
-0.17317608 -0.09427173 -0.49428988 -0.08522457 0.5816152 -0.017849412 0.4474758 0.24126367
0.529561 0.39712745 -0.041781534 0.799942 0.3953896 0.5997059 1.045225 -0.069369525
-0.08130551 0.57387084 -0.027495792 0.50091803 -0.1558242 0.44214845 0.37030554 0.5705443
0.04798794 0.42394364 0.3923857 0.27541214 0.50955784 0.46101412 0.44763494 0.99594516
-0.016837599 1.2132193 -0.08031457 0.22079335 0.15734555 -0.12848693 -0.026005656 0.18648298
0.5192708 0.37251288 -0.06575595 0.22660787 0.5515232 -0.090052605 0.23484391 -0.6080599
-0.10663036 0.42855558 0.28461272 0.29414994 -0.15820022 0.29834762 -0.11541471 0.6236458
0.3803971 -0.103940666 -0.07437638 0.39732203 -0.046821915 0.45083836 -0.09038044 0.49820527
0.44081175 0.24910164 -0.11760521 0.6422059 -0.031034863 0.26918685 0.14522478 -0.004466448
0.2896652 0.5517512 0.2400851 -0.1633412 -0.056634456 -0.55341727 -0.06447443 -0.03606314
0.28611037 -0.17477053 -0.010281469 0.38059133 -0.19700335 0.40184805 0.009092153 -0.022060523
-0.108545184 -0.03791836 0.02381143 -0.06151465 -0.07092672 -0.06747646 0.46339172 0.6904196
-0.06824447 -0.08019536 0.46399125 -0.081104346 0.48226503 0.49368373 0.020533131 0.4722662
0.16319215 -0.20192079 -0.06567399 -0.014451053 0.25670585 0.35008845 0.38556165 -0.12891906
-0.06593476 -0.071418464 0.1606615 0.40705222 0.74646604 -0.04813696 -0.17302707 0.43332592
0.27726945 0.6927805 0.6954255 0.06376826 -0.08019536 -0.08592493 0.3928598 -0.74459696
-0.007063009 -0.04874419 0.24492435 0.20236965 0.26654524 -0.041468605 0.5662773 0.056440413
0.46156088 0.17596003 0.4878124 0.17375863 -0.00019791588 -0.13055821 -0.57515454 0.18068044
0.41983593 0.022203946 0.3126316 0.0074374047 0.42333573 -0.10752444 -0.03612647 0.29334134
0.4421153 -0.008840694 0.46516746 0.03900615 -0.10490925 -0.09167685 -0.10057296 0.082415655
0.32055944 0.4074268 -0.010347594 0.40970358 0.2798669 -0.09479123 0.30580795 0.22334148
0.39448938 -0.12488063 0.3208838 0.3044946 0.34725773 0.4244574 -0.14672618 0.15038414
-0.092928566 0.20578358 -0.12595923 -0.31875485 0.55697334 0.6596437 0.26285326 0.8656152
0.33054295 0.33706915 0.17165089 0.54137766 0.24458317 0.5973678 0.33323357 -0.07434658
-0.0004834936 0.30942592 -0.015962144 0.8346639 -0.150377 -0.12795047 -0.40330514 -0.04306522
0.05008531 0.3705137 0.48508146 -0.5368668 0.58635193 0.06111231 -0.0010291829 0.2972393
0.35507122 0.35241258 0.55530703 -0.032807194 0.5097897 -0.12631133 0.03246446 -0.055583913
-0.076179445 0.51950705 0.60269535 -0.138143 -0.08471792 0.31893298 -0.72512186 -0.71757525
-0.1293065 0.5015576 -0.19108795 -0.26147404 0.39527583 0.07886168 -0.055308238 0.32827407

output.weight f4 [1, 300]
00000000: de02 24bf 680a ae3e a4d2 27bd 4bc2 183e
00000010: bf42 1abf ef3f 12bf b5a8 453e 8b2a 3cbf
00000020: fc5c 22bf 015e 05bf d551 65bf 7787 213e
00000030: 7ac9 0cbf 6d47 153e 6207 3cbf 96e7 093e
00000040: a5be 22bf fb5c a83e 6887 26bf 0ff1 fabe
00000050: b8c2 2fbf 686b 39bf 299a 01bf 231b 3a3e
00000060: 7f89 25bf 7b4d 82bd b6f1 b4bd 7b9c 29bf
00000070: 3244 013e bf20 cebe a365 c63d a617 053e
00000080: 2074 043e 774e 8d3e 4aaa 28bf 2358 0e3e
00000090: 3b71 333e 1a9d e53d 3a4f 5c3e 20af 13bf
000000a0: c5e5 3ebf 5d24 5c3e 388f 26bf fcde 103e
000000b0: bfa7 dbbe 85bf 2b3e c92f 7b3e b070 513e
000000c0: 2db6 35bf ad07 ca3d 92b8 1c3e a1ba 6f3e
000000d0: bf74 133e 9802 483e dd0c b73d 8581 463e
000000e0: 963b 07bf 0e82 463e c8b1 55bf 4c67 963e
000000f0: ca70 763e 01f4 01bf c617 1abf 87db a53e
00000100: 21e7 4f3e 9f15 aa3e c6f5 2dbf 9c4a c03e
00000110: b881 5f3e 7aad 1fbf 3274 2e3e 4d3e 09bf
00000120: f0c7 09bf 8d19 133e dc6d 2d3e f2b7 543e
00000130: 1f56 d4be 1a0f a33d 186a dfbe 0bf6 323e
00000140: 1a3f dc3e 18be 26bf 5ec4 23bf 6529 403e
00000150: d953 01bf a6b3 433e 7dc4 5bbf df30 7a3d
00000160: b853 823e fcde e03d 838d 16bf d4b4 bf3d
00000170: 8f22 2fbf 7f87 3f3e 07a9 623e 198b 44bf
00000180: e11a 363e bd9b 093e d8b6 6f3e 6fe1 7abf
00000190: 3795 25bf afce 6cbe a148 28bf b358 33bf
000001a0: 8ed5 ab3d 763d 24bf 6295 32bf ac76 1b3e
000001b0: 3f88 e7be 877e 3b3e fabf 43bf 626e 4ebf
000001c0: 074d 08bf 77c5 1bbf 21d2 4dbf 0de5 35bf
000001d0: cfa8 41bf c695 10bf cfba 603e 754c 2a3e
000001e0: 1537 36bf f7dc 37bf 5299 d93d 08f8 39bf
000001f0: 73aa 053e f131 7b3d 95a2 19bf f4ce 8c3e
00000200: bf36 1c3f d76c cbbe 1365 20bf 4a0b 3cbf
00000210: 4729 6c3e 0570 cb3d bd43 573e 008a 4cbf
00000220: 4270 6bbf da47 03bf 6348 3b3e c3b8 003e
00000230: 946b 2e3e f576 2cbf ff2e 38bf f815 1d3e
00000240: 1c2e a23e 3d0f 683e c78c 3f3e df5b 24bf
00000250: d086 d5be 17b9 2ebf b35a 103e 8456 9fbe
00000260: 74d7 18bf bc3d 22bf 219f 813e e733 293e
00000270: 8916 953e 47a0 38bf 7645 553e 3346 76bd
00000280: 1a3a 0f3e c3bc 4d3e 0a32 153e 87c9 db3e
00000290: b501 10bf 5e5d 11bf 7fc9 70be 9e72 6a3e
000002a0: eb59 0b3e 613c 73bf 1a2a 0d3e a425 35bf
000002b0: 4509 7b3e 21b6 60bf a6fd 49bf de35 4f3e
000002c0: 8d17 dc3d 4dbf 0fbf ee0d 683e f3c0 03bf
000002d0: 110b 13bf 9c56 34bf 1c4a 0fbf 1aa1 323f
000002e0: 0801 113e d974 2c3e 270d 12bf 3211 893e
000002f0: 17cc 653e 7266 16bf e241 953e 3469 b03d
00000300: d5c7 9d3d c11f abbe 7937 113e f2c8 c03d
00000310: 8df3 793e c25d b83d 559f 06bf 7424 0b3f
00000320: 723f 32bf b4d7 7e3e 1a6c 25bf fbe7 f5be
00000330: 1ebc 533e 2e10 393e 095e a53e 4b50 5c3e
00000340: 81cb 3c3e d371 b93d ed02 af3e cfa5 f33d
00000350: 193f 823e 5ca3 523e c48f 1c3e 6822 e9be
00000360: ab83 33bf fa65 253e 1244 3bbf 696f 2f3e
00000370: ce4d 2dbf 176e 09bf d694 36bf 355a acbe
00000380: c352 50bf 66c4 f63d 6944 0c3e 13ea 4cbe
00000390: 6e11 653e f48d 21bf 37b1 12bf b9d4 6b3e
000003a0: 4c7a 603e e1b2 023e 53f0 b63d 5cbf 2bbf
000003b0: 788e f53d ae1b 1abf 3891 fbbe 660b 2dbf
000003c0: f99d 57bf 4be4 983e d4e7 483e 8997 4dbf
000003d0: d7fa 41bf de30 703e eb76 4fbe 4ea2 1ebe
000003e0: 66c0 07bf 46fa b83e 7b96 2abf 1a4b 16bf
000003f0: 4f18 0a3e 7024 ccbe 10fa 1cbf 518a 2e3e
-0.64066875 0.33992314 -0.040972367 0.14917867 -0.60258096 -0.57128805 0.19302638 -0.73502415
-0.6342313 -0.52096564 -0.8957799 0.15774332 -0.5499493 0.14578028 -0.73448765 0.1346725
-0.6357215 0.32883438 -0.65050364 -0.49012038 -0.6865649 -0.72429514 -0.50625855 0.18174414
-0.6466293 -0.063624345 -0.08835165 -0.66254395 0.1262367 -0.40259358 0.096873544 0.12997302
0.12934923 0.27598926 -0.6588484 0.13900809 0.17523663 0.11211605 0.21514598 -0.57689095
-0.7456935 0.21498246 -0.65062284 0.14147562 -0.42901418 0.16772278 0.24529947 0.20453143
-0.70981103 0.09864745 0.15304783 0.23411037 0.14400004 0.1953224 0.08938 0.19385345
-0.52825296 0.1938555 -0.834744 0.29375684 0.24066463 -0.50762945 -0.60192525 0.3239405
0.20303012 0.3321962 -0.67953146 0.37556922 0.21826828 -0.6237408 0.17036512 -0.5361069
-0.53820705 0.14365216 0.1693644 0.20773295 -0.41471955 0.07961865 -0.4363563 0.1747667
0.43016893 -0.6513381 -0.6397151 0.18765791 -0.50518566 0.19111499 -0.8584669 0.061081763
0.25454497 0.10980031 -0.5880968 0.09360662 -0.6841211 0.18704031 0.22134791 -0.76774746
0.17783691 0.13438316 0.23409593 -0.98000234 -0.6468081 -0.23125719 -0.6573582 -0.7005722
0.08390342 -0.6415628 -0.6975919 0.15181988 -0.45221135 0.18309985 -0.7646481 -0.8063718
-0.53242534 -0.6084818 -0.80398756 -0.7105263 -0.75648206 -0.56478536 0.21946262 0.16630729
-0.711778 -0.7182154 0.10624947 -0.7264409 0.13053302 0.061326925 -0.60013705 0.27501643
0.61021036 -0.39731476 -0.62654227 -0.73454726 0.23062621 0.099334754 0.21021934 -0.7989807
-0.91968167 -0.5128151 0.18289332 0.12570481 0.17033225 -0.67369014 -0.7194671 0.15340412
0.31675804 0.22662063 0.18706046 -0.64202684 -0.41704416 -0.68251175 0.14097099 -0.31120694
-0.59703755 -0.6337545 0.25316718 0.16523705 0.29118755 -0.72119564 0.20827278 -0.06012554
0.13987008 0.20091538 0.1456987 0.4292719 -0.56252605 -0.5678309 -0.23514365 0.22895285
0.1360852 -0.95014006 0.13785592 -0.7076056 0.24515255 -0.87777907 -0.7890266 0.20235392
0.107466795 -0.56151277 0.22661564 -0.5146629 -0.5743876 -0.70444655 -0.55972457 0.6977707
0.1416055 0.16841449 -0.5705132 0.2677093 0.22441135 -0.5875007 0.29151827 0.08613816
0.077041306 -0.33422664 0.14181317 0.09413327 0.24409313 0.09002258 -0.5258687 0.543525
-0.6962806 0.24886972 -0.64618075 -0.4802855 0.2067723 0.18072578 0.32298306 0.21515004
0.18437006 0.09054913 0.3418192 0.1189686 0.25438765 0.20570129 0.15289217 -0.45534062
-0.70122784 0.16152182 -0.7315074 0.17132343 -0.67696846 -0.5368361 -0.71320856 -0.33662573
-0.81376284 0.12049179 0.13697971 -0.20011167 0.2236993 -0.6310723 -0.5730166 0.23030366
0.21921653 0.1276355 0.08932557 -0.67088866 0.119900644 -0.60198486 -0.4913423 -0.6759552
-0.8422542 0.29861674 0.19619685 -0.8030935 -0.75773376 0.23456141 -0.20260207 -0.15491602
-0.5302795 0.36128443 -0.66635865 -0.58708346 0.13485835 -0.3987155 -0.61319065 0.17044951
