Neural_networks/reacher_20_originalpolicy_target.pth (torch, 542751 bytes, 6 tensors)

hidden_layer_1.weight f4 [400, 33]
0	0xbc812469	-0.015764432
1	0x3eae7669	0.34074715
2	0x3e0eaa37	0.1393212
3	0x3f9e536d	1.236921
4	0x3df91b2e	0.12163387
5	0xbe7a981e	-0.2447209
6	0xbeb0995a	-0.34491998
7	0xbd9ccf27	-0.07656699
8	0x3e6099c9	0.21933664
9	0xbe25f5d4	-0.16207057
10	0x3d7ca938	0.061684817
11	0xbb065509	-0.0020497462
12	0xbc435b83	-0.011923674
13	0xbc78a2b0	-0.0151755065
14	0x3ca368bd	0.019947404
15	0xbdf18680	-0.11793232
16	0x3f3f9430	0.7483549
17	0xbd9bd5ed	-0.076091625
18	0xbcd963e0	-0.026536882
19	0x3d7d7ed7	0.061888542
20	0x3d5f7cda	0.054562427
21	0x3d29732e	0.04136961
22	0xbcc526e1	-0.02406639
23	0xbdcc4434	-0.09973946
24	0xbdadd482	-0.08487798
25	0xbd0e6415	-0.034763414
26	0xbddb95d2	-0.10721935
27	0x3ec710ca	0.38879997
28	0x3e86fe5c	0.26365936
29	0x3d4b65c9	0.049657617
30	0xbec8f1f4	-0.39247096
31	0xbcea4fb7	-0.028602464
32	0xbf25b0d4	-0.64722943
33	0xbea8bdc2	-0.32957274
34	0xbdcb3855	-0.09922854
35	0xbd0e0cba	-0.034680106
36	0xbf6d1095	-0.9260343
37	0x3e2f27dd	0.1710505
38	0xbf8cea7f	-1.1009063
39	0x3edf7ce2	0.43649966
40	0xbb059d2c	-0.0020387871
41	0xbc835ea3	-0.016036337
42	0xbd498c73	-0.04920621
43	0xbe01d779	-0.12679853
44	0xbc6f0b3a	-0.014590079
45	0x3c0a96be	0.008458791
46	0x3e576c9e	0.21037528
47	0x3df0fd12	0.11767019
48	0x3ba05f38	0.0048941635
49	0xbeaca1f2	-0.33717304
50	0x3e6fb33b	0.23408215
51	0xbf14cc08	-0.58123827
52	0x3f60f252	0.8786975
53	0x3c73f9bb	0.014891083
54	0x3d9e2182	0.07721235
55	0xbd9a4dab	-0.07534345
56	0x3cb76dec	0.022391282
57	0x3e1aed3e	0.15129563
58	0xbd2c63b7	-0.042087283
59	0xbe7508bd	-0.23929115
60	0x3e3db07d	0.18524356
61	0xbe29b29f	-0.16572045
62	0xbd28afc3	-0.041183244
63	0xbe13b131	-0.14423062
64	0xbc3b03ec	-0.011414509
65	0x3eaba039	0.33520678
66	0x3c72b6ec	0.01481412
67	0xbdfd92eb	-0.12381538
68	0x3c1d2089	0.0095902765
69	0xbf52afcf	-0.8229951
70	0xbe8d4f4e	-0.27599567
71	0x3e2f0b9a	0.1709427
72	0x3ed24239	0.4106615
73	0x3d550797	0.05200919
74	0x3df36a86	0.11885552
75	0xbe01daaa	-0.1268107
76	0xbd54fe4e	-0.052000336
77	0xbcac8e84	-0.02106405
78	0xbd82be05	-0.063838996
79	0x3d4bbc45	0.049740095
80	0x3e05d59c	0.13069767
81	0xbd004d14	-0.031323507
82	0xbdbd86a6	-0.09254198
83	0xbe07ff90	-0.13281083
84	0x3ed44e51	0.41466
85	0x3e0cee70	0.13762832
86	0x3b396ecf	0.0028294807
87	0xbc1d1581	-0.009587646
88	0x3d5df239	0.05418608
89	0x3c63ac55	0.013896068
90	0xbd96f1fb	-0.07370373
91	0xbc649d9e	-0.0139535945
92	0x3e5aad4a	0.21355167
93	0x3e2397d9	0.15975894
94	0x3e5978b7	0.21237455
95	0xbd0bd4ec	-0.034138605
96	0xbe628f7a	-0.22125044
97	0x3d3cb22b	0.04606835
98	0x3f0ba387	0.545464
99	0x3e0cd7e8	0.13754237
100	0xbe616ace	-0.22013399
101	0x3d936763	0.07197454
102	0xbf06b4db	-0.52619714
103	0xbe44d1fe	-0.1922073
104	0x3f1ba9d9	0.6080604
105	0x3dd7df76	0.10540669
106	0x3d5d03da	0.05395875
107	0xbe2431e2	-0.16034654
108	0xbd4b5b77	-0.049647775
109	0xbd21db53	-0.039515804
110	0x3d9127d2	0.07087673
111	0x3d09db3f	0.033656355
112	0x3cb1c5f6	0.02170084
113	0x3d8edef3	0.06976118
114	0xbda160ce	-0.07879792
115	0xbedb4e74	-0.42833292
116	0xbf4525fd	-0.7701109
117	0xbefb0b0f	-0.49031875
118	0x3f0df0be	0.5544547
119	0x3be234c4	0.006903263
120	0x3ce9da97	0.028546615
121	0x3d0338e7	0.03203669
122	0xbd3682cc	-0.04455833
123	0xbc82dc26	-0.015974116
124	0xbd650e1f	-0.05592167
125	0x3d90d37f	0.0707159
126	0x3d58d7e2	0.052940257
127	0x3e0dae67	0.1383606
128	0xb8545800	-5.0626695e-05
129	0xbdbbf43d	-0.09177444
130	0xba080380	-0.000518851
131	0x3ff7b33a	1.9351571
132	0x3df23595	0.11826626
133	0xbcbcdc25	-0.023054192
134	0xbebf1453	-0.37320194
135	0xbee00776	-0.43755692
136	0xbe1a85ec	-0.1509015
137	0x3e6d12a4	0.23151642
138	0xbed116a5	-0.4083759
139	0xbbdf77b8	-0.0068196915
140	0x3ed0f522	0.40812021
141	0x3d8b61ab	0.06805738
142	0xbdba0b51	-0.0908419
143	0x3e25734b	0.16157262
144	0x3cd5b9c4	0.026089557
145	0xbd30fed8	-0.043211788
146	0x3dc073bb	0.09397074
147	0x3e6f5796	0.23373255
148	0x3ed11979	0.40839747
149	0xbf5ae0e3	-0.854994
150	0x3da28ecf	0.07937395
151	0xbd965723	-0.07340839
152	0x3cccb73b	0.024989715
153	0xbe1f4ab9	-0.15555848
154	0xbd703d99	-0.058652494
155	0x3d3657c3	0.04451729
156	0xbd9e9330	-0.077429175
157	0x3d4e34d3	0.050343346
158	0x3e3e7663	0.18599848
159	0x3e06ab18	0.13151205
160	0x3d9e9e4c	0.077450365
161	0xbd1b80e0	-0.0379647
162	0xbe20b83f	-0.15695284
163	0xbc19c468	-0.009385206
164	0xbda8addf	-0.08236288
165	0x3e371304	0.17878348
166	0xbc5b045b	-0.013367738
167	0x3e8ce600	0.27519226
168	0x3e0bed36	0.13664708
169	0x3e0c911a	0.13727227
170	0xbe1799b0	-0.14804721
171	0x3e63cd3b	0.22246258
172	0xbd4768a5	-0.04868378
173	0xbd5f95c6	-0.054586194
174	0x3de7d005	0.113189735
175	0x3caeabe0	0.02132219
176	0xbcca6d67	-0.02471037
177	0x3d27dc3a	0.04098151
178	0xbcc1ad0d	-0.023642087
179	0x3e14f988	0.14548314
180	0xbe6377dd	-0.22213693
181	0xbef25a26	-0.47334403
182	0x3f11aa99	0.56900936
183	0x3ef22e99	0.47301176
184	0x3ed9fec9	0.42577198
185	0x3d24a0b6	0.04019233
186	0xbe4e4c5c	-0.20146316
187	0xbd9140d1	-0.07092441
188	0xbcb3445e	-0.021883186
189	0x3c37983b	0.011205728
190	0xbdb36161	-0.08758808
191	0x3e2c8e6f	0.16851209
192	0x3e14963e	0.14510438
193	0xbcda9e29	-0.026686745
194	0x3d402789	0.046912704
195	0xbdcb7e80	-0.09936237
196	0x3a713ec0	0.0009202771
197	0x3f38923f	0.72098154
198	0xbd6c8919	-0.057747934
199	0x3e4f5c71	0.20250107
200	0xbe6c59a5	-0.23081072
201	0x3f33a1f5	0.70169
202	0xbe3c7bf8	-0.18406665
203	0xbcffa697	-0.031207366
204	0xbe590831	-0.21194531
205	0x3c75dea7	0.015006698
206	0x3d7e6cf4	0.062115625
207	0x3d8a6361	0.06757236
208	0x3d7759dc	0.06038843
209	0xbde1495e	-0.11000322
210	0xbdc5af16	-0.096525356
211	0x3e33cca5	0.17558534
212	0xbaa08660	-0.0012247078
213	0xbccd7a3b	-0.025082698
214	0xbf3182d0	-0.6934023
215	0x3e0b65fe	0.13613126
216	0x3f3a9ae3	0.7289259
217	0xbe5a492e	-0.21316978
218	0xbd088b4e	-0.033335976
219	0x3d74211e	0.059601896
220	0x3cdfa358	0.027299568
221	0x3db5cea2	0.08877303
222	0x3d407865	0.046989817
223	0x3dd6e6c6	0.10493235
224	0xbd802cf7	-0.06258576
225	0x3e2dbb77	0.16966043
226	0x3d315e06	0.04330256
227	0xbd2f70b1	-0.04283208
228	0xbe431e89	-0.19054617
229	0x3c2ce8ac	0.01055352
230	0xbf89d536	-1.0768192
231	0x3e1e4e3d	0.15459533
232	0x3d86b234	0.06576958
233	0x3e4902b3	0.19629936
234	0x3ef2bc81	0.47409442
235	0xbdee9069	-0.11648638
236	0xbed189ff	-0.40925595
237	0x3ca5c538	0.020235643
238	0xbc538dcd	-0.012912226
239	0x3e01dd39	0.12682046
240	0x3c4d735a	0.012539709
241	0x3da6edde	0.08150838
242	0x3dba47f5	0.09095756
243	0x3c7eb476	0.015545955
244	0xbe45468e	-0.19265196
245	0x3de5d11a	0.112215236
246	0xbb5bff99	-0.0033569096
247	0xbeef32d8	-0.46718478
248	0xbeb1408e	-0.34619564
249	0x3eed8fc1	0.46398738
250	0x3f71ba7c	0.9442518
251	0xbd00d4fc	-0.031453118
252	0xbd8ab9b0	-0.06773698
253	0xbdff5041	-0.12466479
254	0xbde105a1	-0.10987402
255	0x3da8b3d1	0.08237422

hidden_layer_1.bias f4 [400]
0	0xbef9c135	-0.48780218
1	0xbe717ddb	-0.23583166
2	0xbcc9896c	-0.02460166
3	0xbd49b468	-0.049244314
4	0xbe884a68	-0.26619267
5	0xbe8e9bad	-0.27853146
6	0xbe973934	-0.2953583
7	0xbe9e50c3	-0.3092099
8	0xbe3739ac	-0.17893094
9	0xbe6228df	-0.22085904
10	0x3bd6e12a	0.0065576034
11	0xbdcecc26	-0.10097532
12	0xbe2f3939	-0.17111672
13	0xbe8e1528	-0.27750516
14	0xbd840dc6	-0.064479396
15	0x3ce22b4e	0.02760854
16	0xbed47dc4	-0.41502202
17	0xbe694bfd	-0.22782893
18	0xbeea80ed	-0.45801488
19	0xbe956436	-0.29178017
20	0xbee900f6	-0.45508546
21	0xbe540232	-0.20703962
22	0xbe6dd92a	-0.23227373
23	0xbebf6125	-0.37378803
24	0xbe226347	-0.15858184
25	0xbed3df31	-0.4138122
26	0xbe50c437	-0.2038735
27	0xbe716058	-0.23571908
28	0x3e58a963	0.21158366
29	0xbed616b4	-0.41814196
30	0xbdd3d449	-0.103432246
31	0xbd8ec45e	-0.06971048
32	0x3d8ff7e3	0.070297025
33	0xbdbb6e27	-0.09151869
34	0xbeea777d	-0.45794287
35	0xbe83f015	-0.25769106
36	0xbdd38de4	-0.10329798
37	0xbe93c708	-0.28862786
38	0x3e4742e2	0.19459108
39	0x3d23128f	0.03981262
40	0xbe4e2571	-0.2013147
41	0x3e5545c7	0.20827399
42	0x3e02a805	0.12759407
43	0xbe43abbc	-0.1910848
44	0xbee0c1a4	-0.43897736
45	0x3e0962c2	0.1341658
46	0xbd98adca	-0.07455023
47	0xbe2a470f	-0.16628669
48	0xbe9916a8	-0.29900098
49	0xbe8b2f86	-0.27184695
50	0xbcaad0ff	-0.02085161
51	0xbe2347c2	-0.15945342
52	0xbe0127e4	-0.12612873
53	0xbe507b71	-0.20359589
54	0xbe8bad2e	-0.27280563
55	0xbe0e5cf4	-0.13902646
56	0xbdb5e081	-0.08880711
57	0xbe4d95a1	-0.2007661
58	0xbea7056e	-0.3262133
59	0xbe9b82b0	-0.30373144
60	0xbe647921	-0.22311832
61	0xbebe3142	-0.37146956
62	0xbe0e00a9	-0.1386744
63	0xbe985eac	-0.2975973
64	0xbea7e08c	-0.32788503
65	0xbe070519	-0.13185538
66	0xbdb7dca6	-0.08977632
67	0xbef33b60	-0.47506237
68	0xbe5e68c4	-0.21719652
69	0xbde8f27f	-0.113743775
70	0xbde6a308	-0.112615645
71	0xbebb1804	-0.3654176
72	0xbe59f985	-0.2128659
73	0xbea78e0b	-0.32725558
74	0xbe118227	-0.14209805
75	0xbbe8493a	-0.0070888074
76	0xbec44e25	-0.3834087
77	0xbeabb1aa	-0.33533984
78	0xbeaec955	-0.3413798
79	0xbe8bad5e	-0.27280706
80	0xbd203247	-0.03911045
81	0xbe5f310e	-0.21796057
82	0xbee02ccb	-0.43784174
83	0xbd71b104	-0.059006706
84	0xbf04e29b	-0.5190827
85	0x3df83e52	0.12121262
86	0xbed91b93	-0.4240385
87	0xbdee4bab	-0.11635526
88	0xbe9cb3f3	-0.3060604
89	0xbf184618	-0.59481955
90	0xbec3e737	-0.3826234
91	0xbeb2b869	-0.3490632
92	0x3de9c4a9	0.11414463
93	0xbe2baf95	-0.16766198
94	0xbebeca4c	-0.37263715
95	0xbecfe23d	-0.40602294
96	0xbf01bd67	-0.5067963
97	0xbe751958	-0.23935449
98	0xbd96cbcd	-0.07363091
99	0xbd66c827	-0.056343224
100	0xbed2e000	-0.41186523
101	0xbe4538e3	-0.19259982
102	0xbc1fdbfa	-0.009757036
103	0xbdc6a949	-0.09700257
104	0xbdf0dfea	-0.11761458
105	0xbe0431e2	-0.12909654
106	0xbe51ec39	-0.20500268
107	0xbef88a85	-0.48543182
108	0xbdea6cc8	-0.114465296
109	0xbe65215a	-0.22376004
110	0xbe9782d1	-0.29591992
111	0xbe668d41	-0.22514822
112	0xbf03fe1b	-0.5155961
113	0x3d69b242	0.057054766
114	0xbe553c6e	-0.20823833
115	0x3c753d51	0.014968232
116	0xbee1da26	-0.44111747
117	0xbe12babc	-0.14329046
118	0xbec48da0	-0.383893
119	0xbdb98b34	-0.09059754
120	0xbe832bd5	-0.2561938
121	0xbed905e5	-0.4238731
122	0x3cbe9732	0.023265455
123	0xbe04387c	-0.12912172
124	0xbea43c1f	-0.3207712
125	0xbe178570	-0.14796996
126	0xbec761ed	-0.389419
127	0xbe9ee3f3	-0.31033286
128	0xbd94596a	-0.07243617
129	0xbe7102b4	-0.23536187
130	0xbe88a8b2	-0.26691204
131	0xbd213cce	-0.03936463
132	0xbe0f14fe	-0.13972852
133	0xbdf102f7	-0.117681436
134	0xbe0d0c0a	-0.13774124
135	0xbe2fcee6	-0.17168769
136	0xbebf4490	-0.37356997
137	0x3dbe2940	0.092852116
138	0xbe23c6e2	-0.15993837
139	0xbeac8b23	-0.33699903
140	0xbe48c7b8	-0.19607437
141	0xbeb87847	-0.36029264
142	0xbd7d72ca	-0.06187705
143	0xbcee44c0	-0.029085517
144	0xbf2802ba	-0.6562916
145	0xbe52a8c0	-0.20572186
146	0xbeb337a5	-0.3500339
147	0xbf28719d	-0.6579836
148	0xbef05c9c	-0.46945655
149	0xbd81c609	-0.063366
150	0xbf02fcaf	-0.51166815
151	0xbe705681	-0.23470499
152	0x3ef323b4	0.47488177
153	0xbe5c0549	-0.21486391
154	0xbf0de7c0	-0.5543175
155	0xbf1c8b34	-0.6114991
156	0xbafd0ce9	-0.0019306216
157	0xbefe254b	-0.49637827
158	0xbd446a58	-0.04795298
159	0xbe54c130	-0.2077682
160	0xbe87502c	-0.26428354
161	0x3d9f4d7a	0.07778449
162	0x3e05e2b8	0.13074768
163	0xbe0c7ba7	-0.13719045
164	0xbd8dd7a7	-0.06925898
165	0xbe41b4f2	-0.18916681
166	0xbe7f0234	-0.24903184
167	0xbea64fd0	-0.32482767
168	0xbd3e70aa	-0.046494164
169	0xbc6080de	-0.013702599
170	0xbef3c31c	-0.47609794
171	0xbf229c0a	-0.63519347
172	0xbe8c97e6	-0.2745964
173	0xbe8077f9	-0.25091532
174	0xbeb091de	-0.34486288
175	0x3e40feb7	0.18847166
176	0xbebdc212	-0.37062126
177	0xbeac5074	-0.3365513
178	0xbe2e9c26	-0.17051753
179	0xbe52dbd0	-0.20591664
180	0xbce0113e	-0.027351972
181	0xbe8d67f0	-0.2761836
182	0xbe525378	-0.20539653
183	0xbe9f94b9	-0.31168154
184	0xbe69745f	-0.22798298
185	0xbec0a5c5	-0.37626472
186	0xbe82c046	-0.25537318
187	0x3dd8548a	0.105629995
188	0x3d0eece2	0.034893878
189	0xbda98b5c	-0.08278534
190	0xbeb74304	-0.35793316
191	0xbe8d163e	-0.27556032
192	0xbc8eb2de	-0.017419275
193	0x3e0d22fc	0.13782877
194	0xbea7953b	-0.3273104
195	0xbe3527ae	-0.17690918
196	0xbec734c2	-0.3890744
197	0xbeeada86	-0.45869845
198	0xbd3dcf06	-0.04634001
199	0xbd2d96d4	-0.04238017
200	0xbea82826	-0.3284313
201	0xbe966235	-0.293718
202	0xbe22e097	-0.15905987
203	0xbe7dbdb0	-0.24779391
204	0xbec630ca	-0.38709098
205	0xbde08914	-0.109636456
206	0xbd9cf6fe	-0.076642975
207	0xbe1673b9	-0.14692582
208	0xbe13569b	-0.14388506
209	0xbeb0fec0	-0.3456936
210	0xbe954362	-0.29152972
211	0x3da0a439	0.07843823
212	0xbe9c32bd	-0.3050746
213	0xbeac85d4	-0.33695853
214	0xbe6e4447	-0.23268233
215	0xbf0dab0b	-0.55339116
216	0xbf02be6c	-0.5107181
217	0xbd83d393	-0.06436839
218	0xbea055c5	-0.31315437
219	0x3dadca12	0.084858075
220	0xbe6eef68	-0.23333514
221	0xbf09ffff	-0.53906244
222	0xbea35c0d	-0.31906167
223	0xbee6f011	-0.4510503
224	0x3dc34688	0.09534937
225	0xbe10d958	-0.1414541
226	0xbdccb499	-0.09995384
227	0xbd9341f3	-0.07190313
228	0xbe293b18	-0.16526449
229	0xbef2cbc5	-0.4742109
230	0xbe33b0d4	-0.17547923
231	0xbe2b144e	-0.16706964
232	0x3da64888	0.08119303
233	0xbe172a4c	-0.14762229
234	0xbe449984	-0.19199187
235	0x3e6a88fd	0.2290382
236	0xbea415bf	-0.3204784
237	0xbe0132bc	-0.1261701
238	0xbf1716be	-0.59019077
239	0xbdbafb86	-0.091300055
240	0xbc968573	-0.01837418
241	0xbd24133c	-0.040057406
242	0x3e9fb901	0.31195834
243	0x3d2facdc	0.04288946
244	0xbe959619	-0.29216078
245	0xbf155a88	-0.58341265
246	0xbc51a390	-0.012795344
247	0x3e245a77	0.16050135
248	0x3cd6505a	0.026161361
249	0xbed582de	-0.41701406
250	0xbe1c73ae	-0.15278503
251	0xbe6dddb1	-0.232291
252	0xbe6f17d7	-0.23348938
253	0xbf0ac15c	-0.54201293
254	0xbd852c6c	-0.065026134
255	0xbe63ab76	-0.22233376

hidden_layer_2.weight f4 [300, 400]
0	0x3d79fe0f	0.061033305
1	0xbe6fa498	-0.23402631
2	0x3e4ef5c3	0.20210938
3	0x3e3ce0cc	0.18445128
4	0xbdf58561	-0.11988331
5	0xbebec346	-0.37258357
6	0x3ebf33c0	0.3734417
7	0x3df6b6ee	0.1204661
8	0x3e51d45a	0.20491162
9	0x3e02ea02	0.1278458
10	0x3e9516ef	0.2911906
11	0x3d26d677	0.040731873
12	0xbbb71c2e	-0.005588076
13	0xbdc96abf	-0.09834813
14	0xbe6000c8	-0.21875298
15	0xbe3d5d4d	-0.18492623
16	0xbe1c7bcd	-0.15281601
17	0xbe25fad0	-0.16208959
18	0xbe2215e6	-0.15828666
19	0x3e5defb8	0.21673477
20	0xbeddd819	-0.43328932
21	0xbd6e5753	-0.058188748
22	0xbd7a7d41	-0.061154608
23	0xbe75dd76	-0.24010262
24	0xbb95f9cd	-0.0045768977
25	0xbd9fa5f6	-0.077953264
26	0xbe8db92f	-0.27680346
27	0xbe6894d7	-0.22713028
28	0x3ea85efe	0.32884973
29	0xbde36264	-0.11102751
30	0x3e236dca	0.1595985
31	0xbead30d0	-0.33826303
32	0x3d784aa3	0.060618054
33	0x3e0b01af	0.13574861
34	0xbeec6474	-0.4617039
35	0x3e98c26d	0.29835835
36	0xbd03b48b	-0.0321546
37	0xbe256fdd	-0.16155954
38	0xbe9d5e17	-0.30735847
39	0x3e76c097	0.24096905
40	0x3f21a4a7	0.63141865
41	0xbcdd0ff9	-0.026985155
42	0xbe8dd9b6	-0.27705163
43	0xbec0c18c	-0.37647665
44	0x3de109fe	0.10988234
45	0xbebc2b25	-0.36751667
46	0x3dc30aa8	0.09523517
47	0xbf1eca1c	-0.62027144
48	0xbe87ce0b	-0.26524386
49	0xbda4e8a6	-0.08052187
50	0xbe0cdbf6	-0.13755783
51	0xbd8ceeb8	-0.068814695
52	0x3e677753	0.22604112
53	0xbe075a83	-0.13218121
54	0xbe98d6fd	-0.29851523
55	0x3ce70c7d	0.028204197
56	0x3e39fc51	0.18162657
57	0xbc8a4ab0	-0.016881317
58	0xbc1afc35	-0.009459545
59	0xbe69568e	-0.22786924
60	0xbd4f7a9b	-0.050654035
61	0x3d0892c6	0.0333431
62	0xbf06c510	-0.52644444
63	0xbefa8882	-0.48932272
64	0x3d9f7d83	0.07787611
65	0xbea26926	-0.31720847
66	0xbe6294a4	-0.22127014
67	0x3db8c4a9	0.09021885
68	0xbe472ce9	-0.19450726
69	0xbe1169b1	-0.14200474
70	0x3e2454e5	0.1604801
71	0x3ebdb15b	0.37049374
72	0xbc424d3a	-0.011859233
73	0x3e80cc1b	0.2515572
74	0x3e794431	0.24342419
75	0xbe4b327f	-0.19843481
76	0xbf23ea78	-0.64029646
77	0xbe4502c0	-0.1923933
78	0x3e0beebd	0.1366529
79	0x3c9cd11e	0.019142684
80	0xbec88294	-0.39162123
81	0xbe22eae7	-0.1590992
82	0xbec7f693	-0.3905531
83	0x3b0471b9	0.0020209386
84	0x3e806460	0.2507658
85	0xbdca2fb3	-0.09872379
86	0xbf071ba2	-0.5277654
87	0x3e922a64	0.28547966
88	0x3f3a0e4a	0.72678053
89	0xbef6494a	-0.4810279
90	0xbdbb58f7	-0.09147828
91	0xbd968569	-0.07349665
92	0x3e22e07c	0.15905946
93	0xbe03708d	-0.12835903
94	0x3d3a7bfd	0.0455284
95	0x3df2e448	0.118599474
96	0x3de6a81f	0.11262535
97	0x3e4a388e	0.19748136
98	0xbea84502	-0.3286515
99	0xbe9df5a5	-0.30851474
100	0x3dc98530	0.098398566
101	0x3e164b82	0.14677241
102	0xbce76559	-0.028246569
103	0x3dd7265c	0.10505363
104	0xbe0253e2	-0.12727311
105	0x3e17c4ce	0.14821169
106	0x3d708930	0.058724582
107	0x3ee93908	0.45551324
108	0x3f164a58	0.5870719
109	0x3d1d28bb	0.03836892
110	0xbe6730b1	-0.22577168
111	0xbf02a54b	-0.5103347
112	0x3e2c0020	0.16796923
113	0xbe90da30	-0.28291464
114	0x3ed2e73b	0.4119204
115	0xbc02860f	-0.007966532
116	0xbde9b7b5	-0.114119925
117	0xbda6af6e	-0.08138929
118	0x3e31eeae	0.17376205
119	0x3d12fbd0	0.03588468
120	0xbcce547d	-0.025186772
121	0x3de3c445	0.1112142
122	0xbe5aab35	-0.21354373
123	0x3e91c1c3	0.2846814
124	0x3d5a9ab2	0.053370185
125	0xbe1bab00	-0.1520195
126	0xbe6fb8f6	-0.23410401
127	0x3df8ce49	0.12148721
128	0x3eba3fb8	0.3637674
129	0xbe61fc81	-0.22068979
130	0x3e9b2b3f	0.30306432
131	0x3dc2b6e7	0.09507542
132	0xbe444b4e	-0.19169351
133	0xbe264a46	-0.1623927
134	0x3e58bc97	0.21165691
135	0xbec17c73	-0.3779026
136	0xbda81648	-0.08207375
137	0xbdddfa54	-0.10838762
138	0xbb4d130c	-0.003129187
139	0x3b82a35b	0.0039867586
140	0xbe71afe3	-0.23602252
141	0x3da48b7e	0.080344185
142	0x3eb4ece0	0.3533697
143	0x3ea83732	0.3285461
144	0x3d2fa98e	0.04288631
145	0x3e7887e9	0.24270596
146	0xbf07742c	-0.5291164
147	0x3bb199da	0.005419952
148	0xbde05ee3	-0.10955598
149	0x3e735386	0.2376233
150	0x3deae53f	0.114695065
151	0xbe17c6f8	-0.14821994
152	0xbe09d2c9	-0.13459314
153	0xbe843aae	-0.2582602
154	0x3e7a6688	0.24453175
155	0x3eb57c19	0.35446241
156	0x3d2c4ba9	0.042064343
157	0x3e0bd4e8	0.13655436
158	0x3d2fb165	0.042893786
159	0xbc658fe5	-0.014011358
160	0xbb060ea1	-0.0020455497
161	0xbeb76d10	-0.35825396
162	0x3e9d867a	0.3076666
163	0xbdb13a7e	-0.086537346
164	0x3ed74c10	0.4205022
165	0x3e868da7	0.26279947
166	0x3e7f8396	0.2495254
167	0xbea98028	-0.33105588
168	0xbe0e3021	-0.13885547
169	0xbe35766b	-0.17720954
170	0x3e1dcc95	0.15410073
171	0x3c970514	0.018435039
172	0x3d239b38	0.03994295
173	0xbe7530d7	-0.23944412
174	0x3eecaea4	0.4622699
175	0xbe85ce6d	-0.26134053
176	0x3e29d944	0.16586787
177	0xbe1a956f	-0.15096067
178	0x3e8330f1	0.25623277
179	0x3df23dd6	0.118282005
180	0x3ebf16f1	0.3732219
181	0x3ec3a584	0.38212216
182	0xbc346382	-0.011010053
183	0xbe7051c9	-0.23468699
184	0x3ad16f4e	0.0015978606
185	0xbe1254e1	-0.14290191
186	0xbf1f45ea	-0.62216055
187	0xbd0d1eab	-0.034453075
188	0xbe40552c	-0.1878249
189	0x3d6d1336	0.05787965
190	0xbd55966f	-0.052145418
191	0xbe7fb434	-0.24971086
192	0x3e1d84bd	0.15382667
193	0xbe695d09	-0.22789396
194	0x3e9f79b3	0.31147537
195	0x3dee75b0	0.11643541
196	0x3d10ca4c	0.035349175
197	0xbe25ddb4	-0.16197854
198	0xbc699ed5	-0.01425906
199	0x3e418fef	0.18902563
200	0x3ed7e655	0.42167917
201	0x3e2bdbc4	0.16783053
202	0xbe50d50d	-0.20393772
203	0xbc8d174e	-0.017223027
204	0x3ef70d82	0.48252493
205	0xbd094bd0	-0.033519566
206	0x3d0a3299	0.03373966
207	0x3e4e2323	0.20130591
208	0xbe897d31	-0.26853326
209	0x3dfc086e	0.12306295
210	0xbec6ed74	-0.38853037
211	0x3ccb59bc	0.024823062
212	0x3e3c5997	0.18393551
213	0xbe89055d	-0.26761904
214	0x3ee8a42d	0.45437756
215	0x3cbc798e	0.02300718
216	0xbd20a665	-0.039221186
217	0xbe151aca	-0.14561
218	0xbeebfb94	-0.46090376
219	0xbd9a5ba6	-0.07537012
220	0xbd57d224	-0.05269064
221	0x3d74cad9	0.059763763
222	0x3e29e7bf	0.1659231
223	0x3e9138f6	0.2836377
224	0xbec7515b	-0.38929257
225	0xbec1bfd6	-0.37841672
226	0x3eb583d3	0.35452136
227	0xbceda968	-0.029011443
228	0xbf00160a	-0.5003363
229	0xbe1c179b	-0.1524338
230	0x3bcdccf1	0.0062805344
231	0x3d9c88c1	0.07643271
232	0x3e86f34f	0.26357505
233	0xbe09ecd1	-0.13469245
234	0xbdec3579	-0.115336366
235	0x3e455200	0.19269562
236	0xbf23b359	-0.6394554
237	0x3ef9fc23	0.48825178
238	0x3eb98553	0.3623453
239	0x3ea61dc7	0.32444593
240	0xbe58033b	-0.21094982
241	0xbe988874	-0.29791605
242	0x3da8a612	0.082348004
243	0xbe8974c9	-0.26846913
244	0x3e585ffc	0.21130365
245	0x3f05e694	0.5230496
246	0x3e1c5b87	0.1526929
247	0xbe416fe1	-0.18890335
248	0x3c093924	0.00837544
249	0xbe88bad7	-0.26705047
250	0xbe3847cd	-0.1799614
251	0xbf116c7c	-0.5680616
252	0xbdafae09	-0.085781164
253	0x3e948890	0.2901044
254	0xbe2778e3	-0.16354708
255	0x3e46e1be	0.19422051

hidden_layer_2.bias f4 [300]
0	0xbc588a10	-0.01321651
1	0xbd43d15e	-0.04780709
2	0xbde987fa	-0.114028886
3	0x3da740c5	0.08166651
4	0x3bd8e951	0.0066196104
5	0x3d66f80b	0.056388896
6	0x3cda78d1	0.026668938
7	0x3daf74cc	0.08567199
8	0x3c78d28f	0.01518692
9	0x3d74b054	0.059738472
10	0xbd773853	-0.06035645
11	0xbbc385a5	-0.0059668594
12	0x3de66d89	0.11251361
13	0xbddc3314	-0.1075193
14	0xbe26ba7b	-0.16282074
15	0xbcf50ce8	-0.02991338
16	0xbc1f1412	-0.009709375
17	0x3e8428b8	0.25812316
18	0xbdeccfc5	-0.115630664
19	0x3b63a4a9	0.0034735596
20	0x3de392da	0.11111994
21	0xbd3cfe6b	-0.04614107
22	0x3e0d5d3c	0.13805097
23	0x3da5139b	0.0806038
24	0x3d962b16	0.07332437
25	0xbe1f9371	-0.15583588
26	0xbd663e7c	-0.056211933
27	0x3e644e3f	0.22295474
28	0xbe0272b4	-0.12739068
29	0xbeb78541	-0.35843852
30	0xbdf2a18f	-0.11847221
31	0xbe41e950	-0.18936658
32	0xbd976e51	-0.07394088
33	0xbe9e4402	-0.3091126
34	0x3d3d949e	0.04628431
35	0xbe1fe791	-0.1561568
36	0xbdf6bdb3	-0.12047901
37	0xbe3dfcf5	-0.18553527
38	0x3d0ba8d5	0.034096558
39	0x3ca41e09	0.020033853
40	0xbddee6c5	-0.108838595
41	0x3c8c12a5	0.017098734
42	0xbc4da2bc	-0.012551006
43	0x3d2ff365	0.04295673
44	0xbe1c13ca	-0.15241924
45	0xbe041295	-0.12897713
46	0xbd1c6fc0	-0.03819251
47	0xbe08ded3	-0.1336625
48	0xbe48db88	-0.19614995
49	0xbe248893	-0.16067724
50	0xbd8c4d74	-0.068507105
51	0x3ca4743e	0.02007496
52	0xbeb46e12	-0.35240227
53	0xbe2d6876	-0.1693438
54	0xbbbe5641	-0.005808622
55	0xbce30353	-0.027711546
56	0xbe843f41	-0.2582951
57	0xbcf5f761	-0.030025186
58	0xbe79ed67	-0.24406968
59	0xbe8fc9da	-0.28083688
60	0xbd9b7893	-0.07591357
61	0xbe07862b	-0.13234775
62	0xbd964723	-0.07337787
63	0xbea03531	-0.31290582
64	0xbce50697	-0.027957244
65	0xbd3971db	-0.045274597
66	0xbce6ad4d	-0.028158808
67	0xbd51b6f0	-0.051199853
68	0x3d9cf3d5	0.07663695
69	0xbe4b8b74	-0.19877416
70	0x3d0e1f76	0.034697972
71	0xbe5be09a	-0.21472397
72	0xbd0f4193	-0.034974646
73	0xbe06f2f1	-0.13178612
74	0x3d55362d	0.05205362
75	0xbc00dc95	-0.007865091
76	0xbeb45e75	-0.35228315
77	0x3cc37654	0.023860134
78	0xbe585616	-0.21126589
79	0xbe2b8097	-0.16748272
80	0xbdb9107f	-0.090363495
81	0xbe585636	-0.21126637
82	0xbc2759f0	-0.010214314
83	0x3d9cf01c	0.07662985
84	0xbdb129f5	-0.08650581
85	0xbe04c825	-0.12966974
86	0xbd8a3253	-0.0674788
87	0xbd5aba5d	-0.053400386
88	0xbc9d7ada	-0.01922362
89	0x3df7b30b	0.120946966
90	0xbc460cea	-0.01208804
91	0xbc4aab1b	-0.012369896
92	0x3d1066fb	0.03525446
93	0xbe834b20	-0.25643253
94	0xbe97f58f	-0.29679534
95	0xbe9eb5f2	-0.30998188
96	0x3d3dd233	0.04634304
97	0xbe2ff364	-0.1718269
98	0xbd796c0d	-0.06089406
99	0x3b667e04	0.0035170326
100	0xbe5d954a	-0.2163898
101	0x3b3ca710	0.00287861
102	0xbe887bce	-0.26656955
103	0xbd14e992	-0.036355563
104	0xbc5e8768	-0.013582088
105	0xbe987c55	-0.29782358
106	0xbe28e140	-0.16492176
107	0xbdd755b8	-0.105143964
108	0xbdb466f8	-0.08808702
109	0xbdab1440	-0.08353472
110	0x3c692094	0.014228959
111	0x3d9d1e39	0.0767178
112	0x3ca7f836	0.020504098
113	0xbe60f889	-0.21969809
114	0x3da6a9bd	0.08137844
115	0xbe184994	-0.14871818
116	0x3cd0e06a	0.025497634
117	0xbdc68f90	-0.09695351
118	0xbe16f0bf	-0.14740275
119	0xbb25c687	-0.0025295333
120	0xbdbbe085	-0.09173683
121	0xbcba63c1	-0.022752644
122	0x3c023637	0.007947496
123	0xbda9d32c	-0.08292231
124	0xbe20bc35	-0.15696795
125	0x3c7dae17	0.015483401
126	0xbd4712df	-0.04860198
127	0xbdacff96	-0.08447187
128	0x3daa50c3	0.08316185
129	0xbc02977d	-0.007970688
130	0xbd539604	-0.051656738
131	0x3e1046fa	0.14089575
132	0xbda06b8f	-0.07833015
133	0xbe1c2963	-0.15250163
134	0xbd39660f	-0.045263346
135	0x3c26e8f7	0.010187379
136	0xbe22e820	-0.15908861
137	0xbd1f11c0	-0.038835287
138	0xbe19e7bc	-0.15029806
139	0xbaa53ec1	-0.0012607203
140	0xbc9d9960	-0.019238174
141	0xbe7ebb76	-0.24876198
142	0xbde92677	-0.1138429
143	0xbdb319a5	-0.08745126
144	0x3d92e3f0	0.07172382
145	0xbd0a47b2	-0.03375978
146	0x3d889689	0.06669337
147	0xbd781eef	-0.060576376
148	0x3d8c36af	0.068463676
149	0xbcef2fe2	-0.029197637
150	0xbac857dd	-0.0015284974
151	0x3c2cb470	0.0105410665
152	0x3d3ae9d2	0.045633145
153	0x3e87e027	0.26538202
154	0xbf0b5b33	-0.54436034
155	0xbe34a0d5	-0.17639478
156	0xbea90739	-0.33013323
157	0xbc99e231	-0.018784614
158	0xbeb55db5	-0.35423055
159	0xbde85a4c	-0.11345348
160	0xbd829312	-0.06375708
161	0xbd4727e7	-0.04862204
162	0xbe234b61	-0.15946724
163	0xbdc3568d	-0.095379926
164	0xbd84db5a	-0.064871505
165	0xbe1c18ec	-0.15243882
166	0xbdca8cf4	-0.09890166
167	0xbe45e9d4	-0.1932748
168	0xbde01373	-0.1094121
169	0xbd884566	-0.06653862
170	0x3cfc9a7e	0.030835386
171	0xbebf9976	-0.3742177
172	0xbe744832	-0.23855665
173	0xbe825137	-0.25452587
174	0xbc91464e	-0.01773372
175	0xbe8d356b	-0.27579817
176	0xbe40cce7	-0.18828164
177	0xbd5b52b1	-0.053545658
178	0xbd653c2e	-0.055965595
179	0xbe263eac	-0.16234845
180	0x3cf2b0db	0.029625347
181	0x3e0151fb	0.1262893
182	0xbe04fcc3	-0.12987046
183	0xbdf75709	-0.120771475
184	0xbddb392f	-0.10704266
185	0xbd515b0b	-0.051112216
186	0x3d232f64	0.039840117
187	0x3de5107e	0.11184786
188	0x3e34fcb1	0.17674519
189	0xbd8139bb	-0.06309839
190	0xbd91dc35	-0.07122079
191	0xbe50eee5	-0.20403631
192	0xbca23579	-0.019800888
193	0xbeb5509d	-0.35413066
194	0x3ddfecf9	0.10933871
195	0x3da6fd00	0.08153725
196	0x3bc4f74d	0.006010926
197	0xbe8f0a4e	-0.2793755
198	0xbefaa2d5	-0.48952356
199	0xbd731be8	-0.059352785
200	0x3d06e53f	0.03293347
201	0xbd494303	-0.049136173
202	0xbe3c4243	-0.18384652
203	0x3db7cea7	0.08974963
204	0xbd8ccd77	-0.06875127
205	0x3ce6e1fb	0.028183928
206	0x3dec302b	0.11532625
207	0xbdb2a7ff	-0.08723449
208	0xbd94b589	-0.072611876
209	0xbcac52a7	-0.021035505
210	0xbe49f194	-0.19721061
211	0xbd704556	-0.058659874
212	0xbc9a58fe	-0.018841263
213	0xbe4ce04b	-0.20007436
214	0xbdd3bf36	-0.10339205
215	0xbdbe2f1c	-0.09286329
216	0xbda26b1b	-0.07930585
217	0xbe84a41a	-0.2590645
218	0x3d97cdd3	0.07412305
219	0xbd50fc35	-0.051021773
220	0xbe70ab3a	-0.23502818
221	0xbeba9878	-0.3644445
222	0xbb6145b2	-0.0034373817
223	0xbe5672ad	-0.20942183
224	0xbe94eec8	-0.29088426
225	0xbcf70432	-0.030153368
226	0x3d942e86	0.07235436
227	0x3d80808b	0.062745176
228	0xbe403fa4	-0.18774277
229	0xbe0c5bd6	-0.13706908
230	0x3d4c8fb4	0.049941733
231	0xbe0758c5	-0.13217457
232	0xbd9e7964	-0.07737997
233	0x3d371e82	0.04470683
234	0xbe317c1b	-0.17332499
235	0xbe858ef3	-0.26085624
236	0xbe86c10a	-0.26319152
237	0x3d9e997b	0.07744118
238	0xbe1e6033	-0.15466385
239	0xbe3cf3ea	-0.18452421
240	0x3bd6cdb3	0.006555283
241	0x3cf2ba8e	0.029629972
242	0xbc0c3668	-0.008557893
243	0xbbd14217	-0.0063860524
244	0xbe1c5aea	-0.15269056
245	0xbe13550a	-0.14387909
246	0xbe5e5afb	-0.21714394
247	0x3e26e343	0.16297631
248	0xbd9f91e8	-0.07791501
249	0xbdce1b52	-0.10063805
250	0x3d4b037c	0.04956387
251	0xbe6aa7e1	-0.22915603
252	0x3b376dcc	0.0027989028
253	0x3bb2e703	0.0054596676
254	0xbe45fdd8	-0.19335115
255	0xbe55743c	-0.20845121

output.weight f4 [4, 300]
0	0xbf39d426	-0.7258934
1	0xbfa60fee	-1.2973611
2	0xbfb1800a	-1.38672
3	0xbdf765d4	-0.12079969
4	0x3fc29d6a	1.5204289
5	0x3f7b1e9b	0.98093575
6	0xbf3e0c25	-0.7423728
7	0xbefc8e6a	-0.49327403
8	0x3f9f2f21	1.2436258
9	0x3ff4e2f9	1.9131767
10	0xbf00729d	-0.50174886
11	0xbf087a77	-0.53311867
12	0x3eb2b2b7	0.34901974
13	0xbf9ba956	-1.2161052
14	0x3f8f03cf	1.1173037
15	0xbf75003b	-0.95703477
16	0xbfeb2fea	-1.8373997
17	0x3dc747b9	0.09730477
18	0xbfac90ce	-1.3481691
19	0x3f807211	1.003481
20	0xbf802ee4	-1.001431
21	0x3e803129	0.25037506
22	0xbf0c4644	-0.54794717
23	0x3fbdea75	1.4837176
24	0x3e38ecc0	0.18059063
25	0xbed88319	-0.4228752
26	0x3fa4283f	1.2824782
27	0x3f0bc0b9	0.54590946
28	0x3ff3e008	1.9052744
29	0xbfeae738	-1.8351812
30	0x3e8dab29	0.27669647
31	0x3f813272	1.009352
32	0x3eec131d	0.46108332
33	0xbf627e28	-0.8847375
34	0x3f30a9b2	0.69008934
35	0x3fb70fae	1.430166
36	0xbf14975f	-0.58043474
37	0x3f5d0f27	0.86351246
38	0xbf842e15	-1.0326563
39	0xbe4fd55f	-0.20296238
40	0xbf1017fe	-0.5628661
41	0x3ebbd04e	0.3668236
42	0x3f5e7283	0.8689348
43	0x3c7d8f38	0.015476041
44	0x3f7e7bd4	0.99407697
45	0xbcfe0bcf	-0.03101149
46	0x3e6f527e	0.23371312
47	0x3fbcf537	1.4762334
48	0x3f8d973f	1.1061782
49	0x3fa4f4b5	1.2887179
50	0xbf5b9ee6	-0.85789335
51	0xbd18c91a	-0.03730116
52	0xbfa03a0a	-1.2517712
53	0xbdcc2ea9	-0.09969837
54	0xbdb1dbed	-0.08684526
55	0x3eab2e54	0.33433783
56	0x3d954f0e	0.07290469
57	0x3f474008	0.7783208
58	0xbfaf8a33	-1.371405
59	0x3edc97bf	0.43084523
60	0xbe3954fa	-0.18098822
61	0x3e1653eb	0.1468045
62	0x4006c375	2.1056798
63	0xbee07626	-0.4384014
64	0xbe3af900	-0.18259048
65	0x3e9ce302	0.30641943
66	0xbfd0e1bf	-1.6318892
67	0xbe72057c	-0.23634905
68	0xbf24c07e	-0.6435622
69	0xbf102f58	-0.5632224
70	0xbf7f0ad6	-0.9962591
71	0xbea05079	-0.31311396
72	0xbf05158e	-0.51986015
73	0x3edefa45	0.43550315
74	0x3f551795	0.8323911
75	0x3da588bf	0.08082723
76	0x3fc8d98c	1.569139
77	0xbf6cedaa	-0.92550147
78	0xbf7e19c9	-0.99258095
79	0xbef6f567	-0.48234102
80	0xbdde4d32	-0.108545676
81	0x3f1e5f75	0.61864406
82	0xbe002cf6	-0.12517151
83	0xbf82fab3	-1.0232757
84	0x3f873e38	1.0565863
85	0xbec63bb4	-0.38717425
86	0x3fca3de0	1.5800133
87	0x3fc8e974	1.5696244
88	0xbe95c3aa	-0.29250842
89	0xbed0210a	-0.40650207
90	0xbf4a8a05	-0.7911685
91	0xbf2c3fa3	-0.672846
92	0xbfca7174	-1.5815873
93	0x3f4e1d89	0.8051382
94	0xbf03bb4d	-0.51457673
95	0xbf8d6331	-1.1045896
96	0xbf85eba6	-1.0462539
97	0x3f076e84	0.5290301
98	0xbf2eb22d	-0.68240625
99	0x3dd3181b	0.10307332
100	0xbfa503a3	-1.2891735
101	0xbfaa5177	-1.3306111
102	0xbf84e5a9	-1.0382587
103	0xbf0ad9c5	-0.5423854
104	0xbe219c2a	-0.15782228
105	0xbf188026	-0.5957054
106	0x3e724dff	0.23662566
107	0x3ec3f18a	0.38270217
108	0x3fce2c58	1.6107283
109	0x3e9411d7	0.2891986
110	0xbdd74154	-0.10510507
111	0x3e2d6a12	0.16934994
112	0xbf7fcde8	-0.99923563
113	0x3f6ce743	0.9254038
114	0x3ab20e4c	0.0013584583
115	0xbf0144d3	-0.5049564
116	0xbfd2ef19	-1.6479217
117	0x3e428a35	0.18998034
118	0x3eb5e0b5	0.35523
119	0xbf734555	-0.9502767
120	0x3f02157f	0.5081405
121	0xbec2416e	-0.37940544
122	0xbf6e486e	-0.9307927
123	0x3e8445c3	0.25834474
124	0xbf8c52bb	-1.0962747
125	0x3f085335	0.53251964
126	0xbe8e3e28	-0.27781796
127	0x3e99d9cc	0.30048978
128	0x3f1e4ab5	0.61832744
129	0x3f0a9d23	0.5414602
130	0xbf9037b3	-1.1266998
131	0x3ee2f42a	0.44326907
132	0xbfa45f1b	-1.2841524
133	0xbef84a7f	-0.48494336
134	0xbeff1ae4	-0.49825203
135	0x3f5673b6	0.8377031
136	0x3f9b56a1	1.2135812
137	0xbf730615	-0.94931155
138	0xbfa784ea	-1.3087437
139	0xbf95505e	-1.1665151
140	0x3ef1b842	0.4721089
141	0x3f7d5822	0.98962605
142	0xbf49e1bd	-0.78860074
143	0x3d5eb267	0.054369356
144	0x3f5a3c68	0.8524842
145	0x3ec321ce	0.38111728
146	0x3e0f738f	0.14008926
147	0x3fde7725	1.738011
148	0x3f1879a0	0.59560585
149	0xbf77ad42	-0.96748745
150	0x3e675f92	0.22595051
151	0x3f9a47e8	1.2053194
152	0x3f817ebc	1.0116801
153	0x3f7a837f	0.978569
154	0xbf5930f9	-0.8484035
155	0x3f8ce4d2	1.100733
156	0x3fe16f69	1.7612125
157	0xbf323fb6	-0.69628465
158	0x3f901966	1.1257751
159	0x3f2c7c1a	0.67376864
160	0xbf637f86	-0.8886646
161	0x3eba2c9c	0.3636216
162	0xbed0cda1	-0.40781882
163	0x3dbbfde8	0.09179288
164	0x40021708	2.0326557
165	0x3eff1b58	0.4982555
166	0xbc03150f	-0.008000626
167	0xbf20354c	-0.62581325
168	0x3f5552f4	0.833297
169	0xbe0ea2e5	-0.13929327
170	0xbf83f5f0	-1.0309429
171	0xbe896e17	-0.26841804
172	0x3f6eb030	0.9323759
173	0xbea623a2	-0.3244906
174	0xbf9ed89a	-1.2409852
175	0xbee592e2	-0.44838625
176	0x3e0034ee	0.12520191
177	0xbe116160	-0.14197302
178	0xbf094802	-0.536255
179	0xbf8b5139	-1.0884162
180	0x3fc6e08d	1.5537277
181	0x3f54d7f9	0.8314205
182	0xbe4ce093	-0.20007543
183	0x3e615b2a	0.22007433
184	0xbfa47f95	-1.2851435
185	0xbf99168a	-1.1960003
186	0x3f4718e7	0.7777237
187	0x3eaa17b3	0.33221206
188	0xbef03da8	-0.4692204
189	0x3f009752	0.50230896
190	0x3e6ef64f	0.23336147
191	0xbe14e285	-0.14539535
192	0xbdf93f26	-0.12170248
193	0x3fd9b13c	1.7007213
194	0x3deaa5ea	0.11457427
195	0xbfd0b077	-1.6303853
196	0x3e8358e6	0.25653762
197	0xbfa0eb50	-1.2571812
198	0xbfab34be	-1.3375471
199	0x3f71ba5a	0.94424975
200	0x3ea90a24	0.3301555
201	0xbf065579	-0.5247417
202	0x3eb22556	0.3479411
203	0xbe5dc2b8	-0.2165631
204	0x3fbe26c2	1.4855578
205	0x3f9fcddc	1.2484698
206	0xbea474a9	-0.32120255
207	0xbe8d4e57	-0.2759883
208	0xbf611975	-0.8792947
209	0x3f96c069	1.1777469
210	0xbe71125c	-0.2354216
211	0xbed6649a	-0.41873628
212	0xbf272e71	-0.6530524
213	0xbf8ea9f5	-1.1145617
214	0x4001c5fd	2.0277092
215	0xbe3fb3e1	-0.18720962
216	0xbf9893a7	-1.192006
217	0xbfa7b280	-1.3101349
218	0x3f4436b0	0.76645947
219	0xbf552033	-0.8325226
220	0xbfc1d9f1	-1.5144635
221	0xbf8cf9b7	-1.1013707
222	0x3f7eb276	0.9949106
223	0xbf8a43f8	-1.0801992
224	0x3f386632	0.7203094
225	0xbf74698f	-0.9547357
226	0xbf9166d7	-1.1359509
227	0x3fbd2ec5	1.4779898
228	0x3f8fac15	1.122439
229	0xbfd38d06	-1.6527412
230	0x3f1ddd3a	0.6166569
231	0xbfb845a5	-1.4396254
232	0x3f7de032	0.9917022
233	0x3f931068	1.1489382
234	0x3f691b10	0.9105692
235	0xbfdad52f	-1.7096308
236	0xbf82e296	-1.0225399
237	0x3f750a3d	0.9571875
238	0x3febea47	1.8430871
239	0x3e260ab3	0.16215019
240	0x3fb19d1c	1.3876071
241	0x3f56315b	0.8366906
242	0xbecb0a12	-0.3965612
243	0x3e4bd37c	0.19904894
244	0xbe7bdc0a	-0.24595657
245	0x3fea66a2	1.8312571
246	0xbfd040f0	-1.6269817
247	0x3fa72dea	1.3060887
248	0x3e4b930a	0.1988031
249	0x3f83884a	1.0275967
250	0xbf2ef6fc	-0.6834562
251	0xbf5046be	-0.81357944
252	0x3f424cb2	0.7589828
253	0xbf1e7786	-0.6190113
254	0xbd17bf9e	-0.037047975
255	0xbf2408a5	-0.6407569

output.bias f4 [4]
0	0x3c747265	0.014919852
1	0xbd0ebf13	-0.03485019
2	0xbcecda92	-0.028912816
3	0xbdcc47f3	-0.09974661
