Neural_networks/reacher_20policy_local.pth (torch, 542751 bytes, 6 tensors)

hidden_layer_1.weight f4 [400, 33]
000000 56 cb f8 bd b9 96 b0 3e 0f 97 9d 3d ac 1c a5 3f
       -0.12148158 0.34489992 0.07694828 1.2899375
000010 41 dc 07 bc d2 3f 22 be d7 b0 e0 be 99 3b 5c be
       -0.008292259 -0.15844658 -0.43884918 -0.2150711
000020 d2 92 dd 3d 16 31 59 be fd fe c9 3d 81 18 f9 3d
       0.108190194 -0.21210131 0.09863088 0.12162877
000030 1f 0a dc bd 17 89 12 bb f7 2c 0e 3e 69 ad fa bd
       -0.10744118 -0.0022359544 0.1388434 -0.122401066
000040 0c 01 9b 3f 1c e1 1b 3d 24 5e 01 bd 5c 86 d9 3e
       1.2109694 0.038056478 -0.03158392 0.4248532
000050 30 1d d1 bd d9 f4 2d 3e f6 36 18 be d9 02 af bc
       -0.10210645 0.16987933 -0.14864716 -0.021363663
000060 94 35 1c be 02 7e 2e bc a2 d7 b5 bd 3c ab 8e 3e
       -0.15254813 -0.01065016 -0.08879019 0.27865016
000070 4b 36 51 3e c9 65 4b 3d 38 8c 90 be b7 4f ea bc
       0.20430867 0.049657617 -0.28231978 -0.028602464
000080 fb c5 5c bf d6 cd ab be 00 f5 1b bd f7 e8 12 bd
       -0.86239594 -0.33555478 -0.038075447 -0.035866704
000090 51 d5 72 bf eb 9f 1e 3e 9c 03 83 bf 66 d5 c2 3e
       -0.94856745 0.15490691 -1.0235476 0.38053435
0000a0 a1 67 9e be ba ca 8c be 3f 7e 92 bd 26 87 02 bd
       -0.30938438 -0.27498418 -0.07152986 -0.03186717
0000b0 4e 1e 2f 3d 95 d0 8c bd 54 fb 09 3e 46 0f 52 3e
       0.04275351 -0.06875721 0.1347478 0.20513639
0000c0 f5 c5 99 3d 09 ac 38 bf ff b6 df 3e 7e de f5 be
       0.075084604 -0.72137505 0.43694302 -0.4802131
0000d0 b9 27 36 3f 7f a6 d3 bd ac 52 d6 3d f8 84 09 3d
       0.7115436 -0.10334491 0.10464987 0.033574075
0000e0 f9 22 bb bc 8c af b1 3c 11 e7 4c bd 0a f8 8d be
       -0.022843825 0.021690153 -0.05002505 -0.277283
0000f0 ed 8b 1b 3e 14 6c bf bd c3 af 28 bd 6d 17 e3 bd
       0.15190096 -0.09346786 -0.041183244 -0.110884525
000100 ec 03 3b bc 95 20 3a 3e 48 cf dd bd 5e cd 0a be
       -0.011414509 0.18176492 -0.108305514 -0.13554904
000110 81 bb 8e 3e f3 0e 65 bf 27 e4 bf be 90 ca ab 3e
       0.2787743 -0.89475936 -0.37478754 0.3355298
000120 7d 89 09 3f 5e 70 42 bc 04 85 e9 3d 23 e7 1a be
       0.53725415 -0.011867611 0.11402324 -0.15127234
000130 1f 49 be 3c 47 bf 87 3d 31 cd 45 3d 5a a4 e3 bc
       0.023228226 0.0662828 0.04829139 -0.02778833
000140 24 e7 84 bb 91 ab 03 be f9 f7 5b be d2 28 e6 3d
       -0.0040558744 -0.12858416 -0.21481313 0.112382546
000150 d7 d7 1b 3d 8e cb 82 3e 25 47 f0 bc df 05 de bd
       0.038047638 0.25545925 -0.0293308 -0.108409636
000160 7c 09 3a be fa 12 4c bd 3b ac 13 be 2d 0e 4b 3d
       -0.1816768 -0.049822785 -0.1442117 0.049574066
000170 81 c7 26 3e 80 db 18 3e 04 db 54 bd ec d4 0b bd
       0.16287042 0.14927483 -0.051966682 -0.034138605
000180 70 d3 57 be 2b b2 3c 3d 5e 9d 38 3f 2c 79 70 3d
       -0.21076751 0.04606835 0.72115123 0.05870931
000190 9a cd 55 be ff cc 9d 3d 0a 05 09 bf 5d 4d 80 be
       -0.20879212 0.077051155 -0.53523314 -0.25059023
0001a0 bc 09 a6 3e f9 d6 b0 bd 91 cd 97 3d d2 f9 e9 bd
       0.32429302 -0.08634753 0.074122556 -0.114246026
0001b0 61 87 45 bd 5d 49 7f 3d 2f 73 d9 3c e9 79 09 3e
       -0.04822481 0.062325824 0.026544182 0.13425411
0001c0 fd 2f ef bd e5 bb 11 3e 8a d3 da 3d d1 d0 a2 be
       -0.11679075 0.14231832 0.10684879 -0.3179994
0001d0 a1 ed 1f bf a9 bf f2 bd b0 20 16 3f fd 96 71 bd
       -0.6247197 -0.118529625 0.5864363 -0.058981884
0001e0 2e c2 cb bd a9 29 9b 3c 16 09 7a bc a0 d9 f2 bb
       -0.09949146 0.018940764 -0.015260955 -0.007411197
0001f0 96 68 e8 3d 2b 9a 9f bd 41 75 9a 3d 8c ee 19 3e
       0.11348073 -0.07793077 0.07541896 0.15032405
000200 00 58 54 b8 ed ff e9 bd 80 03 08 ba 7d 5d df 3f
       -5.0626695e-05 -0.11425767 -0.000518851 1.7450405
000210 02 07 dc bd 66 63 99 bc 65 12 26 be ea df cf be
       -0.10743524 -0.018724155 -0.16217954 -0.4060052
000220 32 5e 99 be 9d 3d f7 3e 93 33 89 be 33 6d 66 3d
       -0.29954678 0.48289195 -0.2679716 0.056256484
000230 f9 fe e4 3e 3e b7 44 3e a4 74 9b bd 71 36 1b be
       0.4472578 0.19210526 -0.07590607 -0.15157486
000240 83 77 9b bd ee 3a 0a be 53 36 85 3d ec fd 29 3e
       -0.075911544 -0.13499042 0.06504502 0.1660077
000250 9d b1 81 3c 64 4c 93 bf d5 30 2e 3e 27 bd a1 be
       0.015831763 -1.1507688 0.17010815 -0.31589624
000260 e7 f2 9f bc db 6f a0 3c 4c 5f 2a 3d 3e 28 86 bd
       -0.019525005 0.019584587 0.04159479 -0.06550644
000270 30 ad 5c bd 26 6e e8 bd 1a e7 11 3e f1 f1 85 3d
       -0.053876102 -0.11349134 0.14248314 0.06540287
000280 bb a5 5e bd e0 80 1b bd 6f 0b ba bd 68 c4 19 bc
       -0.05435727 -0.0379647 -0.09084212 -0.009385206
000290 a5 30 91 3d 24 d7 31 3e e2 79 15 be d1 6c 3a 3e
       0.07089356 0.17367226 -0.14597276 0.18205573
0002a0 df 07 61 3e 07 63 c8 bd 45 46 26 3b 6c 4d 59 3e
       0.21975659 -0.09784513 0.0025371474 0.2122094
0002b0 2d 2b 68 bc 97 68 f4 bd d6 e1 a8 be 14 7d c0 bd
       -0.01417045 -0.119340114 -0.329848 -0.09398857
0002c0 79 a4 80 3d 9b 86 1f 3d e8 9a 1e bd 4b 92 d2 3d
       0.06281371 0.03894673 -0.03872195 0.102818094
0002d0 7e 73 e6 bd 0d 48 12 bf ce 9f 75 3f b9 60 e9 3e
       -0.11252497 -0.5714119 0.9594697 0.45581606
0002e0 c2 c2 9b 3e 8f 24 36 3d f2 62 f1 bd da 68 51 3d
       0.30422026 0.04446846 -0.117864504 0.051125385
0002f0 52 74 25 3e 6a 95 d0 3d 57 ad 8b 3d f1 64 c9 bd
       0.16157654 0.101847485 0.06820171 -0.09833706
000300 10 05 88 3d e4 0b 42 bd 89 27 40 3d 9b 65 a9 bc
       0.066415906 -0.04737462 0.046912704 -0.020678332
000310 c0 3e 71 3a c1 89 bb 3e 20 14 d5 bd 19 ed 24 3e
       0.0009202771 0.36628535 -0.10404229 0.1610607
000320 8a 38 d5 bd 48 3c 68 3f a3 95 6f be 55 fb 35 3f
       -0.104111746 0.9071698 -0.23396926 0.7108663
000330 c0 82 8e be 8e fb 0c be 79 c7 87 b7 d4 04 1f bd
       -0.2783413 -0.13767835 -1.618614e-05 -0.038822964
000340 24 3b 29 3e 0b a6 05 3d 80 2b 62 3d d8 61 de 3d
       0.16526467 0.032629054 0.055217266 0.10858506
000350 cf 52 4e bd e4 50 7c 3d 65 9f 01 bf b3 b2 95 bd
       -0.05037194 0.06160058 -0.5063384 -0.07309475
000360 1e 7a 08 3f 93 72 cc 3e 07 21 d7 3d 28 e2 54 3c
       0.53311336 0.39931163 0.10504346 0.012993373
000370 da e4 3e bc 2b 38 28 3d 28 09 6d 3c a1 b2 8d 3c
       -0.011651242 0.04106919 0.014467515 0.017297091
000380 3f 9e cc bc 3a ff 8f 3c 0d 10 35 3e 7f 70 2f bd
       -0.024977801 0.017577756 0.17681904 -0.042831894
000390 a2 8b 1d bd ac e8 2c 3c 7c be 5b bf 46 bf 3d 3e
       -0.038463242 0.01055352 -0.8583753 0.18529996
0003a0 d2 71 2f bd 44 24 d4 bd 1a 2a 0c 3f b1 41 d5 bc
       -0.042833157 -0.103584796 0.5475174 -0.0260323
0003b0 95 8a 21 be c9 be 15 be ee f8 84 bd ba 5f 60 bd
       -0.15775521 -0.1462356 -0.06492792 -0.054778792
0003c0 d9 b0 e9 bd 23 e1 84 3d a6 f1 b7 bd bf 49 8b bb
       -0.11410684 0.06488254 -0.08981638 -0.0042507346
0003d0 0b d4 f7 bd f8 8c a2 bb f7 82 49 bd a3 f0 2a 3d
       -0.12100991 -0.0049606524 -0.049197163 0.041733395
0003e0 a7 52 1a bf 9d 57 18 3f b0 0b 3e 3f 07 77 84 bc
       -0.6028237 0.5950869 0.74236584 -0.016170038
0003f0 75 ac 52 3d 19 88 fc bc f3 3b 7e bd 3d 01 ab 3c
       0.051434 -0.030826615 -0.06206889 0.020874614

hidden_layer_1.bias f4 [400]
000000 6e 59 c1 be e7 56 4f be 50 6a 67 bc 32 e3 92 bd
       -0.37763542 -0.20247994 -0.014124468 -0.0717224
000010 f5 e7 4c be 00 a3 4c be 8b b6 12 be 47 63 fc bd
       -0.2001036 -0.19984055 -0.14327447 -0.12323623
000020 01 51 9e bc 28 49 88 be a3 41 5c 3e 49 c8 11 be
       -0.019325735 -0.26618314 0.21509413 -0.14236559
000030 e1 12 bf 3d be 54 47 be a1 d2 12 bd 1e 33 81 bd
       0.09329773 -0.1946592 -0.035845403 -0.06308578
000040 9a a5 55 be 36 ba f7 bd 11 47 c6 be ea 73 1e be
       -0.20863953 -0.12096064 -0.38726094 -0.15473905
000050 64 e9 9a be e5 5d 73 3b f7 f3 17 be e2 06 4a be
       -0.30256188 0.0037134823 -0.14839159 -0.19729188
000060 fe 6b fd bd ef 69 d5 be a1 1b 11 be b4 b9 09 be
       -0.123741135 -0.41682383 -0.14170696 -0.13449746
000070 a5 5f 50 3e 03 ed 45 be 2c 03 91 bb 34 06 ec bc
       0.20348985 -0.19328694 -0.004425427 -0.028811552
000080 35 04 a5 3d d6 d0 1d be 7f a0 24 be 0d b8 30 be
       0.08057443 -0.15411696 -0.1607685 -0.1725771
000090 9e 16 7a bd 86 2d 32 39 a1 01 c4 3d a4 05 6f bd
       -0.061056726 0.00016992362 0.09570623 -0.05835499
0000a0 71 49 16 be a0 5d 20 3e 7f 78 b5 3d e1 ee 66 bd
       -0.14676453 0.15660715 0.088608734 -0.056380156
0000b0 59 1e 86 be b0 9a e8 3d bf 65 37 3e 2e f9 b6 3d
       -0.26195028 0.11357629 0.17909907 0.08934246
0000c0 75 9f d4 bd bc 33 82 be a9 6f cb 3d 81 3c e0 3d
       -0.103819765 -0.25430095 0.09933407 0.1094904
0000d0 d9 14 29 bc 5d 65 a2 bd cc d5 6d be 3a 23 09 bd
       -0.010319912 -0.0792949 -0.23226088 -0.03348086
0000e0 c7 2e 3f 3d 9b 49 12 be d6 79 37 be 89 1c 39 3d
       0.04667547 -0.14285891 -0.1791757 0.04519323
0000f0 54 a3 d6 bd 96 9a b9 be c2 47 8c 3d a3 04 8a bd
       -0.10480371 -0.36250752 0.06849624 -0.06739166
000100 51 56 ac be 19 9e fd bd ad 7a ff 3d 69 6c cf be
       -0.33659604 -0.1238367 0.124745704 -0.40512398
000110 af 59 93 bd 85 e1 e3 bc 8a 1c 12 be dc 97 06 be
       -0.0719484 -0.027817497 -0.142687 -0.13143867
000120 aa 59 87 be d8 92 20 be 7a 57 2a 3e 9b cc cf bd
       -0.26435596 -0.15681016 0.16634932 -0.10146447
000130 55 04 a7 be 25 86 0b be d8 d2 d4 3b e5 2b 2f be
       -0.32620493 -0.13625391 0.006494861 -0.17106588
000140 98 3a a1 bd 0b da ac bd 54 11 b0 be ba a6 2a bc
       -0.07872504 -0.08440026 -0.3438822 -0.010415727
000150 36 99 bb be fb 3e 1f 3d d3 ce 81 be 62 ae 35 3c
       -0.36640328 0.038878422 -0.25353107 0.011088939
000160 5e 5b 15 be d2 cc f3 be 94 10 1c be 9e 12 7c be
       -0.14585635 -0.47617203 -0.15240699 -0.24616477
000170 4f 25 6a 3d ff b9 ea bd 3c 0e 9f be 38 bf 90 be
       0.057164486 -0.11461257 -0.31065547 -0.28270888
000180 05 d5 b1 be a1 ca 6d be 00 aa 17 bd 05 84 eb bc
       -0.34732834 -0.23221828 -0.03702736 -0.028749475
000190 aa a1 66 be 05 99 01 bd be 86 ca bd 79 2f 1d 3e
       -0.22522607 -0.03164007 -0.09888981 0.1535014
0001a0 da 9b a7 bd da d5 6c 3e 7b b7 66 be 23 32 85 be
       -0.08184023 0.23128453 -0.2253093 -0.26014814
0001b0 dd e8 61 be b6 36 3b be 23 19 95 bd 6d bb 56 bd
       -0.22061487 -0.1828259 -0.07280185 -0.052424837
0001c0 9b cd 8a be 9b 83 3c 3d ae e5 1c 3c a8 93 bd 3d
       -0.2710999 0.046023946 0.009576244 0.09256679
0001d0 d4 dd 9b be 59 64 c5 3d 22 b1 3f be ac c8 4a be
       -0.3044268 0.096382804 -0.18719915 -0.19803113
0001e0 89 23 91 be 8f 9b 75 be d7 af a5 3d 91 47 bf 3d
       -0.28347424 -0.23985122 0.080901794 0.09339822
0001f0 4f 84 2f be 80 74 18 be 6a 9c 34 be 5c b5 77 be
       -0.17140315 -0.14888191 -0.17637792 -0.24190277
000200 3e 7f c1 bc 1b 15 7d bd e5 32 8e be 13 94 13 3e
       -0.023620244 -0.061787706 -0.27773204 0.14411955
000210 65 6a 78 3e e8 11 7a be d2 c8 a5 bc e6 df 21 be
       0.24259336 -0.24420893 -0.02023736 -0.15808067
000220 f1 0e bd be 76 7c 42 3e 60 a1 4c 3e 24 91 59 be
       -0.36925462 0.1899279 0.19983435 -0.21246773
000230 3a 18 3a be 91 6a 7a be 89 4c 1f be e2 f4 c5 bd
       -0.18173304 -0.24454714 -0.1555654 -0.09665848
000240 44 eb 01 bf c9 b1 e6 bd 11 54 8b be 9e 52 69 be
       -0.5074961 -0.112643786 -0.27212575 -0.22785422
000250 87 16 e0 be 36 69 40 3d 2d ee 86 be ac 98 2e be
       -0.43767187 0.046975337 -0.2635359 -0.17050427
000260 d3 54 da 3e a0 f3 cd bd 69 35 60 be cd 57 16 bf
       0.4264284 -0.100562334 -0.21895374 -0.58727723
000270 48 ff 0f 3e 48 ac 74 be 40 cc 07 3e c0 a0 01 3d
       0.14062226 -0.23893845 0.13261509 0.031647444
000280 f8 3a ec bd 3f b5 82 3e fd 7e 08 3d fc 43 a7 3d
       -0.11534685 0.25528905 0.03332423 0.08167264
000290 98 07 f0 3d 1f 92 9f bd bc 26 db bc ee 06 4b be
       0.117201984 -0.07791542 -0.026751868 -0.19826862
0002a0 56 43 47 be 26 e6 fc 3d fe 79 a2 be cd 72 cb be
       -0.1945928 0.12348585 -0.31733698 -0.39736024
0002b0 15 4e 1b 3d 0e 47 30 be de a1 be be fd 5a 9f 3e
       0.03791626 -0.17214605 -0.3723287 0.31124106
0002c0 a8 99 a6 be b2 82 0d be a3 a4 21 be 3c d4 f4 3c
       -0.32539105 -0.13819388 -0.1578546 0.029886357
0002d0 1c e7 84 3c b9 59 ef bc 52 39 0d be ab 94 71 be
       0.016223483 -0.029217588 -0.13791397 -0.23591869
0002e0 de 16 32 be d2 65 5c be 4a a7 04 be 6d 69 41 3d
       -0.17391536 -0.21523216 -0.1295444 0.047219682
0002f0 a2 63 4f 3b 8a 8f bc 3d 98 85 7f be 75 5e 24 be
       0.003164508 0.092070654 -0.24953306 -0.16051657
000300 98 10 50 be 35 0e 40 3e 27 38 39 be b3 a4 1d be
       -0.2031883 0.1875542 -0.18087827 -0.15394859
000310 4b 36 5a be c7 db df be 2a c4 8c 3d 6a 3d 5d bd
       -0.21309774 -0.43722364 0.06873353 -0.054013647
000320 dc 3c 51 be 4b fc 84 be 7a 0d 0b be 49 ca 9c bd
       -0.20433372 -0.25973734 -0.1357936 -0.0765577
000330 26 0f 8c bd 2a c8 32 bc 4a 83 fd bd 84 b8 db bd
       -0.06838827 -0.010911981 -0.12378557 -0.10728553
000340 72 d3 55 be 92 92 11 be 84 b2 30 be f2 67 57 3d
       -0.20881441 -0.14216068 -0.17255598 0.052589364
000350 cb 5e c4 be a4 87 84 be 6a be 02 be a9 4c 02 bf
       -0.3835357 -0.25884736 -0.1276795 -0.50898224
000360 84 86 83 be e8 42 0f be 56 95 aa bd cf 4b 26 3e
       -0.25688565 -0.13990366 -0.08329265 0.16239856
000370 c9 b6 87 bd 9c 7a d4 be b3 d0 6c be 55 21 a4 be
       -0.066266604 -0.41499794 -0.23126487 -0.3205668
000380 9a 3b 6b 3e 83 51 25 bd 33 a8 df bd 2c 68 7e bd
       0.22971955 -0.04036094 -0.10920753 -0.062111065
000390 ae 6d 71 be cb db fa be 7a 47 c7 bd ee 03 8d bc
       -0.23576996 -0.48995814 -0.0973043 -0.017213788
0003a0 5f 4a ca bd 05 8b 82 bc 24 33 2a be 09 4b 9b 3e
       -0.098774664 -0.01593543 -0.16621071 0.30330685
0003b0 7f d9 3f be 0d 3c 0d bd a1 5e d2 be 17 21 3b be
       -0.18735312 -0.034481097 -0.4108782 -0.18274342
0003c0 eb fd c1 3d b2 f5 46 3c 0b 04 2f 3e 81 67 9a bd
       0.09472259 0.012143539 0.17091386 -0.07539273
0003d0 2a 70 8f be 85 fb dd be 3d d6 08 3e 9e 70 18 3e
       -0.28015262 -0.43355957 0.13362975 0.1488671
0003e0 de 4a 3a 3e 0f 38 bf be fc f2 6b bd ac 23 1b be
       0.18192622 -0.37347457 -0.057604775 -0.15150326
0003f0 d3 b6 75 be ab e3 53 be cd a4 93 3c 06 69 83 be
       -0.23995523 -0.20692317 0.01802292 -0.25666064

hidden_layer_2.weight f4 [300, 400]
000000 7a 6d c5 3d 0d 04 7c 3e 1c 69 dd 3d 9b 7f 7a 3e
       0.096400216 0.2461092 0.10811064 0.2446274
000010 55 8c b4 3e 39 31 89 be 45 40 fe 3d 98 99 07 be
       0.35263315 -0.26795366 0.12414602 -0.13242185
000020 d8 29 ed 3d fb 8c 44 be c9 40 12 3e 6b 86 78 3d
       0.11580247 -0.19194405 0.14282526 0.060675066
000030 62 ef af 3d 9b a2 97 bd 47 86 a7 be 16 7c ca 3c
       0.085905805 -0.074040614 -0.32719633 0.024717372
000040 bd 1f d8 3e 41 f7 41 be d6 b0 bd 3e 8c b2 8d 3e
       0.42211714 -0.18941976 0.37048978 0.27675283
000050 b0 13 46 3e 17 dd 45 3b 81 3b 9a 3d 5b a7 9f bd
       0.19343448 0.0030191594 0.07530881 -0.077955924
000060 a0 ee 8d 3e ac f4 c2 bd 28 27 c1 bc b1 26 96 be
       0.2772112 -0.09519324 -0.023578241 -0.29326394
000070 21 71 a1 3e ec 1e a9 bc 9b b4 8f 3d d6 74 04 be
       0.31531623 -0.020644628 0.0701687 -0.12935194
000080 8f f5 1e 3e a8 00 bd bd 46 04 ad be 28 64 9b 3c
       0.1552336 -0.09228641 -0.33792323 0.018968657
000090 ce 99 21 be 7b af 4d be cd c2 37 be b6 d3 88 3e
       -0.15781328 -0.20086472 -0.17945404 0.26724023
0000a0 f4 8d 9e 3e 74 92 00 3f ee fc 95 be 76 fd ce 3e
       0.30967677 0.5022347 -0.29294533 0.4042775
0000b0 3c ee 95 bd ef 10 06 be 71 e0 d2 3d d1 19 98 be
       -0.0732083 -0.13092397 0.10296715 -0.29707196
0000c0 74 77 0e be 67 56 a3 3e 6f 69 1f 3e a1 e3 d9 3d
       -0.13912755 0.31901857 0.15567563 0.1063912
0000d0 55 42 1f be 99 79 5a be ea a5 eb bd a9 a7 9f bd
       -0.15552647 -0.21335448 -0.11506255 -0.077956505
0000e0 c7 fb 38 3c 4b fc 93 be a1 7d 5b 3e df d5 c7 bd
       0.011290497 -0.28903422 0.21434642 -0.097575895
0000f0 22 c4 c5 3d 8d 24 94 bd 97 d7 42 be 87 a3 1e 3e
       0.0965655 -0.07233534 -0.19027553 0.15492068
000100 f7 c8 fc 3c b9 35 80 3c a3 a1 1f be 80 53 57 3e
       0.030857546 0.015650617 -0.15589003 0.21027946
000110 91 68 33 3d 51 56 c5 3d 17 16 c4 3d a5 ea d7 3e
       0.043800894 0.09635604 0.09574526 0.42171207
000120 92 d4 ac 3e 4d 69 2a bd 8e ab 0f 3e 77 de 44 bd
       0.33755928 -0.04160433 0.14030287 -0.04806372
000130 77 3d 8b be 03 8a 03 3e 5a 29 8f 3d ff c5 62 bd
       -0.2719533 0.12845616 0.06990309 -0.055364605
000140 24 87 88 bd 87 7b 17 3e 86 c6 03 bf 01 c0 bf 3d
       -0.06666401 0.14793216 -0.514748 0.09362794
000150 5f 30 78 3d 80 20 17 be 1a ff 16 bd 9e 76 51 3e
       0.060593005 -0.14758492 -0.036864378 0.20455405
000160 40 69 71 3e a2 37 09 be 02 df 53 be 37 e3 5a bb
       0.23575306 -0.13400128 -0.2069054 -0.003339959
000170 75 87 19 3d b8 e7 87 3c 0a 65 ab 3d db 8d 39 3d
       0.037482698 0.016589984 0.08368881 0.0453013
000180 78 fa 52 3e cf 9a bd 3e 51 41 85 3e 72 87 01 be
       0.20603359 0.37032172 0.26026395 -0.12649325
000190 a1 45 88 be a8 b1 83 3e 0c 68 10 be ee 74 5e bc
       -0.26615623 0.25721478 -0.1410219 -0.013577683
0001a0 14 5e dd be 01 9f ec bc 3e bc 1d be 49 82 62 3e
       -0.43235838 -0.028884413 -0.1540384 0.22120012
0001b0 03 58 b1 3e 32 e0 e8 bd 9d cd 36 be 9f 9e a9 bd
       0.3463746 -0.11370887 -0.17851873 -0.08282208
0001c0 8b 93 b8 3c 14 af 1e bd 51 75 af 3a 4b 77 65 be
       0.022531291 -0.038741186 0.0013386403 -0.22408788
0001d0 32 2d 8c bb c2 8e 26 be ac 92 b9 bd ef 96 68 bc
       -0.0042778486 -0.16265395 -0.090611786 -0.014196142
0001e0 c5 6f 9d bd 60 e8 37 be 40 15 08 3e b5 36 06 3e
       -0.07687334 -0.17959738 0.13289356 0.13106807
0001f0 b1 58 da 3d 0b 2d c1 3d 85 e4 b2 3d 3a 8d 0f be
       0.10661448 0.094324194 0.08734993 -0.14018717
000200 c7 9b 8c bc 80 eb 9f 3c 1c 48 62 3e e7 6d bb 3d
       -0.017164124 0.019521475 0.2209782 0.091518216
000210 60 01 df bd a3 c3 eb 3c 13 ce 6d bd c8 44 b3 be
       -0.10888934 0.02877981 -0.058057856 -0.35013413
000220 37 fa b2 3b 4b 95 cc 3d 45 c9 28 3e c0 0b 75 bd
       0.005461957 0.09989413 0.16483028 -0.05982566
000230 2c 7b 2d 3d 4e 1b c1 3c b1 ba 91 bd 28 5c 29 bd
       0.042353794 0.02357259 -0.07115687 -0.041347653
000240 88 a0 48 3e 91 d9 ec 3c 4f e1 2e 3d 10 4d 64 bd
       0.19592488 0.028912337 0.04269534 -0.055737555
000250 74 2f 98 bd 40 4b 51 3d 49 68 bc ba 33 0a 73 be
       -0.07430926 0.051097155 -0.0014374341 -0.2373436
000260 78 e3 92 3d b4 aa a0 bd c6 6b 88 3e b0 07 13 be
       0.071722925 -0.07845059 0.26644725 -0.14358401
000270 e3 58 83 3e 6d 9b 03 3e f9 2e 91 bd fd 1d 85 3e
       0.25653753 0.12852259 -0.070890374 0.25999442
000280 3e 49 51 3e ec 83 5f be 2e c5 ff 3e 1e 4e 0b 3e
       0.20438096 -0.21827668 0.49955124 0.13604018
000290 6a 1a e4 3d 31 7f af 3e 22 ba 80 3d f3 ce 98 be
       0.111378506 0.34276727 0.06285502 -0.2984539
0002a0 0a fc 88 3e b1 e4 9c bd da f4 8b be ce 6c aa 3e
       0.2675479 -0.07660807 -0.27335244 0.33286136
0002b0 f9 1d 52 bd 65 81 02 be 57 d8 97 3d cf 42 6f be
       -0.051298115 -0.12744673 0.074143104 -0.23365329
0002c0 a6 6b 94 bd ad 53 30 be a8 da 15 be e9 26 80 bd
       -0.07247095 -0.1721942 -0.14634192 -0.062574215
0002d0 a1 f7 34 3e a5 ff f0 3c 15 ff 1d be 1e c5 d4 3c
       0.17672588 0.029418776 -0.15429337 0.025972899
0002e0 b7 36 09 be b5 24 6e 3e 98 07 c7 be aa cf 63 be
       -0.13399778 0.2325619 -0.3887298 -0.22247186
0002f0 9e 90 2b 3e a8 39 87 3c 97 a4 6f 3e ee ef 71 3e
       0.16754386 0.016506985 0.2340263 0.23626682
000300 4e a2 c9 3d a5 11 ba 3d e9 9a a0 3d cc 95 82 bb
       0.0984541 0.09085397 0.07842047 -0.0039851423
000310 df 8a 86 3e d2 7f 2a 3c 9f 5c eb 3c 4d dc 08 3e
       0.26277825 0.010406451 0.028730689 0.13365288
000320 67 ca 08 3e 47 73 47 3d e3 a5 28 be 1c 9b 84 bc
       0.1335846 0.04869392 -0.16469531 -0.016187243
000330 27 36 f5 3d da a8 9e bd a7 79 7f 3d 04 0b 7c 3d
       0.11973219 -0.0774705 0.062371876 0.061533943
000340 8e af e1 bd 4d 80 1c 3e 33 a2 a3 bd 80 66 a5 bd
       -0.110198125 0.15283318 -0.079899214 -0.08076191
000350 7a cd eb bc be ea 9b be 22 db 83 3e 74 af 63 3e
       -0.028784502 -0.30452532 0.25753123 0.22234899
000360 aa b6 fd 3c e1 cf 56 3e 6a 64 22 be d4 22 9b be
       0.03097089 0.20977737 -0.15858617 -0.3030001
000370 da a3 56 be b5 4c 24 be 7c 9f d9 bd 74 0d ac 3d
       -0.20960942 -0.16044886 -0.10626122 0.084010035
000380 1e 7c 84 3c 84 06 0a bd d1 8f 59 3e d5 bb 51 3e
       0.016172465 -0.03369762 0.21246268 0.20481808
000390 fd 5e 0b bf fb 5d 9d bd b2 60 10 bd 9b 76 35 3d
       -0.54441816 -0.07683941 -0.035248466 0.044302564
0003a0 94 c9 0e 3e 91 10 8e be c4 85 d5 bd 48 e9 23 3d
       0.13944083 -0.27747014 -0.104259044 0.040017396
0003b0 0d 09 fb be b9 7f c2 3e 73 11 4b 3e 4f c5 31 3e
       -0.49030343 0.3798807 0.19830875 0.17360424
0003c0 47 0e 06 3e 57 6a ab 3d d2 fd d4 3d 1f e9 92 be
       0.13091384 0.08369892 0.10399975 -0.28693482
0003d0 19 23 56 3c 52 b1 53 3e a3 c9 50 3c 38 87 f2 bb
       0.013069891 0.20673111 0.012743386 -0.0074013732
0003e0 d2 28 25 3d 70 6e 81 3d 7b 5c da 3d 93 1f b0 be
       0.040322132 0.063198924 0.106621705 -0.3439909
0003f0 08 f6 b3 bc 51 53 0a bd 5f 3c be 3d c7 68 f1 3d
       -0.021967903 -0.033770863 0.092888586 0.11787563

hidden_layer_2.bias f4 [300]
000000 6e fb d0 3c 57 38 e3 bc ec e0 06 be 38 c6 b3 3d
       0.025510516 -0.027736826 -0.13171738 0.087780416
000010 06 1b 42 3d 40 93 83 bd 25 27 1d bb 0b 6f d5 3d
       0.047389053 -0.0642457 -0.002397963 0.104215704
000020 01 be 91 bd ae 65 d5 bc 52 05 10 3c bd 3d c4 bd
       -0.071163185 -0.026049461 0.008790331 -0.09582088
000030 06 6f d3 3b a5 a0 aa 3b ef 3b ca bc c1 fc ad bc
       0.006452444 0.0052071386 -0.024686782 -0.021238687
000040 ba 57 ae 3d f8 8e d6 3d aa f2 39 3c 4c 6b a2 bd
       0.08512826 0.10476488 0.0113493595 -0.079306215
000050 fd 2d 6e 3d 37 fc 13 bd 9c 22 65 3d 27 bb 0d 3e
       0.058149327 -0.036129203 0.05594121 0.13840924
000060 6f 80 0c bd 4e 3e 13 be 96 5d 68 bd e5 0f 58 3d
       -0.03430217 -0.14379236 -0.056729876 0.052749533
000070 f6 b6 06 bd f6 28 3d be f5 2a a9 bc ca d8 d8 bd
       -0.03288933 -0.18472657 -0.020650366 -0.10588224
000080 c5 9f 37 3c c7 0b c5 bd 58 a1 d8 bc a9 77 c9 3b
       0.011207526 -0.09621387 -0.026444122 0.006148298
000090 8f e9 a1 bd 3d 3d 3f be 8f f0 23 bd 97 30 fe 3b
       -0.07905876 -0.18675704 -0.040024336 0.007757257
0000a0 6d 42 55 bd 91 59 65 3d 30 4c 5b bd 67 e7 0d 3d
       -0.0520653 0.05599362 -0.053539455 0.03464451
0000b0 73 d6 39 be 04 df 9c bd f5 76 0c 3d c7 af 86 bd
       -0.18148212 -0.07659724 0.034293134 -0.065764956
0000c0 8b f7 b8 bd eb fc 92 bd 47 95 3e be 18 03 ba bd
       -0.0903159 -0.071771465 -0.18611632 -0.09082621
0000d0 ac 19 01 be e6 5c 25 be 18 f2 27 3d ff ca e7 3c
       -0.1260745 -0.16148719 0.041002363 0.028295038
0000e0 1b 18 2e be 02 36 dc bc 61 2e f7 bd 2a 39 6f be
       -0.17001383 -0.026881222 -0.12069393 -0.2336165
0000f0 5a 21 91 3d f7 a0 5d bc 70 18 a5 bd 70 a3 14 be
       0.070864394 -0.013527147 -0.08061302 -0.14515471
000100 b7 6e 99 3b 3b 9f 9e 3c a8 0b 27 3c 72 75 9a 3b
       0.0046823877 0.019363036 0.01019565 0.0047137076
000110 e2 8a 9a bd 47 64 23 3d af 0e 29 3d 86 a3 85 bd
       -0.07546021 0.039890554 0.04127377 -0.0652533
000120 63 ec 32 bd 42 98 51 bd 6f 8a be bb 15 ef 99 bc
       -0.043682467 -0.051170595 -0.0058148424 -0.018790761
000130 59 a1 8e be 95 38 6a 3b 35 22 62 be 1c 19 a7 be
       -0.27857473 0.0035739292 -0.22083361 -0.32636344
000140 79 c7 c1 bd 95 b0 b2 bd e0 20 ee bd c9 45 4a 3d
       -0.094618745 -0.087250866 -0.11627364 0.04938296
000150 cc 4a 20 bd 99 66 5e 3d df 11 bf bc 9b da 5a bd
       -0.03913383 0.054297063 -0.023323951 -0.053431135
000160 92 76 38 3d e2 14 f5 3d db 69 18 bd 1d 81 ad 3b
       0.045034952 0.11966874 -0.037210327 0.0052949325
000170 85 22 ef 3c 3e d8 1a be 6f 5e 85 be e2 b0 18 be
       0.029191265 -0.15121552 -0.2604861 -0.14911225
000180 dc 5a 1e 3c b1 f1 dc bc 66 d2 94 bd 64 bc c0 3c
       0.009665217 -0.026970716 -0.07266693 0.023527332
000190 b6 e4 cc bd e3 97 5a 3d b9 0b 46 be 40 09 e7 bd
       -0.10004561 0.053367507 -0.1934041 -0.11281061
0001a0 fa 51 99 bb cb 1d 5c be b9 70 50 be 4d ab 06 be
       -0.004678962 -0.2149574 -0.203555 -0.13151284
0001b0 0f f5 fe bd 93 f6 4a bd 18 99 2e 3d 90 68 5b 3c
       -0.12449085 -0.049551558 0.04262647 0.013391629
0001c0 eb 2a 86 3d 93 f6 00 be a8 7a 11 3d 84 d4 d7 bd
       0.06551155 -0.1259406 0.035517365 -0.10538581
0001d0 65 fc 94 b9 fa 54 0c be 23 ff f5 bd 58 a8 6c 3d
       -0.00028416808 -0.13704291 -0.12011554 0.057777733
0001e0 05 0f c9 3c e2 ad 33 bd 36 1f c5 3d e2 40 4e bc
       0.024543295 -0.043867 0.09625094 -0.012588711
0001f0 14 c1 a7 bd 37 53 6b 3d 4f b1 9a 3d 7e aa fc 3c
       -0.081911236 0.057452407 0.0755335 0.030843016
000200 df d2 2e bd 46 86 01 be 23 43 df bd c2 b0 7d 3a
       -0.04268157 -0.12648878 -0.10901477 0.0009677523
000210 1d 0e ac bd a8 e6 98 bc d3 fe c5 3c 6d c5 39 bd
       -0.084011294 -0.018664673 0.024169361 -0.045354296
000220 b3 3a a4 bd 54 29 b5 3a 97 b1 8b bd 29 7e 15 3c
       -0.080190085 0.0013821521 -0.06820982 0.009124317
000230 98 a4 30 3c d5 05 9b be cb 79 c7 bd e5 ab e1 bd
       0.01078143 -0.30277887 -0.09740027 -0.110191144
000240 0b 19 81 3b 0f 24 10 be 4d fa fa bc f9 a6 f6 bd
       0.003939753 -0.14076255 -0.03063693 -0.12043566
000250 0b 29 90 3d 5a 7e 89 bd 6e 83 da bb 77 80 aa 3c
       0.07039078 -0.06713553 -0.0066684997 0.02081321
000260 f1 25 89 bd ee e0 09 3e 53 45 5e be 47 44 bf bc
       -0.0669669 0.1346471 -0.21706133 -0.023347987
000270 a9 c4 30 be e5 01 d9 bd aa b9 43 be 57 b3 d9 bd
       -0.1726252 -0.105960645 -0.19113794 -0.106299095
000280 97 9a d5 bd f4 9c 92 bc 6c 04 12 be 96 f4 c9 bd
       -0.10429876 -0.017897107 -0.142595 -0.09861104
000290 b4 8c 0d bd 7f 79 41 bd 19 9a 0f bd 8e 55 a5 bd
       -0.034558013 -0.04723501 -0.03505907 -0.08072959
0002a0 72 e5 92 bd e0 c3 75 3d 0a 50 d6 bc 53 1a a1 be
       -0.071726695 0.060001254 -0.026161212 -0.31465396
0002b0 ab 4a 02 be 43 f4 2f bd f0 3d 97 3d 8b 79 07 be
       -0.12723796 -0.042957556 0.073848605 -0.13229959
0002c0 df b5 fe bd 92 a5 2b bd 96 bb 14 bc b8 64 ef bd
       -0.12437033 -0.041905947 -0.009077927 -0.116891325
0002d0 44 66 2e bd 63 f0 11 bd 89 79 57 bc 28 80 2b be
       -0.042577997 -0.03562964 -0.013151535 -0.16748106
0002e0 33 3f 27 be e0 79 36 3c 4d 07 32 3d db 86 9c bc
       -0.16332702 0.011137456 0.043463994 -0.019107273
0002f0 ea 65 d0 3d 23 d9 b0 bc b6 6a 31 bd 6a 15 23 be
       0.101756886 -0.021587914 -0.043314658 -0.15926138
000300 42 be 2a bd 09 d3 34 be de e2 84 bd 46 46 08 bd
       -0.04168535 -0.17658629 -0.06488584 -0.033270143
000310 ee 17 d9 bd f9 4d 3a bd 46 b1 51 be 3a 3e 10 be
       -0.10600267 -0.045484517 -0.2047778 -0.14086238
000320 9f 61 7f 3d b5 51 01 be df 0f 2d be bf f2 b0 bc
       0.062348958 -0.12628825 -0.16900586 -0.021600125
000330 6d 59 1d 3c 51 a8 10 bc 7f ff d5 3d fa 8b 79 bc
       0.00960384 -0.008829192 0.10449123 -0.015231127
000340 f4 8d e0 bd 3d 5c b0 bb 2a 39 2e bd 72 5e 6a 3d
       -0.109645754 -0.0053820894 -0.042534985 0.057218976
000350 67 ec fb bc 13 80 e1 bd cc e3 da bc 7b 84 89 bc
       -0.030752374 -0.11010756 -0.02671995 -0.016786804
000360 3b e4 a5 bc bd 6b 33 be 23 c6 b5 3c 5f d3 97 3d
       -0.02025043 -0.17521568 0.022189206 0.07413363
000370 b7 38 5a be 86 3d 9f be dd 5b 14 bd a7 c2 3b be
       -0.21310697 -0.31101626 -0.03622042 -0.18335973
000380 de 56 21 be 53 9d 8d bc da a5 7d 3d 0f e5 5a 3d
       -0.15755793 -0.017286932 0.061925747 0.053441104
000390 d9 dd ae bd 69 cf e6 bd fd 60 4f bc ce d8 2a bd
       -0.08538408 -0.11270029 -0.012657401 -0.041710667
0003a0 4a b6 02 bb a1 da e6 3d 17 e5 29 be 79 b2 1e be
       -0.0019945079 0.11272169 -0.16591297 -0.1549777
0003b0 60 81 ec bc a6 c5 d0 3d 41 b3 02 be 11 f9 75 be
       -0.028870285 0.101939484 -0.12763692 -0.24020793
0003c0 51 0b 5c bc ec ef 2a bd be 2d 37 3d 28 94 9d 3c
       -0.013430432 -0.041732714 0.044721358 0.019235685
0003d0 dc 10 92 bd 20 5f 65 be 46 b0 c2 bd e7 c7 f4 3c
       -0.07132122 -0.22399569 -0.09506278 0.029880477
0003e0 0f d8 ae 3d f3 2a 08 bd d0 37 d9 3c 14 81 e9 bd
       0.08537304 -0.033244085 0.026515871 -0.11401573
0003f0 b0 39 1b 3c 49 06 81 bc a2 e8 70 bd 38 5a 9d bd
       0.009474203 -0.015750067 -0.058815606 -0.076832235

output.weight f4 [4, 300]
000000 fd 65 40 bf 63 8a 69 bf 9c ad a6 bf 23 64 f1 bd
       -0.7515562 -0.91226786 -1.3021731 -0.11786678
000010 ee d0 80 3f 00 3b 56 3f 6b 80 d7 be f2 91 69 be
       1.006376 0.83683777 -0.42090163 -0.2280958
000020 58 06 ae 3f 8c bb 72 3f 0a 36 d4 be d1 6a 0b bf
       1.3595686 0.94817424 -0.4144748 -0.54459864
000030 da 9c cb 3e d0 05 89 bf 60 36 6b 3f ff 69 5f bf
       0.39768106 -1.0704899 0.91879845 -0.8727111
000040 25 f9 c1 bf 50 13 da 3d 8d d0 d2 bf 3f ba 9d 3c
       -1.5154158 0.10648215 -1.6469895 0.019253848
000050 03 70 d7 be bc c1 09 3f 00 f9 4a bf 74 12 b3 3f
       -0.42077646 0.5381124 -0.79286194 1.3990006
000060 9b 9f 0b 3d e6 19 d2 be 8c 02 bf 3f f5 03 d1 3e
       0.03408776 -0.41035384 1.4922652 0.4082333
000070 24 ed 71 3f 3f 76 99 bf 09 ad b0 3d 69 12 8c 3f
       0.9450247 -1.1989211 0.08626754 1.0943118
000080 d6 78 24 3f 8d 0f 8c bf 5e c8 e6 3e 53 bd 69 3f
       0.6424688 -1.0942246 0.45074743 0.9130451
000090 93 1a 3e bf f9 30 83 be 02 21 43 bf e3 9c 0c be
       -0.742593 -0.256233 -0.7622224 -0.13731723
0000a0 a0 29 73 bd d3 af 01 3f 8b 5a 94 3f eb db dd 3c
       -0.05936587 0.5065891 1.1590132 0.027082404
0000b0 7b 0b 9e 3f 05 0b 00 3e 41 10 25 3e c9 75 7f 3f
       1.2347254 0.12504204 0.16119482 0.997891
0000c0 84 a0 9d 3e 2d 9a 77 3f 18 03 41 bf db be 61 bf
       0.30786526 0.9671963 -0.75395346 -0.8818185
0000d0 c3 71 d6 be 4f b4 1a bc a8 7b 37 bc ca 33 fe 3e
       -0.41883668 -0.009442403 -0.011198916 0.49648887
0000e0 11 8d d1 bd 29 fc b7 3e ed 23 86 be 4d 32 d4 3e
       -0.102319844 0.3593457 -0.26199284 0.41444626
0000f0 0b 0b ba be fb cf 23 bf 86 e2 bf 3f bc 3e 1e bf
       -0.3633655 -0.6398923 1.4991004 -0.61814475
000100 a3 93 04 3e 78 6c 35 bc c6 2e 33 bf 0b 3b fc be
       0.12946944 -0.011073224 -0.69993246 -0.49263796
000110 84 dc 8b 3e b4 0b 15 bf d8 c2 44 bf 8b 29 46 3e
       0.27316678 -0.5822098 -0.7685981 0.19351785
000120 d1 98 bc be c5 7e 7f 3e 71 36 4c 3f 3b 25 d7 3d
       -0.3683534 0.24950702 0.7977057 0.10505148
000130 3f 50 b4 3f b2 87 41 bf ea b6 3c bf bf 3f 2a be
       1.4086989 -0.7559768 -0.73716605 -0.1662588
000140 ec e7 bd bd 09 51 6a 3e d3 a6 6f 3e ae 44 91 3c
       -0.09272751 0.22882475 0.23403482 0.017732944
000150 f9 c8 3f 3f 4f 08 89 be 92 05 ea 3e 5c 9f 92 3f
       0.74916035 -0.2676415 0.45707375 1.1454883
000160 e4 26 90 be 95 b9 0f be ef 41 4e bf 72 7e 3e bf
       -0.2815467 -0.14035638 -0.80569357 -0.7441169
000170 e9 2f 05 bf c0 f6 01 3f e7 3b d6 be 93 9a 66 bf
       -0.5202623 0.50767136 -0.41842577 -0.9007961
000180 65 50 d3 be 98 40 11 3f dc 30 38 bf f8 28 b2 3d
       -0.41272274 0.5673919 -0.71949553 0.086992204
000190 79 c6 a2 be 0b 1d 83 bf 04 4c 69 bf b3 be 6c bf
       -0.31792048 -1.0243238 -0.91131616 -0.92478484
0001a0 a1 8e da 3d 89 1d 94 be 00 a9 ce 3e 26 0e 58 bd
       0.106717356 -0.28928784 0.40363312 -0.052747868
0001b0 74 5a c3 3e 34 f2 9e 3c 3d ff f5 bc 50 30 96 bd
       0.38154948 0.0194026 -0.030028934 -0.07333434
0001c0 15 55 6a bf 98 91 17 3f a1 49 e9 bc 90 cc 02 bf
       -0.91536075 0.59206533 -0.028477492 -0.5109339
0001d0 75 ab 99 bf 3f ff 87 3e 02 3e a3 3d 51 e7 13 bf
       -1.200545 0.26561925 0.079708114 -0.57774836
0001e0 c6 c8 e7 3c 25 11 04 bf ea fb 03 be cf 8d 95 3e
       0.028293978 -0.5158866 -0.12889066 0.29209754
0001f0 59 ba 05 bf 9c b7 16 3f d6 c9 8c bd 32 1c a7 3e
       -0.5223747 0.58873916 -0.06874435 0.326387
000200 60 6e 3a 3f 5c c0 36 3f 82 70 9d bf 89 81 d9 3e
       0.7282467 0.7138727 -1.229996 0.4248164
000210 0e cf 92 bf ac 07 04 bf f0 38 bb be da 4e 45 3f
       -1.1469438 -0.51574206 -0.36566877 0.7707344
000220 88 df 44 3f 5a 4a 69 bf e3 f0 b2 bf b4 a2 a8 bf
       0.7690358 -0.91129076 -1.3979763 -1.3174653
000230 7b bf bc 3d eb c5 aa 3d 3c e1 af bc aa 85 32 bd
       0.092162095 0.08338531 -0.021469705 -0.043584503
000240 17 f6 43 3f 94 ff 7a 3d 60 12 31 3e 86 84 b3 3e
       0.7654738 0.061278895 0.17292166 0.35062045
000250 ba 77 15 3f 22 fc 47 bf c4 18 67 3e 7b 09 8f 3f
       0.58385813 -0.781191 0.22568041 1.1174768
000260 ff 6e 81 3f 8a 16 8d 3f 92 59 d6 bb b7 b0 15 3f
       1.0111998 1.1022503 -0.0065414393 0.5847277
000270 d4 80 9b 3f 70 6b 42 bf ea 28 58 be 32 29 73 bd
       1.214869 -0.75945187 -0.21109357 -0.05936546
000280 06 5e 62 bf 94 0b 4d 3d 96 b8 bf bd bf dd 58 be
       -0.8842472 0.05005987 -0.09361379 -0.2117834
000290 31 46 cb 3f 81 b9 34 3e a6 6d 57 bf 55 89 86 3e
       1.5880796 0.17648889 -0.84151685 0.2627665
0002a0 b8 03 9e be 6e 49 05 be 27 09 72 bf 5b 5e e3 be
       -0.30862212 -0.13016292 -0.94545215 -0.44407925
0002b0 e4 69 0d 3f 57 38 1d 3d 6e bd 53 bf 5f 8e 09 3f
       0.552397 0.038383808 -0.8271092 0.53732866
0002c0 33 f4 72 3e 10 09 5a 3d 79 d4 1f bf 0c 66 3c bf
       0.23725967 0.0532313 -0.6243358 -0.7359321
0002d0 ee 01 39 3f 42 0c 6b 3f 37 b4 cc be f2 c6 29 3e
       0.7226857 0.9181558 -0.39981243 0.16579798
0002e0 0f 39 e1 be 16 67 32 bf 43 3d 60 3f 6d d9 c5 3e
       -0.43988845 -0.69688547 0.8759348 0.38642445
0002f0 cc 3b f6 be 51 86 40 3e 02 be fc 3d 93 d6 e1 be
       -0.48092496 0.18801238 0.123409286 -0.4410902
000300 02 bf 10 3e 1c 23 66 3f 76 34 f9 be 84 9a 9e bf
       0.14135364 0.8989732 -0.48672837 -1.2390904
000310 38 0b af 3b 1c 43 1e bf 3e fd 04 bf de 33 2c bf
       0.0053419136 -0.6182115 -0.51948917 -0.67266643
000320 a3 b4 96 3e 5d 41 f7 be be 33 d3 be df f3 68 be
       0.2943469 -0.48292056 -0.41250414 -0.2274928
000330 a2 be a8 3f 2b 64 73 3e 94 8c 85 be 66 1f 80 be
       1.3183177 0.2376868 -0.26083815 -0.25023955
000340 2c d1 2a bf c4 62 1b 3f cb 0e 8c 3d fd 52 ff be
       -0.6672542 0.6069758 0.06838759 -0.49868003
000350 a6 66 65 bd da 73 1d bf 5c 5d b3 3f c4 b3 ab 3e
       -0.056006096 -0.615049 1.4012866 0.33535588
000360 f4 14 21 bf 4d 68 88 bf 6b db 18 3f 68 fe 43 3e
       -0.62922597 -1.065683 0.59709805 0.19140017
000370 2a 09 b6 bf 66 7e a7 bf 43 a5 61 3f b8 c4 88 bf
       -1.4221547 -1.3085449 0.88142794 -1.0685034
000380 45 b9 2f 3f 55 0b d4 be 6d 9d 47 bf f0 fd d0 3f
       0.68642074 -0.41414896 -0.7797459 1.6327496
000390 93 9d 55 3f 1e 45 da bf 4a ac 21 3f 71 8b aa bf
       0.83443564 -1.7052343 0.6315352 -1.3323804
0003a0 a8 97 8f 3f db 17 d4 3e 18 be 3c 3f 57 aa d4 be
       1.1218157 0.4142445 0.7372756 -0.4153621
0003b0 fd 82 82 bf e3 4c 55 3f ed 37 9e 3f 38 53 bd 3e
       -1.0196224 0.83320445 1.2360817 0.36977553
0003c0 f4 cf 99 3f 3b e4 80 3f ed 86 08 bf 9c 86 2e 3e
       1.2016587 1.006965 -0.5333088 0.17043537
0003d0 0d 59 a3 bd 74 d8 c2 3f 3a 3f d6 bf 50 df da 3f
       -0.079759695 1.5222306 -1.6738045 1.70994
0003e0 a4 62 cc 3e ce b3 72 3f 28 41 02 bf ae ac cf be
       0.39919007 0.9480561 -0.5088067 -0.40561432
0003f0 41 3d 2e be aa 0e 00 bf 12 b3 b7 3e 13 4f 4e bf
       -0.17015554 -0.50022376 0.35878807 -0.8058941

output.bias f4 [4]
000000 9a 35 16 bd 3c 76 5b bd ea 4e 8c 3d 81 de b0 bc
       -0.036672212 -0.053579554 0.06850989 -0.021590473
