Neural_networks/reacher_20_2_policy_local.pth (torch, 542751 bytes, 6 tensors)

hidden_layer_1.weight f4 [400, 33]
0	0xbdd23483	-0.10263922
1	0x3eaeb2c5	0.34120765
2	0x3e4ae596	0.19814143
3	0x3f9af8c5	1.2107168
4	0x3ca7fcb1	0.020506235
5	0xbe8cb5c8	-0.27482438
6	0xbe4d87de	-0.2007136
7	0xbcc5ff5f	-0.024169622
8	0x3d2fe101	0.04293919
9	0xbe58e27f	-0.21180151
10	0x3d989fdb	0.07452365
11	0x3d386a86	0.045023464
12	0x3cded18e	0.027199533
13	0xbda992cd	-0.08279953
14	0x3d2198d5	0.039452393
15	0xbde5230a	-0.11188324
16	0x3f5688d5	0.8380254
17	0xbd748a06	-0.059701942
18	0xbe45ce72	-0.19317034
19	0x3e004e5d	0.12529893
20	0x3c23b562	0.0099919755
21	0x3e0b76e3	0.1361957
22	0xbda69a17	-0.08134859
23	0xbdf7a638	-0.120922506
24	0x3b91efd5	0.004453639
25	0x3bf5c5c9	0.0075003845
26	0xbdb7c1f6	-0.08972542
27	0x3ed853a7	0.42251322
28	0x3e66b934	0.22531587
29	0x3d4b65c9	0.049657617
30	0xbeda34a3	-0.42618284
31	0xbcea4fb7	-0.028602464
32	0xbf348e40	-0.70529556
33	0xbedad7e1	-0.42742828
34	0xbe140922	-0.14456609
35	0xbdda9980	-0.10673809
36	0xbf73d258	-0.95242834
37	0x3c6b0590	0.014344588
38	0xbf8dab6b	-1.1067938
39	0x3edf5de9	0.43626335
40	0x3c1b1cbf	0.009467303
41	0xbe151594	-0.14559013
42	0xbde13974	-0.109972864
43	0xbe2bd1c7	-0.16779242
44	0x3ce7a929	0.028278904
45	0xbc7df660	-0.015500635
46	0x3e5e23ac	0.21693295
47	0x3e4a9792	0.19784382
48	0xbc95cccd	-0.018286133
49	0xbf06b731	-0.5262328
50	0x3f1a741f	0.60333437
51	0xbf0cceab	-0.5500285
52	0x3f58362d	0.84457666
53	0x3d312226	0.043245457
54	0x3dd19a8b	0.10234555
55	0xbd997093	-0.07492175
56	0x3d592d8e	0.05302196
57	0x3e0d27a8	0.13784659
58	0xbd6541b2	-0.055970855
59	0xbe3e1f2f	-0.18566583
60	0x3e1d9387	0.15388308
61	0xbe5d051d	-0.21583982
62	0xbd28afc3	-0.041183244
63	0xbde727d7	-0.11286896
64	0xbc3b03ec	-0.011414509
65	0x3eac019f	0.33594987
66	0x3c4e34b1	0.012585805
67	0xbdf8a11c	-0.12140104
68	0xbd1b8435	-0.03796788
69	0xbf5b22bb	-0.8559987
70	0xbe930991	-0.28718236
71	0x3e6b1503	0.22957234
72	0x3ea4f004	0.32214367
73	0x3d5a184c	0.053245828
74	0x3e8c1c74	0.27365458
75	0xbdff3c47	-0.12462669
76	0xbd60d286	-0.05488827
77	0xbcd9d3e2	-0.026590291
78	0xbdb7fd61	-0.08983875
79	0xbbb3414d	-0.005470431
80	0x3e3eca89	0.18631949
81	0xbdb7e3fa	-0.0897903
82	0xbd0143fb	-0.03155897
83	0xbe36c3f5	-0.17848189
84	0x3e0899af	0.13339876
85	0x3e353bac	0.17698544
86	0xbc3e5b21	-0.0116184065
87	0x3d20f60f	0.03929716
88	0x3d33235b	0.04373489
89	0x3cb801ea	0.02246185
90	0x3d5b23a6	0.053500794
91	0x3cab43ae	0.020906296
92	0x3e4e7d08	0.20164883
93	0x3e20ae22	0.15691426
94	0x3e5092e7	0.20368539
95	0xbd0bd4ec	-0.034138605
96	0xbe5fa586	-0.21840486
97	0x3d3cb22b	0.04606835
98	0x3eff32b4	0.4984337
99	0x3e2bf02e	0.1679084
100	0xbe34f391	-0.17671038
101	0x3bbeb594	0.0058199856
102	0xbf09e732	-0.538684
103	0xbe381a7b	-0.17978851
104	0x3f4bad15	0.7956098
105	0xbdb6d38e	-0.089270696
106	0x3d816a0b	0.06319054
107	0xbe5499bf	-0.20761774
108	0xbd9e3d76	-0.077265665
109	0xbd046e1f	-0.032331582
110	0x3d61c7f6	0.05512234
111	0x3d10dde7	0.035367873
112	0x3d214b80	0.039378643
113	0x3e277785	0.16354187
114	0xbd6a426f	-0.057192262
115	0xbf10a5fc	-0.5650327
116	0xbf3cba7b	-0.73722047
117	0xbe794043	-0.2434092
118	0x3f1c9baa	0.61175025
119	0xbcbee883	-0.02330423
120	0x3d80edcb	0.062953554
121	0x3b3cbff9	0.0028800948
122	0xbd19aa4d	-0.037515927
123	0xbd327bb7	-0.043575015
124	0xbba08e2a	-0.00489976
125	0xbce26f64	-0.027641006
126	0x3d76b5d9	0.060232017
127	0x3dfd880c	0.123794645
128	0xb8545800	-5.0626695e-05
129	0xbdcae2d6	-0.09906547
130	0xba080380	-0.000518851
131	0x3fe27530	1.7692013
132	0x3cdd0917	0.026981873
133	0xbd550e1e	-0.052015416
134	0xbe8f99c6	-0.28047007
135	0xbefc408f	-0.49268004
136	0xbe84f696	-0.2596938
137	0x3e86af4b	0.26305613
138	0xbea8758d	-0.32902184
139	0xbc892d39	-0.016745197
140	0x3ee3b773	0.44475898
141	0x3deb0281	0.11475087
142	0xbdc2d867	-0.09513932
143	0x3d80bacf	0.06285631
144	0x3c2707ad	0.010194701
145	0xbde2010f	-0.11035358
146	0x3cad779a	0.021175195
147	0x3e8b540d	0.27212563
148	0x3eb9de27	0.363023
149	0xbf72b135	-0.94801646
150	0x3e254f84	0.16143614
151	0xbe01e3b1	-0.12684514
152	0x3c6cca32	0.014452504
153	0xbd9a51a5	-0.07535104
154	0xbd95dd25	-0.073175706
155	0x3db5131f	0.08841538
156	0xbd639bb8	-0.055568427
157	0x3dbdf999	0.092761226
158	0x3de338e4	0.110948354
159	0x3e284672	0.16433123
160	0x3d917813	0.071029805
161	0xbd1b80e0	-0.0379647
162	0xbe425368	-0.1897713
163	0xbc19c468	-0.009385206
164	0xbda19175	-0.07889072
165	0x3e2db645	0.16964062
166	0xbdb86c2f	-0.090050094
167	0x3e727875	0.23678763
168	0x3e1919ad	0.14951201
169	0x3cd3a602	0.025835995
170	0xbdf6624f	-0.120304696
171	0x3e83b42f	0.25723407
172	0x3c041a4e	0.008062912
173	0xbe46ea75	-0.19425376
174	0xbda26dec	-0.07931122
175	0x3d1f7a4a	0.038934983
176	0x3cc6b832	0.024257753
177	0x3df81ea3	0.121152185
178	0xbd2d45b1	-0.04230279
179	0x3d71b055	0.059006054
180	0xbe60db66	-0.21958694
181	0xbe6d1d57	-0.23155724
182	0x3f26bf49	0.6513563
183	0x3ee5e0f6	0.44898194
184	0x3f08484f	0.53235334
185	0x3dfa4a36	0.12221186
186	0xbdf8c86d	-0.12147603
187	0xbd81ce06	-0.06338124
188	0xbb4b56c9	-0.003102707
189	0xbcd5c897	-0.026096625
190	0xbe1a6219	-0.15076484
191	0x3d789d8b	0.06069712
192	0x3da0bfe4	0.078491
193	0xbae8c9b4	-0.0017760308
194	0x3d402789	0.046912704
195	0xbd0624d9	-0.032749984
196	0x3a713ec0	0.0009202771
197	0x3f227b0d	0.6346901
198	0x3caa1748	0.020763054
199	0x3e4fa678	0.20278347
200	0xbe382681	-0.17983438
201	0x3f40dfda	0.7534157
202	0xbdebe916	-0.11519067
203	0x3e1c72e0	0.15278196
204	0xbe99a3a9	-0.30007675
205	0x3cbf2fa2	0.023338143
206	0x3db1a39e	0.086737856
207	0xbc80b45f	-0.015711008
208	0x3d66b50d	0.056325007
209	0x3bf55a9a	0.007487607
210	0xbd351f31	-0.0442192
211	0x3e5b29eb	0.21402709
212	0x3d571fae	0.052520446
213	0x3b2ebbd8	0.0026662257
214	0xbf316bfa	-0.69305384
215	0x3e96366e	0.29338402
216	0x3f158916	0.584123
217	0xbda16246	-0.07880072
218	0xbd0337a6	-0.032035492
219	0x3dc5838f	0.096442334
220	0x3dea910f	0.11453449
221	0x3db863b9	0.090033956
222	0x3e173766	0.14767227
223	0xbd008e5f	-0.031385776
224	0xbd8e0717	-0.06934946
225	0x3e2da044	0.16955668
226	0x3d88de49	0.066830225
227	0xbd2f707f	-0.042831894
228	0xbe43033e	-0.19044206
229	0x3c2ce8ac	0.01055352
230	0xbf56488b	-0.8370444
231	0x3e231892	0.15927342
232	0x3d23606e	0.039886884
233	0x3e04c2b3	0.12964897
234	0x3ee1a090	0.44067812
235	0xbe675748	-0.22591889
236	0xbecb7c6f	-0.39743373
237	0xbc9f68af	-0.019459097
238	0x3c9afa46	0.018918168
239	0xbc841278	-0.016122088
240	0xbe349a86	-0.17637071
241	0x3e3a213a	0.18176737
242	0x3dc242f4	0.094854265
243	0x3d0bdc34	0.03414555
244	0xbe1862b2	-0.148814
245	0x3e083398	0.13300931
246	0xbe0aa1ba	-0.13538256
247	0xbf2076df	-0.6268138
248	0xbec19ced	-0.37815037
249	0x3ed6f1bb	0.419813
250	0x3f700f9f	0.93773836
251	0xbd80ffda	-0.062988
252	0xbaab6248	-0.0013075555
253	0xbd8e5970	-0.069506526
254	0xbd59665f	-0.053076144
255	0xbced2c0c	-0.028951667

hidden_layer_1.bias f4 [400]
0	0xbf058184	-0.5215075
1	0xbe5160c3	-0.20447068
2	0xbcb23a75	-0.02175639
3	0xbd679256	-0.05653604
4	0xbe991889	-0.2990153
5	0xbe58ff8a	-0.2119123
6	0xbe972c14	-0.29525816
7	0xbe968421	-0.2939768
8	0xbdfdda1f	-0.12395119
9	0xbe3706e7	-0.17873727
10	0x3d3c310b	0.04594521
11	0xbe11d484	-0.14241225
12	0xbe3096be	-0.17245004
13	0xbe890a30	-0.26765585
14	0xbd69ce1e	-0.057081334
15	0x3d2ea624	0.042638913
16	0xbebf522b	-0.37367377
17	0xbe5666c5	-0.20937641
18	0xbee18f8d	-0.44054833
19	0xbe85d1c8	-0.26136613
20	0xbecfeb47	-0.4060919
21	0xbe2367eb	-0.1595761
22	0xbe5566f9	-0.20840062
23	0xbec2683b	-0.37970147
24	0xbe37153e	-0.17879197
25	0xbec7d183	-0.39027032
26	0xbe821cb5	-0.25412527
27	0xbe120613	-0.1426013
28	0x3e917d4a	0.284159
29	0xbec15e4c	-0.37767255
30	0xbe117362	-0.14204171
31	0xbc5552f9	-0.0130202705
32	0x3d934965	0.07191733
33	0xbd915b48	-0.07097489
34	0xbee4d34e	-0.44692463
35	0xbe9562a6	-0.29176825
36	0xbd9fcec6	-0.07803111
37	0xbe67ebe6	-0.22648582
38	0x3e1a6bae	0.15080139
39	0xbcece8cf	-0.028919606
40	0xbe8151b4	-0.25257647
41	0x3e82d5ff	0.2555389
42	0x3e25a8a7	0.16177617
43	0xbe2662f0	-0.16248679
44	0xbeae68f7	-0.34064457
45	0x3dfaeb88	0.12251955
46	0xbd8a0974	-0.06740084
47	0xbdd510c1	-0.10403586
48	0xbea9a884	-0.3313638
49	0xbe9359c0	-0.2877941
50	0xbc8f3426	-0.017480921
51	0xbde13cfb	-0.10997959
52	0xbe03d494	-0.12874061
53	0xbe5fa618	-0.21840703
54	0xbea5f01c	-0.3240975
55	0xbdebe5e8	-0.115184605
56	0xbdcd5186	-0.10025315
57	0xbe7d9d54	-0.24767047
58	0xbe96085e	-0.2930326
59	0xbe6734ff	-0.2257881
60	0xbe5a4853	-0.21316652
61	0xbecd2799	-0.40069273
62	0xbe23321d	-0.15937085
63	0xbeb0ab21	-0.3450556
64	0xbeaa36a5	-0.33244815
65	0xbe5a1d3c	-0.21300215
66	0xbd76c703	-0.060248386
67	0xbef18d52	-0.4717813
68	0xbe5108f7	-0.20413576
69	0xbd9bbbd0	-0.07604182
70	0xbdf3697a	-0.118853524
71	0xbe9c7cfa	-0.305641
72	0xbe3d7514	-0.18501693
73	0xbe757eed	-0.239742
74	0xbe352213	-0.1768878
75	0xbd71521c	-0.058916196
76	0xbec1a9cd	-0.3782486
77	0xbe95b0d0	-0.2923646
78	0xbe85c76e	-0.26128715
79	0xbe64e298	-0.22352064
80	0xbda05617	-0.0782892
81	0xbe160021	-0.14648487
82	0xbeec795d	-0.46186343
83	0xbd6e6017	-0.058197107
84	0xbf0bfc53	-0.5468189
85	0x3d741b97	0.059596624
86	0xbeb94bcb	-0.36190638
87	0xbdbe431f	-0.09290146
88	0xbe9fb25b	-0.31190762
89	0xbf18d149	-0.59694344
90	0xbe7e8048	-0.24853623
91	0xbeba929f	-0.36439988
92	0x3d3e01a7	0.046388295
93	0xbe7790a3	-0.24176268
94	0xbea03b57	-0.31295273
95	0xbeb642aa	-0.35597736
96	0xbee0d4cf	-0.4391236
97	0xbe8c309f	-0.27380845
98	0xbdebe5a9	-0.115184136
99	0xbc9db7cf	-0.019252686
100	0xbebaa918	-0.36457133
101	0xbe4193ff	-0.18904112
102	0xbc9e454d	-0.019320155
103	0x3cfe4bed	0.031042064
104	0xbe0596bb	-0.1304578
105	0xbdc19521	-0.09452272
106	0xbe7539a6	-0.23947772
107	0xbed4cd48	-0.41562867
108	0xbdfbbc03	-0.1229172
109	0xbe8b1e43	-0.27171525
110	0xbe9f9140	-0.31165504
111	0xbe50f061	-0.20404197
112	0xbee804d7	-0.45316193
113	0xbca56dfe	-0.02019405
114	0xbdd49190	-0.10379326
115	0x3d75a82a	0.059974827
116	0xbebe5406	-0.3717348
117	0xbe38e947	-0.18057738
118	0xbea150f2	-0.3150707
119	0xbdfa3c2f	-0.1221851
120	0xbeb3307f	-0.34997937
121	0xbef18c33	-0.47177276
122	0xbd71412c	-0.058900043
123	0xbe06141c	-0.13093609
124	0xbea059a2	-0.31318384
125	0xbe2ef6ff	-0.17086409
126	0xbeafcbd7	-0.34335205
127	0xbe70c9ae	-0.23514435
128	0xbd36c5bf	-0.04462218
129	0xbe3afcde	-0.18260524
130	0xbe8dae8f	-0.2767224
131	0xbd292ab6	-0.041300498
132	0xbd0f5a27	-0.034998085
133	0xbd900bf1	-0.07033528
134	0xbdc3798d	-0.09544668
135	0xbe1db558	-0.15401208
136	0xbeb955b1	-0.3619819
137	0x3e1fb99a	0.15598145
138	0xbdcc51b6	-0.099765226
139	0xbe819c28	-0.2531445
140	0xbe63a2e4	-0.22230107
141	0xbec82f18	-0.3909843
142	0xbdee3fda	-0.116332725
143	0xbcdee5be	-0.027209159
144	0xbf1c9e45	-0.61179
145	0xbe2ad081	-0.166811
146	0xbeaf3f5a	-0.3422802
147	0xbf14837a	-0.5801312
148	0xbee96770	-0.4558673
149	0xbdc50b2f	-0.09621274
150	0xbee98561	-0.45609573
151	0xbe4b18e0	-0.19833708
152	0x3edc9b6a	0.43087322
153	0xbe83ebca	-0.2576583
154	0xbef3d8ea	-0.4762643
155	0xbf20bb01	-0.62785345
156	0x3da5e05c	0.08099434
157	0xbee7b856	-0.45257825
158	0x3cdd690a	0.027027626
159	0xbe850c2e	-0.25985855
160	0xbe730b73	-0.23734836
161	0x3df5474a	0.11976488
162	0x3d0ee522	0.034886487
163	0xbd5b21cd	-0.05349903
164	0xbcd90e89	-0.026496189
165	0xbe81f923	-0.2538539
166	0xbe4a2f56	-0.1974462
167	0xbe994e53	-0.2994257
168	0xbd25b209	-0.04045299
169	0xbb88d1cf	-0.0041754018
170	0xbf053ccf	-0.5204591
171	0xbf1e2d47	-0.6178784
172	0xbea1b134	-0.31580508
173	0xbea4caed	-0.3218607
174	0xbeba6d01	-0.36411288
175	0x3e89e5ce	0.2693314
176	0xbec56278	-0.38551688
177	0xbedd1ac2	-0.43184477
178	0xbe08a5b8	-0.13344467
179	0xbe1c1da3	-0.1524568
180	0x3b9b6dcd	0.004743314
181	0xbe54f893	-0.20797949
182	0xbe549895	-0.2076133
183	0xbe946d19	-0.28989485
184	0xbe83432d	-0.2563719
185	0xbe8b32e3	-0.2718726
186	0xbe34e04b	-0.17663686
187	0x3d9c2dee	0.07625948
188	0x3d8598b6	0.06523268
189	0xbc4915ee	-0.012273295
190	0xbeba0db3	-0.36338577
191	0xbe66f3b0	-0.22553897
192	0xbe00bfe3	-0.12573199
193	0x3d6a1428	0.05714813
194	0xbe93b7c9	-0.28851154
195	0xbdaf1b88	-0.08550173
196	0xbe9edff9	-0.31030253
197	0xbef9c064	-0.48779595
198	0x3cfa1186	0.030525934
199	0xbc047e3d	-0.008086738
200	0xbec5d8d4	-0.3864199
201	0xbe761915	-0.24033006
202	0xbe209319	-0.15681113
203	0xbe42294e	-0.18961069
204	0xbeaa286e	-0.3323397
205	0xbd13777c	-0.03600262
206	0xbe3bbb10	-0.18333077
207	0xbdc8985d	-0.09794686
208	0xbe630bd5	-0.22172482
209	0xbeb18be3	-0.34677038
210	0xbe989142	-0.29798323
211	0x3d1f58e2	0.038903125
212	0xbe98f863	-0.29877004
213	0xbe9967fe	-0.29962152
214	0xbe37cc1c	-0.17948955
215	0xbf0d7017	-0.5524916
216	0xbeff4dac	-0.49863946
217	0xbdacab9b	-0.08431169
218	0xbe65aa5a	-0.22428265
219	0x3df00f46	0.11721663
220	0xbe62d294	-0.22150642
221	0xbeed98f2	-0.4640575
222	0xbeb202e2	-0.34767824
223	0xbf01eb8d	-0.50750047
224	0x3db39055	0.087677635
225	0xbdeb10a9	-0.11477787
226	0xbd41f07b	-0.04734848
227	0x3c27cb5e	0.010241358
228	0xbe499441	-0.1968546
229	0xbf052a72	-0.5201789
230	0xbe0d9ea9	-0.13830055
231	0xbe29b436	-0.16572651
232	0x3d9b19ab	0.07573255
233	0xbe4ba487	-0.19886981
234	0xbe2d89b4	-0.16947061
235	0x3e656cc2	0.22404769
236	0xbe8ccede	-0.27501577
237	0xbdd75769	-0.10514719
238	0xbf1d4049	-0.61426216
239	0xbd654511	-0.05597407
240	0xbc0cf8ea	-0.008604268
241	0xbd150cdf	-0.036389228
242	0x3e8caa9b	0.27473912
243	0xbce4dc78	-0.027937159
244	0xbeab0b39	-0.33407
245	0xbf0b1d76	-0.5434183
246	0xbb0547e3	-0.0020337037
247	0x3e5434f5	0.20723327
248	0x3dcda406	0.100410506
249	0xbec29c2f	-0.38009784
250	0xbe34202d	-0.17590399
251	0xbe70c44f	-0.23512386
252	0xbea5e014	-0.3239752
253	0xbf0fa6fa	-0.5611416
254	0xbd2554ca	-0.040364064
255	0xbe5d5f39	-0.21618356

hidden_layer_2.weight f4 [300, 400]
0	0x3d77395b	0.060357433
1	0xbe4a76fa	-0.19771948
2	0x3dfd75b7	0.12375968
3	0x3e8036ef	0.2504191
4	0xbddd30f4	-0.10800353
5	0xbea39efc	-0.31957233
6	0x3eaa110b	0.33216128
7	0x3dee2e3b	0.116299115
8	0x3e98b3a2	0.2982455
9	0x3e474d8e	0.19463179
10	0x3e490c1d	0.19633527
11	0x3dbdc22f	0.09265553
12	0xbd92d369	-0.071692295
13	0xbe16ccff	-0.14726637
14	0xbe7a0297	-0.2441505
15	0xbe722d95	-0.236502
16	0x3dd5c81b	0.10438558
17	0xbecb370b	-0.39690432
18	0xbd7daf2a	-0.061934628
19	0x3e49e334	0.19715577
20	0xbe9cb58f	-0.30607268
21	0xbe42d651	-0.19027068
22	0x3da01034	0.078155905
23	0xbe8e1848	-0.277529
24	0x3d4ca71f	0.049964067
25	0xbe20fd66	-0.15721664
26	0xbe82e084	-0.25561917
27	0xbe97c4b1	-0.2964225
28	0x3edbd7ff	0.4293823
29	0xbe769f7a	-0.24084273
30	0x3e85ca1e	0.26130766
31	0xbea74593	-0.32670268
32	0xbe48178d	-0.19540234
33	0x3c6015e7	0.013677097
34	0xbf3c1832	-0.7347442
35	0x3e834b7a	0.25643522
36	0xbe2bdacd	-0.16782685
37	0xbe787f9a	-0.24267426
38	0xbecee2fe	-0.40407556
39	0x3e951fb9	0.29125765
40	0x3f22ba71	0.63565737
41	0x3e00e25c	0.12586349
42	0xbe3360e1	-0.17517425
43	0xbeadfc7c	-0.33981693
44	0x3e330276	0.17481408
45	0xbf01865b	-0.50595635
46	0xbd609ed3	-0.054838967
47	0xbf1dc915	-0.6163495
48	0xbdc95cc8	-0.0983215
49	0xbbc0c1b8	-0.005882468
50	0x3e09d88b	0.13461511
51	0xbda4cc16	-0.08046739
52	0xbe4d0e54	-0.20024997
53	0xbea126dd	-0.31474963
54	0xbea6a4e1	-0.32547668
55	0xbda16139	-0.07879872
56	0x3d302171	0.043000642
57	0x3d3e1c14	0.046413496
58	0x3ea2257a	0.31669217
59	0xbeee885e	-0.46588415
60	0xbd836c8d	-0.06417189
61	0xbd1cb747	-0.038260724
62	0xbeddfdb1	-0.43357614
63	0xbedbebe4	-0.42953408
64	0xbd48f86d	-0.049065042
65	0xbe8f925e	-0.28041357
66	0xbe8d4b66	-0.27596587
67	0x3d310bc6	0.04322412
68	0xbe9d98c2	-0.30780607
69	0xbe42fc7a	-0.19041625
70	0x3e507558	0.20357263
71	0x3ed52082	0.41626364
72	0xbd620c14	-0.0551873
73	0x3e4a1887	0.19735919
74	0x3e429862	0.19003442
75	0xbd69379f	-0.05693781
76	0xbf288e86	-0.65842474
77	0xbdbb17fd	-0.09135435
78	0x3df23ec1	0.118283756
79	0x3e1d362b	0.15352695
80	0xbeaa7b82	-0.33297354
81	0xbe3e01d3	-0.18555383
82	0xbec18015	-0.3779303
83	0x3d516bea	0.051128305
84	0x3db161eb	0.086612545
85	0xbde62a1e	-0.11238502
86	0xbeed1ded	-0.46311894
87	0x3e7e8141	0.24853994
88	0x3eed2874	0.46319926
89	0xbec66777	-0.38750812
90	0xbd80cbe1	-0.06288887
91	0x3dc3c088	0.09558207
92	0x3e3cd0fe	0.18439099
93	0x3d020613	0.031744074
94	0x3d998355	0.07495753
95	0x3e5c9eae	0.21544906
96	0xbdb9ec5d	-0.09078286
97	0x3ec87f3b	0.3915957
98	0xbe80bdf9	-0.25144938
99	0xbf01a03b	-0.5063512
100	0xbdd0a6ed	-0.101880886
101	0x3e99b2f0	0.3001933
102	0xbde68d07	-0.112573676
103	0x3ce6c2e0	0.028169096
104	0xbdcd30c9	-0.10019071
105	0x3c3c09c2	0.011476936
106	0xbd67b72a	-0.056571163
107	0x3eb00bf5	0.34384122
108	0x3ef535fa	0.47892743
109	0x3d78d40a	0.06074909
110	0xbe85413e	-0.26026338
111	0xbec0c0f5	-0.37647215
112	0x3e3f4a42	0.18680671
113	0xbd8ffadd	-0.0703027
114	0x3ec613c4	0.38686955
115	0x3d332f22	0.04374612
116	0xbe17d929	-0.14828934
117	0x3b8593f7	0.0040764767
118	0x3e698994	0.22806388
119	0xbc73c7e2	-0.014879199
120	0xbd49683b	-0.049171668
121	0xbd12b115	-0.03581341
122	0xbe481e1f	-0.1954274
123	0x3ce2ba1b	0.027676633
124	0x3e6946d8	0.22780931
125	0xbe70dc37	-0.23521505
126	0xbe382c2c	-0.179856
127	0x3c97c535	0.018526653
128	0x3eb20147	0.347666
129	0xbe5e002d	-0.21679755
130	0x3eb0dae3	0.34541997
131	0xbe053e62	-0.13012078
132	0xbe939c62	-0.28830248
133	0xbea9f626	-0.3319561
134	0x3c80b5cd	0.01571169
135	0xbed6fd96	-0.41990346
136	0xbd8dbdee	-0.06920992
137	0x3be3ce63	0.0069520934
138	0xbe252314	-0.16126662
139	0x3e8738d4	0.26410544
140	0xbe0a2123	-0.13489203
141	0x3e8fbef3	0.2807537
142	0x3ec323ac	0.38113153
143	0x3e749533	0.2388504
144	0xbbe8a68f	-0.0070999335
145	0x3e630d30	0.22173
146	0xbe9e7433	-0.30948028
147	0xbd3e344e	-0.0464366
148	0xbdfcc294	-0.123418
149	0x3e71a303	0.2359734
150	0x3c91a30e	0.017777946
151	0xbe330c5b	-0.17485182
152	0xbe4e0f55	-0.20123036
153	0xbebbd542	-0.3668614
154	0x3ea8bec3	0.3295804
155	0x3eb7d505	0.35904709
156	0x3db6f5e6	0.0893362
157	0x3d702b73	0.058635186
158	0xbe040394	-0.1289199
159	0x3d28a3d6	0.04117187
160	0x3d9e0bbb	0.07717081
161	0xbebd7fce	-0.3701157
162	0x3eb7f1e5	0.35926738
163	0x3e1497c7	0.14511023
164	0x3eb832de	0.3597631
165	0x3d7efd8f	0.06225353
166	0x3e86ed03	0.263527
167	0xbec22e3e	-0.37925905
168	0xbb15648a	-0.0022795522
169	0xbe5fe191	-0.2186339
170	0x3e0afe81	0.13573648
171	0x3d659c55	0.056057293
172	0x3d88ba4b	0.066761576
173	0xbe175006	-0.1477662
174	0x3ef521eb	0.4787744
175	0xbc5bad7c	-0.013408061
176	0x3e5b7fc2	0.21435454
177	0x3c510f46	0.012759989
178	0x3e9d5e24	0.30735886
179	0xbbd58caf	-0.006517015
180	0x3ea314ea	0.31851894
181	0x3e16afb2	0.1471546
182	0xbd96d970	-0.07365692
183	0xbe1dac81	-0.15397836
184	0xbe0e2e0d	-0.13884754
185	0xbe55abd1	-0.20866324
186	0xbf26fd6a	-0.6523043
187	0xbc3f31b7	-0.011669568
188	0xbe4ed8ea	-0.20199934
189	0xbb9fa364	-0.0048717726
190	0x3d8294ba	0.063760236
191	0xbe2b3fe6	-0.16723594
192	0x3d8f7758	0.07005185
193	0xbe7bc6dc	-0.24587578
194	0x3eaa46e0	0.33257198
195	0xbdfa32ea	-0.12216742
196	0x3d823668	0.063580334
197	0xbd8df191	-0.06930841
198	0xbea358f5	-0.31903806
199	0x3e0acceb	0.13554733
200	0x3eb424b1	0.35184243
201	0x3e1eae41	0.1549616
202	0xbddff147	-0.10934692
203	0x3d66f507	0.05638602
204	0x3eaa4063	0.33252248
205	0xbdb77f35	-0.0895981
206	0x3e22faad	0.15915938
207	0x3e05e891	0.13076998
208	0xbe04bfeb	-0.12963836
209	0x3deb6914	0.114946514
210	0xbe8bb48f	-0.27286193
211	0xbb2f167a	-0.0026716278
212	0x3e84837e	0.2588157
213	0xbe160803	-0.14651494
214	0x3f035ea3	0.5131628
215	0x3d37ac4b	0.044842046
216	0xbda4ef86	-0.08053498
217	0xbb8acdd9	-0.0042359647
218	0xbede6b24	-0.43441117
219	0xbde33e46	-0.11095862
220	0xbe2eaf2f	-0.17059015
221	0x3d2d0f13	0.042250704
222	0x3e2041d4	0.15650111
223	0x3eb4028a	0.35158187
224	0xbe343b16	-0.17600664
225	0xbe83be88	-0.257313
226	0x3eca04d4	0.3945681
227	0x3caaddd3	0.020857727
228	0xbeb2fc21	-0.34957984
229	0xbe692fe3	-0.22772174
230	0x3da05d28	0.07830268
231	0x3e37238a	0.17884651
232	0x3e6fda52	0.23423126
233	0xbd80597d	-0.062670685
234	0xbe470e8b	-0.19439141
235	0x3e48964b	0.19588582
236	0xbedf6dc3	-0.4363843
237	0x3e894f06	0.26818103
238	0x3ea75d2f	0.3268828
239	0x3e6f2d3c	0.233571
240	0xbe1c27f5	-0.15249617
241	0xbe95d439	-0.29263476
242	0x3d96d73e	0.07365273
243	0xbea6a5fb	-0.32548508
244	0x3e5bd74e	0.21468851
245	0x3ec8145e	0.3907804
246	0xbbed4c41	-0.007241756
247	0xbe644a12	-0.2229388
248	0x3d8e0f44	0.069365054
249	0xbe89e95f	-0.2693586
250	0xbe137137	-0.14398657
251	0xbf12e493	-0.57380027
252	0xbe1569d9	-0.14591159
253	0x3e9b5d58	0.30344653
254	0xbdd45567	-0.10367852
255	0x3e6d95ec	0.23201722

hidden_layer_2.bias f4 [300]
0	0xbd52ea1b	-0.05149279
1	0xbd84877b	-0.06471153
2	0xbde98ad1	-0.1140343
3	0x3d8647e4	0.06556681
4	0x3aba336c	0.0014205999
5	0x3d3d8243	0.046266805
6	0xbcae1e41	-0.02125466
7	0x3d89c4d5	0.06726996
8	0xbd46b0f0	-0.048508584
9	0x3d227bd3	0.03966887
10	0xba1cda9e	-0.0005983504
11	0x3cfccb9c	0.030858807
12	0x3da540e4	0.080690175
13	0xbd9cd511	-0.07657827
14	0xbdf92220	-0.12164712
15	0x3bb692d0	0.0055717006
16	0xbd014562	-0.03156031
17	0x3e4e0436	0.20118794
18	0xbe053de5	-0.13011892
19	0xbd6a078e	-0.05713611
20	0x3daace38	0.08340114
21	0xbd2ab940	-0.041680574
22	0x3e2385ee	0.15969059
23	0x3c5a5e61	0.013328166
24	0x3d77bc45	0.060482282
25	0xbdf9be74	-0.12194529
26	0xbd9b4443	-0.07581379
27	0x3e298c5d	0.1655745
28	0xbe193da4	-0.1496492
29	0xbeae8dc6	-0.3409254
30	0xbe236c8a	-0.15959373
31	0xbe371147	-0.17877685
32	0xbdb13664	-0.08652952
33	0xbe5e8c57	-0.21733223
34	0x3d8a7255	0.06760088
35	0xbe597b7e	-0.21238515
36	0xbe241fb9	-0.16027726
37	0xbe2a8da4	-0.16655594
38	0xbc53489e	-0.012895731
39	0x3d8acc92	0.067773
40	0xbdc9a236	-0.098453924
41	0xbccb19af	-0.02479252
42	0x3bda021f	0.006653085
43	0x3d131570	0.035909116
44	0xbe041297	-0.12897716
45	0xbdfea26d	-0.12433324
46	0xbd437d37	-0.047726836
47	0xbe023abd	-0.1271772
48	0xbe7a0b4a	-0.24418369
49	0xbe0bc6f3	-0.13650112
50	0xbd06f4c2	-0.032948263
51	0x3b8c868b	0.0042884997
52	0xbea23723	-0.3168269
53	0xbe28ff80	-0.16503716
54	0xba2572aa	-0.0006311337
55	0xba95e11e	-0.0011434888
56	0xbe75cbb4	-0.24003488
57	0xbdaa77fe	-0.08323668
58	0xbe8988b0	-0.26862097
59	0xbe934da1	-0.28770164
60	0x3c604a82	0.013689639
61	0xbdf7c329	-0.12097771
62	0xbd980972	-0.074236766
63	0xbe7678d6	-0.24069533
64	0x3c548d3b	0.012973125
65	0xbd147b53	-0.036250424
66	0xbda8ca8f	-0.0824176
67	0xbd54a56f	-0.051915582
68	0x3d97908f	0.07400619
69	0xbe1dab44	-0.15397364
70	0xbc7d3754	-0.015455086
71	0xbe26dafa	-0.1629447
72	0xbc9ae9e3	-0.018910354
73	0xbdb57829	-0.08860809
74	0x3da92dd1	0.08260692
75	0xbd7499e4	-0.059717074
76	0xbea142d6	-0.31496304
77	0x3d321083	0.043472778
78	0xbe38474f	-0.17995952
79	0xbe5edbfe	-0.21763608
80	0xbdf45ef7	-0.119321756
81	0xbe50d111	-0.20392253
82	0x3cd4e630	0.025988668
83	0x3d79ba60	0.060968757
84	0xbc272a4e	-0.010202957
85	0xbdc891f1	-0.09793461
86	0xbd3c7544	-0.04601027
87	0xbb8cecf9	-0.0043007103
88	0xbcfada5d	-0.030621702
89	0x3d82a2a0	0.063786745
90	0xbd5bf8a1	-0.053703908
91	0xbd1cb7cb	-0.038261216
92	0x3cdaa82b	0.026691517
93	0xbe930a42	-0.28718764
94	0xbe9ffdb7	-0.31248257
95	0xbe86bb1a	-0.26314622
96	0x3d7889bf	0.06067824
97	0x3c8c0216	0.017090838
98	0xbdc83b4f	-0.09776937
99	0xba77a660	-0.0009447094
100	0xbe62698c	-0.22110575
101	0x3d4b3df1	0.04961962
102	0xbe8d5751	-0.2760568
103	0xbcd5779e	-0.026058014
104	0x3cbddbe5	0.023176143
105	0xbe903a41	-0.28169444
106	0xbe41cb6e	-0.18925259
107	0xbe1306cc	-0.14358062
108	0xbe20bdc0	-0.15697384
109	0xbde3fc73	-0.11132135
110	0xbbf60869	-0.007508327
111	0x3db211a6	0.086947724
112	0x3c943b66	0.01809473
113	0xbe60f5fb	-0.21968834
114	0x3e1f5486	0.15559587
115	0xbe1ae418	-0.15126073
116	0x3d4790b7	0.048721995
117	0xbd3210ae	-0.04347294
118	0xbdeed36e	-0.11661421
119	0x3d4e05f1	0.050298635
120	0xbdb5f088	-0.08883768
121	0xbd76d14c	-0.060258195
122	0x3b91c49b	0.004448486
123	0xbda9d506	-0.08292584
124	0xbe273c2b	-0.16331546
125	0x3bea6741	0.007153422
126	0xbd83792d	-0.06419597
127	0xbd1a6051	-0.03768951
128	0x3cdd3687	0.02700354
129	0xbbc20867	-0.005921412
130	0xbd90c799	-0.0706932
131	0x3d59cb43	0.05317236
132	0xbda1e863	-0.079056524
133	0xbdfc33ae	-0.123145446
134	0xbd4fd9e9	-0.050744925
135	0xbd9ae6e7	-0.075635724
136	0xbe2de2b6	-0.16981015
137	0xbd1edb9a	-0.038783647
138	0xbcc1090b	-0.023563882
139	0x3d571325	0.052508492
140	0xbcd0d926	-0.02549417
141	0xbe57ab80	-0.21061516
142	0xbe07bb30	-0.13255
143	0xbe281a7d	-0.16416354
144	0x3cc45a67	0.023968888
145	0xbd9f97a6	-0.077925965
146	0x3d9564df	0.0729463
147	0xbdc5c7ac	-0.09657225
148	0x3da5d768	0.08097726
149	0xbc21065c	-0.009828176
150	0x3bfad7db	0.0076551265
151	0xbccc4a47	-0.024937762
152	0x3da352b7	0.07974761
153	0x3e829288	0.2550242
154	0xbf052f8e	-0.5202569
155	0xbe287d99	-0.16454162
156	0xbe92ac0c	-0.28646886
157	0xbd00f25a	-0.031481124
158	0xbeaa4278	-0.33253837
159	0xbe056be6	-0.13029441
160	0xbdaee2fb	-0.08539387
161	0xbd739086	-0.059464
162	0xbe1323e0	-0.14369154
163	0xbdd26016	-0.10272233
164	0xbd408819	-0.047004793
165	0xbe2a492e	-0.16629478
166	0x3d161ea4	0.036650315
167	0xbe5437b2	-0.20724371
168	0xbe27a6fe	-0.16372296
169	0xbb8173ec	-0.0039505865
170	0xbcd39f13	-0.025832688
171	0xbeafe873	-0.34357032
172	0xbe61139f	-0.21980141
173	0xbe82dbd4	-0.2555834
174	0xbbccfbfc	-0.006255625
175	0xbe526845	-0.20547588
176	0xbe06eac6	-0.13175496
177	0xbd915ac5	-0.07097391
178	0xbd55b54a	-0.052174844
179	0xbe3556db	-0.17708914
180	0x3c299490	0.0103503615
181	0x3d9d826b	0.07690891
182	0xbd742212	-0.059602804
183	0xbdfb0bba	-0.12258096
184	0xbe1a3386	-0.15058717
185	0xbdcf7e9c	-0.10131571
186	0x3cb68bb4	0.022283413
187	0x3d7b6849	0.06137875
188	0x3e47722d	0.19477148
189	0xbcbc0c66	-0.02295513
190	0xbc36e6e5	-0.011163448
191	0xbe1ef8db	-0.15524618
192	0xbc4ba04c	-0.0124283545
193	0xbea3b31c	-0.31972587
194	0x3d8e5174	0.0694913
195	0x3db07aa6	0.08617143
196	0xbd44b1e9	-0.04802123
197	0xbe523544	-0.20528132
198	0xbede0629	-0.43364075
199	0xbda71b6e	-0.08159529
200	0x3d29785b	0.041374546
201	0xbd556c54	-0.052105263
202	0xbe452a29	-0.19254364
203	0x3daafef8	0.08349413
204	0xbe0f3091	-0.1398337
205	0x3cce5695	0.02518777
206	0x3dac1dd5	0.084041275
207	0xbd4220df	-0.04739463
208	0xbdfbd6ce	-0.1229683
209	0x3ceb29b0	0.028706402
210	0xbe624790	-0.22097611
211	0xbbe05afd	-0.006846784
212	0xbdbccd34	-0.09218827
213	0xbe33e690	-0.17568421
214	0xbdd0288b	-0.10163983
215	0xbd781604	-0.06056787
216	0xbd7ce00d	-0.06173711
217	0xbe1898bc	-0.14902014
218	0x3d3fcaf8	0.046824425
219	0xbd1f4685	-0.038885612
220	0xbe588ad8	-0.21146715
221	0xbec8cc60	-0.39218426
222	0x3a2f12f0	0.0006678542
223	0xbe43778d	-0.19088574
224	0xbe8daeec	-0.27672517
225	0x3d01d93b	0.031701308
226	0x3c75d68c	0.015004765
227	0x3d799cbb	0.060940485
228	0xbe28d7d3	-0.1648858
229	0xbda80df4	-0.08205786
230	0x3d05b8e8	0.032647043
231	0xbe145e12	-0.1448901
232	0xbd687e1e	-0.0567609
233	0x3cfeb325	0.031091282
234	0xbe129fdc	-0.14318794
235	0xbe8c12bf	-0.27358052
236	0xbe87be95	-0.2651259
237	0x3cb5258d	0.022112632
238	0xbe1944a0	-0.14967585
239	0xbe3a8dc5	-0.18218143
240	0x3aeeee25	0.0018228932
241	0xbc9b10fb	-0.018928995
242	0xbc067491	-0.008206503
243	0xbc3ac5bf	-0.011399685
244	0xbe737974	-0.237768
245	0xbe4f06ba	-0.2021741
246	0xbe60404e	-0.2189953
247	0x3e058354	0.13038379
248	0xbaa4b057	-0.001256476
249	0xbd2b6092	-0.041840144
250	0x3d420d3d	0.047375906
251	0xbe829126	-0.25501364
252	0x3c111ae2	0.008856507
253	0xbcfee54c	-0.031115197
254	0xbe39040f	-0.18067954
255	0xbe4f3bf5	-0.20237716

output.weight f4 [4, 300]
0	0xbf553068	-0.8327699
1	0xbfa5df72	-1.2958815
2	0xbfb17fe7	-1.3867158
3	0xbd836c79	-0.06417174
4	0x3fb563f9	1.4171134
5	0x3f80fa49	1.0076381
6	0xbf3341a0	-0.7002201
7	0xbf046ce3	-0.5172865
8	0x3fa3ad8f	1.2787341
9	0x3fe26544	1.7687154
10	0xbf016640	-0.50546646
11	0xbf05473c	-0.5206182
12	0x3eb1a48d	0.34695855
13	0xbfc3aac0	-1.5286484
14	0x3f8d8b2d	1.1058098
15	0xbf810b35	-1.0081545
16	0xbfe1c3cb	-1.7637876
17	0x3df5fc1f	0.12010979
18	0xbfc2a2e8	-1.5205965
19	0x3f881323	1.063084
20	0xbf59c6eb	-0.8506915
21	0x3ee56d05	0.44809738
22	0xbf135c9b	-0.5756318
23	0x3fc2bd0a	1.521394
24	0x3ead576f	0.3385577
25	0xbec61120	-0.3868494
26	0x3fab5d2e	1.3387811
27	0x3ee7f330	0.45302725
28	0x3fe65b73	1.7996658
29	0xbfcef39a	-1.6168091
30	0x3e4106e8	0.18850291
31	0x3f8a9258	1.082591
32	0x3f19f762	0.601431
33	0xbf58481f	-0.8448505
34	0x3f426e6b	0.75949734
35	0x3fc2f915	1.5232264
36	0xbf182ae9	-0.59440476
37	0x3f57936a	0.8420931
38	0xbf817905	-1.0115057
39	0xbe4fadca	-0.20281139
40	0xbf32b85f	-0.6981258
41	0x3eb27174	0.34852183
42	0x3f62dc20	0.88617134
43	0xbc1d4590	-0.0095991045
44	0x3f80924e	1.0044649
45	0x3e0c2c22	0.1368871
46	0x3e80d4a3	0.2516223
47	0x3fd58134	1.6680055
48	0x3fa29784	1.2702489
49	0x3fa05ae4	1.2527738
50	0xbf3d84ae	-0.7403058
51	0xbbe24cc5	-0.0069061243
52	0xbfa9573d	-1.3229748
53	0x3d1d9387	0.03847077
54	0xbdfa1469	-0.12210924
55	0x3e9ffe2a	0.312486
56	0x3d92bb5a	0.07164641
57	0x3f3f020d	0.74612504
58	0xbfab4208	-1.3379526
59	0x3ef6e8bd	0.4822444
60	0xbdf9c963	-0.121966146
61	0x3d3621bf	0.044465777
62	0x400c7997	2.1949213
63	0xbf2250a2	-0.63404286
64	0xbe48ab88	-0.19596684
65	0x3df717fb	0.12065121
66	0xbfbbff74	-1.4687333
67	0xbe8534fd	-0.2601699
68	0xbf289653	-0.65854377
69	0xbf213aa4	-0.62980103
70	0xbf8875b8	-1.0660925
71	0xbe928f1e	-0.28624815
72	0xbf072661	-0.52792937
73	0x3f097ba8	0.5370431
74	0x3f437d82	0.76363385
75	0x3e7339f0	0.2375257
76	0x3fca5fe3	1.5810512
77	0xbf621ae4	-0.8832228
78	0xbf83420f	-1.0254534
79	0xbeec5fc8	-0.46166825
80	0xbdfcdc3c	-0.12346694
81	0x3f18e26a	0.5972048
82	0x3e2cd13c	0.16876692
83	0xbf8d8f8d	-1.1059433
84	0x3f9af327	1.2105454
85	0xbe5e8188	-0.217291
86	0x3fbc257c	1.4698939
87	0x3fc4031a	1.5313447
88	0xbe54f416	-0.20796236
89	0xbef7bb62	-0.4838515
90	0xbf4128ef	-0.75453085
91	0xbf1d44e1	-0.61433226
92	0xbfa602da	-1.296962
93	0x3f54082f	0.8282499
94	0xbee979e0	-0.45600796
95	0xbf82840b	-1.0196546
96	0xbf53d527	-0.8274712
97	0x3f02d0a8	0.51099634
98	0xbf249c2e	-0.6430081
99	0x3dbc177f	0.09184169
100	0xbfa6f094	-1.3042169
101	0xbf9f94c0	-1.246727
102	0xbf89dc4d	-1.0770355
103	0xbecf888e	-0.4053387
104	0xbe100080	-0.1406269
105	0xbeecd561	-0.46256545
106	0x3e8ef1b2	0.27918774
107	0x3ed34c29	0.41269043
108	0x3fb9edf0	1.4525738
109	0x3e5874e1	0.21138336
110	0xbe116a42	-0.1420069
111	0x3dd347d2	0.10316433
112	0xbf843b13	-1.0330528
113	0x3f6ce2be	0.9253348
114	0x3cab4b8b	0.020910045
115	0xbee7238c	-0.45144308
116	0xbfcb82a0	-1.5899239
117	0x3e9808eb	0.29694304
118	0x3e86d3f0	0.2633357
119	0xbf5a6b3b	-0.8531987
120	0x3f011057	0.5041556
121	0xbebe02a5	-0.37111393
122	0xbf5372cf	-0.8259706
123	0x3e8443c5	0.25832954
124	0xbf8f99ee	-1.1218851
125	0x3f0d39b1	0.55166155
126	0xbe806435	-0.25076452
127	0x3e7a7edf	0.2446246
128	0x3f04798a	0.51747954
129	0x3f193d1b	0.59858865
130	0xbf8e4b77	-1.111678
131	0x3f007637	0.5018038
132	0xbfb2eab3	-1.3977875
133	0xbf047a2c	-0.5174892
134	0xbf0259a0	-0.50918007
135	0x3f53801f	0.8261737
136	0x3f897857	1.073985
137	0xbf7ebc41	-0.99506
138	0xbfa45474	-1.2838273
139	0xbf99d927	-1.2019395
140	0x3ef80fa1	0.48449424
141	0x3f7fe063	0.9995176
142	0xbf59756f	-0.84944814
143	0x3e7c603e	0.24646088
144	0x3f5aff27	0.8554558
145	0x3ebfb9d1	0.37446454
146	0x3e1a6a58	0.1507963
147	0x3fe36219	1.7764312
148	0x3f1bec90	0.6090784
149	0xbf6a2a37	-0.91470665
150	0x3e69a460	0.2281661
151	0x3fa12889	1.2590495
152	0x3f8654cf	1.0494632
153	0x3f8b2c15	1.0872828
154	0xbf74b38b	-0.9558646
155	0x3f91ee73	1.1400894
156	0x3ff21e87	1.8915566
157	0xbf414a11	-0.7550364
158	0x3f6ff109	0.93727165
159	0x3f5c9d71	0.86177737
160	0xbf599f63	-0.8500883
161	0x3ea6576f	0.32488582
162	0xbee49f7a	-0.4465292
163	0x3e6276f4	0.2211569
164	0x400cbf3a	2.1991715
165	0x3f147347	0.579884
166	0x3d1c71a2	0.038194306
167	0xbf318698	-0.69346
168	0x3f633989	0.88759667
169	0xbdda44ad	-0.1065763
170	0xbf84fd88	-1.0389872
171	0xbe8d29ea	-0.2757104
172	0x3f6c7a5e	0.9237422
173	0xbeae6f7b	-0.34069428
174	0xbf8baec4	-1.0912709
175	0xbf04bcfb	-0.5185086
176	0x3df173f2	0.11789693
177	0xbe3f5dd7	-0.18688141
178	0xbf04e64e	-0.5191392
179	0xbf8ea039	-1.1142646
180	0x3fbd8442	1.4805987
181	0x3f543ef3	0.8290855
182	0xbe43576c	-0.19076318
183	0x3ed2f95d	0.41205874
184	0xbfa88794	-1.3166375
185	0xbf82dd8f	-1.0223864
186	0x3f3c8688	0.7364278
187	0x3d3236c5	0.043509264
188	0xbeef88a2	-0.4678393
189	0x3efdfc66	0.49606627
190	0x3e6f2820	0.2335515
191	0xbe2329ac	-0.15933865
192	0xbe8ddd10	-0.2770772
193	0x3fd98c56	1.6995952
194	0x3d825e55	0.06365649
195	0xbfe5c075	-1.7949358
196	0x3e95f9c6	0.29292125
197	0xbf8d405f	-1.103527
198	0xbfab2647	-1.3371056
199	0x3f604315	0.8760236
200	0x3edaf968	0.42768407
201	0xbf023d5d	-0.5087488
202	0x3e1dcb5e	0.1540961
203	0xbe64a487	-0.22328387
204	0x3fadcdfe	1.3578489
205	0x3f9c82c1	1.2227403
206	0xbea9baf9	-0.3315046
207	0xbe9a77a2	-0.30169398
208	0xbf6765e6	-0.9038986
209	0x3f91d9f3	1.1394638
210	0xbe8e9dbd	-0.2785472
211	0xbec2d9c1	-0.38056758
212	0xbf595208	-0.84890795
213	0xbf86ae75	-1.052199
214	0x401c8eb4	2.44621
215	0x3c6906b2	0.014222788
216	0xbf86d9ff	-1.0535277
217	0xbfb20abf	-1.390953
218	0x3f3a8b6d	0.72868997
219	0xbf39f0a8	-0.7263284
220	0xbfd49eba	-1.661094
221	0xbf8f824c	-1.1211638
222	0x3f819ec8	1.0126581
223	0xbf7d8071	-0.9902411
224	0x3f1e9537	0.61946434
225	0xbf7703fd	-0.9649046
226	0xbfa3d3b0	-1.2798977
227	0x3fb2b48e	1.3961351
228	0x3fa2fd29	1.2733508
229	0xbfcce7ae	-1.6008203
230	0x3f1c685f	0.6109676
231	0xbfb63825	-1.4235884
232	0x3f840ab9	1.0315772
233	0x3f89d97a	1.0769494
234	0x3f761d3a	0.96138346
235	0xbfda2f29	-1.7045642
236	0xbf7d94f8	-0.99055433
237	0x3f59507b	0.8488843
238	0x3fe4ff78	1.7890463
239	0x3eac028d	0.33595696
240	0x3faeae77	1.3646992
241	0x3f6c9c78	0.9242625
242	0xbebed23d	-0.37269774
243	0x3e5747ed	0.21023531
244	0xbde96116	-0.11395471
245	0x3fca8280	1.5821075
246	0xbfd9dd85	-1.7020727
247	0x3facd114	1.3501306
248	0x3eacd15e	0.33753484
249	0x3f7b145c	0.9807794
250	0xbf2c1bf2	-0.6723014
251	0xbf420958	-0.7579551
252	0x3f677ac3	0.90421695
253	0xbf2ceddc	-0.67550445
254	0xbda1f0ab	-0.07907232
255	0xbf1ec830	-0.6202421

output.bias f4 [4]
0	0x3c08c51f	0.008347779
1	0xbd5e4c4a	-0.054271974
2	0x3cb0f3e6	0.021600675
3	0xbdb324a8	-0.08747226
