Neural_networks/reacher_20_2_policy_target.pth (torch, 542751 bytes, 6 tensors)

hidden_layer_1.weight f4 [400, 33]
-0.10474141 0.34010395 0.1988041 1.2126539 0.018358245 -0.27769566 -0.20052548 -0.027057998
0.040591493 -0.2122653 0.07261528 0.048419073 0.02947253 -0.08503833 0.038879126 -0.110972635
0.8362351 -0.06153415 -0.19220373 0.12707412 0.007883891 0.13709061 -0.083138786 -0.121117525
0.0067663025 0.003632139 -0.09092106 0.4202889 0.22483546 0.049657617 -0.42395878 -0.028602464
-0.70812786 -0.42468348 -0.14488813 -0.106495164 -0.9510995 0.016323738 -1.1109537 0.43373162
0.007539784 -0.1438197 -0.1109582 -0.17011434 0.026024308 -0.015398279 0.21917444 0.19823584
-0.018062923 -0.52817315 0.6002685 -0.5440421 0.8504537 0.044140216 0.09894742 -0.07147965
0.053723846 0.13567193 -0.05451544 -0.18629481 0.15232323 -0.21692973 -0.041183244 -0.111308865
-0.011414509 0.3370082 0.012038733 -0.123429604 -0.03557088 -0.85436916 -0.28712353 0.22973791
0.324547 0.056763396 0.2709639 -0.121928014 -0.05260854 -0.025396032 -0.09182355 -0.0052062925
0.18528561 -0.08866385 -0.03049348 -0.17509453 0.13150069 0.18137434 -0.010985329 0.040488783
0.042839896 0.022776341 0.05180827 0.020049842 0.20237735 0.1559254 0.20399894 -0.034138605
-0.21741691 0.04606835 0.5005537 0.1661384 -0.17557155 0.0057770805 -0.5423108 -0.18317372
0.7935909 -0.09001164 0.060983595 -0.20661306 -0.07285046 -0.029423308 0.057087883 0.036177505
0.037501525 0.16402447 -0.057818122 -0.56094664 -0.73722243 -0.24115326 0.6127941 -0.024703877
0.061412394 0.0064608688 -0.03707729 -0.043646898 -0.00579629 -0.028475631 0.061787978 0.12113064
-5.0626695e-05 -0.100622036 -0.000518851 1.7698134 0.025649294 -0.05119984 -0.27865374 -0.49377447
-0.26063186 0.26487654 -0.3281167 -0.016120251 0.44648013 0.11369982 -0.09635666 0.065202616
0.008687511 -0.111442365 0.019942004 0.27170908 0.36415777 -0.9459801 0.16302533 -0.12513882
0.014432261 -0.07365178 -0.06751359 0.08882712 -0.059508227 0.093632296 0.11140163 0.16583014
0.06984164 -0.0379647 -0.19127055 -0.009385206 -0.08023067 0.1697467 -0.0897983 0.2363588
0.14952065 0.025161572 -0.117815174 0.25566643 0.007038012 -0.19396316 -0.07914703 0.038464457
0.0225182 0.123001225 -0.042397972 0.060656015 -0.21916541 -0.23293506 0.6529482 0.45293498
0.53244114 0.118725486 -0.1240021 -0.062618904 -0.004459436 -0.02745309 -0.14963342 0.06249399
0.07825247 0.00021026873 0.046912704 -0.032510873 0.0009202771 0.63657755 0.022496572 0.20443009
-0.17791313 0.7531238 -0.11409718 0.1469304 -0.29637623 0.025066327 0.0885721 -0.012410793
0.059343908 0.007651119 -0.045285165 0.21463881 0.054746307 0.0034091738 -0.693428 0.29502064
0.5863613 -0.07623203 -0.031082012 0.09328678 0.11472344 0.09027773 0.15151626 -0.02892405
-0.070525855 0.16924657 0.06586513 -0.04283208 -0.19013262 0.01055352 -0.8354322 0.15801066
0.04024929 0.12728852 0.43966493 -0.22838965 -0.3912926 -0.021553878 0.015488184 -0.017658927
-0.17449512 0.18171433 0.09142831 0.035734702 -0.14955427 0.13473435 -0.1395493 -0.6309508
-0.3734096 0.42055267 0.9383279 -0.06880075 -0.008132304 -0.070581436 -0.05063933 -0.027966434
00000000: aa82 d6bd 1b22 ae3e 4d93 4b3e 3e38 9b3f
00000010: 0864 963c 202e 8ebe 8d56 4dbe bca8 ddbc
00000020: 4443 263d 135c 59be 52b7 943d 1453 463d
00000030: 6070 f13c 9328 aebd b83f 1f3d 9f45 e3bd
00000040: 8113 563f 3c0b 7cbd 0ed1 44be b81f 023e
00000050: 702b 013c 7b61 0c3e ab44 aabd 770c f8bd
00000060: dcb7 dd3b 2e09 6e3b d234 babd 1b30 d73e
00000070: 443b 663e c965 4b3d 2011 d9be b74f eabc
00000080: de47 35bf 1d70 d9be 8e5d 14be 231a dabd
00000090: 427b 73bf 5cb9 853c bb33 8ebf 1212 de3e
000000a0: 4b10 f73b 7945 13be 0e3e e3bd 7432 2ebe
000000b0: ee30 d53c 1049 7cbc 446f 603e 56fe 4a3e
000000c0: b2f8 93bc 5b36 07bf 32ab 193f 5846 0bbf
000000d0: 55b7 593f 5fcc 343d f2a4 ca3d ec63 92bd
000000e0: 890d 5c3d 95ed 0a3e 954b 5fbd 11c4 3ebe
000000f0: 9ffa 1b3e d422 5ebe c3af 28bd e7f5 e3bd
00000100: ec03 3bbc 578c ac3e 1b3e 453c a9c8 fcbd
00000110: c5b2 11bd f0b7 5abf db01 93be 6a40 6b3e
00000120: 062b a63e bc80 683d c8bb 8a3e 65b5 f9bd
00000130: 0d7c 57bd 570b d0bc fc0d bcbd 8c99 aabb
00000140: 83bb 3d3e 6595 b5bd 76cd f9bc fb4b 33be
00000150: 1ea8 063e 32ba 393e cffb 33bc 91d7 253d
00000160: e378 2f3d 7395 ba3c e934 543d 913f a43c
00000170: 023c 4f3e e8aa 1f3e 19e5 503e ecd4 0bbd
00000180: 8aa2 5ebe 2bb2 3c3d 4a24 003f 2f20 2a3e
00000190: 07c9 33be aa4d bd3b e1d4 0abf e491 3bbe
000001a0: c628 4b3f 0658 b8bd efc9 793d 6092 53be
000001b0: 9f32 95bd 2609 f1bc fcd4 693d dd2e 143d
000001c0: 339b 193d 08f6 273e b2d2 6cbd 339a 0fbf
000001d0: 9cba 3cbf e1f0 76be 13e0 1c3f c95f cabc
000001e0: 908b 7b3d b2b5 d33b 5bde 17bd 17c7 32bd
000001f0: ceee bdbb ba45 e9bc 6415 7d3d 5713 f83d
00000200: 0058 54b8 ed12 cebd 8003 08ba 3f89 e23f
00000210: 781e d23c ecb6 51bd b4ab 8ebe 02d0 fcbe
00000220: 8a71 85be e69d 873e e9fe a7be 9e0e 84bc
00000230: 0b99 e43e 74db e83d a456 c5bd f388 853d
00000240: 1056 0e3c e53b e4bd 6a5d a33c 741d 8b3e
00000250: e372 ba3e c02b 72bf 1df0 263e 6424 00be
00000260: 4a75 6c3c bfd6 96bd 9144 8abd feea b53d
00000270: e6be 73bd 4ac2 bf3d 8a26 e43d 60cf 293e
00000280: 2209 8f3d e080 1bbd 6ddc 43be 68c4 19bc
00000290: fa4f a4bd 14d2 2d3e 2ce8 b7bd 0b08 723e
000002a0: f11b 193e a41f ce3c 1549 f1bd b6e6 823e
000002b0: 209f e63b 479e 46be d717 a2bd e88c 1d3d
000002c0: 1778 b83c 11e8 fb3d 7fa9 2dbd 7172 783d
000002d0: e66c 60be 8786 6ebe 9d27 273f 18e7 e73e
000002e0: 104e 083f 5926 f33d d0f4 fdbd 573e 80bd
000002f0: 7620 92bb 4de5 e0bc 8139 19be b3f9 7f3d
00000300: d542 a03d 957b 5c39 8927 403d 1f2a 05bd
00000310: c03e 713a bff6 223f bb4a b83c 1f56 513e
00000320: dc2e 36be b9cc 403f c8ab e9bd ec74 163e
00000330: a0be 97be e657 cd3c 4a65 b53d a456 4bbc
00000340: 9912 733d 3db6 fa3b f07c 39bd 47ca 5b3e
00000350: aa3d 603d 726c 5f3b 7f84 31bf f20c 973e
00000360: c61b 163f 8a1f 9cbd b49f febc 240d bf3d
00000370: 1ff4 ea3d 88e3 b83d 1427 1b3e 21f2 ecbc
00000380: dc6f 90bd f94e 2d3e 4ce4 863d b170 2fbd
00000390: 20b2 42be ace8 2c3c e2de 55bf 8ccd 213e
000003a0: 71dc 243d ec57 023e c31b e13e fade 69be
000003b0: 8157 c8be c291 b0bc 27c2 7d3c 74a9 90bc
000003c0: d9ae 32be 5213 3a3e c43e bb3d 8d5e 123d
000003d0: c124 19be cdf7 093e 03e6 0ebe fe85 21bf
000003e0: 8b2f bfbe ae52 d73e 4236 703f 68e7 8cbd
000003f0: 5b3d 05bc 008d 90bd 306b 4fbd dd19 e5bc

hidden_layer_1.bias f4 [400]
-0.5192848 -0.20291166 -0.020765914 -0.05809205 -0.30051655 -0.21167536 -0.29494953 -0.29433343
-0.12406088 -0.17936839 0.047335256 -0.14639819 -0.17313999 -0.26732445 -0.058465395 0.040545773
-0.37689838 -0.20587061 -0.43892565 -0.2603608 -0.4065575 -0.15959314 -0.21026134 -0.38024503
-0.18021509 -0.38533816 -0.2542532 -0.1426033 0.2822351 -0.3761445 -0.14044961 -0.014532574
0.071408466 -0.06907223 -0.44648665 -0.293445 -0.07793879 -0.22688106 0.15141846 -0.026276741
-0.2520435 0.25440115 0.16525899 -0.16266748 -0.34013125 0.12255841 -0.06593115 -0.10439025
-0.3331776 -0.28754082 -0.01784541 -0.10983791 -0.12749219 -0.21929477 -0.32245773 -0.11701399
-0.09856256 -0.24655291 -0.293334 -0.22640362 -0.21283329 -0.40125763 -0.15711883 -0.34607062
-0.33077398 -0.21601549 -0.060059585 -0.47293884 -0.20782505 -0.073929004 -0.11867536 -0.30775884
-0.1840429 -0.2416232 -0.17616962 -0.061244868 -0.3799264 -0.2918298 -0.26208475 -0.22366501
-0.07676412 -0.14608045 -0.4602224 -0.057287443 -0.5466993 0.05878915 -0.36198214 -0.09392594
-0.3106042 -0.59671885 -0.24850388 -0.36216703 0.044881284 -0.24134387 -0.31352395 -0.35523582
-0.4392484 -0.27389765 -0.115920365 -0.021576762 -0.36394513 -0.186567 -0.018957883 0.02999575
-0.129311 -0.09296494 -0.23784976 -0.41594553 -0.12381724 -0.27089226 -0.3138312 -0.20391354
-0.45440337 -0.020780861 -0.10187016 0.059304614 -0.37099585 -0.18054597 -0.3154154 -0.118767895
-0.35077953 -0.47229353 -0.059538472 -0.12983146 -0.31406242 -0.17207043 -0.3418531 -0.23723006
-0.044767767 -0.1818835 -0.27666977 -0.042789858 -0.037023548 -0.07015199 -0.095754266 -0.15439853
-0.3617977 0.15703923 -0.0967288 -0.2535729 -0.22077747 -0.3897468 -0.11813724 -0.028358217
-0.61207116 -0.1648301 -0.341396 -0.58167297 -0.45601362 -0.09627936 -0.45575404 -0.19847612
0.4316655 -0.25651485 -0.4773897 -0.62697184 0.08135702 -0.45104277 0.026628017 -0.25891563
-0.23816927 0.12083356 0.03663573 -0.056500804 -0.02693006 -0.2542812 -0.195676 -0.30058682
-0.042520527 -0.0023793094 -0.519075 -0.6191955 -0.31633237 -0.32180077 -0.36358178 0.27241886
-0.38683245 -0.4324123 -0.13514742 -0.15191075 0.0058311713 -0.20857099 -0.20724508 -0.29107055
-0.25727502 -0.2710851 -0.17701694 0.07543156 0.06462834 -0.011680085 -0.36406082 -0.2256986
-0.12663653 0.06029385 -0.28802773 -0.08573749 -0.3115809 -0.48633152 0.029459782 -0.007708613
-0.38564697 -0.24059775 -0.15850526 -0.1881719 -0.3313362 -0.03532607 -0.18262267 -0.09993145
-0.22098027 -0.34475827 -0.293826 0.039372593 -0.2985714 -0.29662788 -0.1789906 -0.55505234
-0.49972 -0.08352033 -0.22138469 0.11563176 -0.22302467 -0.46489105 -0.34784308 -0.5073978
0.09135051 -0.11661302 -0.050089497 0.011718769 -0.19735539 -0.5220022 -0.1374737 -0.16465798
0.0741858 -0.19950241 -0.17016934 0.22352758 -0.2750302 -0.10649716 -0.61329794 -0.055864546
-0.011084268 -0.03583299 0.2737467 -0.028508024 -0.33506832 -0.5399425 -0.0023757583 0.20906375
0.09862569 -0.37743598 -0.17439848 -0.23559746 -0.32242736 -0.5631404 -0.039993692 -0.21733718
00000000: d9ef 04bf 13c8 4fbe 471d aabc eef1 6dbd
00000010: 4edd 99be 6dc1 58be a003 97be dfb2 96be
00000020: a113 febd 59ac 37be 9de2 413d 68e9 15be
00000030: 9c4b 31be c0de 88be 6979 6fbd 5313 263d
00000040: d3f8 c0be bfcf 52be ddba e0be 034e 85be
00000050: 4e28 d0be 626c 23be c04e 57be 7aaf c2be
00000060: 4e8a 38be 0b4b c5be 7a2d 82be 9906 12be
00000070: 1e81 903e 0396 c0be 06d2 0fbe 091a 6ebc
00000080: 9a3e 923d be75 8dbd e699 e4be 6c3e 96be
00000090: 5f9e 9fbd 8253 68be 710d 1b3e 5242 d7bc
000000a0: d80b 81be de40 823e a739 293e 4e92 26be
000000b0: af25 aebe e7ff fa3d e906 87bd 8eca d5bd
000000c0: 4196 aabe 8d38 93be 8a30 92bc b3f2 e0bd
000000d0: 508d 02be cf8e 60be 2e19 a5be 08a5 efbd
000000e0: 2bdb c9bd 5e78 7cbe e02f 96be 5ad6 67be
000000f0: f8f0 59be a471 cdbe c2e3 20be 2b30 b1be
00000100: 355b a9be 2a33 5dbe 0a01 76bd 0a25 f2be
00000110: 17d0 54be 1768 97bd 110c f3bd 9192 9dbe
00000120: be75 3cbe 126c 77be cf65 34be e6db 7abd
00000130: b785 c2be b76a 95be f92f 86be 7108 65be
00000140: 8236 9dbd 1d96 15be 45a2 ebbe 3da6 6abd
00000150: 7cf4 0bbf e4cc 703d b955 b9be 3e5c c0bd
00000160: 8407 9fbe 91c2 18bf cd77 7ebe f56d b9be
00000170: 70d5 373d d922 77be 3686 a0be 78e1 b5be
00000180: 2be5 e0be 503c 8cbe a867 edbd c0c1 b0bc
00000190: 0457 babe 6b0b 3fbe 904d 9bbc a6b9 f53c
000001a0: 1a6a 04be 6764 bebd e38e 73be d0f6 d4be
000001b0: e593 fdbd 64b2 8abe 7cae a0be b6ce 50be
000001c0: 8fa7 e8be a03c aabc 4da1 d0bd 65e9 723d
000001d0: 2bf3 bdbe 0be1 38be 217e a1be 953c f3bd
000001e0: 6099 b3be 75d0 f1be 9dde 73bd 8af2 04be
000001f0: cacc a0be 3b33 30be 5f07 afbe 70ec 72be
00000200: 685e 37bd ab3f 3abe a9a7 8dbe 6b44 2fbd
00000210: 01a6 17bd d9ab 8fbd d01a c4bd a61a 1ebe
00000220: 8c3d b9be e4ce 203e c019 c6bd 4fd4 81be
00000230: 7d13 62be e48c c7be f0f1 f1bd 7e4f e8bc
00000240: b2b0 1cbf 39c9 28be 75cb aebe 85e8 14bf
00000250: 9e7a e9be 1d2e c5bd 9858 e9be 533d 4bbe
00000260: 4303 dd3e ea55 83be 6c6c f4be 3a81 20bf
00000270: 829e a63d 14ef e6be 0023 da3c 9790 84be
00000280: a5e2 73be 9677 f73d 590f 163d 636d 67bd
00000290: 6e9c dcbc 2531 82be 4a5f 48be 84e6 99be
000002a0: 012a 2ebd 30ee 1bbb 19e2 04bf 9983 1ebf
000002b0: 51f6 a1be 12c3 a4be 6427 babe 7c7a 8b3e
000002c0: e70e c6be 2565 ddbe 1664 0abe 7e8e 1bbe
000002d0: 6913 bf3b a293 55be 0e38 54be 3307 95be
000002e0: 8db9 83be abcb 8abe ee43 35be dd7b 9a3d
000002f0: dd5b 843d d45d 3fbc 2e66 babe 891d 67be
00000300: 02ad 01be aff6 763d 5f78 93be 2397 afbd
00000310: 8887 9fbe 7200 f9be a455 f13c 8898 fcbb
00000320: 8573 c5be 425f 76be 344f 22be 22b0 40be
00000330: e6a4 a9be 12b2 10bd 7001 3bbe dca8 ccbd
00000340: a748 62be 2884 b0be 5d70 96be 2845 213d
00000350: 5ade 98be 9cdf 97be 5049 37be e917 0ebf
00000360: 4ddb ffbe b50c abbd abb2 62be 58d0 ec3d
00000370: 9460 64be 3306 eebe 7d18 b2be d2e4 01bf
00000380: fa15 bb3d cfd2 eebd a52a 4dbd 1400 403c
00000390: 8817 4abe f0a1 05bf e8c5 0cbe 1a9c 28be
000003a0: baee 973d 5c4a 4cbe df40 2ebe 6ae4 643e
000003b0: c2d0 8cbe 2f1b dabd 1801 1dbf 39d2 64bd
000003c0: ca9a 35bc 9dc5 12bd 8728 8c3e a989 e9bc
000003d0: 138e abbe ac39 0abf 9cb2 1bbb cf14 563e
000003e0: 44fc c93d 4a3f c1be 8495 32be 7640 71be
000003f0: 3315 a5be f829 10bf 6dd0 23bd a38d 5ebe

hidden_layer_2.weight f4 [300, 400]
0.05822953 -0.19955489 0.123099 0.2549664 -0.10647324 -0.31912747 0.33131197 0.118835054
0.29847062 0.19508398 0.19816868 0.095069714 -0.064241126 -0.14629124 -0.24668555 -0.23150232
0.10749722 -0.3987089 -0.060926195 0.19242291 -0.30638626 -0.19092411 0.080341905 -0.27644643
0.04791054 -0.15809129 -0.25991657 -0.3000559 0.43325356 -0.24607551 0.26289085 -0.32246852
-0.19633631 0.01593669 -0.7385713 0.26062354 -0.16661276 -0.23526022 -0.40062702 0.29344442
0.63906354 0.12514494 -0.1752697 -0.33313635 0.17580001 -0.50207657 -0.055739388 -0.6172416
-0.096627295 -0.0035576208 0.13484284 -0.07289049 -0.19912575 -0.31154203 -0.32978427 -0.07673981
0.044457626 0.04839141 0.31714782 -0.46597615 -0.065872826 -0.038655948 -0.43046808 -0.42980686
-0.044515315 -0.27538258 -0.27519527 0.044092294 -0.30619165 -0.18861753 0.2048314 0.41635013
-0.052588742 0.19968629 0.18701963 -0.059819166 -0.65964663 -0.09410403 0.1210774 0.15412511
-0.3335615 -0.18080465 -0.38350147 0.05228216 0.089298405 -0.111293465 -0.46613494 0.25453103
0.4634768 -0.38719675 -0.06757093 0.093888514 0.18687427 0.02765287 0.07285921 0.2165534
-0.09186977 0.38684025 -0.2497925 -0.507199 -0.1009669 0.30563164 -0.11371661 0.027233679
-0.10334943 0.012350014 -0.054429356 0.34384102 0.4814006 0.05830859 -0.26480874 -0.37319613
0.18435167 -0.072831735 0.3902352 0.044346996 -0.15401046 0.0040879226 0.22702517 -0.010784033
-0.04459234 -0.038537152 -0.19197743 0.028627476 0.22867765 -0.23511475 -0.17539994 0.021165749
0.34705147 -0.21056736 0.34890768 -0.12609214 -0.29119077 -0.3214496 0.015312791 -0.4213748
-0.07178277 0.006831919 -0.15949255 0.26497138 -0.13532515 0.2790753 0.37918457 0.23968971
-0.0077895746 0.22462673 -0.30965173 -0.047920696 -0.124211684 0.23743075 0.0237983 -0.17607184
-0.19715717 -0.36729217 0.3198623 0.36331034 0.092391334 0.058044642 -0.12772761 0.04308521
0.076797746 -0.36924317 0.36503813 0.15088013 0.35918978 0.064332694 0.2627411 -0.38132712
0.0013662258 -0.21960825 0.13742864 0.055616092 0.057567634 -0.15261284 0.4814432 -0.011045044
0.2127879 0.010410388 0.30738333 -0.0068470053 0.317947 0.15015471 -0.078152 -0.15209897
-0.1375551 -0.21123041 -0.6492502 -0.009691466 -0.19821902 -0.0054900255 0.06755443 -0.16777831
0.0748621 -0.2389705 0.33397305 -0.12170109 0.06156943 -0.0667275 -0.32089105 0.13779142
0.35736045 0.15594539 -0.11022447 0.055262215 0.33225495 -0.08520015 0.15828672 0.118970186
-0.1293623 0.11581863 -0.27585876 -0.0048194677 0.25658402 -0.14798369 0.51993984 0.04032761
-0.079619005 -0.0042010956 -0.43228397 -0.10950791 -0.17220703 0.039321914 0.16074891 0.34671238
-0.1756399 -0.25129524 0.3966023 0.016514612 -0.34777725 -0.22866894 0.0788848 0.18267651
0.23425798 -0.062261354 -0.19494753 0.19625305 -0.43694866 0.27004248 0.3286738 0.23552543
-0.15145798 -0.29221094 0.07752274 -0.32189384 0.21237865 0.39509854 -0.0035747716 -0.22690594
0.07270098 -0.27048245 -0.14520615 -0.5744046 -0.14427045 0.3041166 -0.10582837 0.22969332
00000000: 1682 6e3d 1e58 4cbe 541b fc3d f58a 823e
00000010: a40e dabd ad64 a3be b9a1 a93e cb5f f33d
00000020: 24d1 983e 18c4 473e bbec 4a3e e9b3 c23d
00000030: da90 83bd 5fcd 15be 239b 7cbe f20e 6dbe
00000040: 8127 dc3d 9323 ccbe bf8d 79bd 830a 453e
00000050: a9de 9cbe 9c81 43be 4c8a a43d 638a 8dbe
00000060: d83d 443d afe2 21be c913 85be eda0 99be
00000070: 69d3 dd3e 38fb 7bbe a199 863e 981a a5be
00000080: 630c 49be a98d 823c 0213 3dbf 7370 853e
00000090: 899c 2abe 0ee8 70be fc1e cdbe 593e 963e
000000a0: ab99 233f ff25 003e e679 33be d990 aabe
000000b0: eb04 343e 1788 00bf fc4e 64bd 8c03 1ebf
000000c0: 88e4 c5bd f926 69bb 3e14 0a3e 9c47 95bd
000000d0: 9fe7 4bbe 7082 9fbe 7cd9 a8be c329 9dbd
000000e0: 3319 363d 1236 463d 3361 a23e 6d94 eebe
000000f0: 55e8 86bd b355 1ebd 5066 dcbe a50f dcbe
00000100: b155 36bd f2fe 8cbe 65e6 8cbe 1f9a 343d
00000110: 27c5 9cbe f424 41be 53bf 513e d82b d53e
00000120: 4b67 57bd 907a 4c3e 1382 3f3e f104 75bd
00000130: 9ade 28bf 9db9 c0bd 6ef7 f73d f9d2 1d3e
00000140: 93c8 aabe db24 39be 4e5a c4be d125 563d
00000150: 15e2 b63d d4ed e3bd 3da9 eebe e451 823e
00000160: d54c ed3e a73e c6be a162 8abd 9f48 c03d
00000170: f85b 3f3e 4688 e23c 3637 953d 2dc0 5d3e
00000180: 3826 bcbd ed0f c63e 9bc9 7fbe cbd7 01bf
00000190: bcc7 cebd c07b 9c3e 41e4 e8bd 2a19 df3c
000001a0: dea8 d3bd b757 4a3c 51f1 5ebd ee0b b03e
000001b0: 247a f63e fdd4 6e3d 0395 87be 9013 bfbe
000001c0: afc6 3c3e ce28 95bd e8cc c73e 32a5 353d
000001d0: ebb4 1dbe fbf3 853b 4979 683e 83af 30bc
000001e0: 75a6 36bd 22d9 1dbd bb95 44be 2b84 ea3c
000001f0: 792a 6a3e ecc1 70be 0b9c 33be cb63 ad3c
00000200: bbb0 b13e f89e 57be 07a4 b23e 4c1e 01be
00000210: f516 95be 0b95 a4be 80e2 7a3c 70be d7be
00000220: d802 93bd 4ade df3b 0452 23be 54aa 873e
00000230: ad92 0abe f5e2 8e3e 7b24 c23e 3871 753e
00000240: b03f ffbb 8d04 663e ac8a 9ebe 7e48 44bd
00000250: b262 febd 0c21 733e a7f4 c23c 2d4c 34be
00000260: 92e3 49be b80d bcbe fec4 a33e d003 ba3e
00000270: ab37 bd3d 38c0 6d3d 07cb 02be 1e7a 303d
00000280: 2348 9d3d 710d bdbe 47e6 ba3e 5280 1a3e
00000290: b9e7 b73e dcc0 833d 0086 863e 4f3d c3be
000002a0: ee12 b33a fce0 60be 18ba 0c3e b3cd 633d
000002b0: 0acc 6b3d 8a46 1cbe b97f f63e 46f6 34bc
000002c0: 12e5 593e 5590 2a3c 5961 9d3e d85c e0bb
000002d0: f3c9 a23e 28c2 193e 280e a0bd d5bf 1bbe
000002e0: 3edb 0cbe c94c 58be 4335 26bf f4c8 1ebc
000002f0: edf9 4abe ace5 b3bb fa59 8a3d 14ce 2bbe
00000300: 4d51 993d afb4 74be 84fe aa3e 6c3e f9bd
00000310: 3a30 7c3d 6da8 88bd d54b a4be 3219 0d3e
00000320: f3f7 b63e 26b0 1f3e 5ebd e1bd a25a 623d
00000330: 521d aa3e 6b7d aebd ea15 223e a4a6 f33d
00000340: 8d77 04be 5132 ed3d 5c3d 8dbe a0ec 9dbb
00000350: fb5e 833e 0989 17be c71a 053f 902e 253d
00000360: 4a0f a3bd 58a9 89bb 5354 ddbe af45 e0bd
00000370: 0a57 30be 0410 213d 5d9b 243e 4984 b13e
00000380: f2da 33be c5a9 80be 750f cb3e a749 873c
00000390: dc0f b2be 3128 6abe 5b8e a13d 8d0f 3b3e
000003a0: 53e1 6f3e c305 7fbd 53a0 47be 8ff6 483e
000003b0: bcb7 dfbe 0243 8a3e ef47 a83e 942d 713e
000003c0: cd17 1bbe ac9c 95be 3ec4 9e3d 45cf a4be
000003d0: ca79 593e 5b4a ca3e b746 6abb 085a 68be
000003e0: 40e4 943d ad7c 8abe ecb0 14be 2e0c 13bf
000003f0: a2bb 13be 2cb5 9b3e 8bbc d8bd ba34 6b3e

hidden_layer_2.bias f4 [300]
-0.049921192 -0.06780999 -0.114028886 0.06619242 0.00279064 0.046616994 -0.021497732 0.06514341
-0.0497299 0.04087652 -0.00088263274 0.03173406 0.080020174 -0.07799802 -0.12214321 0.004198272
-0.030034468 0.20176618 -0.13027638 -0.054072335 0.08524817 -0.04270788 0.16016495 0.013198789
0.059934672 -0.11990891 -0.075891234 0.16427267 -0.14887775 -0.34296942 -0.15610012 -0.17784713
-0.08854942 -0.21891144 0.06996662 -0.21240917 -0.16011676 -0.1661122 -0.012087869 0.06623536
-0.097423516 -0.022545727 0.0068994267 0.034184262 -0.12801555 -0.12430982 -0.04865147 -0.12387852
-0.24313477 -0.13643722 -0.031535313 0.0038970697 -0.314143 -0.1647642 -0.00049438083 -0.0012509043
-0.24160147 -0.08408121 -0.26821274 -0.28819805 0.013596689 -0.11927468 -0.07275983 -0.24250789
0.012370537 -0.036324468 -0.08188546 -0.05242632 0.07511783 -0.1531149 -0.013599665 -0.1626014
-0.018690536 -0.0878634 0.08323547 -0.060105197 -0.3154972 0.04352419 -0.17975648 -0.21528976
-0.11963733 -0.2035122 0.024921058 0.0610827 -0.009218118 -0.09965514 -0.04752929 -0.0046145874
-0.031053668 0.061054017 -0.05450326 -0.038178533 0.028121646 -0.29002526 -0.31246647 -0.26180127
0.061940197 0.015348548 -0.09989697 -0.00095062196 -0.22116861 0.050972298 -0.2765718 -0.026202798
0.023500983 -0.2812668 -0.18951799 -0.14500313 -0.15506218 -0.11374706 -0.008814824 0.087339595
0.017606292 -0.21969809 0.15529226 -0.14961877 0.050389834 -0.042676065 -0.117246404 0.048946254
-0.08943754 -0.059698023 0.002223145 -0.082881406 -0.16247095 0.0065297987 -0.06658155 -0.038102582
0.02879903 -0.005321459 -0.07053197 0.053991053 -0.079464786 -0.1237291 -0.053038165 -0.07552189
-0.17191683 -0.038475525 -0.024312124 0.051500283 -0.025623249 -0.21179521 -0.13223541 -0.16301706
0.024380408 -0.07723924 0.073753074 -0.09681743 0.08005036 -0.009784331 0.008180616 -0.025501164
0.07913671 0.25478148 -0.51879066 -0.16420603 -0.28724343 -0.031186977 -0.33445144 -0.13309829
-0.08631287 -0.05966792 -0.14163263 -0.10341573 -0.04772876 -0.1642647 0.036876075 -0.20904648
-0.16381319 -0.0058673476 -0.024526762 -0.3435507 -0.21857312 -0.25510445 -0.008638542 -0.20456707
-0.13204677 -0.07193917 -0.052619655 -0.17693391 0.011288785 0.0772446 -0.058879673 -0.12161446
-0.15216297 -0.101816736 0.022763083 0.06229963 0.19587466 -0.021841802 -0.013319438 -0.15405868
-0.012713044 -0.31970856 0.06847953 0.08653698 -0.050444376 -0.2018655 -0.43211344 -0.08206732
0.040200446 -0.051533554 -0.19143261 0.082811475 -0.14005555 0.026682328 0.08340294 -0.049112044
-0.12182985 0.028975867 -0.21975465 -0.0077015334 -0.09067209 -0.17271233 -0.10218052 -0.05987935
-0.06226176 -0.14996569 0.04639225 -0.037284203 -0.21192652 -0.39525005 -0.0011430524 -0.19077443
-0.2761002 0.031309094 0.014497193 0.06042846 -0.16439408 -0.08205539 0.032250058 -0.14581233
-0.055203963 0.032659464 -0.14362365 -0.27511895 -0.2671659 0.021759925 -0.15108266 -0.18028791
0.0010802086 -0.017512944 -0.00824468 -0.009628559 -0.23777343 -0.20471945 -0.21915676 0.1301136
-0.0023145813 -0.04375751 0.045645133 -0.2560943 0.008138913 -0.031578172 -0.18089096 -0.20324336
00000000: 2a7a 4cbd f7df 8abd fa87 e9bd e48f 873d
00000010: 2ce3 363b 76f1 3e3d 031c b0bc e869 853d
00000020: 94b1 4bbd 236e 273d 7b60 67ba 93fb 013d
00000030: 9ee1 a33d 6dbd 9fbd 3826 fabd a891 893b
00000040: d80a f6bc cb9b 4e3e 2c67 05be f47a 5dbd
00000050: 9896 ae3d 75ee 2ebd 4802 243e bc3f 583c
00000060: 0f7e 753d cd92 f5bd dd6c 9bbd 1837 283e
00000070: 6973 18be b099 afbe b6d8 1fbe 8f1d 36be
00000080: 6659 b5bd 522a 60be a94a 8f3d ca81 59be
00000090: a6f5 23be 5119 2abe 330c 46bc 68a6 873d
000000a0: fb85 c7bd d1b1 b8bc 9614 e23b cc04 0c3d
000000b0: 8216 03be 2696 febd c446 47bd 06b4 fdbd
000000c0: 52f8 78be 33b6 0bbe 2c2b 01bd fb65 7f3b
000000d0: 5ad7 a0be f2b7 28be 5699 01ba 62f5 a3ba
000000e0: 6066 77be c532 acbd 2e53 89be b28e 93be
000000f0: a6c4 5e3c 4946 f4bd 1b03 95bd fd53 78be
00000100: cbad 4a3c f7c8 14bd 90b3 a7bd fbbc 56bd
00000110: 60d7 993d 27ca 1cbe 21d1 5ebc fb80 26be
00000120: e51c 99bc baf1 b3bd 5c77 aa3d de30 76bd
00000130: d988 a1be 6c46 323d 1512 38be eb74 5cbe
00000140: 6b04 f5bd 8165 50be 3f27 cc3c da31 7a3d
00000150: 9707 17bc fe17 ccbd 13ae 42bd f735 97bb
00000160: 4364 febc c713 7a3d cf3e 5fbd 1861 1cbd
00000170: 5e5f e63c 317e 94be 9bfb 9fbe d10a 86be
00000180: 01b5 7d3d 7a78 7b3c c896 ccbd 2933 79ba
00000190: 067a 62be 54c8 503d d29a 8dbe 40a7 d6bc
000001a0: 2285 c03c 3402 90be 0111 42be b37b 14be
000001b0: 9fc8 1ebe 38f4 e8bd 0d6c 10bc 1adf b23d
000001c0: 123b 903c 89f8 60be ef04 1f3e aa35 19be
000001d0: 9265 4e3d 19cd 2ebd e21e f0bd de7b 483d
000001e0: 072b b7bd ea85 74bd 2fb2 113b babd a9bd
000001f0: c95e 26be ecf7 d53b e85b 88bd 7411 1cbd
00000200: f2eb eb3c a25f aebb 1173 90bd b925 5d3d
00000210: 6fbe a2bd af65 fdbd 8c3e 59bd 38ab 9abd
00000220: f70a 30be 8398 1dbd 382a c7bc f6f1 523d
00000230: d9e7 d1bc d8e0 58be b868 07be f2ed 26be
00000240: 6cb9 c73c 9b2f 9ebd da0b 973d 3748 c6bd
00000250: 71f1 a33d 754e 20bc fe07 063c d1e7 d0bc
00000260: 6d12 a23d b872 823e 77cf 04bf a025 28be
00000270: 9211 93be d57b ffbc 383d abbe eb4a 08be
00000280: cdc4 b0bd 5966 74bd 2508 11be a0cb d3bd
00000290: 3b7f 43bd 0135 28be 5e0b 173d 4810 56be
000002a0: a5be 27be e142 c0bb 59ec c8bc e1e5 afbe
000002b0: a2d1 5fbe 0d9d 82be ac88 0dbc 087a 51be
000002c0: 4537 07be d854 93bd b587 57bd 2a2e 35be
000002d0: 99f4 383c 6b32 9e3d d02b 71bd 0111 f9bd
000002e0: 9cd0 1bbe 4b85 d0bd a579 ba3c e62d 7f3d
000002f0: 5e93 483e 94ed b2bc c639 5abc 8fc1 1dbe
00000300: 5f4a 50bc d7b0 a3be ff3e 8c3d 4d3a b13d
00000310: c39e 4ebd d4b5 4ebe f93d ddbe e912 a8bd
00000320: 39a9 243d d914 53bd e906 44be 1099 a93d
00000330: b96a 0fbe e694 da3c 29cf aa3d b629 49bd
00000340: ee81 f9bd cc5e ed3c 5d07 61be 255d fcbb
00000350: 4ab2 b9bd 80db 30be 0544 d1bd 0d44 75bd
00000360: 3006 7fbd 9b90 19be cd05 3e3d 52b7 18bd
00000370: 4403 59be 375e cabe 79d2 95ba 5f5a 43be
00000380: 015d 8dbe f73d 003d a285 6d3c d583 773d
00000390: ec56 28be a80c a8bd a318 043d d44f 15be
000003a0: 8d1d 62bd eec5 053d 1412 13be 64dc 8cbe
000003b0: f8c9 88be df41 b23c 6ab5 1abe 659d 38be
000003c0: c995 8d3a 4e77 8fbc b214 07bc 1bc1 1dbc
000003d0: e17a 73be faa1 51be a16a 60be 803c 053e
000003e0: 3bb0 17bb 133b 33bd 64f6 3a3d cb1e 83be
000003f0: 1359 053c 1d58 01bd 7b3b 39be 071f 50be

output.weight f4 [4, 300]
-0.83596677 -1.2958784 -1.38672 -0.064349994 1.4134881 1.0070035 -0.7023423 -0.52008003
1.2787632 1.7679144 -0.5053015 -0.5208853 0.3461524 -1.533511 1.1062362 -1.0055312
-1.7621168 0.11985319 -1.5208359 1.0627475 -0.8510644 0.45345962 -0.5761799 1.5270238
0.3323757 -0.3854963 1.3403577 0.45909536 1.798864 -1.6138839 0.18824813 1.0824254
0.60593855 -0.8475888 0.7590482 1.526673 -0.59466535 0.83948153 -1.0126708 -0.20328096
-0.697411 0.34920698 0.886391 -0.009951198 1.0054288 0.13487272 0.25166702 1.6684189
1.2653177 1.2525706 -0.73790365 -0.004891895 -1.3223598 0.035759788 -0.121483356 0.3125435
0.06812133 0.7466915 -1.339123 0.4820052 -0.12098555 0.043751385 2.1981606 -0.6403258
-0.19752242 0.11746625 -1.46736 -0.25923017 -0.65844417 -0.6283067 -1.0628403 -0.29282495
-0.52819055 0.5380606 0.76822966 0.23696251 1.5812043 -0.88373804 -1.02695 -0.46125266
-0.123735934 0.59716415 0.1721253 -1.1146368 1.2124007 -0.21625112 1.4682827 1.5303036
-0.20724797 -0.48345363 -0.7551581 -0.6155373 -1.2990098 0.8233029 -0.4560261 -1.0189761
-0.82602906 0.51131177 -0.6476382 0.09260915 -1.3037897 -1.2463222 -1.0771294 -0.40851045
-0.14083253 -0.46457368 0.28016564 0.419085 1.4533385 0.21138315 -0.14225933 0.10043435
-1.0306802 0.9254038 0.021157116 -0.45128447 -1.5954835 0.2929807 0.26141384 -0.85598963
0.50364065 -0.37079498 -0.8250877 0.25834474 -1.1236179 0.55054545 -0.25062826 0.2431856
0.518438 0.5992915 -1.1115173 0.50549495 -1.3980501 -0.5178872 -0.5080382 0.82660645
1.0710906 -0.99468553 -1.283166 -1.2023356 0.48402134 0.9986368 -0.843593 0.24760236
0.8557911 0.37572134 0.15007678 1.7751322 0.6099445 -0.9133813 0.22806835 1.2610286
1.0494426 1.0879837 -0.95761627 1.1371832 1.8946726 -0.75683403 0.9409797 0.8691498
-0.8510641 0.32492182 -0.44975224 0.22368863 2.2013392 0.5811472 0.04068842 -0.6927851
0.8864763 -0.10613577 -1.038777 -0.27571973 0.9225103 -0.33924553 -1.0926633 -0.5131643
0.11770573 -0.1931709 -0.51895475 -1.1158203 1.4835088 0.82990754 -0.18802066 0.41167292
-1.3113627 -1.0194392 0.7359204 0.034640983 -0.4683013 0.49510035 0.23280826 -0.16312937
-0.2761129 1.6996483 0.063831635 -1.7944132 0.2953361 -1.1012036 -1.3399358 0.87568414
0.42908967 -0.5019121 0.14997412 -0.22259535 1.358011 1.2267696 -0.3336234 -0.3012189
-0.90367174 1.1399179 -0.27584818 -0.38064733 -0.85448694 -1.0514873 2.448442 0.0072293235
-1.0501968 -1.3905821 0.730957 -0.72668475 -1.6606052 -1.1222742 1.0151651 -0.9874966
0.6225678 -0.9651533 -1.2833095 1.3962226 1.2735363 -1.600224 0.611459 -1.4233987
1.0287242 1.075786 0.96161157 -1.7007675 -0.9884922 0.846608 1.7860715 0.33335713
1.3643497 0.92345333 -0.3717667 0.21132025 -0.11395437 1.5852551 -1.7030742 1.3497959
0.33999375 0.9807383 -0.6722012 -0.7625834 0.9125915 -0.6755968 -0.07876748 -0.6200805
00000000: eb01 56bf 58df a5bf 0a80 b1bf eec9 83bd
00000010: 2eed b43f 7ee5 803f b4cc 33bf f723 05bf
00000020: 83ae a33f 054b e23f 705b 01bf bd58 05bf
00000030: e33a b13e 174a c4bf 2699 8d3f 3fb5 80bf
00000040: 0b8d e1bf 9775 f53d c0aa c2bf 1c08 883f
00000050: 5bdf 59bf dc2b e83e 8780 13bf 8475 c33f
00000060: 262d aa3e c55f c5be d790 ab3f 8c0e eb3e
00000070: 2d41 e63f bf93 cebf 1ec4 403e ea8c 8a3f
00000080: ca1e 1b3f 94fb 58bf fc50 423f 056a c33f
00000090: fd3b 18bf 43e8 563f 329f 81bf e228 50be
000000a0: 8789 32bf 42cb b23e 85ea 623f 590a 23bc
000000b0: e4b1 803f 131c 0a3e 80da 803e c08e d53f
000000c0: eef5 a13f 3c54 a03f 41e7 3cbf 314c a0bb
000000d0: 1643 a9bf db78 123d 44cc f8bd b405 a03e
000000e0: 3283 8b3d 2d27 3f3f 6268 abbf 63c9 f63e
000000f0: 46c7 f7bd a734 333d aaae 0c40 64ec 23bf
00000100: 5143 4abe 2592 f03d 74d2 bbbf d1b9 84be
00000110: cc8f 28bf b5d8 20bf 270b 88bf 27ed 95be
00000120: 7f37 07bf 57be 093f b3aa 443f 4da6 723e
00000130: e764 ca3f a83c 62bf 1973 83bf 4f29 ecbe
00000140: 4469 fdbd c0df 183f 9d41 303e 6bac 8ebf
00000150: f22f 9b3f ef70 5dbe b0f0 bb3f fde0 c33f
00000160: d038 54be 3c87 f7be 0b52 41bf da93 1dbf
00000170: f445 a6bf fbc3 523f 417c e9be cf6d 82bf
00000180: a476 53bf 54e5 023f 9ecb 25bf dea9 bd3d
00000190: 95e2 a6bf 7c87 9fbf 60df 89bf 4828 d1be
000001a0: 6736 10be 9adc edbe df71 8f3e 4f92 d63e
000001b0: ff06 ba3f d374 583e 6eac 11be 86b0 cd3d
000001c0: 54ed 83bf 43e7 6c3f b051 ad3c c20e e7be
000001d0: ce38 ccbf 9101 963e 09d8 853e 2322 5bbf
000001e0: 98ee 003f d7d8 bdbe f338 53bf c345 843e
000001f0: b6d2 8fbf 8cf0 0c3f 5952 80be a505 793e
00000200: 5ab8 043f 2b6b 193f 3346 8ebf 1e68 013f
00000210: 4ef3 b2bf 4194 04bf cb0e 02bf 7b9c 533f
00000220: 7f19 893f b6a3 7ebf c93e a4bf 22e6 99bf
00000230: a5d1 f73e a9a6 7f3f b6f5 57bf 798b 7d3e
00000240: 2015 5b3f 8c5e c03e baad 193e 8837 e33f
00000250: 5325 1c3f 5bd3 69bf c08a 693e 6369 a13f
00000260: 2354 863f 0d43 8b3f 5726 75bf 388f 913f
00000270: a284 f23f e0bf 41bf 0ce4 703f 9a80 5e3f
00000280: 56df 59bf 275c a63e ed45 e6be a20e 653e
00000290: bee2 0c40 10c6 143f e7a8 263d 5d5a 31bf
000002a0: 1cf0 623f b65d d9bd a5f6 84bf 232b 8dbe
000002b0: a329 6c3f 97b1 adbe 64dc 8bbf bc5e 03bf
000002c0: b40f f13d 98ce 45be 38da 04bf 33d3 8ebf
000002d0: 9ee3 bd3f d274 543f 7d88 40be cbc6 d23e
000002e0: bcda a7bf fc7c 82bf 4865 3c3f b4e3 0d3d
000002f0: 30c5 efbe cb7d fd3e 4a65 6e3e 630b 27be
00000300: ac5e 8dbe 138e d93f 29ba 823d 55af e5bf
00000310: 4b36 973e 3df4 8cbf 0483 abbf d62c 603f
00000320: a4b1 db3e 507d 00bf d192 193e 09f0 63be
00000330: 4ed3 ad3f c906 9d3f b0d0 aabe 5d39 9abe
00000340: 0857 67bf d4e8 913f f93b 8dbe 35e4 c2be
00000350: a8bf 5abf 2397 86bf 46b3 1c40 f6e3 ec3b
00000360: d96c 86bf 98fe b1bf ff1f 3b3f 0308 3abf
00000370: b68e d4bf aea6 8fbf eef0 813f 94cc 7cbf
00000380: 9a60 1f3f 4914 77bf 7c43 a4bf 6cb7 b23f
00000390: 3d03 a33f 24d4 ccbf 9488 1c3f ee31 b6bf
000003a0: 3cad 833f 5bb3 893f 2d2c 763f c0b2 d9bf
000003b0: d30d 7dbf 4dbb 583f fe9d e43f c9ad aa3e
000003c0: 03a3 ae3f 7067 6c3f 3458 bebe 5664 583e
000003d0: e960 e9bd a4e9 ca3f 56fe d9bf 1dc6 ac3f
000003e0: a913 ae3e aa11 7b3f 6115 2cbf aa38 43bf
000003f0: 999f 693f e9f3 2cbf d850 a1bd 98bd 1ebf

output.bias f4 [4]
0.008189661 -0.05401478 0.022603208 -0.088805914
00000000: ee2d 063c 9a3e 5dbd 5d2a b93c e0df b5bd
